output_visualizations/base_tsk[+1]_agm[geo]_spl[S1]_mdl[lenet]_ls[SM]_tu[none]/model.pt (torch, 249415 bytes, 10 tensors)

conv1.weight f4 [6, 1, 5, 5]
0	0x3bfbbd74	0.0076824967
1	0x3e0b5900	0.1360817
2	0xbd591533	-0.052998733
3	0x3e380ad4	0.1797288
4	0x3ba5e081	0.0050621633
5	0xbd0f1a42	-0.03493715
6	0xbdb126b7	-0.086499624
7	0x3e03df90	0.12878251
8	0x3e3c800a	0.18408218
9	0xbd310641	-0.043218855
10	0x3e138481	0.14406015
11	0x3d89796e	0.06712614
12	0x3e27b5da	0.16377965
13	0x3ca33980	0.01992488
14	0x3e2eb16e	0.17059872
15	0xbd359858	-0.04433474
16	0x3e2611da	0.16217747
17	0x3c754f5c	0.014972534
18	0xbe21a1d1	-0.15784384
19	0x3cef5831	0.029216858
20	0xbccf8e7e	-0.0253365
21	0x3d6afe2d	0.057371307
22	0xba97a2b6	-0.0011568877
23	0x3dc20645	0.09473852
24	0xbe28ae85	-0.16472824
25	0xbe0579b3	-0.13034706
26	0xbd243e5f	-0.040098544
27	0x3d421942	0.04738737
28	0x3d328c6d	0.04359095
29	0xbec8b989	-0.39204052
30	0x3e00e906	0.12588891
31	0xbe0ed735	-0.13949282
32	0x3ea09b1a	0.31368333
33	0x3d3a20d5	0.045441467
34	0xbe6a6e2f	-0.22893594
35	0x3d5a9cf5	0.053372342
36	0x3d217c34	0.03942509
37	0x3e8b6622	0.2722636
38	0xbae85b17	-0.0017727342
39	0xbe47f90a	-0.19528595
40	0x3bca0934	0.006165648
41	0xbcabec08	-0.020986572
42	0x3e46e1ee	0.19422123
43	0x3e2eaa09	0.17057051
44	0x3d85feb8	0.06542724
45	0xbd7d5496	-0.061848246
46	0x3e48e19c	0.19617313
47	0x3e2ff420	0.1718297
48	0x3e023ccf	0.12718509
49	0xbe21e915	-0.1581157
50	0xbe77e8ec	-0.24209946
51	0xbe5dd38e	-0.21662733
52	0xbe109e04	-0.14122778
53	0x3e9efaa1	0.3105059
54	0x3e0758dc	0.13217491
55	0xbd005e01	-0.03133965
56	0xbd7ddfd5	-0.06198104
57	0x3cd5a045	0.026077399
58	0x3e69d03c	0.22833341
59	0xbe323741	-0.1740389
60	0xb9a7625e	-0.0003192601
61	0xbdbe365c	-0.09287712
62	0x3e207c8d	0.15672512
63	0xbd640121	-0.05566514
64	0xbb0fae16	-0.0021923832
65	0x3d7123a8	0.058871895
66	0x3e9f2a62	0.31087023
67	0xbd3c7c03	-0.046016704
68	0xbe2ff2a7	-0.17182408
69	0xbe213695	-0.15743478
70	0x3ea0ca0f	0.31404158
71	0x3e3b70ee	0.18304798
72	0x3e12534e	0.1428959
73	0xbe898c96	-0.2686507
74	0xbe75d0e2	-0.24005464
75	0xbecb89d3	-0.3975359
76	0xbebf5550	-0.37369776
77	0xbcb61fb6	-0.022231918
78	0x3e9d84a8	0.3076527
79	0x3eb45937	0.35224316
80	0xbeccd04d	-0.4000267
81	0xbeca4a58	-0.39509845
82	0x3e11d010	0.14239526
83	0x3e72551c	0.23665279
84	0x3e833a31	0.25630334
85	0xbe8be46b	-0.27322707
86	0x3c40c817	0.011766455
87	0x3d2df1dc	0.042466983
88	0x3e0ebe40	0.13939762
89	0x3d9c6867	0.07637101
90	0xbd4184c2	-0.04724575
91	0x3cb7aaf6	0.022420388
92	0x3e8d1bd9	0.2756031
93	0x3e12f0ca	0.14349666
94	0xbe4deebd	-0.20110603
95	0x3dafa40b	0.085762106
96	0x3ebbe77c	0.36700046
97	0x3cc3e93a	0.023914922
98	0xbdab5792	-0.08366312
99	0xbe1b14c9	-0.15144648
100	0x3d949f69	0.072569676
101	0x3dc67120	0.09689546
102	0xbd915693	-0.07096591
103	0xbe69ba65	-0.2282501
104	0xbe00cc0d	-0.12577839
105	0xbe53d807	-0.20687877
106	0xbef6fd5a	-0.48240167
107	0xbef03b65	-0.46920314
108	0xbf11ad4e	-0.56905067
109	0xbea3d756	-0.32000226
110	0x3d84acad	0.06478248
111	0xbebcc730	-0.36870718
112	0xbeb7b874	-0.35882914
113	0xbf193c1a	-0.5985733
114	0xbe864526	-0.2622463
115	0xbe65b1e5	-0.22431143
116	0xbed6136d	-0.41811696
117	0xbf2d2617	-0.67636245
118	0xbeefbaba	-0.4682215
119	0xbdb0fb94	-0.08641735
120	0xbd3e57cc	-0.04647045
121	0xbe83d248	-0.2574637
122	0xbe6f41aa	-0.23364893
123	0xbe7977d9	-0.24362125
124	0x3cee241a	0.029069949
125	0xbe9c7161	-0.3055525
126	0xbe1649d6	-0.14676604
127	0xbdbdb038	-0.09262127
128	0x3d2357dc	0.03987871
129	0xbdf6c1bf	-0.12048673
130	0x3c095372	0.008381711
131	0xbd29693e	-0.041360132
132	0xbe414609	-0.18874373
133	0xbd330d33	-0.04371376
134	0xbe433cfd	-0.19066234
135	0xbe07758b	-0.13228433
136	0xbe4a6fad	-0.19769163
137	0xbe7d9afc	-0.24766153
138	0xbdd3bc9d	-0.103387095
139	0xbe1f6fa8	-0.15569937
140	0x3e75b714	0.2399562
141	0x3d1d0bfc	0.038341507
142	0x3e84abc3	0.25912294
143	0xbe071e39	-0.13195123
144	0x3c18e0c6	0.009330934
145	0x3e8cbda3	0.2748843
146	0x3ed33a91	0.4125562
147	0x3ed7b54d	0.4213051
148	0x3ec77fe3	0.38964757
149	0x3d31ca25	0.04340567

conv1.bias f4 [6]
0	0xbd9b1d35	-0.0757393
1	0xbe39eb69	-0.18156208
2	0x3b95b6ac	0.0045688953
3	0xbc488760	-0.012239307
4	0x3eba6d50	0.36411524
5	0xbd414cf5	-0.047192533

conv2.weight f4 [16, 6, 5, 5]
0	0x3dcd5317	0.10025614
1	0x3cf2d866	0.029644202
2	0xbd7acc57	-0.06123003
3	0xbe19d246	-0.15021619
4	0xbd16bde4	-0.036802188
5	0x3dbf936d	0.09354291
6	0x3d37693c	0.044778094
7	0xbe00f79f	-0.1259446
8	0xbd8c26ec	-0.06843361
9	0xbe012829	-0.12612976
10	0x3da363e1	0.07978035
11	0x3e13c585	0.14430816
12	0xbc81b66e	-0.01583406
13	0xbe1500d3	-0.14551096
14	0xbe12cff7	-0.14337145
15	0x3e12d625	0.14339502
16	0x3e18697c	0.14883989
17	0xbd5e2e22	-0.054243214
18	0xbe161eb2	-0.14660147
19	0xbe0264e9	-0.12733807
20	0x3de8106a	0.11331256
21	0x3e1a27a9	0.15054192
22	0x3cb56d55	0.02214686
23	0xbe36bcf2	-0.17845514
24	0xbd9b54a2	-0.07584502
25	0x3e0c40f2	0.1369665
26	0xbc8bf61d	-0.01708513
27	0xbe24ab51	-0.16080977
28	0xbd969a43	-0.07353642
29	0xbc830ea4	-0.015998192
30	0x3eb39b35	0.3507935
31	0x3e1b7080	0.15179634
32	0xbcc7de09	-0.024397867
33	0xbc63e7c2	-0.013910236
34	0xbd5801dc	-0.05273615
35	0x3eb7cb66	0.35897368
36	0x3e658afd	0.22416301
37	0xbc84baf9	-0.016202437
38	0xbdbdda60	-0.09270167
39	0xbd90b3eb	-0.07065567
40	0x3ec378b5	0.3817803
41	0x3e400756	0.18752798
42	0xbddabf0b	-0.1068097
43	0xbd840f4b	-0.064482294
44	0xbd82c81d	-0.06385825
45	0x3e88e435	0.26736608
46	0x3e30f913	0.17282514
47	0xbe710af5	-0.23539336
48	0xbde3c1d6	-0.11120956
49	0xbcf2cfe9	-0.029640155
50	0x3e8ab908	0.27094293
51	0x3e4bfc95	0.19920571
52	0x3dbcfe49	0.092281885
53	0x3e100837	0.14065634
54	0x3db9e2b9	0.09076447
55	0x3ead7a3f	0.3388233
56	0x3e38fa61	0.18064262
57	0x3e52f08b	0.20599572
58	0x3e30b94c	0.17258185
59	0x3df4ed9e	0.119593844
60	0x3e82969b	0.25505528
61	0x3de159a3	0.11003425
62	0x3ec2f054	0.3807398
63	0x3e60720f	0.2191851
64	0x3de0718d	0.10959158
65	0x3e138481	0.14406015
66	0x3db48d9e	0.08816074
67	0x3ebd6785	0.36993042
68	0x3e1b5f5e	0.15173098
69	0x3e2d5063	0.16925196
70	0x3ddc3f1a	0.10754223
71	0x3e4cb73e	0.19991776
72	0x3e5c50ec	0.21515244
73	0x3d1743f6	0.036930047
74	0x3ccaed9f	0.02477151
75	0x3e896b44	0.2683965
76	0x3da6dd4e	0.08147679
77	0x3ce8cee7	0.028418971
78	0x3cb14e5e	0.021643814
79	0x3d8f572a	0.06999047
80	0x3e164614	0.1467517
81	0xbe31d47b	-0.17366211
82	0x3d3d5e37	0.04623243
83	0xbd01cdf7	-0.031690564
84	0x3d3b5778	0.045737714
85	0x3e1121f2	0.14173105
86	0xbe91e622	-0.2849589
87	0xbb475750	-0.0030417033
88	0x3d8ceacf	0.06880724
89	0x3d7dcd83	0.06196357
90	0xbcbf762e	-0.023371782
91	0xbec6a9fc	-0.38801563
92	0xbd8087f4	-0.06275931
93	0x3e04a4e4	0.12953526
94	0x3d44232a	0.047885098
95	0xbd3a0481	-0.04541445
96	0xbed10d4f	-0.40830466
97	0xbe2442d0	-0.16041112
98	0x3d40c28c	0.047060534
99	0x3d80e7e1	0.062942274
100	0xbe8ba3b4	-0.27273333
101	0xbe434548	-0.19069397
102	0x3dffa280	0.12482166
103	0x3d4b2bff	0.049602505
104	0x3c56a9cc	0.013102006
105	0xbf0ed46d	-0.55792886
106	0x3dab969a	0.08378334
107	0x3dbe7a65	0.09300689
108	0x3d40a9f9	0.0470371
109	0x3d1da34d	0.038485814
110	0xbee3f1ed	-0.44520512
111	0x3d89d0d1	0.06729282
112	0x3d7f0edf	0.06227004
113	0xbcff5527	-0.031168533
114	0x3c63a488	0.013894208
115	0xbf035804	-0.51306176
116	0x3cd00cbb	0.025396695
117	0x3e0b43ce	0.13600084
118	0x3e2631c8	0.16229928
119	0x3d866435	0.06562082
120	0xbefbee39	-0.49205187
121	0xbd45704a	-0.04820279
122	0x3e35c85b	0.17752211
123	0x3db3bff4	0.087768465
124	0x3de5777e	0.11204432
125	0xbec0da98	-0.37666774
126	0xbe1c1c4e	-0.15245172
127	0x3e0020b3	0.12512474
128	0x3dea3f34	0.11437836
129	0x3cb26a05	0.02177907
130	0xbf07a75d	-0.5298975
131	0xbe3a6ba2	-0.18205121
132	0x3e09bad6	0.13450179
133	0x3dd16d71	0.102259524
134	0x3d27efc7	0.041000154
135	0xbf0154f4	-0.50520253
136	0xbe50647d	-0.20350833
137	0x3d6977b5	0.056998927
138	0x3e35819f	0.17725228
139	0x3ddbcd65	0.10732535
140	0xbeaef36a	-0.34170085
141	0xbda8f7d0	-0.082503915
142	0x3d24aa71	0.040201608
143	0x3d5c4e72	0.05378575
144	0x3ddacbe7	0.106834225
145	0xbe52a065	-0.20568998
146	0x3e0c8761	0.13723518
147	0x3db6febf	0.08935308
148	0xbd8f3776	-0.06993
149	0x3d810285	0.06299309
150	0xbc244168	-0.01002536
151	0xbcfd252f	-0.03090152
152	0xbdbf5ac5	-0.09343485
153	0xbd8aff03	-0.06786921
154	0x3d0fc099	0.035095785
155	0x3d987a55	0.07445208
156	0xbd8b33bf	-0.06796979
157	0x3d7996be	0.060934775
158	0x3dab823b	0.08374449
159	0x3c8d9748	0.01728405
160	0x3db2d010	0.08731091
161	0x3e040b80	0.12895012
162	0x3d0d775e	0.034537666
163	0x3c90baeb	0.017667254
164	0xbdba0662	-0.09083249
165	0xbc728440	-0.014802039
166	0x3ce642fe	0.028108116
167	0x3d19ebc2	0.03757835
168	0xbd8fb125	-0.070162095
169	0xbdd00e4a	-0.101589754
170	0xbd86d497	-0.06583517
171	0xbe135ce5	-0.14390905
172	0xbd93a6e4	-0.07209566
173	0xbaf53326	-0.001870726
174	0x3dbc7f1c	0.09203932
175	0x3bcea076	0.0063057495
176	0xbaa27fb4	-0.0012397678
177	0xbdd361f5	-0.10321418
178	0xbe063730	-0.1310699
179	0xbda153d8	-0.0787732
180	0x3d89876d	0.067152835
181	0x3e731033	0.23736648
182	0x3d78a645	0.060705442
183	0xbcb63f7c	-0.022247069
184	0x3c89eb51	0.01683584
185	0xbca86e8e	-0.02056053
186	0xbb81fb57	-0.0039667296
187	0x3d477387	0.04869416
188	0x3c607a60	0.0137010515
189	0xb9d2b540	-0.00040189363
190	0x3dc8eea1	0.0981114
191	0xbc9d5b13	-0.019208467
192	0xbc7e1256	-0.015507301
193	0x3e1d44a9	0.15358223
194	0x3e191ee3	0.14953189
195	0xbd8d40db	-0.06897136
196	0x3dc15fe3	0.09442117
197	0x3b1fc425	0.0024378386
198	0xbcbb5682	-0.022868399
199	0x3e11b998	0.14230955
200	0x3df2e3e2	0.118598714
201	0xbe4f4b97	-0.20243679
202	0x3d63cf09	0.055617366
203	0x3e8ae8ef	0.2713084
204	0x3e53277c	0.20620531
205	0xbd822ebf	-0.06356572
206	0xbd9daf1b	-0.07699414
207	0x3edee718	0.43535686
208	0x3f2ec5f6	0.68270814
209	0x3eb76554	0.35819495
210	0x3f13a3f0	0.57672024
211	0x3ea6d939	0.32587603
212	0x3ccc7378	0.024957404
213	0x3edd3fcd	0.4321274
214	0x3ec98338	0.39357924
215	0x3f1283fe	0.57232654
216	0x3d921e8b	0.07134732
217	0xbba0072a	-0.0048836665
218	0xbe05062e	-0.12990639
219	0x3e3d7f3a	0.18505564
220	0x3d274c10	0.040844023
221	0xbe3049e7	-0.17215692
222	0x3e19b766	0.15011367
223	0xbccc9494	-0.024973191
224	0x3d8b56de	0.06803678
225	0xbe4d348e	-0.2003958
226	0xbe27612e	-0.16345665
227	0xbd2d3336	-0.042285167
228	0x3d527c3f	0.05138802
229	0x3e311876	0.17294487
230	0xbe790231	-0.24317242
231	0xbd608d3b	-0.054822188
232	0x3e062570	0.13100219
233	0x3e322f8b	0.17400949
234	0xbd00725a	-0.031359054
235	0x3e7a5d3d	0.2444963
236	0x3e991526	0.29898947
237	0xbd97f635	-0.07420007
238	0xbda662c1	-0.081243046
239	0xbd9a7c8a	-0.07543285
240	0x3e083598	0.13301694
241	0x3c0d9efe	0.008643864
242	0x3db0d0d0	0.08633578
243	0xbe46ea62	-0.19425347
244	0xbcc48bb8	-0.023992404
245	0xbd94b0b0	-0.07260263
246	0xbdba94b0	-0.09110391
247	0x3e1daf35	0.15398867
248	0x3e4063c0	0.18788052
249	0x3db54f7f	0.08853053
250	0xbe1892ac	-0.14899701
251	0x3e1f8029	0.15576233
252	0x3e6e3255	0.23261388
253	0x3e8f8825	0.28033558
254	0xbd6340cf	-0.05548173
255	0xbe70ecf1	-0.23527886

conv2.bias f4 [16]
0	0xbd04325f	-0.0322746
1	0xbc9e51bc	-0.019326083
2	0x3c3f3905	0.011671309
3	0xbc4b8ed4	-0.01242419
4	0xbe4bac66	-0.19889984
5	0x3de6f1da	0.11276598
6	0x3c8e19dd	0.017346317
7	0xbe663257	-0.2248014
8	0xbd31d62f	-0.043417152
9	0xbb59fb02	-0.0033261185
10	0xbcd2651b	-0.025682976
11	0xbd8d654a	-0.06904085
12	0xbd9be42e	-0.07611881
13	0xbf1a77eb	-0.6033923
14	0xbe39bd36	-0.18138584
15	0x3d17835f	0.03699052

fc1.weight f4 [120, 400]
0	0x3e503142	0.2033129
1	0x3e85e5ba	0.2615183
2	0x3e84d93c	0.25946987
3	0x3d7e7914	0.062127188
4	0xbdb0e2ec	-0.08637032
5	0x3d492d14	0.049115255
6	0x3d2dcb9b	0.0424305
7	0x3cfa2db3	0.03053937
8	0x3dc59229	0.096470185
9	0x3cf79534	0.030222513
10	0x3d07241c	0.03299342
11	0xbd5c4c87	-0.05378392
12	0xbdab7369	-0.08371622
13	0x3b9f0364	0.004852699
14	0xbae25a38	-0.0017269319
15	0xbc3de160	-0.011589378
16	0x3b467972	0.003028479
17	0xbdd9b0ec	-0.10629448
18	0xbc433f79	-0.0119169885
19	0xbd218f9f	-0.03944361
20	0x3e430b95	0.19047387
21	0x3cc7aebd	0.024375314
22	0xbdb54e07	-0.08852773
23	0x3c676120	0.0141222775
24	0xbd1b6f0e	-0.037947707
25	0x3d1b2c7d	0.037884224
26	0x3e509fa1	0.20373394
27	0x3dea30f1	0.11435116
28	0x3d194798	0.037421793
29	0xbe859379	-0.26089075
30	0x3e7dc306	0.24781427
31	0x3ec460fa	0.38355237
32	0x3e7cc48b	0.2468435
33	0x3e580147	0.21094237
34	0xbd410121	-0.047120217
35	0x3e4adab6	0.19809994
36	0x3e8f28a5	0.27960697
37	0x3e9da2d7	0.307883
38	0x3eaaa0bb	0.33325753
39	0x3d6017fc	0.054710373
40	0x3e6755e9	0.22591366
41	0x3e81f922	0.25385386
42	0x3eaa20e9	0.33228233
43	0x3e839287	0.2569773
44	0x3c842b4f	0.016133932
45	0x3e019ed2	0.12658241
46	0x3e837eba	0.25682622
47	0x3e2d5717	0.16927753
48	0x3d35df9e	0.04440271
49	0xbe5ba47f	-0.21449469
50	0xbd56f8b6	-0.052483283
51	0x3c6078b6	0.013700655
52	0x3d7707b0	0.060310066
53	0x3d81107c	0.06301972
54	0xbe080bcc	-0.1328575
55	0xbd364892	-0.044502802
56	0x3d04ac9c	0.032391176
57	0x3e07b73f	0.13253497
58	0x3e032ca5	0.1281
59	0xbd3bd0c0	-0.045853376
60	0xbd0df513	-0.03465755
61	0x3dc6feae	0.09716545
62	0x3e81114b	0.25208506
63	0x3e493cc9	0.19652094
64	0x3e0e4e06	0.13896951
65	0xbd8c72dc	-0.06857845
66	0xbd4960a6	-0.049164437
67	0x3e038f05	0.12847526
68	0x3e052409	0.13002028
69	0x3c55d814	0.013052005
70	0xbd4bc13e	-0.049744837
71	0xbdb39d8a	-0.087702826
72	0x3d7664d7	0.060154762
73	0x3e651305	0.22370537
74	0xbd69bf5e	-0.057067268
75	0xbd768c0c	-0.060192153
76	0x3e11f0bb	0.14251988
77	0x3e2c4462	0.16822961
78	0x3cba7767	0.022762014
79	0xbdd53ef9	-0.10412402
80	0x3e510533	0.2041214
81	0x3e8cb277	0.27479908
82	0x3e0ec9bf	0.13944148
83	0x3d3aa659	0.045568798
84	0x3d4dafb1	0.05021638
85	0x3e0ba2b0	0.13636279
86	0x3d8e2fd5	0.06942717
87	0x3cf6f6a8	0.030146912
88	0x3db072e6	0.08615665
89	0x3d91fdea	0.071285084
90	0xbc8d70cb	-0.017265698
91	0xbcf9c62f	-0.03049001
92	0xbd1e5256	-0.03865274
93	0x3cb0336d	0.021508897
94	0x3db03590	0.08603966
95	0x3d30e177	0.04318377
96	0x3db9f500	0.09079933
97	0x3eae29a0	0.34016132
98	0x3eacba5a	0.33735925
99	0x3ecc8f7b	0.39953217
100	0x3bd83a54	0.00659875
101	0x3d1d567b	0.038412552
102	0xbcdb35dd	-0.026759082
103	0xbd9fa38a	-0.077948645
104	0xbde00d88	-0.10940081
105	0xbc9c6180	-0.01908946
106	0x3d85ae90	0.06527436
107	0xbcc0a8d5	-0.023518005
108	0xbd3d89a3	-0.04627384
109	0xbe2e2ec4	-0.17010027
110	0xbd558a32	-0.052133746
111	0xbd453c2d	-0.04815309
112	0xbd8f051b	-0.06983396
113	0xbd410a25	-0.047128815
114	0xbdd3210e	-0.10309039
115	0x3d7bd07a	0.061478116
116	0x3d618f8e	0.055068545
117	0x3c09e46d	0.008416277
118	0xbd41f78b	-0.047355216
119	0xbdcf66e3	-0.10127046
120	0x3e4062bd	0.18787666
121	0x3e9c5643	0.30534562
122	0x3e113afe	0.1418266
123	0xbdf621d4	-0.12018171
124	0xbe23fdd9	-0.16014804
125	0xbdbea533	-0.09308853
126	0x3dc8f355	0.09812037
127	0x3de3e249	0.11127145
128	0x3debdf7a	0.11517234
129	0xbcb86718	-0.022510096
130	0xbdf3e0c8	-0.11908108
131	0x3dc5b2ff	0.096532814
132	0x3e06c7aa	0.13162103
133	0x3e240bc9	0.1602012
134	0x3e7561c4	0.23963076
135	0xbe89c893	-0.26910838
136	0xbbe5e4b1	-0.0070157875
137	0x3e319d32	0.17345122
138	0x3e5b845f	0.21437214
139	0x3e22e0e9	0.15906109
140	0xbebec086	-0.3725626
141	0xbdc54a7d	-0.09633348
142	0x3dcdd2b9	0.10049958
143	0x3d245d51	0.040128056
144	0x3e71b9b3	0.23605995
145	0xbe2aec66	-0.16691741
146	0x3bd28c09	0.006425385
147	0x3e172b21	0.14762546
148	0x3eb2f929	0.3495572
149	0x3eee81be	0.4658336
150	0x3dee35cc	0.11631355
151	0x3dd8e9ee	0.105914935
152	0x3c3cac76	0.011515727
153	0x3db86a0b	0.09004601
154	0xbcc16937	-0.02360974
155	0x3ce54376	0.02798627
156	0x3d496bdb	0.049175125
157	0x3c209908	0.0098021105
158	0x3e5e8ed9	0.2173418
159	0x3e0845aa	0.13307825
160	0xbdd768df	-0.105180494
161	0xbd999ad9	-0.07500238
162	0xbde95828	-0.113937676
163	0x3dc9a045	0.09845022
164	0x3e5b224e	0.21399805
165	0xbe0934f4	-0.13399106
166	0xbe4ea51e	-0.20180175
167	0xbebd14d8	-0.36929965
168	0x3c184412	0.009293573
169	0x3cedf72c	0.029048525
170	0x3cbd0022	0.023071352
171	0xbe20dbca	-0.15708843
172	0xbe9782e2	-0.29592043
173	0x3d3f0a70	0.046640813
174	0x3e5f0ac2	0.21781448
175	0xbb5e0834	-0.00338794
176	0x3db46fb8	0.08810371
177	0x3e7fbeed	0.24975176
178	0x3e878f13	0.26476344
179	0x3eacc84a	0.33746558
180	0xbdd27d8f	-0.10277855
181	0x3d45fae9	0.04833499
182	0x3e2b7466	0.16743621
183	0x3e8449ae	0.25837463
184	0x3f005fd1	0.50146204
185	0xbe2bc0a5	-0.16772707
186	0x3e20cade	0.15702388
187	0x3e4e64c5	0.20155628
188	0x3eaec4d2	0.34134537
189	0x3f1df7fc	0.6170652
190	0xbe6d7b20	-0.231915
191	0x3dfbe37f	0.12299251
192	0x3e51bf39	0.20483102
193	0x3e8c43aa	0.27395374
194	0x3ed173c5	0.40908638
195	0xbd218b6a	-0.039439596
196	0x3e0e5c79	0.13902463
197	0x3e94deb8	0.2907617
198	0x3e6ac6d0	0.22927403
199	0x3eb21bcd	0.34786835
200	0xbdc5afe1	-0.09652687
201	0xbe31f6f9	-0.17379369
202	0xbe286ccc	-0.16447753
203	0xbde58f49	-0.1120897
204	0xbdbd04f1	-0.09229458
205	0xbdb38f9b	-0.08767625
206	0xbe93675f	-0.28789803
207	0xbe9fca3c	-0.3120898
208	0xbe17c2ca	-0.148204
209	0xbd18a452	-0.037266083
210	0xbd91bf08	-0.071165144
211	0xbebeb637	-0.37248394
212	0xbe942849	-0.28936985
213	0xbd88f206	-0.06686787
214	0xbcff56e8	-0.03116937
215	0xbdc2fcf4	-0.09520903
216	0xbeb92a3d	-0.36165038
217	0xbe552d53	-0.20818071
218	0xbe17c83a	-0.14822474
219	0xbd7e91ba	-0.062150694
220	0xbc512e8f	-0.012767448
221	0xbe84006e	-0.25781578
222	0x3dcad9b7	0.09904807
223	0x3d64a952	0.05582554
224	0xbdcfee2b	-0.10152849
225	0xbd8f67a5	-0.070021905
226	0xbdf9166e	-0.12162481
227	0xbd590e24	-0.052992
228	0x3ce01031	0.02735147
229	0x3d810b61	0.063009985
230	0xbd6bcc26	-0.057567738
231	0xbe19ee42	-0.15032294
232	0x3bee6134	0.007274771
233	0x3cf5e9c6	0.030018698
234	0x3df6dd99	0.12053985
235	0xbe34ebc2	-0.1766806
236	0xbd7b1f5b	-0.0613092
237	0x3c8c98fe	0.017162796
238	0x3d775f23	0.060393464
239	0x3da3bb28	0.079946816
240	0xbe7e9ff4	-0.24865705
241	0xbe1cccf3	-0.15312557
242	0xbdd36e17	-0.10323732
243	0xbd95baf4	-0.07311049
244	0x3d4e475f	0.050361034
245	0xbe7653d1	-0.24055411
246	0xbe7d11dc	-0.24713844
247	0xbe074c15	-0.13212617
248	0xbd86ae40	-0.06576204
249	0x3d0ff700	0.035147667
250	0xbd605b1a	-0.05477438
251	0xbe121f83	-0.14269833
252	0xbe5d10fd	-0.21588512
253	0xbe895eed	-0.26830235
254	0xbe78e139	-0.24304666
255	0xbcca98d2	-0.024731074

fc1.bias f4 [120]
0	0xbdc17443	-0.09446003
1	0x3e1a0216	0.15039858
2	0xbce12eb4	-0.02748809
3	0xbc4d33d3	-0.012524563
4	0xbc093a55	-0.008375724
5	0xbb6dcc96	-0.0036285273
6	0xbc7a1ccd	-0.015265656
7	0xbdeb8a02	-0.11500932
8	0xbc12de90	-0.008964196
9	0xbe0115fc	-0.12606043
10	0x3c1d2c79	0.009593123
11	0xbc2f8693	-0.010713237
12	0xbd0cb962	-0.034356482
13	0x3cf1a8a7	0.029499365
14	0xbda47bcb	-0.08031424
15	0x3c26281d	0.0101414
16	0x3dea39e1	0.11436821
17	0xbdc9acbc	-0.098473996
18	0x3e59ab35	0.21256717
19	0xbd8d62c8	-0.06903607
20	0xbd9a54d3	-0.0753571
21	0xbda9efeb	-0.08297714
22	0xbc820543	-0.01587165
23	0x3c83cc71	0.016088696
24	0xbcdba0b5	-0.02681003
25	0x3c755dcf	0.014975979
26	0x3d35f56b	0.044423502
27	0x3c3260c6	0.01088733
28	0xb9730eb5	-0.00023179765
29	0xbdbe9f81	-0.09307767
30	0x3c8d8691	0.01727608
31	0xbc83cc3c	-0.016088597
32	0xbd57b0b6	-0.05265876
33	0x3e960459	0.29300192
34	0xbd18d3af	-0.037311252
35	0x3e844f20	0.25841618
36	0xbe4ff240	-0.20307255
37	0x3de77f59	0.113035865
38	0xbe233d97	-0.15941463
39	0xbba5feeb	-0.005065789
40	0xbd996acb	-0.07491072
41	0x3e51079d	0.2041306
42	0x3c0c6260	0.008568376
43	0xba0e448a	-0.0005427083
44	0x3e78361a	0.24239388
45	0xbd21bc76	-0.03948637
46	0xbdcb247f	-0.099190705
47	0xbd6ef9f1	-0.05834383
48	0xbd8ffe1a	-0.07030888
49	0x3e3ae8a7	0.18252812
50	0x3c71d91b	0.014761235
51	0xbd726e05	-0.059186954
52	0x3e6a1b5a	0.22861996
53	0x3e6267f0	0.22109962
54	0xbd8a9617	-0.067669086
55	0x3d4997f2	0.049217172
56	0x3e996770	0.2996173
57	0x3dce3621	0.10068918
58	0xb9a6e36f	-0.00031831439
59	0xbcdfa1be	-0.027298804
60	0xbcec46b2	-0.028842304
61	0xbe1cb22a	-0.15302339
62	0xbc487c0a	-0.0122366045
63	0x3e63a2bd	0.22230048
64	0xbd0bb7c5	-0.034110803
65	0xbdb34937	-0.08754199
66	0xbe21ac4e	-0.15788385
67	0xbd0837f3	-0.033256482
68	0x3e9523f1	0.29128984
69	0xbc3765b2	-0.01119368
70	0x3db62deb	0.08895477
71	0x3c800033	0.015625095
72	0x3c2f19af	0.010687276
73	0xbda7316d	-0.08163724
74	0xbd686ca8	-0.056744248
75	0xba04c3e8	-0.00050645927
76	0x3e0f4976	0.13992867
77	0xbd386855	-0.045021374
78	0x3d8f1bbc	0.06987712
79	0xbc0c0e77	-0.008548371
80	0xbe0fb83e	-0.14035127
81	0x3e845275	0.2584416
82	0xbc889de8	-0.016676858
83	0xbd6ae25c	-0.05734478
84	0x3eb980c9	0.36231068
85	0xbe61ff9d	-0.22070165
86	0xbd08053d	-0.03320812
87	0xbb61e93e	-0.0034471299
88	0xbd9d8800	-0.076919556
89	0xbd7d5ae4	-0.06185426
90	0xbbae8a70	-0.0053265616
91	0x3d6377aa	0.055534042
92	0xbd614da0	-0.05500567
93	0x3e61c23f	0.22046755
94	0xbcac0b06	-0.02100135
95	0xbca0690e	-0.019581344
96	0xbd23c49f	-0.039982434
97	0xbd69ecde	-0.05711066
98	0xbd09aa5e	-0.03360974
99	0x3e54e2ed	0.2078969
100	0xbc153ffb	-0.009109492
101	0xbdade622	-0.0849116
102	0xbb82619b	-0.0039789206
103	0x3d0a2abc	0.03373216
104	0xbd6090a6	-0.054825447
105	0x3cd6a67e	0.026202437
106	0xbd2ff6ba	-0.042959906
107	0xbc6402b3	-0.013916659
108	0xbd91c24e	-0.07117139
109	0xbd1a383c	-0.037651286
110	0xbd33bdf1	-0.043882314
111	0x3ca78c0c	0.020452522
112	0x3cfadc5e	0.030622657
113	0xbdd1bdf0	-0.10241306
114	0xbb97ebf6	-0.004636283
115	0xba6aef60	-0.0008962061
116	0xbd2358bd	-0.03987955
117	0x3d7350a9	0.059403095
118	0xbdb51ba2	-0.08843161
119	0x3ca762ac	0.020432793

fc2.weight f4 [84, 120]
0	0xbcee0b1c	-0.029058032
1	0xbcd2be31	-0.025725456
2	0xbc07cb58	-0.008288227
3	0x3da42026	0.08013944
4	0x3cf47edc	0.029845648
5	0xbd8c09eb	-0.06837829
6	0xbd83ec5e	-0.06441568
7	0xbbe553ef	-0.006998531
8	0x3d64a870	0.055824697
9	0xbdeb94a9	-0.11502964
10	0x3d091d7e	0.03347539
11	0xbd26e00b	-0.040741008
12	0x3d0d93ac	0.03456466
13	0xbd9badff	-0.076015465
14	0x3d3c2cd3	0.045941185
15	0x3daee74a	0.08540209
16	0xbd824dd2	-0.06362499
17	0xbda559d6	-0.080737755
18	0x3ad21ec9	0.0016030903
19	0x3d913c5d	0.070915915
20	0x3d240910	0.040047705
21	0xbd364b00	-0.04450512
22	0x3d1e1dfb	0.03860281
23	0xbdb9094e	-0.09034978
24	0x3d9bf07a	0.07614227
25	0xbd06b621	-0.032888535
26	0xbd2c055a	-0.04199729
27	0xb92a4600	-0.0001623854
28	0xbccebcfc	-0.0252366
29	0xbd2ed3cf	-0.042682465
30	0x3cb83658	0.02248685
31	0xbc4d8a85	-0.012545233
32	0x3c2d4fa0	0.010578066
33	0x3df4aba2	0.11946799
34	0xbd0da7b0	-0.034583747
35	0xbd5d3ff9	-0.054016087
36	0xbe00ff30	-0.12597346
37	0x3d8dba5e	0.06920312
38	0xbdf71a5d	-0.12065575
39	0x3d3ca698	0.046057314
40	0xbd832472	-0.06403436
41	0xbd146ddf	-0.036237594
42	0x3c6befb0	0.014400408
43	0x3d8e0fb0	0.06936586
44	0xbd891317	-0.06693094
45	0x3b891571	0.004183464
46	0xbe102ccf	-0.14079593
47	0x3cea89ca	0.028630156
48	0xbcd400b0	-0.025879234
49	0xbd84a1b0	-0.06476152
50	0xbd90de7d	-0.07073686
51	0xbdc0a54e	-0.09406529
52	0xbdb34889	-0.08754069
53	0xbc8bf801	-0.01708603
54	0xbde4a2c0	-0.111638546
55	0xbd9f3308	-0.07773405
56	0xbd3a8272	-0.04553456
57	0xbb91e069	-0.0044518006
58	0xbcd69d4c	-0.026198052
59	0x3b5c9a97	0.0033661479
60	0x3d63e254	0.055635765
61	0xbdef983a	-0.11698957
62	0xbc7de590	-0.0154966265
63	0xbdc3027c	-0.09521958
64	0x3d32fb10	0.043696463
65	0xbca2f3b0	-0.01989159
66	0xbd0bee0c	-0.034162566
67	0x3cf6611c	0.030075602
68	0x3d8f427b	0.06995102
69	0xbc152350	-0.009102657
70	0xbd45b63d	-0.0482695
71	0x3d461a6d	0.048365045
72	0xbd531b3e	-0.051539652
73	0x3c88fd54	0.016722359
74	0x3c13cc70	0.00902091
75	0xbd94ce4b	-0.0726591
76	0x3cbaebc1	0.022817494
77	0xbd9a9680	-0.07548237
78	0x3c209fb8	0.009803705
79	0x3d3615b4	0.04445429
80	0x3c18f832	0.009336518
81	0xbc3c33a3	-0.0114869205
82	0x3d8344b6	0.0640959
83	0x3d4f55a1	0.05061877
84	0x3c0531d6	0.008129558
85	0xbded71dc	-0.115939826
86	0xbb8d72f0	-0.00431668
87	0xba00ef00	-0.0004918426
88	0xbdf73c02	-0.120719925
89	0xbbb950a0	-0.005655363
90	0xbd67e2d9	-0.056612823
91	0xbe1c5a24	-0.15268761
92	0x3d72e2a8	0.059298187
93	0x3d55fecf	0.052244958
94	0xbd15f2f1	-0.03660864
95	0x3da9ac38	0.08284801
96	0x3b97fd20	0.004638329
97	0x3ba53780	0.0050420165
98	0x3c3824f0	0.011239275
99	0xbdd48b11	-0.10378087
100	0xbda3056a	-0.07960017
101	0xbce442a4	-0.027863808
102	0xbd0a40dc	-0.03375326
103	0x3d5268fb	0.05136965
104	0x3b1ee1c0	0.0024243444
105	0xbc668495	-0.014069696
106	0x3db4f958	0.08836621
107	0xbd20662d	-0.039159942
108	0xbc497890	-0.012296811
109	0xbdb092ed	-0.08621774
110	0xbdfe8338	-0.12427372
111	0x3caaac50	0.020834118
112	0x3d8cab51	0.068686135
113	0x3cfd1de0	0.030898035
114	0xbdc27d54	-0.09496561
115	0x3d721010	0.05909735
116	0xbdaab811	-0.08335889
117	0xbd9146cb	-0.07093581
118	0x3d155ebb	0.036467295
119	0xbd4b579b	-0.049644094
120	0xbe445283	-0.191721
121	0x3caaa94b	0.020832678
122	0xbcf47dfc	-0.02984523
123	0x3d4edad5	0.050501663
124	0xbc581f9e	-0.013191132
125	0xbda1e1c7	-0.07904392
126	0xbc2bdcff	-0.010489701
127	0x3a2cacd9	0.00065870356
128	0xb9839aa9	-0.00025101498
129	0xbe69c2b9	-0.22828187
130	0xbdacc6c6	-0.084363505
131	0xbd0ad599	-0.03389511
132	0xbdaada22	-0.08342387
133	0xbbe7e746	-0.0070771305
134	0xbda65e54	-0.081234604
135	0xbc038e5f	-0.008029549
136	0x3d1b776c	0.037955686
137	0xbdad50a9	-0.0846265
138	0x3e4944c2	0.19655135
139	0xbe6e4421	-0.23268177
140	0x3d3520e4	0.04422082
141	0x3d079bc0	0.03310752
142	0x3d4199ec	0.047265932
143	0x3ea73f1c	0.32665336
144	0xbdf19b4c	-0.11797199
145	0x3d7b1178	0.061295956
146	0x3e2b10bb	0.16705601
147	0xbab24f45	-0.0013603946
148	0x3d93424c	0.071903795
149	0x3d4c89fa	0.049936272
150	0x3d9f5141	0.0777917
151	0xbe6bdbf2	-0.23033121
152	0xbd892b85	-0.06697754
153	0x3bb104d6	0.005402188
154	0x3ea74dee	0.32676643
155	0x3e328088	0.17431843
156	0xbd05546a	-0.032551207
157	0x3e726758	0.23672235
158	0xbec19992	-0.37812477
159	0xbd971082	-0.073761955
160	0xbe8cbffc	-0.27490222
161	0xbc83e5a9	-0.016100721
162	0xbd56857b	-0.05237339
163	0x3c3038a3	0.010755691
164	0x3d2bfb8a	0.041987933
165	0xbe5a7ba0	-0.21336222
166	0x3daea4b1	0.08527506
167	0x3dba37eb	0.09092697
168	0x3daf12ea	0.085485294
169	0x3e70ddf2	0.23522165
170	0x3d621635	0.05519696
171	0x3d695700	0.056967735
172	0x3eb7ecaf	0.35922763
173	0xbeb21c11	-0.34787038
174	0xbe8605cb	-0.26176295
175	0x3e186e82	0.14885905
176	0x3e253132	0.16132048
177	0x3ec1f46d	0.37881795
178	0xbc819185	-0.01581646
179	0xbecf27f5	-0.40460172
180	0xbd1494cd	-0.03627472
181	0xbec12e23	-0.37730512
182	0xbbf96057	-0.0076103616
183	0x3e9c2fa7	0.30505106
184	0xbdc64c60	-0.09682536
185	0xbcb01a04	-0.02149678
186	0x3b860c80	0.0040908456
187	0xbd93955f	-0.07206225
188	0x3c8eb026	0.017417978
189	0x3d13ca77	0.036081757
190	0xbe825756	-0.25457257
191	0xbdee95bc	-0.11649653
192	0x3db66e49	0.08907754
193	0xbd296914	-0.041359976
194	0x3db96b5f	0.090536825
195	0x3d4a89c9	0.04944781
196	0x3dff937e	0.12479304
197	0x3dfe577d	0.12419031
198	0xbd85293f	-0.06502008
199	0xbda5dbb0	-0.08098543
200	0x3d90984b	0.070602976
201	0x3f05796a	0.5213839
202	0xbcdf639a	-0.027269173
203	0x3e444c56	0.19169745
204	0xbcb4bd22	-0.022062842
205	0xbe2695c0	-0.16268063
206	0xbd25fdca	-0.040525235
207	0xbc939ff0	-0.0180206
208	0x3d8bc618	0.06824893
209	0xbdd19ee1	-0.10235382
210	0x3dbc5e5c	0.09197685
211	0x3d7bd95b	0.061486583
212	0x3d7d1c5b	0.06179462
213	0x3e889f8e	0.2668423
214	0xbe0f35d9	-0.13985385
215	0xbd2e4d30	-0.04255408
216	0x3d8044e7	0.06263142
217	0x3cba407f	0.022735832
218	0xbd883a04	-0.066516906
219	0xbe3822f8	-0.1798209
220	0xbe30072c	-0.17190236
221	0xbe10543c	-0.14094633
222	0x3c04da9d	0.008108762
223	0x3f01db62	0.50725377
224	0xbd2361ba	-0.03988812
225	0x3b06253a	0.0020468966
226	0xbd0ac346	-0.033877634
227	0xbd36b7ae	-0.044608764
228	0x3d820423	0.06348445
229	0x3e60b302	0.21943286
230	0xbe3ed2ff	-0.18635176
231	0x3d1efb83	0.03881408
232	0x3e33444f	0.17506526
233	0xbb860595	-0.004090021
234	0xbebfef3a	-0.37487203
235	0x3d17240e	0.03689962
236	0x390fb704	0.00013705721
237	0xbe7d37c3	-0.24728303
238	0xba33d0a2	-0.0006859397
239	0x3ee5e023	0.44897565
240	0xbdc7db63	-0.097586416
241	0x3d04bb83	0.032405388
242	0xbd8e0a49	-0.069355555
243	0x3c93a114	0.018021144
244	0xbdb81be4	-0.08989695
245	0x3d27523d	0.040849913
246	0xbd138729	-0.03601757
247	0xbca50093	-0.020141875
248	0x3d9cbeab	0.076535545
249	0xbbd4a00d	-0.006488806
250	0x3c2d447d	0.010575411
251	0x3d155208	0.036455184
252	0x3c4b0e35	0.012393524
253	0xb930cc16	-0.00016860696
254	0xbd1db4fd	-0.038502682
255	0x3d82c237	0.063847

fc2.bias f4 [84]
0	0xbddf8592	-0.109141484
1	0x3e8e48b1	0.27789834
2	0x3d1ff68f	0.039053496
3	0x3dc86663	0.09785154
4	0xbd0f13b6	-0.034930907
5	0xbd958a2d	-0.073017456
6	0x3e991f9d	0.29906932
7	0xbd271c0c	-0.040798232
8	0x3eadad9b	0.33921513
9	0xbd659eed	-0.056059767
10	0x3cee71e1	0.029107036
11	0x3cc61dc5	0.024184117
12	0xbcf41ddb	-0.029799392
13	0xbd9b8cc1	-0.07595206
14	0x3d29f972	0.041497655
15	0x3db168c4	0.086625606
16	0x3ec73ece	0.38915104
17	0x3dd00cbe	0.101586804
18	0x3e2e76fd	0.17037578
19	0x3ec6624b	0.38746867
20	0x3e60160e	0.21883413
21	0xbd997940	-0.0749383
22	0x3ea1cb4d	0.3160042
23	0x3de535c1	0.11191893
24	0x3e29cc7e	0.16581914
25	0x3e3f749b	0.18696825
26	0x3ddf833d	0.109137036
27	0xbdf03da2	-0.117305055
28	0xbdedd8a9	-0.1161359
29	0x3d342a43	0.043985616
30	0x3e818bd2	0.25301987
31	0xbbde13c6	-0.0067772595
32	0x3e777cd5	0.24168713
33	0xbe5ae0c8	-0.2137481
34	0x3f0e5a18	0.5560622
35	0x3e7ff248	0.24994767
36	0x3e92912b	0.2862638
37	0x3d33deb1	0.043913547
38	0x3ebeee75	0.37291303
39	0x3d8b3e6e	0.06799017
40	0x3b5bfb1e	0.0033566426
41	0x3edc1420	0.42984104
42	0xbdfe74ea	-0.12424643
43	0x3d9a7291	0.07541383
44	0xbdd994ef	-0.1062411
45	0xbd9feccd	-0.07808838
46	0x3e349338	0.17634284
47	0x3e01babe	0.12668893
48	0xbd037230	-0.03209132
49	0x3d623bdf	0.05523288
50	0xbcf43862	-0.029812042
51	0xbdbd4094	-0.09240833
52	0x3e627254	0.22113925
53	0x3e868318	0.26271892
54	0x3db6fd1f	0.08934998
55	0x3db986f2	0.09058942
56	0xbdaf345a	-0.08554907
57	0xbeb266b6	-0.34843987
58	0xbdca5353	-0.09879174
59	0xbdd6f3e1	-0.10495735
60	0x3d3a81c2	0.045533903
61	0xbe264431	-0.1623695
62	0x3dfc323c	0.12314269
63	0x3d4e4c6b	0.050365847
64	0xbd2981fa	-0.04138372
65	0x3d53e66a	0.05173341
66	0x399b391c	0.00029606454
67	0x3eafd635	0.34343114
68	0x3d7aa1df	0.06118953
69	0xbe02df97	-0.12780605
70	0x3de23bde	0.11046575
71	0x3e5489f1	0.20755745
72	0xbd771a35	-0.060327727
73	0x3e963ae5	0.29341808
74	0x3d888283	0.06665518
75	0x3cccc9b1	0.024998518
76	0x3e8617dc	0.26190078
77	0xbd4728f8	-0.048623055
78	0xbe0733a9	-0.132033
79	0x3d48666f	0.048925813
80	0x3e852ed9	0.26012304
81	0xbc4c9c5c	-0.012488451
82	0x3e08964f	0.13338588
83	0xbdbd1ac0	-0.09233618

fc3.weight f4 [9, 84]
0	0xbda4507d	-0.080231644
1	0x3d17b76a	0.03704015
2	0xbd8e5937	-0.0695061
3	0xbef3b8f1	-0.47602037
4	0x3d3d070d	0.046149302
5	0xbebcdf1f	-0.36888978
6	0x3e5fd630	0.2185905
7	0xbf4a89ad	-0.79116327
8	0x3da72381	0.08161069
9	0xbedecf6c	-0.43517625
10	0xbeead39e	-0.45864576
11	0x3e7817ce	0.24227831
12	0xbf1b2dba	-0.6061665
13	0xbdb1368d	-0.08652983
14	0xbf655cf5	-0.89594966
15	0xbf283461	-0.65704924
16	0x3f3306f3	0.6993248
17	0xbe59e24d	-0.21277733
18	0x3e83c94e	0.2573952
19	0x3aad5f4e	0.0013227256
20	0xbf27b19d	-0.6550539
21	0xbd5eb398	-0.054370493
22	0x3eee1fe8	0.46508718
23	0xbf6f6a83	-0.935219
24	0xbe2fcd15	-0.17168076
25	0xbe0a4bb7	-0.13505445
26	0x3de98b36	0.114035055
27	0x3d98fea8	0.07470447
28	0x3e0d19b1	0.13779332
29	0xbf28e7de	-0.659788
30	0x3f07c316	0.5303205
31	0xbc95f86c	-0.018306933
32	0x3e103677	0.14083277
33	0xbe4fc8e3	-0.20291476
34	0x3f8ad40a	1.0845959
35	0xbd916d61	-0.071009405
36	0x3dae12cc	0.08499679
37	0xbef19988	-0.47187448
38	0x3ec72582	0.38895804
39	0xbe8a742a	-0.2704175
40	0xbf2433d2	-0.6414157
41	0x3ee5e6cd	0.4490265
42	0xbd954922	-0.072893396
43	0xbe2ab994	-0.16672355
44	0xbe46ce2f	-0.1941459
45	0xbf4719e5	-0.77773887
46	0x3d0f2ee2	0.03495682
47	0xbf15d284	-0.58524346
48	0x3cbd509c	0.023109727
49	0xbd2e034e	-0.04248362
50	0x3e834c68	0.2564423
51	0x3e43f7c5	0.19137485
52	0x3cd53125	0.02602441
53	0xbeb3635e	-0.3503675
54	0xbe009efc	-0.12560648
55	0x3e62cf6e	0.2214944
56	0xbf1d9f95	-0.6157163
57	0x3ca9fd4e	0.020750668
58	0xbdf84560	-0.12122607
59	0x3e595d30	0.21226954
60	0x3dad0330	0.084478736
61	0xbf60f6d2	-0.8787662
62	0xbef1a243	-0.47194108
63	0x3d9929ca	0.07478674
64	0x3d4440ca	0.04791335
65	0xbd878ce9	-0.06618673
66	0xbd4b250e	-0.049595885
67	0x3ea03a0c	0.31294286
68	0xbf75f20b	-0.96072453
69	0x3c64e86f	0.013971432
70	0xbe89d8b8	-0.26923156
71	0xbcc32a43	-0.023823863
72	0xbf14c7c3	-0.5811731
73	0x3eb58db9	0.35459688
74	0xbf114c2d	-0.5675686
75	0xbf599a7d	-0.85001355
76	0x3ea36f47	0.31920835
77	0x3e454d39	0.1926774
78	0xbbd6763f	-0.0065448578
79	0xbe609479	-0.21931638
80	0xbdc07653	-0.093975686
81	0xbe2add7c	-0.16686052
82	0xbf3bef52	-0.7341205
83	0xbf233be2	-0.6376325
84	0x3bbe0527	0.005798954
85	0xbeeca61c	-0.4622048
86	0x3e0f7a51	0.14011504
87	0x3e42076d	0.18948145
88	0x3d5d6691	0.054052893
89	0xbde1e3ea	-0.11029799
90	0x3d3a3281	0.04545832
91	0xbde48de4	-0.11159876
92	0xbec3c5c4	-0.3823682
93	0xbe91880e	-0.28424114
94	0xbe64b0d8	-0.22333086
95	0x3e9fc8ad	0.3120779
96	0x3e29d0db	0.16583578
97	0x3d8da5fa	0.06916423
98	0xbdd22b58	-0.102621734
99	0xbe909880	-0.28241348
100	0x3f0daa46	0.5533794
101	0x3d64b585	0.055837173
102	0x3e8a58fd	0.27021018
103	0xbb3bbe95	-0.0028647531
104	0x3ce2ca52	0.027684364
105	0x3d45dbb4	0.04830523
106	0xbecb5dc1	-0.39719966
107	0xbe25ae74	-0.1617983
108	0xbd7097b3	-0.05873842
109	0x3d6ce033	0.057831
110	0xbe40a01d	-0.18811078
111	0x3dc4137e	0.0957403
112	0x3d1dfd93	0.038571905
113	0x3db395d5	0.087688126
114	0xbde71727	-0.11283713
115	0xbce97bd9	-0.028501438
116	0xbe81dc56	-0.25363415
117	0x3e0cd278	0.13752162
118	0xbf447670	-0.7674322
119	0xbee086af	-0.43852755
120	0xbea3f2fc	-0.3202132
121	0xbda9507b	-0.082673036
122	0xbf019870	-0.50623226
123	0xbe16cc97	-0.14726482
124	0xbd241765	-0.040061373
125	0x3e7b22a3	0.24524932
126	0xbdb9fe42	-0.09081699
127	0xbe09ed9b	-0.13469546
128	0x3e320f16	0.17388567
129	0xbe5974a9	-0.21235909
130	0x3d5bf2d0	0.05369836
131	0x3db5de7c	0.08880326
132	0x3e65e07c	0.22448915
133	0x3d05a5bc	0.03262876
134	0x3e2061de	0.15662333
135	0xbde5a392	-0.11212839
136	0x3e89e48b	0.26932177
137	0xbebb9a3e	-0.36641115
138	0xbe65073d	-0.22366042
139	0xbf25e280	-0.64798737
140	0x3df0bd79	0.11754889
141	0x3d1a75e9	0.037710104
142	0xbd3165eb	-0.043310087
143	0x3d8b5c05	0.06804661
144	0xbdf856f5	-0.12125961
145	0x3dd7b74b	0.10533007
146	0x3cdd8a7a	0.02704357
147	0xbeff17e5	-0.49822918
148	0xbc3da242	-0.01157433
149	0xbdad0721	-0.08448625
150	0xbebae66e	-0.3650393
151	0x3ea7a481	0.32742694
152	0xbd1f0b4a	-0.038829125
153	0x3a129eea	0.0005593138
154	0xbec31197	-0.38099357
155	0x3e21021d	0.15723462
156	0x3d830a1a	0.06398411
157	0x3f0b0231	0.5430022
158	0x3e1764f8	0.1478461
159	0x3d9508b2	0.07277049
160	0x3ebef1dd	0.37293902
161	0x3e964fbf	0.29357716
162	0x3d63e8d7	0.055641975
163	0x3eb1a978	0.34699607
164	0xbc414fdc	-0.011798825
165	0x3e978c05	0.29599014
166	0xbe73e2ed	-0.23817034
167	0x3e93cf58	0.28869128
168	0xbc14ba6f	-0.009077652
169	0xbe8bad23	-0.2728053
170	0x3d2dad77	0.042401757
171	0xbe401181	-0.18756677
172	0xbd4661ac	-0.04843299
173	0x3dff036d	0.12451825
174	0xbd0babb2	-0.03409929
175	0x3e96bc82	0.29440695
176	0xbe6fe37f	-0.23426627
177	0x3c99d34c	0.018777512
178	0xbe39c6ec	-0.18142289
179	0xbdb1a68a	-0.08674343
180	0x3d7da9eb	0.061929625
181	0x3d3bc3be	0.04584097
182	0x3c9bb45a	0.019006897
183	0x3e5a9ac0	0.21348095
184	0x3e820ac7	0.25398847
185	0x3dd10311	0.10205663
186	0x3da48e68	0.08034974
187	0xbd09545c	-0.033527717
188	0x3e3e3ee2	0.18578675
189	0x3db24f6c	0.08706555
190	0x3ed97403	0.42471322
191	0x3d7fb9ce	0.062433057
192	0xbc38b80e	-0.011274351
193	0xbe8b022d	-0.27150097
194	0xbeea049b	-0.4570664
195	0xbd630529	-0.055424843
196	0xbd18c873	-0.03730054
197	0x3dd74771	0.10511673
198	0xbf0755f1	-0.5286551
199	0xbe01ed0c	-0.12688082
200	0x3bf97732	0.007613086
201	0x3ecc036a	0.39846355
202	0xbec98eea	-0.39366847
203	0x3e016158	0.1263479
204	0xbe669899	-0.22519149
205	0x3e7e01fa	0.24805441
206	0xbe1cf248	-0.15326798
207	0x3e5e13c2	0.21687225
208	0x3e0d0d89	0.13774695
209	0x3df40fa7	0.11917048
210	0xbe2750c6	-0.16339406
211	0x3e9335c0	0.28751945
212	0xbe27723e	-0.16352174
213	0xbf0e6421	-0.55621535
214	0xbebaf93d	-0.3651828
215	0xbe5dde71	-0.21666886
216	0xbecd314e	-0.4007668
217	0x3ef3dd76	0.476299
218	0xbe8680ae	-0.2627005
219	0xbe047a5d	-0.12937303
220	0x3ddffd1f	0.10936951
221	0xbea50d7b	-0.32236847
222	0xbd84654f	-0.064646356
223	0xbdbfa6db	-0.09357997
224	0xbd22c3c3	-0.039737474
225	0x3ea8c821	0.32965186
226	0xbd148a28	-0.03626457
227	0x3c25aace	0.010111524
228	0xbe97115c	-0.29505432
229	0x3db42ea1	0.08797956
230	0xbebe5e77	-0.37181446
231	0x3e905a33	0.28193817
232	0xbacc8aef	-0.001560537
233	0x3da216eb	0.079145275
234	0x3d3cc315	0.046084482
235	0xbea65ccc	-0.32492673
236	0x3e1d6280	0.15369606
237	0x3d89d694	0.06730381
238	0xbe9c0629	-0.3047345
239	0x3cd298c0	0.025707603
240	0x3d19f4a3	0.03758682
241	0xbe47c410	-0.19508386
242	0xbd462b50	-0.04838115
243	0x3dfc2c3a	0.12313123
244	0xbe9c556e	-0.30533928
245	0xbe9fbe4e	-0.31199878
246	0xbdaefb81	-0.08544064
247	0xbe7c5d4b	-0.24644963
248	0xbec38fec	-0.3819574
249	0xbe589fca	-0.21154705
250	0x3e760997	0.24027096
251	0xbd369810	-0.04457861
252	0x3bd52335	0.006504441
253	0xbe2db476	-0.16963372
254	0x3a67bdda	0.0008840241
255	0x3eb3135a	0.34975702

fc3.bias f4 [9]
0	0x3e554539	0.20827188
1	0xbd7d8109	-0.061890636
2	0xbe2fc1e2	-0.17163804
3	0x3e35435c	0.17701477
4	0xbe4ef94f	-0.20212291
5	0xbdb06e68	-0.08614808
6	0x3e80579d	0.25066844
7	0xbd90fc7f	-0.0707941
8	0xbe8076d5	-0.25090662
