output_visualizations/base_tsk[^]_agm[geo]_spl[S2]_mdl[lenet]_ls[SM]_tu[none]/model.pt (torch, 248071 bytes, 10 tensors)

conv1.weight f4 [6, 1, 5, 5]
0.24034552 0.24287288 -0.056654725 0.11600004 -0.16960213 0.12893263 -0.014000901 0.14316593
0.14711896 -0.22450624 0.16523558 0.0124308765 0.13225004 0.009528274 0.04078586 -0.10507729
0.055426903 -0.013132601 -0.12505816 -0.017246159 -0.20565125 -0.14576551 -0.1375432 0.07527462
-0.27227047 -0.12702176 -0.007838342 -0.067683995 -0.037042353 -0.30463576 0.16279839 -0.10986426
0.22546835 -0.007625524 -0.17078257 0.09967795 0.097174585 0.25667986 0.024671242 -0.13582662
-0.025747165 -0.035918005 0.17585316 0.2510651 0.12082393 -0.18620688 0.089887515 0.0973334
0.21024969 -0.04915931 -0.28040537 -0.16881315 -0.16066442 0.18117332 0.1409614 0.006800211
-0.00891803 -0.0045259413 0.14379458 -0.123061046 0.027296737 -0.113253355 0.12197533 -0.053743724
0.08612986 0.054496914 0.25262406 -0.04434742 -0.123726346 -0.11056526 0.27390838 0.14082734
0.21022555 -0.2379807 -0.24677272 -0.3038858 -0.2816805 0.079086855 0.21628761 0.32899716
-0.25852615 -0.24737278 0.15510003 0.068498924 0.26501286 -0.11041541 0.111533694 -0.04138902
0.034096453 0.15356398 -0.014624786 -0.06160904 0.17673187 0.15957712 -0.18964416 -0.09180417
0.20615898 -0.028465664 -0.08665834 -0.25981197 -0.1714887 -0.23441723 -0.25187168 -0.25334013
-0.2010651 -0.57155585 -0.41616547 -0.22626305 -0.29384458 -0.38526204 -0.25433514 -0.045789987
0.16321903 -0.19530812 -0.308636 -0.4402027 -0.20349637 -0.3546355 -0.22409981 -0.23915802
-0.3517426 -0.5513498 -0.55865866 -0.56260145 -0.19725832 -0.17841725 -0.07369711 -0.123143785
0.1435315 -0.2069144 0.117023155 0.05692973 -0.15858066 0.09366357 -0.15619196 -0.11431834
-0.1760967 -0.23260187 0.015912682 -0.09625953 0.1279089 -0.10205894 0.15529944 -0.12657063
-0.025490653 0.1708549 0.27294952 0.31172147 0.34364927 -0.048470106
00000000: 231d 763e abb3 783e c90e 68bd 6e91 ed3d
00000010: 2eac 2dbe ea06 043e 0964 65bc 179a 123e
00000020: 5aa6 163e f7e4 65be 8433 293e e0aa 4b3c
00000030: 8e6c 073e 7a1c 1c3c 130f 273d c332 d7bd
00000040: 5207 633d 1f2a 57bc 3f0f 00be d147 8dbc
00000050: 3e96 52be 8e43 15be 20d8 0cbe 9429 9a3d
00000060: 0967 8bbe fe11 02be 646c 00bc e89d 8abd
00000070: b9b9 17bd 38f9 9bbe 9fb4 263e 8300 e1bd
00000080: 2de1 663e 88df f9bb a0e1 2ebe f423 cc3d
00000090: 7803 c73d 8b6b 833e 581b ca3c 2216 0bbe
000000a0: b8eb d2bc c21e 13bd da12 343e 9b8b 803e
000000b0: 8972 f73d 04ad 3ebe f216 b83d bc56 c73d
000000c0: b24b 573e 465b 49bd 4b91 8fbe 5bdd 2cbe
000000d0: 3785 24be 8085 393e 2f58 103e 4ed4 de3b
000000e0: ee1c 12bc 594e 94bb e33e 133e 6e07 fcbd
000000f0: 689d df3c 60f1 e7bd 34ce f93d 6122 5cbd
00000100: da64 b03d 2838 5f3d f157 813e a4a5 35bd
00000110: 3d64 fdbd 0a70 e2bd b83d 8c3e 0b35 103e
00000120: 5e45 573e 36b1 73be fdb1 7cbe eb96 9bbe
00000130: 6d38 90be 4af8 a13d 807a 5d3e 5172 a83e
00000140: 8a5d 84be 4a4f 7dbe 8bd2 1e3e 2a49 8c3d
00000150: c4af 873e 7921 e2bd c76b e43d 8887 29bd
00000160: b9a8 0b3d e03f 1d3e cc9c 6fbc c359 7cbd
00000170: 33f9 343e 2f68 233e 1432 42be d303 bcbd
00000180: 571b 533e d330 e9bc ee79 b1bd 1306 85be
00000190: bc9a 2fbe 120b 70be 53f5 80be ccb5 81be
000001a0: 02e4 4dbe 7c51 12bf a413 d5be 80b1 67be
000001b0: cc72 96be 1141 c5be 3738 82be 488e 3bbd
000001c0: e422 273e dafe 47be 8a05 9ebe 4062 e1be
000001d0: 5a61 50be c992 b5be 6c7a 65be d7e5 74be
000001e0: 9b17 b4be 4325 0dbf 4104 0fbf a606 10bf
000001f0: 16fe 49be 03b3 36be 83ee 96bd cf32 fcbd
00000200: ecf9 123e 5ee1 53be d6a9 ef3d 262f 693d
00000210: f862 22be b0d2 bf3d c9f0 1fbe bc1f eabd
00000220: b152 34be 2f2f 6ebe 505b 823c b723 c5bd
00000230: 8dfa 023e 4704 d1bd d106 1f3e bb9b 01be
00000240: c6d1 d0bc 96f4 2e3e 0ac0 8b3e f599 9f3e
00000250: ccf2 af3e 9788 46bd

conv1.bias f4 [6]
-0.0016246826 -0.18786213 -0.013259486 -0.017554045 0.22442384 -0.004097479
00000000: 4df3 d4ba ee5e 40be 513e 59bc 80cd 8fbc
00000010: 5dcf 653e 2544 86bb

conv2.weight f4 [16, 6, 5, 5]
0.057394493 0.115035005 0.10261959 -0.0012489439 0.12681758 -0.13086724 -0.016426655 -0.09297037
-0.04356088 -0.091273285 -0.169228 0.02609435 0.00069841294 -0.09229529 -0.06940138 -0.020099057
0.07312154 0.0058661583 -0.029435515 0.0021024533 -0.021413557 0.106552035 0.12267877 -0.025722435
0.075426914 -0.03144966 -0.0036232881 -0.082791984 0.013932985 -0.03376783 0.041882936 0.0351586
0.042400785 0.13887018 0.06160309 -0.02478431 0.030181782 0.08786144 0.07862095 0.028404702
0.030469555 0.0021742233 0.052528292 0.11253714 -0.054505467 0.0032211917 0.09501093 0.07437498
0.04348618 -0.083701335 -0.57485044 -0.30579194 -0.17663942 -0.11465948 -0.29250336 -0.33441865
-0.3742587 -0.34194502 -0.26373377 -0.23936103 -0.2821699 -0.38322812 -0.34068933 -0.40468404
-0.44221535 -0.1406327 -0.2664781 -0.24759829 -0.38459155 -0.34552038 -0.07251841 -0.22596544
-0.23240462 -0.38409656 -0.6183431 0.07109572 0.044925775 0.102288924 0.16785091 0.21931116
0.00937155 -0.06686756 -0.116685994 -0.10481598 0.11391658 -0.01929989 -0.017444294 -0.05746866
-0.0218453 0.046424896 -0.05045375 0.01571582 0.013996832 0.13135019 0.12653701 -0.08546969
-0.08648201 -0.08554251 0.0033746455 0.00090793736 -0.20631005 -0.2360702 -0.0888358 -0.06903744
-0.051189896 -0.27971283 -0.069829725 -0.16618852 -0.067415506 -0.033414137 -0.11474108 -0.04596764
-0.044332888 -0.10350233 0.00424506 -0.066450074 0.08400498 0.09016186 0.10493333 0.031559307
-0.08003306 0.020207217 0.046708196 -0.073236994 0.026654245 -0.18394685 0.01817979 0.03083092
-0.16859782 -0.025245871 -0.18820035 -0.0296883 0.01318303 -0.12627319 0.012326811 -0.116590284
-0.06536313 -0.038995363 -0.065687634 0.012541521 -0.25273454 -0.014515362 -0.029660365 -0.29093763
-0.083539404 -0.18757315 -0.007222046 -0.0026546344 -0.35810974 -0.20104396 0.123491995 0.0868953
-0.035203848 -0.090856425 0.04530698 0.13407554 -0.061191365 -0.0013792998 0.009131005 0.034682155
0.1071652 0.0449075 -0.03618306 0.0005626293 -0.020148724 -0.01628084 0.020645345 0.021248242
-0.05100888 -0.034024317 0.017819714 -0.026825476 0.010827631 0.06266281 0.13813712 0.031147871
-0.122207046 -0.2058756 -0.10464485 -0.04132168 0.01863953 0.049624905 -0.046566557 -0.0025430666
0.09682964 -0.034893036 -0.0368315 -0.06716961 -0.06673642 0.048750512 0.055668116 -0.045282237
-0.041477498 0.008990533 0.037253883 0.058147177 0.028799342 0.049215034 -0.07293729 -0.0017788867
0.27350673 -0.25835204 -0.62120134 -0.5929029 -0.33588606 -0.09998991 -0.5634968 -0.50902355
-0.6360725 -0.20274276 -0.13915792 -0.4643665 -0.46949697 -0.605 -0.18286592 -0.25671625
-0.46090555 -0.54634136 -0.6773138 -0.28971413 -0.5560198 -0.45002586 -0.67274344 -0.86103576
-0.19626608 0.103381075 0.024653276 -0.15569799 -0.061467003 0.007131227 -0.14198302 -0.07862463
-0.19333458 -0.16018426 -0.111429654 -0.045917355 0.015080969 -0.15097576 -0.029343287 -0.087242514
-0.11696363 -0.019205267 -0.13037418 -0.043658275 -0.05826044 0.05070399 0.034314852 -0.0750375
-0.045313515 -0.08754463 -0.456171 -0.3100783 -0.08135174 0.14459096 0.1966861 -0.32092616
00000000: 7d16 6b3d 7997 eb3d 382a d23d 9ab3 a3ba
00000010: 78dc 013e 1002 06be 3191 86bc 4067 bebd
00000020: e56c 32bd 7ded babd 1b4a 2dbe d1c3 d53c
00000030: b315 373a 5005 bdbd 5022 8ebd c7a6 a4bc
00000040: bfc0 953d e738 c03b c022 f1bc 50c9 093b
00000050: 7c6b afbc f437 da3d 023f fb3d dbb7 d2bc
00000060: 6d79 9a3d 5cd1 00bd b074 6dbb d88e a9bd
00000070: 2d47 643c 2350 0abd 718d 2b3d 7702 103d
00000080: 72ac 2d3d fc33 0e3e 8653 7c3d 7708 cbbc
00000090: c93f f73c b3f0 b33d 0504 a13d fab0 e83c
000000a0: 4a9b f93c 6a7d 0e3b e827 573d df79 e63d
000000b0: 2041 5fbd a11a 533b 1795 c23d e951 983d
000000c0: 911e 323d 9b6b abbd 6629 13bf c390 9cbe
000000d0: f7e0 34be 97d2 eabd 00c3 95be ec38 abbe
000000e0: d69e bfbe 6b13 afbe 1d08 87be 0f1b 75be
000000f0: 9378 90be 7a36 c4be d56e aebe bf32 cfbe
00000100: 0d6a e2be 0502 10be d16f 88be 688a 7dbe
00000110: 2fe9 c4be 0ce8 b0be 8884 94bd 7c63 67be
00000120: 7afb 6dbe 4ea8 c4be bc4b 1ebf a29a 913d
00000130: 1704 383d db7c d13d 1ce1 2b3e 1b93 603e
00000140: 218b 193c dcf1 88bd 11f9 eebd c3a9 d6bd
00000150: 194d e93d ce1a 9ebc 56e7 8ebc 4264 6bbd
00000160: eaf4 b2bc 0828 3e3d 97a8 4ebd 77be 803c
00000170: f852 653c aa80 063e eb92 013e bc0a afbd
00000180: 7b1d b1bd e930 afbd 2829 5d3b a502 6e3a
00000190: f142 53be 63bc 71be 8bef b5bd 8063 8dbd
000001a0: 7fac 51bd 8536 8fbe e302 8fbd 532d 2abe
000001b0: 2411 8abd 43dd 08bd 5ffd eabd 9048 3cbd
000001c0: 6796 35bd 08f9 d3bd 251a 8b3b fa16 88bd
000001d0: ce0a ac3d c8a6 b83d 49e7 d63d 5544 013d
000001e0: 5fe8 a3bd 9b89 a53c 1851 3f3d 47fd 95bd
000001f0: 015a da3c 905c 3cbe c8ed 943c 2091 fc3c
00000200: e8a4 2cbe 6ed0 cebc 98b7 40be e134 f3bc
00000210: a3fd 573c c24d 01be 65f6 493c e3c6 eebd
00000220: 1bdd 85bd 9ab9 1fbd 3d87 86bd f47a 4d3c
00000230: 6c66 81be d7d1 6dbc 4bfa f2bc c7f5 94be
00000240: b516 abbd 2d13 40be eaa6 ecbb 60f9 2dbb
00000250: 295a b7be 78de 4dbe 5fe9 fc3d 2af6 b13d
00000260: e931 10bd ef12 babd d093 393d 194b 093e
00000270: cca3 7abd 9fc9 b4ba 369a 153c e00e 0e3d
00000280: 6e79 db3d edf0 373d b034 14bd 6a7d 133a
00000290: f00e a5bc 655f 85bc 6d20 a93c cb10 ae3c
000002a0: b0ee 50bd 155d 0bbd a6fa 913c 1ac1 dbbc
000002b0: 6066 313c 5c55 803d d173 0d3e d229 ff3c
000002c0: b047 fabd 0ed1 52be 0a50 d6bd ec40 29bd
000002d0: edb1 983c 7c43 4b3d 93bc 3ebd 94a9 26bb
000002e0: 9e4e c63d 00ec 0ebd a0dc 16bd 3890 89bd
000002f0: 1bad 88bd 9eae 473d 4004 643d de79 39bd
00000300: 4fe4 29bd 074d 133c 8797 183d bc2b 6e3d
00000310: 99ec eb3c b495 493d 2560 95bd 8829 e9ba
00000320: 1309 8c3e b846 84be 0d07 1fbf 7cc8 17bf
00000330: 42f9 abbe 83c7 ccbd 5441 10bf 5e4f 02bf
00000340: a6d5 22bf cc9b 4fbe 6a7f 0ebe 72c1 edbe
00000350: e861 f0be 48e1 1abf 3441 3bbe 5070 83be
00000360: d0fb ebbe 07dd 0bbf 7064 2dbf 6955 94be
00000370: 5057 0ebf ca69 e6be ea38 2cbf d76c 5cbf
00000380: faf9 48be 75b9 d33d abf5 c93c 4b6f 1fbe
00000390: d3c4 7bbd 11ad e93b ff63 11be f305 a1bd
000003a0: 80f9 45be 5807 24be 3b35 e4bd d613 3cbd
000003b0: 2b16 773c 6499 1abe 5561 f0bc 34ac b2bd
000003c0: a18a efbd 5d54 9dbc cf80 05be 05d3 32bd
000003d0: 80a2 6ebd fdae 4f3d bb8d 0c3d 43ad 99bd
000003e0: aa9a 39bd 994a b3bd 3f8f e9be 95c2 9ebe
000003f0: be9b a6bd a70f 143e 1568 493e 6f50 a4be

conv2.bias f4 [16]
0.10085191 0.085375845 -0.043162536 -0.023397159 -0.07348833 0.1963376 0.047133874 -0.032016873
0.00026735247 0.042059336 -0.020859616 0.058458813 -0.08313375 0.051545553 0.0709908 0.1253329
00000000: 728b ce3d 88d9 ae3d 33cb 30bd 66ab bfbc
00000010: 0d81 96bd b90c 493e 730f 413d 2024 03bd
00000020: 712b 8c39 6946 2c3d c9e1 aabc 8272 6f3d
00000030: 0742 aabd 6e21 533d a063 913d 4557 003e

fc1.weight f4 [120, 400]
-0.044961646 0.030034732 0.06423756 0.017014507 0.09645928 -0.028668676 0.0021461884 0.046989627
0.08246647 0.1262509 0.07556595 0.032970015 0.108458444 0.18336993 0.2632407 -0.016090864
0.055766273 0.052575633 0.11695463 0.23749027 -0.08655274 -0.113256454 -0.034722846 0.047148585
0.12488114 0.041520763 0.1579377 0.078906775 0.006862696 -0.043247607 0.06430277 0.14067627
0.015193176 0.04099936 0.016896157 0.15780245 0.10311508 0.049732268 0.11250578 0.121126465
0.14110935 0.0016404407 0.03970635 0.100581944 0.19655846 0.05108168 -0.035610516 -0.006433627
0.101119675 0.023507748 0.060012937 0.03588557 -0.10115336 0.008631759 -0.029083902 0.11216624
0.07745298 -0.084743954 -0.017053239 0.01549744 0.04631367 0.0059029185 -0.16903521 -0.14173628
0.03751841 0.047622375 -0.04042871 -0.07361636 -0.12294626 -0.0036330146 0.039979246 -0.04378841
-0.1300711 -0.06159107 -0.01570909 0.09254875 0.074699186 -0.0733733 -0.01728156 0.07373445
0.03400149 -0.1050589 -0.179941 -0.1583069 0.047414925 -0.11337901 -0.1401432 -0.26308167
-0.25069797 -0.09339195 -0.15655343 -0.12897478 -0.2345255 -0.30304384 -0.17360052 -0.026158232
-0.047098376 -0.2700836 -0.2617743 -0.12499086 0.06551806 0.092830986 0.058970448 0.17517664
0.25544897 0.039340265 0.25257757 0.0035658714 0.08090635 0.00876325 0.012740557 0.19983213
-0.027521668 -0.04975347 -0.11826738 0.08275294 0.17279674 0.13979593 0.09090592 0.1290302
0.18293539 0.21774878 0.22165677 0.13120101 0.21347369 0.102752306 0.017763697 -0.08277445
-0.022433348 0.13426758 0.11133608 0.054371435 -0.10802444 -0.055716533 0.19890259 0.19126512
0.104530856 -0.048025798 0.05560926 0.15811583 0.34407264 0.27009332 0.18855149 0.19675523
0.32996994 0.37920704 0.2754709 0.1784006 0.24886863 0.3723005 0.059083637 0.009197034
0.014162708 -0.08223633 -0.09907732 -0.023130095 0.03633332 0.054900106 0.038119934 -0.027259307
0.046787344 -0.01808036 0.03416278 -0.2299922 -0.03532711 0.14816266 0.046794817 0.029755253
-0.034208123 -0.028154928 0.020482441 0.020363044 0.0070763584 -0.015509639 -0.09301422 0.17589635
-0.031300057 0.061699342 0.12055896 0.02412707 0.11397921 0.0066414517 -0.036391467 0.044436347
0.12596154 0.0683168 -0.06816925 -0.1672063 0.089871034 0.062977485 -0.029568564 -0.13405602
-0.24441975 -0.020512994 -0.018131193 -6.8639776e-05 -0.23239987 -0.25009996 -0.04790666 0.037498534
-0.01106672 -0.03266897 -0.006108372 -0.0095218 0.041026555 0.015297871 0.005052938 0.02910304
0.0080478825 0.015964415 -0.015097115 -0.059833284 -0.06999814 -0.088240825 0.00011097589 0.027314156
-0.021148764 -0.04053906 -0.08329979 0.06119919 0.010202406 -0.05203585 0.04903871 -0.026428707
0.15254258 0.016705038 0.011601734 -0.031127628 0.022832064 0.030057866 0.062004443 -0.047312353
-0.07213542 -0.119681574 -0.086245514 0.017493272 0.05588703 -0.049050525 -0.07715019 -0.05372965
-0.07244456 -0.000436508 -0.14765728 -0.08130335 0.023833286 -0.07475894 -0.10071193 -0.09624167
-0.05326023 0.007974705 0.027254008 0.11797696 -0.04285696 0.0061817416 0.099961646 0.0072477516
00000000: b429 38bd 660b f63c fb8e 833d 0262 8b3c
00000010: 718c c53d 92da eabc 11a7 0c3b 3278 403d
00000020: 2ee4 a83d ea47 013e 52c2 9a3d 910b 073d
00000030: 761f de3d 54c5 3b3e 7cc7 863e fdd0 83bc
00000040: 2d6b 643d 8c59 573d e985 ef3d a630 733e
00000050: 9042 b1bd 00f3 e7bd 8b39 0ebd e01e 413d
00000060: afc1 ff3d ad11 2a3d 6cba 213e e099 a13d
00000070: 77e0 e03b 6724 31bd 2cb1 833d 710d 103e
00000080: cdec 783c f2ee 273d cf69 8a3c f796 213e
00000090: 002e d33d 10b4 4b3d 6e69 e63d 2711 f83d
000000a0: f87e 103e 0e04 d73a 20a3 223d e8fd cd3d
000000b0: 9f46 493e 063b 513d 55dc 11bd 2dd1 d2bb
000000c0: d517 cf3d 5293 c03c 20d0 753d bffc 123d
000000d0: 7e29 cfbd 396c 0d3c 5d41 eebc 6ab7 e53d
000000e0: ab9f 9e3d 3d8e adbd 3cb3 8bbc f9e8 7d3c
000000f0: 67b3 3d3d 456d c13b 9117 2dbe 5123 11be
00000100: e7ac 193d ae0f 433d 9398 25bd 2dc4 96bd
00000110: 40cb fbbd df17 6ebb 47c1 233d 7a5b 33bd
00000120: 5c31 05be eb46 7cbd 59b0 80bc 338a bd3d
00000130: e3fb 983d be44 96bd 0f92 8dbc 1602 973d
00000140: 2545 0b3d 1f29 d7bd 7442 38be 341b 22be
00000150: 2736 423d 4133 e8bd b381 0fbe a4b2 86be
00000160: 7c5b 80be 4744 bfbd 8b4f 20be f711 04be
00000170: 7427 70be 9028 9bbe 56c4 31be ca49 d6bc
00000180: 3aea 40bd 6648 8abe 4807 86be 35fb ffbd
00000190: 552e 863d 2c1e be3d ff8a 713d 8161 333e
000001a0: 35ca 823e 4223 213d d951 813e 65b1 693b
000001b0: 3ab2 a53d bc93 0f3c c5bd 503c cba0 4c3e
000001c0: 1f75 e1bc 4bca 4bbd 2b36 f2bd 607a a93d
000001d0: a1f1 303e aa26 0f3e e22c ba3d 7e20 043e
000001e0: 6a53 3b3e 89f9 5e3e fef9 623e 8f59 063e
000001f0: d998 5a3e cd6f d23d 2c85 913c a785 a9bd
00000200: 24c6 b7bc 717d 093e 2c04 e43d 95b4 5e3d
00000210: eb3b ddbd 0537 64bd 1fad 4b3e 01db 433e
00000220: 4614 d63d b3b6 44bd 89c6 633d 1ee9 213e
00000230: 4a2a b03e ac49 8a3e a413 413e 347a 493e
00000240: d2f1 a83e 6d27 c23e 860a 8d3e a6ae 363e
00000250: 6bd7 7e3e 2c9e be3e af01 723d 28af 163c
00000260: b40a 683c 856b a8bd 0de9 cabd 537b bdbc
00000270: 3fd2 143d efde 603d a623 1c3d e94e dfbc
00000280: 16a4 3f3d 431d 94bc 45ee 0b3d 1383 6bbe
00000290: 29b3 10bd f4b7 173e ecab 3f3d 4ac1 f33c
000002a0: d11d 0cbd 2aa5 e6bc cbca a73c 66d0 a63c
000002b0: cce0 e73b 241c 7ebc 3d7e bebd 2c1e 343e
000002c0: 7d34 00bd 73b8 7c3d 9ee7 f63d 22a6 c53c
000002d0: ef6d e93d 89a0 d93b 380f 15bd e302 363d
000002e0: 10fc 003e aee9 8b3d 529c 8bbd 2138 2bbe
000002f0: 4e0e b83d 57fa 803d c639 f2bc fb45 09be
00000300: 2c49 7abe de0a a8bc de87 94bc b3f2 8fb8
00000310: 3bfa 6dbe 1a0d 80be c639 44bd 1098 193d
00000320: 3051 35bc e6cf 05bd bd28 c8bb 5301 1cbc
00000330: 760b 283d eca3 7a3c 1e93 a53b 8069 ee3c
00000340: 44db 033c cec7 823c e459 77bc bf13 75bd
00000350: 2f5b 8fbd 9bb7 b4bd babb e838 f0c1 df3c
00000360: 2c40 adbc 490c 26bd 1599 aabd 00ac 7a3d
00000370: fe27 273c 8b23 55bd d0dc 483d 0481 d8bc
00000380: 1f34 1c3e 01d9 883c 3315 3e3c 5eff febc
00000390: 4f0a bb3c ea3b f63c 5ff8 7d3d 99ca 41bd
000003a0: bcbb 93bd 9d1b f5bd 7da1 b0bd 0d4e 8f3c
000003b0: cce9 643d 34e9 48bd eb00 9ebd 9f13 5cbd
000003c0: d05d 94bd 1ddb e4b9 7833 17be 5f82 a6bd
000003d0: 063e c33c 371b 99bd 0e42 cebd 5a1a c5bd
000003e0: 6627 5abd 56a8 023c cc43 df3c e89d f13d
000003f0: c88a 2fbd 3590 ca3b b1b8 cc3d 8c7e ed3b

fc1.bias f4 [120]
-0.08725657 0.17222567 -0.03291966 -0.023288766 0.06989745 -0.020478778 -0.015863461 -0.037755985
0.08528141 -0.027278611 0.11983311 0.012298904 -0.013829252 0.1330123 -0.044603217 0.12440677
0.0035370856 -0.04108912 0.095445275 -0.035107594 -0.05145009 -0.054156885 0.019917795 -0.077364184
0.037260927 0.06788963 -0.018923337 0.05714571 0.08338446 -0.024552878 0.04308511 0.0014151807
0.085080415 -0.08086485 -0.023085106 -0.006754654 0.08993646 0.09048407 -0.015459104 0.053260345
-0.015215605 0.10540917 0.016053695 0.071410924 0.06855564 -0.037190475 -0.09383975 -0.015045013
-0.07536414 0.10459364 0.06736136 -0.03606525 0.0039072447 0.065163076 0.032405205 -0.0032079294
0.040370423 0.07262504 0.0224362 0.092294425 0.040115252 -0.074808925 -0.010311682 -0.014403422
-0.015884776 -0.073486485 -0.0062533175 -0.11929219 0.05017075 0.14582203 0.023169272 0.0067674518
0.0010031378 -0.048037603 -0.03214795 0.069292784 0.0062253866 -0.07420312 0.09829028 0.07087307
-0.065442465 -0.049608298 -0.040041547 -0.012065457 -0.002078068 0.06643524 -0.06489911 0.11759167
0.0850866 -0.053109773 0.08102079 -0.033618875 -0.11387658 0.09834625 -0.063374564 0.029982533
-0.019645685 0.06309144 -0.0549449 0.08741124 0.08275046 0.14635369 -0.033223283 -0.049888283
-0.03137858 0.06924182 0.11555143 -0.06965307 -0.06622092 0.111606136 0.0042764735 0.114598125
-0.0558101 -0.04876931 -0.0034493546 0.008525475 -0.089725815 -0.02084506 -0.088346414 -0.053668424
00000000: 93b3 b2bd ed5b 303e c4d6 06bd 15c8 bebc
00000010: 6526 8f3d 1cc3 a7bc 17f4 81bc 05a6 1abd
00000020: 05a8 ae3d 6577 dfbc 106b f53d 5881 493c
00000030: 1694 62bc 6034 083e ddb1 36bd fac8 fe3d
00000040: 73ce 673b 114d 28bd d078 c33d fbcc 0fbd
00000050: 54bd 52bd 9cd3 5dbd a52a a33c 1d71 9ebd
00000060: ea9e 183d b809 8b3d 1d05 9bbc 9f11 6a3d
00000070: 79c5 aa3d 1e23 c9bc 037a 303d 967d b93a
00000080: a43e ae3d 789c a5bd fa1c bdbc 2556 ddbb
00000090: 9b30 b83d b64f b93d 2f48 7dbc 8527 5a3d
000000a0: df4a 79bc c3e0 d73d 0a83 833c e43f 923d
000000b0: e666 8c3d 0a55 18bd 0e2f c0bd 5c7f 76bc
000000c0: 8458 9abd 3135 d63d c1f4 893d 28b9 13bd
000000d0: 5808 803b 3874 853d 52bb 043d 203c 52bb
000000e0: 755b 253d 70bc 943d 1fcc b73c dc04 bd3d
000000f0: e44f 243d 6c35 99bd 54f2 28bc 55fc 6bbc
00000100: ca20 82bc 1580 96bd a1e8 ccbb 774f f4bd
00000110: d87f 4d3d 5f52 153e 7ccd bd3c 80c1 dd3b
00000120: b87b 833a 14c3 44bd 92ad 03bd 60e9 8d3d
00000130: 54fe cb3b cef7 97bd 6a4c c93d e625 913d
00000140: b306 86bd 1232 4bbd 9b02 24bd 32ae 45bc
00000150: 3230 08bb 330f 883d d3e9 84bd e7d3 f03d
00000160: e241 ae3d a289 59bd 3aee a53d f2b3 09bd
00000170: 2038 e9bd c269 c93d 86ca 81bd ee9d f53c
00000180: fdef a0bc 1636 813d e70d 61bd aa04 b33d
00000190: 1379 a93d bedd 153e 2315 08bd a857 4cbd
000001a0: d386 00bd a8ce 8d3d 3aa6 ec3d 45a6 8ebd
000001b0: d59e 87bd c291 e43d a921 8c3b 6cb2 ea3d
000001c0: 2299 64bd 54c2 47bd 910e 62bb 6fae 0b3c
000001d0: 2bc2 b7bd 42c3 aabc f7ee b4bd 6cd3 5bbd

fc2.weight f4 [84, 120]
0.009173411 -0.45162997 -0.019356024 0.15828569 0.3248839 -0.5417012 -0.09366454 -0.00071923377
0.099691756 -0.058478635 0.032907836 -0.059594873 0.056629334 0.1947953 0.19351998 0.0765656
-0.025213048 -0.080737755 0.10936072 0.045425955 0.040047705 0.0016172687 0.5565671 -0.11114144
0.060713314 -0.6776269 -0.014181165 0.02309545 0.24581662 0.008799343 0.1735778 0.046921067
0.09342931 0.08636767 0.26620188 -0.025209332 -0.14718826 0.23776928 0.23631021 0.07421588
-0.06771282 -0.034436654 0.0419371 0.07620395 -0.16885713 0.008044387 0.2921941 0.41368842
-0.15370561 0.41314793 -0.042220004 0.004594369 -0.045007206 0.07888973 0.22211102 -0.18823616
-0.05627582 0.044598147 -0.10397222 0.05707819 0.013363175 -0.20146003 -0.0059679053 -0.1257004
0.022275427 -0.04300838 -0.08650878 -0.0019269219 0.23603281 0.21198823 -0.106674805 0.22732769
-0.023595948 0.045219935 0.013549272 -0.0846764 0.024054183 0.018554505 0.27624694 0.054382052
0.035134643 -0.0035734123 0.07081448 0.13814072 0.0067199212 -0.38705862 0.062462363 -0.2234078
0.20205505 -0.0031697566 0.33057272 -0.013056653 0.05490403 0.05506037 0.01550986 0.09333361
0.09078855 0.16131714 0.034686856 -0.027463816 0.25476673 0.37951952 -0.0025640493 0.12418314
0.06341372 0.03514585 0.3767641 -0.05131005 -0.017789856 0.005529969 -0.06840144 -0.097229116
0.091233194 0.51859736 -0.09155457 0.29230866 -0.098886505 -0.06390875 0.03889002 -0.06249005
0.06544121 0.1395799 -0.042966317 0.053225867 -0.024579305 -0.13175623 -0.019252747 0.020044453
0.09689662 -0.0012387692 -0.16128345 -0.023678746 -0.05739408 -0.040677134 0.050180275 0.19291146
-0.008623918 -0.083923735 0.3397101 0.02551082 0.020620288 -0.033020694 0.40061888 0.024230307
-0.04480401 0.24616171 0.15825132 -0.001995365 -0.0923898 0.035452604 0.104977585 0.09428929
0.13156654 -0.021411592 0.23611857 -0.041987725 -0.32737133 0.24717319 0.17908539 -0.27545443
-0.030167716 0.11093059 -0.05049526 -0.045760095 -0.014811621 -0.01404375 0.064407475 0.12864487
0.19858123 0.3040879 0.050009582 0.0089299325 0.099052444 -0.09907028 -0.40905774 0.05277841
0.14457299 0.052107982 -0.09533633 -0.06786482 0.039275624 0.07365968 0.0037195385 0.05083648
0.0530717 0.0007856488 0.02866902 -0.18648227 0.3677237 0.3292405 0.18189359 -0.08629366
0.06810293 -0.072057284 0.08655555 -0.020442521 0.085620716 -0.40166458 0.16351865 -0.0687153
0.044311643 0.03372857 -0.19164513 0.14174657 -0.020086868 0.07965641 -0.097199745 0.24917607
0.31871888 -0.027253825 0.18651535 0.021035867 0.079784706 0.3287328 0.038938984 0.12354368
0.10949189 0.19944502 -0.036501903 0.36693308 -0.392344 -0.36764497 -0.00817715 0.006367811
0.014397791 0.12995246 0.24024159 -0.114016615 0.046130538 0.19909196 0.065242544 0.1459153
0.11440862 -0.04758873 -0.06942046 0.3201059 0.07090989 -0.008219308 0.050666757 -0.018176503
0.12734988 0.20725164 -0.06835455 -0.015384518 0.04333951 0.23255439 -0.033961985 -0.006127553
0.24340086 -0.0039063147 0.08155201 0.19929855 -0.013576461 0.026662689 0.05404031 0.22877239
00000000: 134c 163c 0b3c e7be 8690 9ebc a515 223e
00000010: 2f57 a63e eeac 0abf 32d3 bfbd f68a 3cba
00000020: 312b cc3d 4b87 6fbd 5eca 063d c119 74bd
00000030: 29f4 673d 6b78 473e 1a2a 463e 6dce 9c3d
00000040: 988b cebc d659 a5bd 83f8 df3d 9110 3a3d
00000050: 1009 243d 88fa d33a 2e7b 0e3f 209e e3bd
00000060: 86ae 783d f578 2dbf 1e58 68bc ab32 bd3c
00000070: 5ab7 7b3e 1f2b 103c 61be 313e 4e30 403d
00000080: de57 bf3d 88e1 b03d 9d4b 883e cd83 cebc
00000090: 85b8 16be ca79 733e 4efb 713e 7ffe 973d
000000a0: 05ad 8abd 730d 0dbd 3dc6 2b3d d110 9c3d
000000b0: e2e8 2cbe 9bcc 033c 779a 953e f8ce d33e
000000c0: 0165 1dbe 2088 d33e e2ee 2cbd 5c8c 963b
000000d0: 7a59 38bd f090 a13d 1271 633e fbc0 40be
000000e0: 7981 66bd 8cac 363d 63ef d4bd d2ca 693d
000000f0: 38f1 5a3c 8a4b 4ebe 6b8e c3bb 9bb7 00be
00000100: f57a b63c 8e29 30bd 842b b1bd c590 fcba
00000110: 96b2 713e 7113 593e 5278 dabd 97c8 683e
00000120: 4a4c c1bc 8a38 393d c4fd 5d3c d26a adbd
00000130: 470d c53c 9eff 973c 3d70 8d3e b7bf 5e3d
00000140: 58e9 0f3d e92f 6abb 2f07 913d c374 0d3e
00000150: c932 dc3b 8c2c c6be 89d8 7f3d 04c5 64be
00000160: 85e7 4e3e b1bb 4fbb d440 a93e 92eb 55bc
00000170: 0ce3 603d fc86 613d 111d 7e3c b125 bf3d
00000180: 59ef b93d 5230 253e ce13 0e3d ccfb e0bc
00000190: c970 823e 6250 c23e 9c09 28bb bb53 fe3d
000001a0: 0ddf 813d 18f5 0f3d 39e7 c03e 7d2a 52bd
000001b0: 08bc 91bc be34 b53b 0e16 8cbd 0f20 c7bd
000001c0: 78d8 ba3d ccc2 043f f680 bbbd 7ba9 953e
000001d0: 0285 cabd 97e2 82bd 244b 1f3d 91f5 7fbd
000001e0: 0b06 863d 09ee 0e3e 73fd 2fbd 5e03 5a3d
000001f0: 8a5a c9bc 1beb 06be f0b7 9dbc 4434 a43c
00000200: bc71 c63d 325e a2ba 7d27 25be eef9 c1bc
00000210: 0e16 6bbd 119d 26bd d589 4d3d 958a 453e
00000220: 554b 0dbc 35e0 abbd 7bee ad3e 11fc d03c
00000230: e1eb a83c b540 07bd eb1d cd3e a37e c63c
00000240: 6984 37bd d111 7c3e a20c 223e abc4 02bb
00000250: dd36 bdbd c036 113d 7dfe d63d be1a c13d
00000260: 61b9 063e 5d67 afbc 11c9 713e 52fb 2bbd
00000270: 379d a7be f81a 7d3e 2962 373e 5d08 8dbe
00000280: 4922 f7bc 942f e33d 1ed4 4ebd f06e 3bbd
00000290: 71ac 72bc c217 66bc 11e8 833d 7bbb 033e
000002a0: e158 4b3e 69b1 9b3e d9d6 4c3d da4e 123c
000002b0: 02dc ca3d 5ce5 cabd 0470 d1be 2d2e 583d
000002c0: f10a 143e 2e6f 553d b23f c3bd b6fc 8abd
000002d0: 7adf 203d e3da 963d 80c3 733b ea39 503d
000002e0: b661 593d 00f4 4d3a 4bdb ea3c 35f5 3ebe
000002f0: 4846 bc3e 3692 a83e 5042 3a3e bbba b0bd
00000300: 8d79 8b3d c592 93bd 0944 b13d 1377 a7bc
00000310: ea59 af3d fba6 cdbe 6f71 273e 9bba 8cbd
00000320: 2080 353d f826 0a3d 9f3e 44be 0326 113e
00000330: 378d a4bc e622 a33d a910 c7bd 0328 7f3e
00000340: 1f2f a33e 6a43 dfbc e1fd 3e3e 6953 ac3c
00000350: 2a66 a33d aa4f a83e 7c7e 1f3d 7804 fd3d
00000360: 493d e03d 513b 4c3e 0583 15bd a7de bb3e
00000370: 50e1 c8be f63b bcbe 74f9 05bc 12a9 d03b
00000380: b6e4 6b3c 4212 053e e401 763e 8b81 e9bd
00000390: 60f3 3c3d c3de 4b3e e29d 853d d26a 153e
000003a0: 114f ea3d 66ec 42bd 502c 8ebd ece4 a33e
000003b0: 3439 913d 47aa 06bc f287 4f3d e4e6 94bc
000003c0: 0268 023e c639 543e 78fd 8bbd 580f 7cbc
000003d0: c584 313d bd22 6e3e b91b 0bbd a4c9 c8bb
000003e0: 133e 793e 8b00 80bb bd04 a73d eb14 4c3e
000003f0: ce6f 5ebc b66b da3c 5f59 5d3d 4f43 6a3e

fc2.bias f4 [84]
-0.09790835 0.11164649 0.23965102 0.12585297 -0.047657862 0.030439522 0.12075036 0.18517308
0.1445359 -0.0043029846 0.14536773 0.05061922 0.24312593 -0.091713116 0.11082357 -0.026710486
-0.003301359 0.1128683 0.1604068 0.17162183 0.1977992 -0.082810275 0.14109053 0.10874174
0.121555604 0.14457881 -0.05511758 -0.013504803 -0.12540811 0.084347725 0.0333573 0.054498725
0.12276468 -0.09934521 0.07272688 0.03181906 0.015527869 0.06639478 0.119308904 -0.017875183
0.07533179 0.21790183 -0.1356859 -0.11575341 -0.040698923 -0.14351097 -0.049860287 0.12875403
0.022429056 -0.023643797 0.014161171 -0.03943909 0.16322456 0.106174 0.0021032111 -0.09497913
0.106906794 -0.051151842 -0.12420998 -0.07073111 0.0563407 -0.06772481 0.21140726 0.05589222
0.07954714 0.118941545 -0.05897515 0.09962239 0.088829815 -0.028155528 0.113001525 0.056221556
0.087992854 0.04609081 -0.022656752 0.21474212 0.1522372 -0.17081912 -0.11841142 -0.07517139
0.04079591 -0.12330799 0.06653333 0.062012274
00000000: 2c84 c8bd eaa6 e43d 1467 753e 9adf 003e
00000010: e434 43bd 4e5c f93c f74b f73d 039e 3d3e
00000020: 3801 143e 0d00 8dbb 47db 143e 1956 4f3d
00000030: 01f6 783e 16d4 bbbd 78f7 e23d f3cf dabc
00000040: 9d5b 58bb 7f27 e73d ae41 243e a2bd 2f3e
00000050: e08b 4a3e 6f98 a9bd 097a 103e fdb3 de3d
00000060: 25f2 f83d 780c 143e f9c2 61bd 4043 5dbc
00000070: fc6a 00be 80be ac3d aaa1 083d 0e3a 5f3d
00000080: 0c6c fb3d 8075 cbbd d5f1 943d b454 023d
00000090: 9a68 7e3c fdf9 873d 3a58 f43d fa6e 92bc
000000a0: 8e47 9a3d a821 5f3e 3ff1 0abe 2010 edbd
000000b0: eab3 26bd 8af4 12be 4d3a 4cbd 19d8 033e
000000c0: 24bd b73c a3b0 c1bc 4204 683c e28a 21bd
000000d0: 5724 273e c171 d93d 07d6 093b 6b84 c2bd
000000e0: f3f1 da3d 9884 51bd cd61 febd 79db 90bd
000000f0: 81c5 663d 4eb3 8abd 257b 583e 3eef 643d
00000100: 9ce9 a23d a097 f33d ed8f 71bd d306 cc3d
00000110: 68ec b53d 6ca6 e6bc 586d e73d 9348 663d
00000120: 9935 b43d b8c9 3c3d a79a b9bc 5ce5 5b3e
00000130: 12e4 1b3e 35eb 2ebe b081 f2bd 75f3 99bd
00000140: 9d19 273d e688 fcbd a042 883d 9500 7e3d

fc3.weight f4 [5, 84]
-0.3011352 0.26574254 -0.12794176 -0.6482017 0.050417684 -0.56460273 0.2266533 -0.38402802
0.25000304 0.10048398 -0.26060334 0.22038119 -0.2418181 -0.14467248 -0.049681816 -0.05457062
0.08294317 -0.45787093 0.109806746 0.34121332 -0.5820014 -0.117169425 0.27500445 -0.30772063
0.02008702 0.07889564 0.00082136743 -0.026724676 -0.09537276 -0.5487204 0.6119586 0.032402724
0.22115377 -0.044180714 0.17677668 0.017955314 0.053402103 -0.09843402 0.3051043 -0.15873186
-0.63824815 0.25870135 -0.07166339 0.029264925 -0.06646643 -0.040943544 0.005741224 -0.55996937
0.29834878 -0.12298452 -0.4088754 0.073381096 0.05516042 -0.10729638 0.17924894 0.046534833
-0.3392148 0.20968157 -0.2055893 0.022822527 0.23025106 -0.14113858 -0.17910391 0.050326742
0.18556878 -0.078365244 -0.15099613 -0.14253604 -0.11786687 -0.24985446 0.06810781 0.14184749
-0.010543832 0.10762808 -0.048519704 -0.4558019 0.48987785 -0.056918465 0.017454214 -0.061069097
0.012731408 -0.017963916 -0.73191184 -0.33646068 0.0010001252 -0.24205731 0.2306622 0.28651538
0.035797335 -0.2408606 0.036307205 0.16864607 -0.38825655 -0.20745604 0.2804392 -0.016853865
0.4416809 0.05309208 -0.19642338 -0.052552387 0.058823105 0.14505072 0.22133413 -0.5817971
0.20431449 0.08336429 -0.17646183 -0.53801095 -0.16973801 0.11492036 -0.1820436 0.24134848
0.019173808 0.21179178 0.12061093 -0.06261469 -0.0024635072 -0.0070919236 -0.38500798 -0.2584512
-0.06796675 0.026759807 -0.09089148 -0.00097217347 -0.08661389 0.047006346 -0.08799656 0.023522967
-0.011414557 -0.13568118 0.03722812 -0.5403819 -0.008527218 0.09069148 -0.2881488 -0.81809646
0.16913198 -0.4386767 -0.073817 0.0502706 0.18216273 -0.17531669 -0.14291197 -0.29988268
-0.31969118 -0.15206067 0.16325715 -0.18167612 -0.17874287 -0.13061826 -0.09655835 -0.46171197
0.10425945 -0.41641557 -0.28112522 0.14593522 0.068833254 0.26163417 0.048552334 0.27636507
0.38201496 -0.017076699 0.05179278 0.033175487 -0.15154298 0.04462614 -0.3134851 0.42842036
-0.30900627 -0.45689887 0.25456533 -0.23138165 -0.10559191 0.27657866 0.105514005 0.3482882
0.43083555 0.001633966 -0.17645018 -0.24160944 0.053916577 0.010777024 -0.118660204 -0.0012101006
0.024114946 0.14818096 -0.007126013 0.333436 0.0069059897 0.0689634 0.11806835 0.07883809
-0.003589701 -0.097417995 0.193512 -0.4204696 0.06359835 -0.052199256 -0.50431466 -0.21561047
0.005009917 -0.012140796 0.23772925 -0.002227007 -0.013802892 0.19935857 -0.05982415 0.06633041
0.35373306 0.22369504 -0.036244124 0.018912632 -0.021299604 -0.061252806 -0.081442736 0.24427134
-0.36824337 0.20003018 0.3872872 -0.13825184 -0.0106443735 -0.14777291 -0.04080236 0.070199005
-0.066421054 -0.1149613 0.12702598 0.23908053 0.108595096 -0.06343377 -0.26727894 0.036454905
-0.19583175 0.3491095 -0.036720254 -0.048166152 0.16166088 0.1594139 -0.11723197 -0.05370422
0.112044245 -0.34318748 -0.0725956 -0.0062217074 -0.3279425 -0.010978824 -0.11092933 0.014461693
-0.3471102 -0.08579534 0.40614334 -0.06602542 0.4095908 -0.021943403 -0.49593568 0.2802962
00000000: 652e 9abe 680f 883e 2a03 03be 8cf0 25bf
00000010: c682 4e3d ce89 10bf cd17 683e 529f c4be
00000020: 6600 803e 8bca cd3d cd6d 85be 9bab 613e
00000030: 2a9f 77be 0625 14be 297f 4bbd 7185 5fbd
00000040: 1cde a93d 0f6e eabe 5ce2 e03d 83b3 ae3e
00000050: 0bfe 14bf 86f6 efbd 62cd 8c3e 8f8d 9dbe
00000060: 898d a43c 0a94 a13d 0951 573a b5ed dabc
00000070: cb52 c3bd f178 0cbf 52a9 1c3f b8b8 043d
00000080: 2276 623e d6f6 34bd f204 353e 0617 933c
00000090: 2abc 5a3d c797 c9bd a136 9c3e 9b8a 22be
000000a0: 3b64 23bf 8174 843e 41c4 92bd ffbc ef3c
000000b0: 8d1f 88bd 6bb4 27bd e120 bc3b 275a 0fbf
000000c0: 2cc1 983e 4fdf fbbd 1e58 d1be d448 963d
000000d0: e4ef 613d 34be dbbd 098d 373e 4f9b 3e3d
000000e0: 90ad adbe c4b6 563e 0086 52be 4ff6 ba3c
000000f0: efc6 6b3e a286 10be 0467 37be 6a23 4e3d
00000100: be05 3e3e f57d a0bd bb9e 1abe f8f4 11be
00000110: 2f64 f1bd d9d9 7fbe 1c7c 8b3d 7840 113e
00000120: 09c0 2cbc 1c6c dc3d 99bc 46bd de5e e9be
00000130: 45d1 fa3e 5623 69bd 24fc 8e3c 9723 7abd
00000140: 6597 503c 1029 93bc 935e 3bbf 9344 acbe
00000150: a216 833a dfdd 77be b632 6c3e 25b2 923e
00000160: 3aa0 123d 29a4 76be ddb6 143d 8eb1 2c3e
00000170: 90c9 c6be 5b6f 54be ba95 8f3e 1e11 8abc
00000180: 0024 e23e 1577 593d 3623 49be 2c41 57bd
00000190: 7ff0 703d 2d88 143e 6aa5 623e a8f0 14bf
000001a0: d137 513e e6ba aa3d 69b2 34be 16bb 09bf
000001b0: cdcf 2dbe 5e5b eb3d a369 3abe 0e24 773e
000001c0: 6412 9d3c f2df 583e dd02 f73d 213c 80bd
000001d0: cb72 21bb 5e63 e8bb c41f c5be b753 84be
000001e0: 2732 8bbd 6237 db3c 5025 babd 75d9 7eba
000001f0: a062 b1bd ba89 403d 8a37 b4bd 3db3 c03c
00000200: 1f04 3bbc 02f0 0abe 837c 183d 7856 0abf
00000210: bfb5 0bbc 74bc b93d 3d88 93be c56e 51bf
00000220: ef30 2d3e 3c9a e0be 5e2d 97bd 8be8 4d3d
00000230: de88 3a3e 3886 33be 8457 12be 398a 99be
00000240: 90ae a3be cbb5 1bbe e22c 273e 4e09 3abe
00000250: 5f08 37be cbc0 05be 62c0 c5bd 8365 ecbe
00000260: fb85 d53d 6c34 d5be a5ef 8fbe 0b70 153e
00000270: 73f8 8c3d eaf4 853e d0de 463d b97f 8d3e
00000280: 7797 c33e 6fe4 8bbc ab24 543d 05e3 073d
00000290: 152e 1bbe e6c9 363d 1e81 a0be ea59 db3e
000002a0: 1236 9ebe a6ee e9be 6356 823e 50ef 6cbe
000002b0: 9240 d8bd b89b 8d3e ba17 d83d d552 b23e
000002c0: 7a96 dc3e cd2a d63a 5baf 34be 7768 77be
000002d0: a1d7 5c3d 1d92 303c 1f04 f3bd 3d9c 9eba
000002e0: b58c c53c c0bc 173e 5481 e9bb 20b8 aa3e
000002f0: a44b e23b af3c 8d3d d2cd f13d dd75 a13d
00000300: 3041 6bbb 1683 c7bd 0228 463e cb47 d7be
00000310: da3f 823d e3ce 55bd c41a 01bf fec8 5cbe
00000320: 3b2a a43b 30ea 46bc 4c6f 733e faf2 11bb
00000330: 8625 62bc a724 4c3e 2b0a 75bd 3dd8 873d
00000340: 801c b53e 5010 653e b874 14bd aaee 9a3c
00000350: 827c aebc 39e4 7abd 73cb a6bd 4422 7a3e
00000360: 658a bcbe b6d4 4c3e 824a c63e e491 0dbe
00000370: bd65 2ebc c851 17be 6020 27bd 7fc4 8f3d
00000380: c307 88bd d470 ebbd 1913 023e 87d1 743e
00000390: 1b67 de3d 90e9 81bd c9d8 88be bd51 153d
000003a0: 1e88 48be 7bbe b23e fa67 16bd df49 45bd
000003b0: 6e8a 253e 663d 233e 5117 f0bd f5f8 5bbd
000003c0: 7477 e53d 45b6 afbe 00ad 94bd 77df cbbb
000003d0: 14e8 a7be 87e0 33bc eb2e e3bd bdf0 6c3c
000003e0: 6eb8 b1be 78b5 afbd 05f2 cf3e 5638 87bd
000003f0: e3b5 d13e a7c2 b3bc 48eb fdbe fc82 8f3e

fc3.bias f4 [5]
0.09769674 0.19381198 -0.0034848351 -0.18003777 0.039511047
00000000: 3a15 c83d a676 463e d561 64bb d25b 38be
00000010: 56d6 213d
