output_visualizations/base_tsk[^]_agm[none]_spl[S1]_mdl[lenet]_ls[SM]_tu[none]/model.pt (torch, 248071 bytes, 10 tensors)

conv1.weight f4 [6, 1, 5, 5]
0.27145183 0.35640737 0.12207761 0.29343143 0.013526532 0.18619883 0.13392277 0.31153184
0.28116977 -0.1202029 0.31611764 0.25729647 0.31039664 0.09578727 0.0914636 0.07246931
0.30753183 0.12573807 -0.06510685 0.032993212 -0.037296657 0.07077695 -0.027482849 0.1532249
-0.15981327 -0.027446367 0.07043519 0.017701492 0.082631275 -0.20740247 0.2829622 0.018862477
0.3906649 0.19812313 -0.008641051 0.21942437 0.26102486 0.46821782 0.26846546 0.039965417
0.13642223 0.18181403 0.41345894 0.4484033 0.2440964 -0.030288294 0.29501683 0.2796611
0.30931148 -0.019294303 -0.20328128 -0.07852647 -0.08724477 0.21150783 0.103795074 0.1045178
0.11618714 0.10752007 0.21485955 -0.116324976 0.072077274 -0.026446277 0.19094218 -0.033307586
0.0516115 0.04459984 0.29259416 -0.014961987 -0.1328436 -0.14531265 0.2673127 0.16584805
0.23362859 -0.22672908 -0.24237905 -0.18204752 -0.13889153 0.14700624 0.19950601 0.29159898
-0.117106475 -0.10159778 0.22456725 0.07851578 0.24702992 -0.0470509 0.18170977 0.0054043625
0.06765047 0.15364414 0.07304322 0.03218562 0.25632358 0.23988552 -0.12952831 -0.022163237
0.27519703 0.017961023 -0.045466416 -0.21709079 -0.028199337 0.17276251 -0.054771937 -0.35019302
-0.21491945 0.018551044 -0.069567025 -0.19500278 -0.38991246 -0.34873775 0.3389355 0.020764818
-0.084137335 -0.36738274 -0.31551176 -0.0044478304 -0.065327056 -0.3459308 -0.2524329 -0.3031584
-0.016348785 -0.2069424 -0.22889064 -0.34053016 -0.30368093 -0.1921166 -0.12184887 -0.12100864
0.2966221 0.10446886 0.10059576 0.016494159 -0.086863 0.3056902 0.07983245 -0.133609
-0.17599641 -0.058671627 0.2645437 0.09844227 0.011446572 -0.15257353 0.32670277 0.05205177
0.07064963 0.0043897037 0.15306474 0.34255305 0.3037167 -0.13948521
00000000: bcfb 8a3e 077b b63e d303 fa3d a53c 963e
00000010: 639e 5d3c e8aa 3e3e 0d23 093e 1a81 9f3e
00000020: 7cf5 8f3e f02c f6bd 2cda a13e 5dbc 833e
00000030: 4fec 9e3e 1e2c c43d 4551 bb3d ca6a 943d
00000040: d074 9d3e 7bc1 003e bd56 85bd e423 073d
00000050: 61c4 18bd 81f3 903d b623 e1bc fde6 1c3e
00000060: 17a6 23be 34d7 e0bc 5340 903d b802 913c
00000070: 963a a93d 5061 54be 6ce0 903e 7b85 9a3c
00000080: 3b05 c83e cae0 4a3e 3293 0dbc c8b0 603e
00000090: 0da5 853e 3fba ef3e 4e74 893e c7b2 233d
000000a0: 45b2 0b3e 752d 3a3e e4b0 d33e 1e95 e53e
000000b0: 68f4 793e 281f f8bc 720c 973e bd2f 8f3e
000000c0: 135e 9e3e 160f 9ebc f828 50be 7cd2 a0bd
000000d0: 63ad b2bd 8295 583e 8392 d43d 6e0d d63d
000000e0: 86f3 ed3d 7c33 dc3d 2404 5c3e ca3b eebd
000000f0: 409d 933d dda5 d8bc 5986 433e 896d 08bd
00000100: 9566 533d 52ae 363d e7ce 953e 1f23 75bc
00000110: 2708 08be d7cc 14be 36dd 883e 12d4 293e
00000120: 553c 6f3e ab2b 68be 3732 78be aa6a 3abe
00000130: 9539 0ebe ce88 163e 4e4b 4c3e 764c 953e
00000140: 85d5 efbd 7f12 d0bd f5f4 653e e2cc a03d
00000150: 69f5 7c3e 72b8 40bd 2012 3a3e 1417 b13b
00000160: 548c 8a3d e454 1d3e af97 953d 12d5 033d
00000170: d83c 833e 8da4 753e 12a3 04be ad8f b5bc
00000180: a0e6 8c3e ff22 933c fe3a 3abd 0c4d 5ebe
00000190: 4c02 e7bc a8e8 303e 8a58 60bd 804c b3be
000001a0: d813 5cbe 5cf8 973c 2879 8ebd cfae 47be
000001b0: 9ba2 c7be c18d b2be f488 ad3e fb1a aa3c
000001c0: 3250 acbd 9719 bcbe c28a a1be 1bbf 91bb
000001d0: 31ca 85bd d81d b1be e33e 81be 9437 9bbe
000001e0: e3ed 85bc b5e8 53be 4f62 6abe f859 aebe
000001f0: 117c 9bbe 37ba 44be e68b f9bd 61d3 f7bd
00000200: dade 973e c5f3 d53d 2605 ce3d c21e 873c
00000210: 3be5 b1bd 6d83 9c3e 327f a33d ccd0 08be
00000220: 6738 34be a951 70bd 4672 873e 1a9c c93d
00000230: 678a 3b3c 3c3c 1cbe 9645 a73e 3d34 553d
00000240: c1b0 903d 81d7 8f3b 01bd 1c3e 1d63 af3e
00000250: c180 9b3e 36d5 0ebe

conv1.bias f4 [6]
0.019063499 -0.028267734 -0.022104912 -0.049925987 0.26896012 -0.09560279
00000000: 0e2b 9c3c bc91 e7bc 5c15 b5bc 317f 4cbd
00000010: 24b5 893e 65cb c3bd

conv2.weight f4 [16, 6, 5, 5]
0.010441363 -0.030441705 -0.061001804 -0.122671634 0.029873323 0.018050188 -0.00055689376 -0.12004934
-0.03180303 -0.043646917 -0.009241866 0.09266711 -0.013141271 -0.11499033 -0.08681557 0.044814922
0.102950156 -0.008931747 -0.10178488 -0.0788423 -0.01042112 0.11339066 0.1226473 -0.08463916
-0.011541549 0.055428103 -0.02880679 -0.10744122 -0.0378378 0.01942169 0.087662846 -0.008249827
-0.079638526 -0.07076701 -0.03980861 0.07216778 0.109513104 0.047465276 -0.087273814 -0.059528787
0.12262283 0.113706276 0.07311289 -0.010501031 -0.10091642 0.06686434 0.21336268 0.14344665
0.029990338 -0.036589913 0.0115540065 -0.01618948 -0.00950503 0.0048265914 -0.022190403 0.08706738
0.016591623 0.04161067 -0.06611645 -0.012758527 0.06617219 0.12946735 0.19142987 -0.08500027
-0.12029041 0.059846092 0.077677205 0.14614749 0.013127408 0.05486363 -0.014871817 0.072348736
0.116251 0.10285319 -0.011627059 0.04467843 -0.015446272 0.022598548 0.0009954445 -0.011314371
0.0060103936 -0.07345362 -0.11688684 -0.12530208 0.028089939 -0.008867333 -0.054521017 -0.1126553
-0.08588965 -0.06945407 -0.042069975 -0.01086189 -0.07319641 0.009128081 -0.038496498 -0.026064204
-0.032469884 -0.058449276 -0.045654904 -0.06881707 0.08451627 0.04844522 0.11451564 0.053490024
0.040909883 -0.10263575 0.17335755 0.06457122 0.103374004 0.058940213 -0.08026489 0.1377251
0.118728966 0.02301931 0.06244763 -0.23481327 0.118035346 0.15658954 0.13964419 0.036911853
-0.26429835 -0.10523653 0.03966544 -0.020812731 0.0025341944 -0.11429788 -0.1615903 -0.07766489
-0.08110269 0.07136295 -0.095554486 0.00048429292 0.086813845 -0.055806942 0.17556061 0.008315311
-0.03264492 -0.04647415 -0.0025793542 0.14541638 -0.051099982 0.064677626 0.041581687 0.01138485
0.19151916 -0.025713393 0.03361866 0.032990117 0.035732985 0.2269081 -0.06322208 0.044646274
0.0604211 0.09587324 0.11789439 0.06973928 0.018988159 0.14339852 0.13792953 0.0025921026
0.14365563 0.17810807 0.058460575 0.0032392603 -0.14419 0.059299923 0.09033142 0.009807779
-0.13715632 -0.15574549 -0.0337482 -0.13338244 -0.15991403 -0.098760955 0.019527093 0.045720838
0.040595755 0.0450127 0.07872937 -0.09612256 0.088198826 0.13737832 0.016375815 -0.054884158
-0.11833439 0.06824158 -0.02274994 -0.124469675 -0.17356128 -0.16313696 0.09350924 -0.116488345
-0.16656144 -0.08597226 -0.037839558 0.029364448 -0.04522721 -0.055680387 -0.11997019 0.034308452
0.088792704 0.12053839 0.16850159 0.26591173 0.046987463 0.15127298 0.1642755 0.27076638
0.16600397 -0.07080446 0.21265024 0.14781463 0.03524566 -0.19747943 -0.14913252 0.20164052
-0.0014027955 -0.2189043 -0.29589942 -0.21634561 0.12650882 -0.07109188 -0.17430352 -0.26631886
0.015431161 0.040387575 0.20457153 0.26130903 0.14824894 0.12369674 0.10664256 0.18262954
0.24956024 0.034137357 -0.07335187 0.16107087 0.25633612 0.09902114 -0.08850416 -0.17177452
0.07051576 0.047254715 -0.072773226 -0.12555318 -0.10339704 0.06994104 -0.08709125 -0.08430959
-0.059548028 -0.03996087 -0.044807 -0.17375597 -0.21471256 -0.047896028 -0.018137036 -0.09212876
00000000: 4012 2b3c e260 f9bc 07dd 79bd 443b fbbd
00000010: e6b8 f43c fddd 933c 82fc 11ba 6edc f5bd
00000020: e543 02bd 1cc7 32bd 326b 17bc 41c8 bd3d
00000030: 7c4e 57bc 0d80 ebbd 5dcc b1bd da8f 373d
00000040: 88d7 d23d 7656 12bc 9774 d0bd 1278 a1bd
00000050: 58bd 2abc 5d39 e83d 822e fb3d 4c57 adbd
00000060: c418 3dbc 9408 633d 38fc ebbc 240a dcbd
00000070: cffb 1abd 3c1a 9f3c 9488 b33d 482a 07bc
00000080: 8619 a3bd 4bee 90bd 5a0e 23bd b3cc 933d
00000090: 6848 e03d f36a 423d 9dbc b2bd 75d4 73bd
000000a0: ae21 fb3d d6de e83d 36bc 953d 840c 2cbc
000000b0: 45ad cebd 2cf0 883d bf7b 5a3e aee3 123e
000000c0: 4cae f53c 4edf 15bd 044d 3d3c cd9f 84bc
000000d0: fcba 1bbc 6228 9e3b a6c8 b5bc 6250 b23d
000000e0: 28eb 873c f36f 2a3d 1068 87bd 2409 51bc
000000f0: 4985 873d 1793 043e 3106 443e 9f14 aebd
00000100: d25a f6bd 2d21 753d 3a15 9f3d b0a7 153e
00000110: 5714 573c b0b8 603d eca8 73bc 932b 943d
00000120: 0115 ee3d b1a4 d23d 6c7f 3ebc bb00 373d
00000130: 5c12 7dbc 9720 b93c 9379 823a e95f 39bc
00000140: d6f2 c43b da6e 96bd 5e62 efbd 304f 00be
00000150: df1c e63c 4a48 11bc 6e51 5fbd d2b7 e6bd
00000160: eae6 afbd ef3d 8ebd 9151 2cbd 12f6 31bc
00000170: 00e8 95bd f28d 153c 81ae 1dbd 9984 d5bc
00000180: 24ff 04bd 8268 6fbd a300 3bbd f7ef 8cbd
00000190: de16 ad3d 7f6e 463d 2d87 ea3d 5b18 5b3d
000001a0: 1f91 273d b132 d2bd a484 313e ea3d 843d
000001b0: c0b5 d33d 4b6b 713d eb61 a4bd cf07 0d3e
000001c0: 2c28 f33d fe92 bc3c 16c9 7f3d e472 70be
000001d0: 84bc f13d 0259 203e e3fe 0e3e e230 173d
000001e0: 1d52 87be 4086 d7bd 3a78 223d 767f aabc
000001f0: ba14 263b 0215 eabd ed77 25be c50e 9fbd
00000200: 2b19 a6bd bd26 923d 12b2 c3bd b2e8 fd39
00000210: 75cb b13d d295 64bd 29c6 333e f13c 083c
00000220: aeb6 05bd ae5b 3ebd 620a 29bb 08e8 143e
00000230: 374e 51bd b475 843d 8f51 2a3d 8687 3a3c
00000240: 991d 443e e5a4 d2bc b8b3 093d a520 073d
00000250: c05c 123d 995a 683e 947a 81bd 03df 363d
00000260: 1e7c 773d 3059 c43d 9d72 f13d 78d3 8e3d
00000270: 0e8d 9b3c 10d7 123e 663d 0d3e 44e0 293b
00000280: 761a 133e f661 363e 5b74 6f3d c549 543b
00000290: 8ba6 13be 7ae4 723d aeff b83d cfb0 203c
000002a0: b572 0cbe bf7b 1fbe 8d3b 0abd 6895 08be
000002b0: 81c0 23be 2f43 cabd 48f7 9f3c c645 3b3d
000002c0: bc47 263d 3d5f 383d dd3c a13d e8db c4bd
000002d0: 96a1 b43d e7ac 0c3e 9326 863c 36ce 60bd
000002e0: 4d59 f2bd 3ec2 8b3d 155e babc f5e9 febd
000002f0: 0cba 31be 600d 27be c681 bf3d 7191 eebd
00000300: 158f 2abe 3912 b0bd a7fd 1abd b68d f03c
00000310: 2b40 39bd 1e11 64bd eeb2 f5bd 0587 0c3d
00000320: f3d8 b53d d5dc f63d ae8b 2c3e 9525 883e
00000330: ed75 403d 4ee7 1a3e d637 283e e4a1 8a3e
00000340: f2fc 293e ee01 91bd fcc0 593e b85c 173e
00000350: c15d 103d 0c38 4abe 32b6 18be da7a 4e3e
00000360: 02de b7ba 7328 60be 2180 97be b489 5dbe
00000370: 878b 013e 9f98 91bd 9f7c 32be f25a 88be
00000380: fbd2 7c3c 716d 253d 337b 513e 4cca 853e
00000390: 92ce 173e b754 fd3d 6a67 da3d 3d03 3b3e
000003a0: b88c 7f3e 9dd3 0b3d 8139 96bd c3ef 243e
000003b0: 7d3e 833e 98cb ca3d ab41 b5bd a9e5 2fbe
000003c0: 916a 903d 298e 413d 210a 95bd 0391 00be
000003d0: d4c1 d3bd 3f3d 8f3d e65c b2bd 82aa acbd
000003e0: a2e8 73bd 02ae 23bd 8b87 37bd 16ed 31be
000003f0: 9cdd 5bbe a02e 44bd 1f94 94bc 01ae bcbd

conv2.bias f4 [16]
-0.051263325 0.03829906 0.001776853 -0.014349453 -0.044521995 0.0077138892 -0.0074338187 0.047814228
-0.049811266 -0.016930198 -0.05987213 0.031786535 0.019884592 0.020631036 -0.02722124 0.008643264
00000000: 7ef9 51bd 7adf 1c3d 4be5 e83a f819 6bbc
00000010: b25c 36bd cbc4 fc3b 6497 f3bb dad8 433d
00000020: e606 4cbd 33b1 8abc 7b3c 75bd 9932 023d
00000030: 03e5 a23c 6b02 a93c 14ff debc 7a9c 0d3c

fc1.weight f4 [120, 400]
0.04164173 -0.05351095 -0.06327916 -0.016567517 0.084044985 -0.00421847 -0.1534574 -0.0916801
0.049454488 0.09316722 0.077842906 -0.1177821 -0.08233857 0.037980333 0.09975831 -0.01904251
0.055744268 -0.010788255 -0.00068269856 0.096092284 0.04265886 0.03852303 0.04743037 0.01624737
0.09271231 0.15156382 0.1681246 0.025288211 -0.050507873 0.052201875 0.15057543 0.15593757
-0.050437134 -0.033922162 -0.035982057 0.05508355 0.11814 -0.056469206 -0.028006572 -0.099216014
0.071857266 -0.062360942 -0.09876175 -0.118778355 -0.091843836 0.042885818 -0.012437075 -0.1371113
-0.10653975 -0.1438347 -0.07012737 0.015603791 0.020547505 0.086612694 -0.019270772 -0.0002880839
0.06468015 0.020848945 0.044888236 -0.017561508 0.052024107 0.084751435 -0.013998965 -0.022757765
0.036388163 0.040708605 -0.002999776 0.009576055 -0.036199816 0.010591159 0.07190893 0.014990785
-0.057215344 0.0122619765 0.0014792116 0.07424785 0.044508297 -0.06750273 -0.045669816 0.002520911
0.11123662 0.037439898 -0.034848552 -0.085679494 -0.086235285 0.010035461 0.07847327 0.014343219
-0.06624448 -0.2146038 -0.006609233 0.03878695 -0.024726324 -0.15529816 -0.16385455 0.021395048
0.015302262 -0.03869823 -0.06332831 0.039956883 -0.06744819 -0.036263924 -0.031566177 -0.013219697
-0.06830891 0.009048845 0.08074606 -0.055131983 -0.034711864 -0.107755736 0.092263155 0.066760294
-0.049944893 -0.06253931 -0.08132509 0.05371949 -0.00604607 -0.029456293 -0.0003444701 0.038864322
0.033914633 0.017178845 0.04711578 0.04681128 0.04040371 -0.010187495 -0.0908737 -0.07357138
0.034424976 0.06706407 0.0035878848 -0.13259844 -0.07803442 0.0018148528 0.053990174 0.04920999
-0.06976879 -0.061306603 0.011318489 -0.037850413 0.04718654 0.044508625 0.010271723 0.002684345
0.056932278 0.1026928 0.03643889 -0.020962548 0.019966025 0.13694939 0.07395137 -0.025400596
-0.05744991 -0.047933176 0.08290343 -0.03836439 -0.02729155 -0.054365996 0.008416192 0.04209592
-0.006083068 -0.0009959359 -0.004434498 -0.044534855 0.08506038 0.06070538 0.011480105 -0.024118202
-0.0032054107 0.031181946 0.0064259474 0.020167314 0.0560906 0.0850812 0.0075922576 0.07666451
-0.012693588 0.08944642 0.10529753 0.0591068 0.03270966 0.004590029 0.0519869 0.034634534
0.078521244 -0.027451165 -0.0008931293 0.009841239 0.057799477 0.056792796 -0.07538488 0.032458596
-0.04479222 -0.07488795 -0.036920447 -0.005016221 -0.02562561 -0.024364296 -0.037851136 0.06193294
-0.030219879 -0.01009747 -0.013987254 0.060748644 0.024560701 0.04058067 -0.02222741 1.2960074e-05
0.018088207 -0.06539096 -0.002486573 -0.026495142 0.00708274 0.034394305 -0.14469391 -0.017239552
-0.050884165 -0.058966655 -0.13036081 -0.02918641 -0.078736365 -0.09134684 -0.007068852 -0.046448283
0.1203303 0.030212771 0.0060281106 0.00025369646 0.053071853 0.097571224 0.03402366 -0.081133254
-0.039979108 -0.027631134 0.048098397 -0.0076381164 0.009284399 -0.016088016 0.0050255256 0.0075284294
-0.020762209 -0.009275126 -0.03289846 -0.030081613 0.07980913 -0.0058193356 -0.034044873 0.035676666
0.028598115 0.01644469 0.029338526 -0.0067826253 -0.032192927 0.037125204 0.07172519 -0.013414378
00000000: 8590 2a3d 4c2e 5bbd 8198 81bd 9ab8 87bc
00000010: c71f ac3d 173b 8abb f023 1dbe c7c2 bbbd
00000020: ca90 4a3d 75ce be3d 1a6c 9f3d be37 f1bd
00000030: 20a1 a8bd 4491 1b3d 164e cc3d 0aff 9bbc
00000040: 1a54 643d 39c1 30bc 20f7 32ba 08cc c43d
00000050: 0fbb 2e3d 53ca 1d3d 5946 423d 3419 853c
00000060: f4df bd3d 8c33 1b3e db28 2c3e 3929 cf3c
00000070: 58e1 4ebd a2d1 553d 7230 1a3e 19ae 1f3e
00000080: 2b97 4ebd f7f1 0abd ec61 13bd 4a9f 613d
00000090: 62f3 f13d 414c 67bd 0a6e e5bc c431 cbbd
000000a0: e729 933d 306e 7fbd 9a43 cabd 1142 f3bd
000000b0: 9f18 bcbd 0aa9 2f3d e0c4 4bbc e866 0cbe
000000c0: 8331 dabd 6749 13be f09e 8fbd 0ba7 7f3c
000000d0: 3e53 a83c ff61 b13d bddd 9dbc f709 97b9
000000e0: 0777 843d 68cb aa3c badc 373d 27dd 8fbc
000000f0: 3b17 553d 2992 ad3d ea5b 65bc 7e6e babc
00000100: c10b 153d 11be 263d e497 44bb e3e4 1c3c
00000110: 4246 14bd 8a86 2d3c fd44 933d e99b 753c
00000120: a35a 6abd 75e6 483c 1be2 c13a 420f 983d
00000130: 554e 363d df3e 8abd 4610 3bbd de35 253b
00000140: 06d0 e33d 945a 193d 5bbd 0ebd bb78 afbd
00000150: 209c b0bd c66b 243c 98b6 a03d d2ff 6a3c
00000160: 30ab 87bd 19c1 5bbe 4492 d8bb 11df 1e3d
00000170: dc8e cabc 7b06 1fbe 7dc9 27be ab44 af3c
00000180: 57b6 7a3c 0982 1ebd 46b2 81bd d4a9 233d
00000190: 4722 8abd 7b89 14bd 894b 01bd 6e97 58bc
000001a0: 8be5 8bbd 9b41 143c 315e a53d 13d2 61bd
000001b0: 072e 0ebd 0aaf dcbd 77f4 bc3d 9fb9 883d
000001c0: 0493 4cbd 9c14 80bd c58d a6bd f808 5c3d
000001d0: 1c1e c6bb 534e f1bc ff99 b4b9 3230 1f3d
000001e0: 12ea 0a3d a6ba 8c3c 7afc 403d 2fbd 3f3d
000001f0: 5c7e 253d 73e9 26bc fe1b babd 97ac 96bd
00000200: 3401 0d3d e358 893d b822 6b3b e3c7 07be
00000210: 83d0 9fbd 5be0 ed3a cd24 5d3d 6a90 493d
00000220: f0e2 8ebd a21c 7bbd 2f71 393c 0909 1bbd
00000230: ac46 413d ad4e 363d bb4a 283c d6eb 2f3b
00000240: d231 693d 9a50 d23d f240 153d a6b9 abbc
00000250: ca8f a33c 763c 0c3e d173 973d e914 d0bc
00000260: 9950 6bbd 9455 44bd 46c9 a93d fb23 1dbd
00000270: 8792 dfbc e1ae 5ebd 11e4 093c c56c 2c3d
00000280: 7954 c7bb 108a 82ba 444f 91bb 2e6a 36bd
00000290: 2334 ae3d 34a6 783d 0d17 3c3c 8993 c5bc
000002a0: de11 52bb 4871 ff3c c190 d23b ec35 a53c
000002b0: 42bf 653d 0d3f ae3d 79c8 f83b 4802 9d3d
000002c0: c4f8 4fbc af2f b73d 3ba6 d73d f919 723d
000002d0: 90fa 053d f467 963b 37f0 543d f1dc 0d3d
000002e0: bfcf a03d 44e1 e0bc e520 6aba 263d 213c
000002f0: 25bf 6c3d 909f 683d 6363 9abd 4ef3 043d
00000300: 0c78 37bd db5e 99bd e539 17bd 1d5f a4bb
00000310: cdec d1bc a297 c7bc cb09 1bbd 65ad 7d3d
00000320: ae8f f7bc dc6f 25bc cc2a 65bc 92d3 783d
00000330: 8633 c93c eb37 263d 4216 b6bc 186f 5937
00000340: b82d 943c b2eb 85bd c6f5 22bb 570c d9bc
00000350: 5416 e83b 0be1 0c3d a42a 14be f639 8dbc
00000360: ea6b 50bd 0587 71bd 4e7d 05be 5718 efbc
00000370: 8840 a1bd 0d14 bbbd d4a1 e7bb 8e40 3ebd
00000380: bb6f f63d c680 f73c 7587 c53b 9002 8539
00000390: df61 593d 6cd3 c73d 655c 0b3d 3129 a6bd
000003a0: 22c1 23bd b05a e2bc d302 453d 2a49 fabb
000003b0: 981d 183c 04cb 83bc 2aad a43b 0bb1 f63b
000003c0: 8215 aabc b3f6 17bc 89c0 06bd b76d f6bc
000003d0: f872 a33d 20b0 bebb a372 0bbd b221 123d
000003e0: 9846 ea3c 04b7 863c 5957 f03c c940 debb
000003f0: bbdc 03bd 9910 183d a8e4 923d fbc7 5bbc

fc1.bias f4 [120]
0.03678933 -0.050398417 -0.021765783 -0.047626693 0.012189764 0.019725878 -0.042798746 0.023277326
0.024089271 -0.042470757 -0.058088075 0.1599897 -0.018567894 0.046061464 -0.050117366 0.100528456
-0.027854824 -0.044251874 0.16699119 -0.021733787 -0.0061239875 -0.02773627 0.019224081 -0.050618097
-0.0017364783 -0.04797501 -0.053373706 0.020896513 0.040991437 0.06482957 0.040101577 -0.014123525
-0.017906077 -0.05487034 -0.027081419 0.0020594334 0.06782308 0.031099353 0.013532486 -0.013731275
0.06380882 0.056813452 0.066774294 0.020301197 -0.03387436 0.0035857332 -0.013836512 0.06781292
-0.05549808 0.069377124 -0.041241493 0.035894252 -0.03151994 -0.014872092 0.03759754 -0.019124866
-0.023799136 0.021780604 0.008713445 -0.031673018 -0.04752737 -0.053826325 0.09041431 0.004444347
0.10831144 -0.05942937 -0.013555596 -0.048243888 0.027338171 0.026779994 -0.036492124 0.01377961
-0.03969126 -0.06866619 -0.026414063 0.012519188 -0.0503392 -0.02108203 0.00528191 0.030819334
-0.013426196 -0.019031933 -0.008828947 0.0030618312 -0.061419677 -0.052201852 -0.044492632 0.011210311
0.0583673 -0.013515742 0.041888356 -0.038708843 -0.048755325 -0.011002635 0.028314726 -0.014180428
-0.066368446 -0.0111927325 0.05126725 0.025473393 -0.0023981284 -0.0076270015 0.011396822 0.009844561
-0.04413944 0.012182262 0.01726909 -0.013230474 -0.05253219 0.092741355 -0.01889063 0.11717265
-0.057502966 -0.036416356 -0.021287996 0.01799423 -0.0901236 0.013274584 -0.04770668 -0.042798106
00000000: 69b0 163d 926e 4ebd 284e b2bc 3514 43bd
00000010: 93b7 473c 2a98 a13c bd4d 2fbd 17b0 be3c
00000020: dd56 c53c d1f5 2dbd c3ed 6dbd 57d4 233e
00000030: b21b 98bc f2aa 3c3d de47 4dbd dde1 cd3d
00000040: cd2f e4bc 7441 35bd bdff 2a3e 0e0b b2bc
00000050: bbab c8bb 2d37 e3bc d27b 9d3c ec54 4fbd
00000060: 8b9a e3ba 7281 44bd 639e 5abd 2a2f ab3c
00000070: a3e6 273d 5ec5 843d 8d41 243d 5b66 67bc
00000080: c4af 92bc b9bf 60bd dad9 ddbc 8ff7 063b
00000090: d4e6 8a3d 12c4 fe3c 5cb7 5d3c 24f9 60bc
000000a0: 33ae 823d 39b5 683d f6c0 883d b24e a63c
000000b0: d7bf 0abd 9ffe 6a3b 8ab2 62bc 80e1 8a3d
000000c0: f451 63bd 9815 8e3d d7ec 28bd da05 133d
000000d0: 0d1b 01bd 13aa 73bc e1ff 193d c0ab 9cbc
000000e0: 68f6 c2bc 3d6d b23c d6c2 0e3c 91bb 01bd
000000f0: 0fac 42bd fe78 5cbd 232b b93d e3a1 913b
00000100: 63d2 dd3d 366c 73bd 4a18 5ebc 629b 45bd
00000110: 4df4 df3c b861 db3c c478 15bd e0c3 613c
00000120: 4d93 22bd dca0 8cbd 4e62 d8bc 481d 4d3c
00000130: 7a30 4ebd 39b4 acbc df13 ad3b d478 fc3c
00000140: 8cf9 5bbc dbe8 9bbc 4aa7 10bc 01a9 483b
00000150: 3393 7bbd 9cd1 55bd e83d 36bd 74ab 373c
00000160: 8d12 6f3d 2171 5dbc 2093 2b3d 2a8d 1ebd
00000170: aab3 47bd 6544 34bc 49f4 e73c 0755 68bc
00000180: 2eec 87bd b961 37bc 9cfd 513d 94ad d03c
00000190: eb29 1dbb edeb f9bb bcb9 3a3c 154b 213c
000001a0: 8fcb 34bd 1c98 473c e877 8d3c a1c4 58bc
000001b0: fe2b 57bd 2eef bd3d 86c0 9abc 37f8 ef3d
000001c0: 3b88 6bbd 5129 15bd 2a64 aebc a368 933c
000001d0: b992 b8bd a47d 593c 1468 43bd 114d 2fbd

fc2.weight f4 [84, 120]
0.006317258 -0.004053876 -0.008288227 0.08013944 0.029845648 -0.06837829 -0.06441568 0.021643005
0.055824697 -0.08423018 0.03347539 -0.040741008 0.03456466 -0.047548935 0.076762915 0.08540209
-0.06362499 -0.080737755 0.026353829 0.07283716 0.040047705 -0.04450512 0.07747473 -0.09034978
0.07614227 -0.032888535 -0.006312184 -0.0001623854 -0.0252366 -0.020877853 0.02248685 0.017616086
0.010578066 0.089612156 -0.008979276 -0.056518327 -0.079976335 0.06920312 -0.0660537 0.046057314
-0.053209487 -0.060946334 0.014400408 0.06936586 -0.08220413 0.0599858 -0.090838864 -0.018388085
-0.025879234 -0.06476152 -0.07073686 -0.038057048 -0.07307359 0.0009313822 -0.061019246 -0.042476926
-0.04553456 0.026845425 -0.026198052 0.05300927 0.055635765 -0.067136094 -0.0154966265 -0.09099907
0.043696463 -0.01989159 0.023516975 0.030075602 0.080932006 -0.009102657 -0.027004354 0.08614443
-0.0071848035 0.016722359 0.00902091 -0.048125964 0.052631915 -0.07548237 0.045647427 0.04445429
0.059609458 -0.06450763 0.0640959 0.08433813 -0.001518622 -0.086412326 -0.00431668 -0.0004918426
-0.07985887 -0.005655363 -0.030158151 -0.08275717 0.059298187 0.024028651 -0.038894873 0.08284801
0.004638329 0.0050420165 0.011239275 -0.07542029 -0.038529295 0.012305073 -0.03375326 0.04749854
0.0024243444 0.019319735 0.08836621 -0.039159942 -0.012296811 -0.053534508 -0.0798837 0.020834118
0.06496437 0.030898035 -0.07174893 0.05909735 -0.08335889 -0.06390875 0.08307482 -0.041898552
0.0020595468 -0.06505476 -0.04380465 0.03367493 -0.059157748 -0.04821617 0.01842143 0.044913396
-0.034471318 -0.008232196 -0.1267746 0.063255124 -0.014044967 -0.027212773 -0.027198602 0.015127157
0.047952037 -0.03516564 0.10943295 0.023386773 0.044364206 0.05874586 0.047077667 0.01753509
-0.08916044 0.07240272 0.06620812 -0.046544075 0.144453 -0.097294606 0.06315017 -0.041252743
-0.050212342 -0.05231715 -0.051909808 -0.028191641 -0.043006714 0.0031362732 -0.06903587 -0.057406932
-0.13771652 -0.046035513 -0.034853317 0.022083193 -0.03239867 0.067086175 0.08378875 0.0875044
0.09560039 0.242309 -0.004368721 0.03274521 0.08738858 -0.053658746 -0.013166148 0.059935693
0.021267185 -0.020488473 0.008805148 -0.10350459 0.077069424 -0.025768321 0.25426292 0.11816575
0.12005828 -0.011143593 -0.026770005 -0.10469919 0.038436487 0.08120388 -0.053184103 -0.07167003
0.016165137 -0.145661 0.12751248 0.057836626 0.08525245 0.12638356 0.018975457 -0.008758798
0.045535352 0.06164024 -0.014662669 0.0241363 -0.01885795 -0.058895774 0.025718814 -0.079267606
0.06731118 -0.050358843 0.030161763 -0.034200765 0.021006366 0.056261357 -0.123161085 -0.053955615
0.049751494 -0.2401269 -0.026210254 -0.04664118 -0.07977739 -0.013784561 -0.34906825 0.05852665
0.04982948 -0.059180945 0.056401215 -0.054969747 -0.27289143 0.13002428 0.0031289218 0.17467542
0.12056798 -0.0038942797 -0.09018141 0.059214473 0.014828585 0.036923066 0.02252822 0.012262762
-0.0691922 0.054683473 -0.06098789 -0.014963725 -0.07891831 0.09167521 -0.075275294 0.023706485
0.08895044 0.02485374 0.026326006 0.0680463 0.028042952 0.05082497 -0.059418865 0.12940256
00000000: 0001 cf3b 60d6 84bb 58cb 07bc 2620 a43d
00000010: dc7e f43c eb09 8cbd 5eec 83bd ac4c b13c
00000020: 70a8 643d df80 acbd 7e1d 093d 0be0 26bd
00000030: ac93 0d3d acc2 42bd e035 9d3d 4ae7 ae3d
00000040: d24d 82bd d659 a5bd fce3 d73c a62b 953d
00000050: 1009 243d 004b 36bd 12ab 9e3d 4e09 b9bd
00000060: 7af0 9b3d 21b6 06bd 70d6 cebb 0046 2ab9
00000070: fcbc cebc 0808 abbc 5836 b83c 9c4f 903c
00000080: a04f 2d3c 9486 b73d d01d 13bc c37f 67bd
00000090: a2ca a3bd 5eba 8d3d 2a47 87bd 98a6 3c3d
000000a0: 31f2 59bd dda2 79bd b0ef 6b3c b00f 8e3d
000000b0: a45a a8bd acb3 753d ba09 babd 9ca2 96bc
000000c0: b000 d4bc b0a1 84bd 7dde 90bd b5e1 1bbd
000000d0: 9ba7 95bd 0028 743a 51ef 79bd 49fc 2dbd
000000e0: 7282 3abd f0ea db3c 4c9d d6bc 4020 593d
000000f0: 54e2 633d a67e 89bd 90e5 7dbc b85d babd
00000100: 10fb 323d b0f3 a2bc aca6 c03c 1c61 f63c
00000110: aebf a53d 5023 15bc 3c38 ddbc 7e6c b03d
00000120: 806e ebbb 54fd 883c 70cc 133c bb1f 45bd
00000130: 9094 573d 8096 9abd ccf8 3a3d b415 363d
00000140: 0c29 743d 941c 84bd b644 833d 78b9 ac3d
00000150: 800c c7ba f2f8 b0bd f072 8dbb 00ef 00ba
00000160: 0c8d a3bd a050 b9bb 3a0e f7bc 977c a9bd
00000170: a8e2 723d bcd7 c43c 3b50 1fbd 38ac a93d
00000180: 20fd 973b 8037 a53b f024 383c f475 9abd
00000190: e5d0 1dbd 389b 493c dc40 0abd d48d 423d
000001a0: c0e1 1e3b 6c44 9e3c 58f9 b43d 2d66 20bd
000001b0: 9078 49bc 0047 5bbd 119a a3bd 50ac aa3c
000001c0: 0a0c 853d e01d fd3c 1af1 92bd 1010 723d
000001d0: 11b8 aabd 97e2 82bd 2223 aa3d d19d 2bbd
000001e0: 76f9 063b 6e3b 85bd 816c 33bd b9ee 093d
000001f0: 654f 72bd 527e 45bd 8ae8 963c 1cf7 373d
00000200: cc31 0dbd 55e0 06bc 33d1 01be e78b 813d
00000210: dc1c 66bc 52ed debc 9acf debc e5d7 773c
00000220: 5b69 443d d909 10bd 621e e03d 9e95 bf3c
00000230: 3eb7 353d 809f 703d 83d4 403d c0a5 8f3c
00000240: c099 b6bd e147 943d 1f98 873d 00a5 3ebd
00000250: 7deb 133e 6542 c7bd e054 813d a3f8 28bd
00000260: 75ab 4dbd 824a 56bd 619f 54bd 28f2 e6bc
00000270: cf27 30bd ef89 4d3b ae62 8dbd 8823 6bbd
00000280: 8f05 0dbe bc8f 3cbd 5ac2 0ebd d0e7 b43c
00000290: 78b4 04bd 7a64 893d 7099 ab3d 8235 b33d
000002a0: 23ca c33d da1f 783e 7d27 8fbb d71f 063d
000002b0: c9f8 b23d 46c9 5bbd d4b6 57bc 217f 753d
000002c0: 8538 ae3c 71d7 a7bc 7843 103c 37fa d3bd
000002d0: 93d6 9d3d 1618 d3bc c02e 823e e200 f23d
000002e0: 1ee1 f53d 9e93 36bc c54c dbbc 876c d6bd
000002f0: 946f 1d3d 384e a63d 93d7 59bd bdc7 92bd
00000300: c06c 843c 2828 15be a292 023e 19e6 6c3d
00000310: d698 ae3d b16a 013e 6b72 9b3c 1081 0fbc
00000320: 4783 3a3d 7a7a 7c3d b13b 70bc 7db9 c53c
00000330: fd7b 9abc b23c 71bd 43b0 d23c 0e57 a2bd
00000340: 72da 893d 1345 4ebd cd15 f73c 1a16 0cbd
00000350: 8b15 ac3c 4f72 663d e13b fcbd 9000 5dbd
00000360: 39c8 4b3d d3e3 75be e3b6 d6bc d20a 3fbd
00000370: 5462 a3bd a4d8 61bc 13b9 b2be a4b9 6f3d
00000380: ff19 4c3d b867 72bd f604 673d f527 61bd
00000390: 6db8 8bbe 1625 053e 990e 4d3b 1dde 323e
000003a0: 58ec f63d 2c37 7fbb 08b1 b8bd e08a 723d
000003b0: 98f3 723c a43c 173d 1a8d b83c c0e9 483c
000003c0: a4b4 8dbd c7fb 5f3d 70ce 79bd 692a 75bc
000003d0: ec9f a1bd 36c0 bb3d ef29 9abd 1a34 c23c
000003e0: a62b b63d 129a cb3c a3a9 d73c dc5b 8b3d
000003f0: 55ba e53c d82d 503d 3261 73bd 1b82 043e

fc2.bias f4 [84]
-0.09030703 0.1719553 0.103680864 0.13874435 0.010427661 -0.0035083345 0.06126492 0.088536285
0.0383881 0.027001116 0.20770793 -0.027778296 0.06714768 -0.04077904 0.05086325 0.1908856
0.018454827 -0.00023054896 0.0018004454 0.04387572 0.07845869 -0.016226664 0.03988405 0.100198
0.20566651 0.04133131 -0.09582174 -0.09206444 -0.10324834 -0.067936346 -0.09381706 -0.021718675
0.03576779 -0.018859005 0.12715115 0.27887276 -0.020471416 -0.05761521 0.013719507 -0.010554831
0.17746031 0.022530053 0.07557179 -0.11866961 0.023470955 -0.088686086 0.0026487873 0.06976797
-0.08663094 0.04933279 -0.07738236 -0.021961972 0.007408854 0.061447375 -0.050703567 0.07755219
0.118263066 -0.06981268 -0.106244825 -0.055034753 -0.053116534 -0.016979266 0.07228327 0.010273144
0.117550306 0.037293952 -0.04767252 0.038503364 -0.095398575 -0.11586866 0.17349774 -0.022006733
0.12089663 0.016456747 0.0039633005 0.041575335 -0.017441202 -0.090018176 -0.10515516 0.007496315
0.046884548 -0.059197802 0.034033403 0.06641709
00000000: e4f2 b8bd 0d15 303e a256 d43d 0013 0e3e
00000010: c8d8 2a3c 16ec 65bb edf0 7a3d 8352 b53d
00000020: d73c 1d3d 7231 dd3c 63b1 543e 4f8f e3bc
00000030: b984 893d ec07 27bd fc55 503d 8477 433e
00000040: 942e 973c 84bf 71b9 ecfc eb3a 07b7 333d
00000050: f3ae a03d c8ed 84bc 755d 233d 9c34 cd3d
00000060: 3e9a 523e 054b 293d 303e c4bd 488c bcbd
00000070: de73 d3bd 3622 8bbd 2923 c0bd 5deb b1bc
00000080: 3f81 123d 337e 9abc e933 023e 69c8 8e3e
00000090: acb3 a7bc edfd 6bbd c8c7 603c 2bee 2cbc
000000a0: 28b8 353e f290 b83c 62c5 9a3d 0d09 f3bd
000000b0: 2946 c03c 0da1 b5bd 4797 2d3b 82e2 8e3d
000000c0: 906b b1bd 2e11 4a3d a57a 9ebd 98e9 b3bc
000000d0: f9c5 f23b 3eb0 7b3d 8bae 4fbd afd3 9e3d
000000e0: e833 f23d f3f9 8ebd e396 d9bd 1f6c 61bd
000000f0: b990 59bd 1a18 8bbc 4009 943d b050 283c
00000100: 37be f03d 8bc1 183d 4344 43bd b4b5 1d3d
00000110: 5460 c3bd 8c4c edbd 64a9 313e 7747 b4bc
00000120: a798 f73d 4dd0 863c 93de 813b e64a 2a3d
00000130: dae0 8ebc 735b b8bd 975b d7bd a6a3 f53b
00000140: 030a 403d 6579 72bd 9c66 0b3d af05 883d

fc3.weight f4 [5, 84]
-0.02123221 0.1202001 -0.014352967 -0.23278162 0.01789666 -0.09844247 0.18502624 -0.11592798
0.09830504 -0.15059595 -0.062324457 0.06150427 -0.18201756 -0.08161777 -0.09919362 -0.18657641
0.20141478 -0.18615472 0.08682568 -0.035733484 -0.15149036 -0.06159266 0.13377064 -0.18159528
0.021331277 0.14003995 -0.1540596 0.15209289 0.09144344 -0.103103384 -0.0046878913 0.04803639
0.12127751 -0.4433103 0.023477532 -0.5820734 0.050770205 -0.0510662 0.15715122 -0.14113985
-0.15474948 0.13573945 -0.046781696 0.16429786 -0.046084676 0.04886397 0.08969894 -0.28170738
0.073906496 -0.07285103 -0.07181704 -0.1302173 0.016125701 -0.06452702 0.054457624 0.032087702
-0.3242739 0.118243 -0.235431 0.11782604 0.12952138 -0.26968178 -0.060967416 0.016767483
0.15753762 -0.06169396 0.039161094 0.023714652 -0.14806356 -0.06367784 -0.06726885 0.117667064
0.0485328 0.016702924 -0.17364746 -0.2273972 0.055413365 0.0039026174 0.021185912 -0.14142263
-0.057655733 0.010826494 -0.25244763 0.050349314 0.024880476 -0.11517167 0.028837875 0.15731795
0.07664748 -0.06815315 0.074269995 -0.0034403775 -0.13627459 -0.2753311 0.10179217 0.051908597
0.21546175 0.09424088 -0.0139382 -0.06385806 0.13229293 0.16146044 0.10773016 0.055371765
0.069339864 0.0863631 -0.05976448 -0.13531789 0.05141468 0.083814986 0.14577341 0.13129199
0.15376417 0.08140628 -0.018227072 -0.15147747 0.01776336 0.20184366 -0.192127 -0.013660168
-0.12316214 -0.045604542 -0.020386089 -0.15275168 -0.035666842 -0.01359583 0.06673931 0.03048447
0.15742089 -0.10049933 0.023118664 0.11520835 0.058778778 0.17634106 -0.056088466 -0.24736479
0.0895326 -0.19227499 -0.056441102 -0.06949121 0.24760063 0.05231747 -0.12673847 -0.014881531
-0.22330984 0.35135794 0.034844644 -0.15671536 -0.14164233 -0.10412692 -0.08764393 -0.050768152
-0.037066784 -0.038484197 -0.18195264 0.085584246 -0.05598651 0.04491779 0.13265921 0.16423972
0.047955703 -0.014967309 0.073163256 0.17370234 0.076388866 0.1741629 -0.17759769 0.18928358
-0.055890076 -0.18104652 0.22075056 -0.12896118 -0.03394624 0.061797827 0.0632032 0.20067169
0.1783056 0.037669923 -0.15683286 0.029130027 0.059075218 0.019606285 0.008520188 0.015412154
-0.015113217 0.13978152 -0.03496453 0.18223828 0.10922162 0.101910956 0.07497999 0.057815637
0.03955011 -0.21449351 0.20251694 -0.15594727 -0.08378141 0.036179885 -0.041532606 -0.021425651
-0.0009937149 0.10493838 0.15938233 -0.107518174 0.015589651 0.10467477 -0.05451248 0.21251534
0.07851051 0.16516514 -0.1644181 -0.09668589 -0.04396357 -0.076659076 -0.07490919 -0.10043816
-0.06788812 0.15682037 0.048427053 -0.007079344 -0.056147777 -0.21346542 -0.04584745 0.17814824
-0.2440965 -0.19656499 0.048555274 -0.019100543 0.092781745 0.10698291 -0.041703954 -0.03279328
-0.07238368 0.20683184 0.07072865 -0.008836655 0.10755168 0.10011809 -0.017589469 -0.038066566
0.069116004 -0.15313633 -0.08267949 0.037594948 -0.008691898 -0.021568894 -0.077424645 -0.052483007
-0.20501283 -0.19552955 0.14426118 -0.11942221 0.067686774 -0.04675964 -0.20938966 0.16007929
00000000: 2cef adbc 782b f63d b528 6bbc 4e5e 6ebe
00000010: 049c 923c 359c c9bd 8577 3d3e a66b edbd
00000020: 2754 c93d d335 1abe ee47 7fbd e7eb 7b3d
00000030: d062 3abe 3827 a7bd 0626 cbbd e30d 3fbe
00000040: ad3f 4e3e 589f 3ebe aad1 b13d 465d 12bd
00000050: 4a20 1bbe 9648 7cbd 2cfb 083e 1df4 39be
00000060: eebe ae3c a266 0f3e cdc1 1dbe 3dbe 1b3e
00000070: b346 bb3d de27 d3bd e29c 99bb cec1 443d
00000080: 5860 f83d 91f9 e2be f453 c03c c302 15bf
00000090: 6bf4 4f3d cb2a 51bd 40ec 203e f786 10be
000000a0: a676 1ebe 48ff 0a3e 2a9e 3fbd b33d 283e
000000b0: 49c3 3cbd 9625 483d 14b4 b73d f33b 90be
000000c0: 4a5c 973d ec32 95bd d014 93bd af57 05be
000000d0: 0c1a 843c be26 84bd f50e 5f3d 656e 033d
000000e0: 3b07 a6be 6329 f23d d314 71be c74e f13d
000000f0: 41a1 043e bb13 8abe f8b8 79bd f65b 893c
00000100: 8b51 213e ceb2 7cbd 6267 203d 3b45 c23c
00000110: f99d 17be 8769 82bd 40c4 89bd 6efb f03d
00000120: 54ca 463d 92d4 883c a4d0 31be d0da 68be
00000130: 20f9 623d 0ec3 7f3b 148e ad3c 18d1 10be
00000140: 6b28 6cbd 9b61 313c d140 81be 153b 4e3d
00000150: 24d2 cb3c 20df ebbd 683d ec3c f517 213e
00000160: 5bf9 9c3d e193 8bbd de1a 983d f577 61bb
00000170: 918b 0bbe 33f8 8cbe 6a78 d03d 1c9e 543d
00000180: 01a2 5c3e 5d01 c13d 0c5d 64bc 04c8 82bd
00000190: cc77 073e e355 253e a1a1 dc3d 81cd 623d
000001a0: 0f02 8e3d 23df b03d 99cb 74bd c690 0abe
000001b0: 3398 523d 31a7 ab3d a045 153e 6871 063e
000001c0: 5b74 1d3e 56b8 a63d f150 95bc e91c 1bbe
000001d0: 7784 913c 1bb0 4e3e f1bc 44be e6ce 5fbc
000001e0: 6f3c fcbd d4cb 3abd ba00 a7bc f06a 1cbe
000001f0: 6517 12bd 0bc1 5ebc 9fae 883d 91ba f93c
00000200: f132 213e 98d2 cdbd 5a63 bd3c 5bf2 eb3d
00000210: 04c2 703d c092 343e 05bd 65bd 324d 7dbe
00000220: de5c b73d bce3 44be c92e 67bd 6851 8ebd
00000230: 058b 7d3e d84a 563d bbc7 01be aad1 73bc
00000240: 56ab 64be 30e5 b33e 42b9 0e3d fe79 20be
00000250: b00a 11be 7f40 d5bd a97e b3bd 44f2 4fbd
00000260: 57d3 17bd 9ba1 1dbd cb51 3abe cb46 af3d
00000270: 1c52 65bd b7fb 373d d1d7 073e 752e 283e
00000280: 336d 443d 7239 75bc 9ed6 953d 07df 313e
00000290: c471 9c3d c257 323e 2bdc 35be 8ed3 413e
000002a0: feec 64bd 4264 39be 6f0c 623e 660e 04be
000002b0: 360b 0bbd b81f 7d3d ae70 813d e17c 4d3e
000002c0: be95 363e c74b 1a3d cb98 20be 18a2 ee3c
000002d0: dbf8 713d 5c9d a03c 4298 0b3c 4283 7c3c
000002e0: 6d9d 77bc e322 0f3e f836 0fbd ac9c 3a3e
000002f0: 96af df3d b1b6 d03d 1c8f 993d 17d0 6c3d
00000300: 4cff 213d 30a4 5bbe 9a60 4f3e a4b0 1fbe
00000310: 9695 abbd 5c31 143d 181e 2abd d984 afbc
00000320: 8a3f 82ba efe9 d63d 1f35 233e 7d32 dcbd
00000330: bc6b 7f3c ba5f d63d 7a48 5fbd 9f9d 593e
00000340: 1eca a03d 0d21 293e 385d 28be 4003 c6bd
00000350: 2513 34bd 6fff 9cbd fd69 99bd 86b2 cdbd
00000360: ed08 8bbd 8595 203e 725b 463d d7f9 e7bb
00000370: 36fb 65bd ae96 5abe 89ca 3bbd 7e6c 363e
00000380: 6ff4 79be 5548 49be e5e1 463d be78 9cbc
00000390: 5b04 be3d db19 db3d c4d1 2abd 3f52 06bd
000003a0: e53d 94bd bacb 533e 2fda 903d 9ec7 10bc
000003b0: 0e44 dc3d b70a cd3d ca17 90bc b0eb 1bbd
000003c0: b18c 8d3d c5cf 1cbe dd53 a9bd 29fd 193d
000003d0: 7668 0ebc 40b1 b0bc d090 9ebd 6cf8 56bd
000003e0: e2ee 51be e638 48be 34b9 133e a293 f4bd
000003f0: 5d9f 8a3d 0987 3fbd 3e6a 56be d3eb 233e

fc3.bias f4 [5]
0.06736058 0.08516839 -0.03660096 -0.06427092 0.13456896
00000000: 58f4 893d c46c ae3d e3ea 15bd 79a0 83bd
00000010: 72cc 093e
