output_visualizations/base_tsk[+1]_agm[crop]_spl[S1]_mdl[lenet]_ls[SM]_tu[none]/model.pt (torch, 249415 bytes, 10 tensors)

conv1.weight f4 [6, 1, 5, 5]
000000 08 d4 9c 3e a4 b9 1a 3f 5a 87 d7 3e 30 d7 d2 3e
       0.30630517 0.60439515 0.42095453 0.411798
000010 1b 46 17 bd 73 06 d1 3e c3 22 01 3f 7c de 2f 3f
       -0.036932092 0.40825233 0.5044367 0.6869886
000020 31 42 ee 3e d0 53 b5 bd 05 c8 3f 3f bf 43 46 3f
       0.46534875 -0.088538766 0.7491458 0.7744712
000030 1c 94 48 3f ab 48 ad 3e fc 08 22 3e 34 09 1a 3f
       0.78350997 0.33844504 0.1582374 0.6017029
000040 61 9e 5e 3f 2f 32 19 3f 1f 73 eb 3d d7 a9 28 3c
       0.8696042 0.598422 0.11496567 0.010294399
000050 04 e0 f1 3e 8f e9 0e 3f af 04 a6 3e 2b 2e 2e 3e
       0.47241223 0.5582513 0.32425448 0.17009799
000060 d1 fe b4 be 92 c9 76 3b c4 19 b2 3e 2c cb a3 3e
       -0.3535066 0.0037656766 0.34785283 0.31990945
000070 a5 89 f1 3d ae ca e0 be ae d6 0f 3f 86 f1 fc 3e
       0.11793832 -0.43904632 0.5618695 0.49403018
000080 ea 2d 4a 3f 1a b2 81 3e 65 ea 32 be 65 39 72 3f
       0.7897631 0.25331193 -0.17472227 0.9461883
000090 14 0d 87 3f 83 4c 89 3f 21 34 f5 3e 5d f8 82 3d
       1.0550866 1.0726475 0.47891334 0.06395028
0000a0 49 89 93 3f 9d cb 92 3f e6 6f 8d 3f 03 ef 38 3f
       1.1526271 1.1468388 1.1049774 0.722397
0000b0 48 0c b0 3e fb d0 86 3f a6 d8 a1 3f 33 fb 77 3f
       0.3438437 1.0532526 1.2644241 0.96867675
0000c0 11 ad 13 3f 0a 7f 7a 3d 33 61 10 be 02 d1 33 3d
       0.57685953 0.06115631 -0.14099579 0.043900497
0000d0 a2 e8 79 bd 93 81 17 3e f8 1f 5a bd 18 65 26 3e
       -0.06101287 0.14795522 -0.053253144 0.16249502
0000e0 b7 59 47 3e ad 0a 95 3d 6a 85 dd 3d 3a a4 8d be
       0.19467817 0.07277427 0.10816462 -0.27664357
0000f0 30 b2 03 3e 26 b9 3f 3c 9d ef 01 3e 84 43 0c be
       0.12860942 0.011701858 0.12689061 -0.1369763
000100 08 0f a7 bd b6 18 cf 3d be e0 a1 3e 32 a9 92 bd
       -0.08157164 0.10112135 0.31616777 -0.07161178
000110 d2 48 51 be 5a aa 86 be 20 09 ac 3e 17 52 51 3e
       -0.20437935 -0.26301843 0.33600712 0.20441471
000120 9c a8 5a 3e e4 2e 8a be 52 74 b3 be e4 ce 29 be
       0.21353382 -0.269889 -0.35049683 -0.16582829
000130 ad e8 11 be 85 2a 93 3d b2 90 7c 3d 41 c3 20 3e
       -0.14248915 0.07185844 0.06166143 0.15699483
000140 89 92 d9 bd d5 cf 0e be 28 9f ca 3d 93 0e b5 bd
       -0.106236525 -0.13946469 0.09893638 -0.088406704
000150 85 03 ea 3d a9 9a 52 bd 28 bb e9 3d a7 33 22 be
       0.114264525 -0.051417027 0.1141265 -0.15840016
000160 ec 53 d6 bd c5 f2 63 3d 5d ac 1c 3d d3 37 4d bd
       -0.104652256 0.055651445 0.038250316 -0.050102066
000170 f4 47 f5 3d a4 16 0b 3e 74 30 18 be c8 75 e0 bd
       0.119766146 0.13582855 -0.14862233 -0.10959965
000180 bf 7c 3b 3e a1 69 87 bd 06 f3 8b bd f6 e7 44 be
       0.18309306 -0.06611944 -0.068334624 -0.19229111
000190 c5 5c a2 3b f7 49 c1 3d 4f a7 93 bd 73 29 b5 be
       0.0049549066 0.09437936 -0.07209646 -0.35383186
0001a0 45 9b b8 be 63 b7 3f bd 52 58 59 be 70 a3 7a be
       -0.3605596 -0.04680575 -0.21225098 -0.24476409
0001b0 70 91 ed be 63 12 06 bf fe 61 7d 3e c6 d5 cb bd
       -0.46400023 -0.52371806 0.24744412 -0.099528834
0001c0 37 e8 28 be 04 b2 06 bf 3e c3 fd be 9c da 62 bd
       -0.16494833 -0.5261538 -0.4956302 -0.055384263
0001d0 5d c1 12 be 3a 32 d1 be 64 9b c3 be 7d c2 d1 be
       -0.14331575 -0.40858632 -0.3820449 -0.40968695
0001e0 90 8d 66 3c d5 2c 5a be f5 3b 23 be 6b 6c 88 be
       0.014071837 -0.21306165 -0.1594084 -0.26645216
0001f0 38 54 83 be c7 a7 fa bd 43 f9 97 bd f4 8c 27 be
       -0.2565019 -0.12239032 -0.0742059 -0.16362363
000200 73 d3 25 3e 7e 1e 3a bd 0b 51 2a 3e 74 9a 67 3d
       0.16193943 -0.045439236 0.16632478 0.056543782
000210 6e 40 33 be dc dd 07 3e af 05 79 bd 8f d7 a8 bd
       -0.17505047 0.13268226 -0.060796436 -0.082442395
000220 09 ea 2f be 0b 7d 51 be 6a fe 52 3d 5a 56 4a bd
       -0.17179121 -0.20457856 0.05151216 -0.049398758
000230 b6 88 93 3d 2e 0a 2e be 8c 14 12 3e b4 4b 1c be
       0.0720381 -0.1699607 0.1426565 -0.15263253
000240 9c 39 25 bd 09 33 13 3d 65 80 c7 3d ce 5b 1f 3e
       -0.040338144 0.035937343 0.09741286 0.15562364
000250 c9 96 34 3e 83 5b 28 be
       0.17635645 -0.16441159

conv1.bias f4 [6]
000000 06 fb 8d be 21 cb 81 be 17 13 8a bd 68 16 22 be
       -0.27730578 -0.25350288 -0.06741922 -0.1582886
000010 5d 90 10 3f 7e 4b 1c be
       0.5647028 -0.15263173

conv2.weight f4 [16, 6, 5, 5]
000000 dc bf 72 3e 23 74 1d 3e b6 00 5c 3d 4c 09 6a bb
       0.23706001 0.15376334 0.053711616 -0.0035711108
000010 42 57 e9 3d b0 98 2c 3e 52 b9 b9 3d db 98 96 bd
       0.11393596 0.1685512 0.0906855 -0.073533736
000020 43 bc 3c 3d bb f0 c8 bc 2e 93 9c 3d 44 3d f0 3d
       0.046077978 -0.024528852 0.0764526 0.117304355
000030 8b 65 80 bc 56 9b b5 bd 9e 32 04 be ba 0c 97 3d
       -0.01567342 -0.088675186 -0.12909934 0.07375474
000040 81 80 63 3d 9c 3a db bd b7 8d 21 be b9 fa 2f be
       0.055542473 -0.10704538 -0.15776716 -0.17185487
000050 7f 69 7a bc 0f 4e ab 3b 8c 4d 9b bd a0 6e 75 be
       -0.015283941 0.005227811 -0.0758315 -0.23967981
000060 39 62 0f be 7c 82 80 3e 7c 1e 17 3e 85 4b 01 3c
       -0.14002313 0.25099552 0.14757723 0.00789154
000070 8f 89 ba 3d 17 83 99 3d ba f4 44 3e 17 e5 93 3d
       0.091082685 0.074957065 0.19233981 0.0722143
000080 ed 5d b5 bc 86 bb ee 3b 23 9f 65 bd 61 d7 b3 3d
       -0.022139514 0.007285538 -0.056059968 0.08781315
000090 92 55 b6 3d 90 9e 8e 3c 2e 3d a5 bd 6a 78 0c be
       0.0890304 0.017409593 -0.0806831 -0.1371781
0000a0 f0 ec 93 3d c7 d3 e1 bb 5e 79 b4 bd 9e a0 e9 bd
       0.072229266 -0.006891701 -0.088122115 -0.114075884
0000b0 5c d8 74 be fc 95 23 3a 47 cb ac 3c c9 c1 05 be
       -0.2391066 0.0006240306 0.021093024 -0.13062204
0000c0 e7 be 3c be 5b 15 69 be ed 92 e6 3e dc 94 8e 3e
       -0.18432198 -0.22762053 0.4503397 0.27847946
0000d0 9f 1d 85 be 11 80 65 3d 60 4b 3b 3f 57 a2 d0 3e
       -0.25999162 0.056030337 0.7316189 0.40748855
0000e0 28 73 c9 3d da 1d 73 be 4a 56 34 3e cf f7 35 3f
       0.098364174 -0.23741856 0.17611042 0.7108125
0000f0 dd 1d d2 3e 5a 68 71 3e 5c d3 6a bd 46 f0 20 3e
       0.4103841 0.23574963 -0.057330474 0.15716657
000100 7a 2d 81 3e 09 ab 02 3f 60 1c 9e 3e 83 4a c7 bd
       0.25230008 0.5104223 0.30881023 -0.09731009
000110 30 a4 07 be 9f 9d 17 3e 51 4c e9 3e 35 0b bf 3e
       -0.13246226 0.14806221 0.45566037 0.37313238
000120 c9 27 a7 be f8 b9 a0 be 6c 9e d8 3c 94 19 90 3d
       -0.3264754 -0.31391883 0.026442729 0.07036129
000130 75 bc 34 3d 3e e9 88 3d 07 3c 40 3d 79 ff 3b 3c
       0.04412504 0.066851124 0.046932247 0.011474484
000140 ac 0c fb 3b 83 0d 80 bd e3 1c 8e bd 50 c5 ab bd
       0.0076614227 -0.06252577 -0.069391035 -0.08387244
000150 c6 c3 11 3d 5a 27 24 bd d6 01 56 bc 45 8c 71 bd
       0.035587095 -0.04007659 -0.013061961 -0.058971662
000160 25 ae 99 bc ee 90 4f bd 39 81 82 bd 72 0f 96 3c
       -0.018759796 -0.050675325 -0.063723035 0.018317912
000170 b4 45 f3 bc 70 4c 68 3d 76 9b e6 bc 3c c8 60 bd
       -0.029696323 0.05671352 -0.028150301 -0.05487846
000180 36 42 d6 bb 2c a2 1a bd ef 04 99 bc 5b d9 9d bd
       -0.0065386547 -0.037752315 -0.01867911 -0.07707473
000190 72 dd 06 bf e1 27 eb be 32 49 63 be 24 10 b2 be
       -0.5268165 -0.45928863 -0.2219589 -0.3477794
0001a0 9a 21 6e be f8 7e ae be 2a 02 13 be 3f 16 21 be
       -0.23255005 -0.34081244 -0.14356294 -0.15731142
0001b0 d6 39 4f be 20 d4 21 bc 6b 02 0a be 52 12 88 bd
       -0.20236906 -0.009877235 -0.13477485 -0.06644119
0001c0 03 7e aa bd 43 fe 6a be b6 d5 20 ba 38 54 14 be
       -0.08324816 -0.22948556 -0.0006135361 -0.14485252
0001d0 ee be 07 bb a2 2d 75 bc 78 bb 5f bd 07 2a 94 bd
       -0.0020713168 -0.014964493 -0.054622144 -0.072345786
0001e0 59 71 36 be c5 13 f9 bd a5 a5 32 bd f2 56 48 be
       -0.17816676 -0.12161974 -0.043615002 -0.19564417
0001f0 49 73 c8 bc e8 7a 48 bd 40 02 ea bb 4a 9d 24 bd
       -0.024469035 -0.048945338 -0.0071413815 -0.040189065
000200 fe b4 08 bd 0a 57 d4 bc bd 19 aa bd c5 fe 7c 3d
       -0.033375733 -0.02592041 -0.083056904 0.061766405
000210 3c 2f 8c 3d ca 5f ee bb 70 58 18 bc 8b 7d 08 bd
       0.06844947 -0.0072746025 -0.009298429 -0.033322852
000220 42 02 97 bd 4e ba a2 bd b8 97 f8 3c 11 9f 37 bd
       -0.073734775 -0.07945691 0.030345783 -0.044829432
000230 20 a4 3f bd c6 6c 23 ba 16 be de bc 08 65 d8 bc
       -0.04678738 -0.0006234165 -0.02719025 -0.026415363
000240 00 ef 2b 3b 60 e0 8d bc 38 4d e6 bc 63 21 20 bd
       0.0026234984 -0.017318904 -0.028112993 -0.03909434
000250 46 16 88 bd 49 07 98 3d ee bf a8 3d 3b 91 04 3e
       -0.06644873 0.074232645 0.08239733 0.12946026
000260 99 aa 00 3e 22 73 3e 3e 1e 4c 68 3e cd b2 29 3e
       0.12565078 0.18598607 0.22685286 0.16572113
000270 9d c7 23 3d 70 30 31 3e de 02 59 3e 9a fa c6 3d
       0.039985288 0.17303634 0.211925 0.09715767
000280 00 5e 0b 3e 31 0a 15 3e 9c 59 7b 3d 6e 6e 61 3d
       0.13610077 0.14554669 0.061364755 0.055036955
000290 19 e8 bc bd 5b 0e 14 bd 67 ed c9 3c 60 f7 79 ba
       -0.092239566 -0.036146503 0.024649335 -0.0009535458
0002a0 f8 f8 07 be 9a a5 4d be 80 e9 24 be d4 3d 4b be
       -0.13278568 -0.20082703 -0.16104698 -0.19847804
0002b0 b4 af 4d be f5 0e 3b be c3 ba fe bd 1e d0 35 3e
       -0.20086557 -0.18267424 -0.12437966 0.17755172
0002c0 39 aa b9 3d 84 aa f6 3d f0 11 72 3e da 2f b8 3d
       0.090656705 0.12044242 0.23639655 0.08993502
0002d0 1a 4c 0c 3e 00 dd 2a 3e 1f 44 d3 3d df 5b da 3d
       0.13700905 0.16685867 0.103157274 0.10662054
0002e0 bd 60 1d 3d ac cf ce 3c bf a5 8a bc 3d ff 3e bd
       0.038422335 0.02524551 -0.016924737 -0.046630133
0002f0 12 e1 a5 bd 4e 38 01 be 07 86 1e 3c ba d0 01 be
       -0.080995694 -0.12619135 0.009675509 -0.12677279
000300 ae a2 1c be 68 66 e0 bd 0c 43 16 be cd fc c7 bd
       -0.15296432 -0.109570324 -0.14674014 -0.09765015
000310 fb e1 c0 bd 52 89 03 be fd 45 8a be 8d 22 3c be
       -0.09418102 -0.12845352 -0.27006522 -0.18372555
000320 c4 d0 9e 3c 85 f5 0c be 1d 00 f7 3d 37 a5 c7 3e
       0.019386657 -0.13765533 0.120605685 0.38993236
000330 b9 5b ab 3e 1e eb 04 be d7 3f 37 be 42 6d 90 3e
       0.33468416 -0.12980315 -0.17895447 0.28208357
000340 c2 a6 d6 3e 02 1f 3b 3e 0b ae 31 3d fa 09 19 be
       0.419241 0.18273547 0.04337887 -0.14945212
000350 d6 e7 34 3e 42 0a 63 3e be e5 af bd bd cf 09 3e
       0.17666563 0.22171882 -0.08588742 0.13458152
000360 21 98 2d be a8 03 ae 3d 2d 89 75 be 79 29 16 bf
       -0.16952564 0.08496791 -0.2397811 -0.5865703
000370 93 24 0f be 46 82 eb bd 43 43 8b bc e3 26 23 bf
       -0.13978796 -0.11499457 -0.016999846 -0.6373121
000380 e0 63 34 bf 7e b5 47 bd fd a9 b6 3c d3 ea 92 3d
       -0.704649 -0.04875707 0.022297854 0.071736954
000390 23 da 00 bc a2 71 6f 3d c6 ea a5 bd 27 7a c2 bc
       -0.007864508 0.058457978 -0.0810142 -0.023739887
0003a0 7f 5c 22 3d 70 a8 b8 bc 4e 84 83 bc 5a 57 f2 bc
       0.039638992 -0.022541255 -0.016054299 -0.029582668
0003b0 15 48 79 3d a0 93 17 3d 53 64 cc 3c f4 3d 4b bd
       0.06085976 0.03700602 0.024950182 -0.04961963
0003c0 b1 b2 94 bd e5 fa 18 bb d7 09 b0 3c 59 86 18 bd
       -0.07260645 -0.0023342904 0.021489067 -0.0372375
0003d0 f4 bb 9e bc c5 8f 51 3d 48 92 a4 3c b5 87 1e bc
       -0.019376732 0.0511625 0.020089284 -0.00967591
0003e0 52 ea e0 bc 43 12 a6 bd b0 32 26 be c0 03 16 be
       -0.027455483 -0.08108952 -0.16230273 -0.14649868
0003f0 00 0a f1 be 79 40 1e bf 87 99 12 bf c5 2c 2a be
       -0.47077942 -0.6181713 -0.57265514 -0.1661864

conv2.bias f4 [16]
000000 fa 65 18 be cd 07 02 bd 16 21 f2 bd 6f cc 09 bd
       -0.14882651 -0.03174572 -0.11822717 -0.03364223
000010 7c c4 f1 3d a2 86 fb bc cd 01 13 be 81 01 ac bd
       0.118050545 -0.030703846 -0.14356156 -0.08398724
000020 71 ed 9e bc c8 10 3c 3d 70 77 7c be 0c 78 59 bd
       -0.01940033 0.04591444 -0.24654937 -0.053093
000030 d7 d1 df 3d a9 22 5e be 5d 9c fe 3d 50 f1 17 be
       0.10928696 -0.2169291 0.12432168 -0.14838147

fc1.weight f4 [120, 400]
000000 e4 cd 88 3e 8b b9 39 3e 6d ec 0b 3e 1a b5 39 3d
       0.26719582 0.18137185 0.13664408 0.045338728
000010 6b d2 92 3a 92 3d c7 3b 78 31 d4 3d 43 6e 3a 3d
       0.0011201625 0.006080338 0.10360998 0.04551531
000020 d0 1a db 3d 1c a3 e8 3d 63 7f 67 3d 98 a6 e0 bc
       0.106984735 0.11359236 0.05651797 -0.027423188
000030 90 1d 88 bd cf bd db bd 70 84 1e 3c 58 cc 30 be
       -0.066462636 -0.107295625 0.00967513 -0.17265451
000040 f6 cb d8 bc 24 05 81 bd a7 f6 e1 bd 59 43 f3 bd
       -0.026464444 -0.062998086 -0.11033373 -0.1187808
000050 1a f0 58 be 6c 92 69 be 02 ea 06 3c ad c0 fb bc
       -0.21185341 -0.22809762 0.008234503 -0.030731523
000060 f5 20 1b 3d 17 7b 9f bb 15 6e 44 bc 62 e0 83 3b
       0.037873227 -0.0048669684 -0.011989136 0.0040245513
000070 5f 65 a6 bc b6 93 3f bc 10 b5 fc bc 6d 6a 09 3e
       -0.02031201 -0.011692932 -0.030848056 0.13419504
000080 43 6a d3 3d 7e 22 34 3e bd 58 e3 3d a6 45 f9 bc
       0.10323002 0.17591283 0.1110091 -0.030428719
000090 e5 05 a2 bd a4 55 c0 3c ab db 19 3c 38 42 b5 3d
       -0.079112805 0.023478337 0.009390752 0.08850521
0000a0 80 26 21 3d 05 a6 11 be 09 33 aa bd f0 4a d5 bd
       0.039343357 -0.14223488 -0.083105154 -0.10414684
0000b0 0a 7c dc ba 27 3b 30 bc 91 a9 98 bd 1e 1d e6 bd
       -0.0016821634 -0.0107562905 -0.07454217 -0.112360224
0000c0 e8 d2 6f 3d 9f 6b bf 3c 52 39 0c be 67 85 5c bd
       0.058550745 0.023366747 -0.13693741 -0.05383816
0000d0 14 25 8a 3c 90 7e ea 3d ed 64 36 3c 11 4f ea bd
       0.016863383 0.11449921 0.011132461 -0.11440862
0000e0 32 fa 58 bd a7 5c f3 bd 8e 6c c3 bd c9 2a 2a be
       -0.05297298 -0.118829064 -0.095421895 -0.16617884
0000f0 56 46 90 3d 6a 2f 09 3d 3c 1a 37 bd 05 ff bb 3c
       0.070446655 0.033492483 -0.044702753 0.022948751
000100 be 34 30 3d 89 89 04 3d a2 28 67 bd b4 3e af bc
       0.04301905 0.032357726 -0.056435235 -0.021392204
000110 57 db 8d bc 7d dd 7e 3c c6 dc 59 be a3 7f 02 be
       -0.017316503 0.015555737 -0.21275625 -0.12744002
000120 78 46 11 bd be d5 1a 3e 1f 10 45 3e d0 cf 65 3e
       -0.035467595 0.15120599 0.19244431 0.22442555
000130 26 f0 03 3e c6 03 92 3d f4 34 3f 3e b2 31 b3 3e
       0.12884578 0.07129626 0.18672544 0.34998852
000140 f8 47 65 3e 78 38 7f bd 97 31 3d be 2a 0a db 3d
       0.22390735 -0.062309712 -0.18475948 0.10695298
000150 b1 d8 72 3e 34 39 fe 3d ee e0 2b be ba d5 76 be
       0.23715474 0.124132544 -0.16785023 -0.24104968
000160 08 bf c7 3d 52 d9 1f 3e 77 c5 d1 3b af 31 52 be
       0.09753233 0.15610245 0.0064017135 -0.20526765
000170 c2 ba a8 be 9e c5 8a bd 11 e7 00 3e 93 1d 9f 3b
       -0.32954985 -0.06775974 0.12588145 0.0048558204
000180 cd 24 21 3d 1b 74 4d be 16 62 ef bd 72 29 4d 3e
       0.039341737 -0.20063822 -0.1168863 0.20035341
000190 d6 65 55 3a 17 53 4f 3e 4d c6 34 3e 42 a8 80 bc
       0.000814048 0.2024654 0.1765377 -0.015705232
0001a0 2d 27 cd be ff f2 61 be 82 e9 14 3e 0b 04 a2 3e
       -0.4006895 -0.22065352 0.14542201 0.3164371
0001b0 1d 0e bd 3e d4 93 9b be 63 08 21 be bc 6f 5e 3e
       0.3692483 -0.3038622 -0.15725856 0.21722311
0001c0 da db 81 3e d5 7d 7d 3e b9 22 a0 be 05 b4 7f bd
       0.25363046 0.24755032 -0.3127649 -0.06242754
0001d0 d4 15 f0 b8 82 a8 f9 3d 05 04 15 bd 16 cb f0 3b
       -0.000114481576 0.121903434 -0.036380786 0.0073484285
0001e0 f2 8d e9 bd b9 97 d2 bc df bc de bd 78 1c 8a be
       -0.11404027 -0.025707113 -0.10875868 -0.26974845
0001f0 4d 6f 2c be f7 93 df 3c b4 8e 8a 3b 35 93 38 3b
       -0.16839333 0.027292235 0.0042284373 0.0028163914
000200 b1 9d 7f 3e 6f 92 31 3e 1c 36 72 bc e7 16 98 ba
       0.24962498 0.17341016 -0.0147834085 -0.0011603505
000210 6c 3f 8f bd c6 14 d4 3c 9b d3 3b 3e 4d 61 a3 3d
       -0.06994519 0.025888812 0.1834244 0.07977543
000220 80 99 c2 3d 03 be ed bd c3 ac 8e bc 10 4d 01 3e
       0.09501934 -0.116085075 -0.017416364 0.12627053
000230 57 90 71 3c 52 d6 1f 3e 45 6b a6 3c a5 64 64 bc
       0.014743886 0.156091 0.020314822 -0.013940011
000240 92 0f ae 3d 09 91 a9 be de 9b 8d 3d 4a 23 a8 3d
       0.084990636 -0.33118466 0.06914495 0.08209856
000250 a2 a9 dc 3d f3 97 2c 3e 81 40 4b 3d ef bb b9 3b
       0.107745424 0.16854839 0.049622063 0.0056681554
000260 89 e3 c9 3c fa 93 d1 3c 55 ac ef 3d 77 80 c5 bd
       0.02464463 0.025583256 0.117027916 -0.09643643
000270 6e 7c a0 3c 56 e3 b0 bd 06 e4 b5 3c 9c 38 95 3b
       0.019590583 -0.08637111 0.022203457 0.0045538675
000280 5d 7e be bd dd 49 54 3d dd 09 dd bd e2 01 3f be
       -0.09301446 0.051828254 -0.10792897 -0.18653062
000290 c6 54 a6 bc 34 ec 23 bc c8 d7 59 3e f4 4e 2d 3e
       -0.020304095 -0.010005046 0.2127372 0.1692465
0002a0 23 60 95 3c d3 b7 87 bd 9e 90 8b bd 63 bf be 3d
       0.018234318 -0.066268586 -0.06814693 0.09313848
0002b0 a7 06 69 3e 0e 64 24 3e 62 f6 bf 3d f4 cb 19 3b
       0.22756444 0.16053793 0.09373166 0.0023467513
0002c0 74 8f 38 be 5c 5c 08 be b0 a2 15 bc 8b c8 88 3e
       -0.18023473 -0.13316482 -0.009133026 0.26715502
0002d0 58 f1 b5 bd 15 19 8f bd c5 27 06 bd b6 fe c2 3d
       -0.08883923 -0.06987206 -0.03275277 0.095212385
0002e0 38 e0 81 3e 84 70 0f 3e 30 b6 7e 3c 96 d5 95 bd
       0.25366378 0.14007765 0.015546367 -0.07316129
0002f0 25 1d 0e 3e 82 21 da 3d 52 cd 85 3e bc 14 2e 3e
       0.13878305 0.10650922 0.2613321 0.17000097
000300 c3 10 4c be 3b 00 0d bd 9f d3 6e 3d 83 bc 93 3e
       -0.19928269 -0.034424048 0.058307286 0.2885476
000310 c0 a2 36 3e e3 04 c7 3d b7 c6 df 3d 54 82 05 3e
       0.17835522 0.09717729 0.10926574 0.13037997
000320 00 f2 a9 bd 18 5a a6 be b5 3e 74 be 8d 8c 87 3c
       -0.08298111 -0.3249061 -0.23852046 0.016546512
000330 80 25 42 3e 4d 24 fb 3d 40 1c 86 be e5 34 59 be
       0.18959618 0.12262783 -0.26193428 -0.21211584
000340 f1 40 30 bd 8c 93 8d 3b 26 56 0f 3e 5a 98 7d be
       -0.043030683 0.0043205675 0.13997707 -0.24765149
000350 5f e4 7f bc d4 87 26 bd 07 85 d9 bb dc 24 af 3d
       -0.015618413 -0.04065688 -0.0066381725 0.08551952
000360 56 bc 7a 3c fc 30 06 be e0 fb 0a be df ff fc ba
       0.015303692 -0.13104624 -0.13572645 -0.001930233
000370 a4 4b d1 3c ed 20 d6 bd 86 ad 08 be 71 0c 84 3d
       0.025548764 -0.10455499 -0.13347444 0.064476855
000380 8b 25 50 3e fe e9 4f 3c e4 b8 0d 3d fe d5 b2 3d
       0.20326822 0.012690065 0.034600154 0.08732222
000390 a7 4c 96 3d ad 69 8f 3d ee 19 09 3c 64 dd a1 bd
       0.07338839 0.07002578 0.0083679985 -0.07903555
0003a0 2f 85 05 bd c0 06 b6 bd 3b 6f 4e 3d 81 51 76 3c
       -0.032597717 -0.08888006 0.050399046 0.0150340805
0003b0 c5 fe b3 3d 81 76 de 3b d4 c2 92 3d 06 26 58 3d
       0.08788828 0.006789029 0.07166067 0.052770637
0003c0 ff 01 28 bd 0f 28 bc 3d d5 d2 69 3d 6e 02 bc 3c
       -0.04101753 0.09187328 0.05708583 0.022950377
0003d0 8b 10 6c 3d 40 28 0d be ab fa 06 be ed 1d 59 3d
       0.057632964 -0.13784885 -0.1318156 0.053007055
0003e0 d4 41 34 3d 3d 7a ff 3c 91 b8 08 3e 3a 5f e9 3c
       0.04400809 0.031186217 0.13351656 0.02848779
0003f0 39 c9 42 bb 6d 78 ae 3d e0 e6 fc 3d ff 83 85 3d
       -0.0029721989 0.08519063 0.123487234 0.06519317

fc1.bias f4 [120]
000000 46 af 3f be af 88 32 bd 84 c4 1f 3d af cb c5 3d
       -0.18719205 -0.043587383 0.03900577 0.0965799
000010 4f b1 a9 3d 7d 10 4d 3e 19 76 9d bc 2c 93 38 bd
       0.08285772 0.20025821 -0.019221352 -0.04506223
000020 40 62 09 be 27 be 50 3e e8 01 09 3e 08 d5 f1 bc
       -0.13416386 0.20385037 0.13379633 -0.029520527
000030 57 eb d1 bc 6b ff 86 3d 71 1b 67 be 3c 27 8c 3e
       -0.025624914 0.06591686 -0.22569062 0.27373683
000040 ce 04 34 3f 9f 8d 38 bd d7 d1 4d 3e 6b d3 53 3d
       0.7031983 -0.045056935 0.20099579 0.051715296
000050 8b d9 a0 bd bd 91 f0 bc 54 80 98 bb 6b ca 47 3e
       -0.07853993 -0.029366368 -0.00465397 0.1951081
000060 a0 18 ef bc d6 58 ce 3d 64 cb fd bd 82 ba 0e bd
       -0.029186547 0.10075538 -0.12392309 -0.034845836
000070 b2 33 6c 3c e5 02 d3 bc a2 66 bb 3e b2 41 ae bd
       0.014416622 -0.025758216 0.3660174 -0.08508624
000080 8d a6 e2 3d e7 7b 91 3e 02 8e 90 bd 42 b9 fc 3d
       0.11066923 0.28414842 -0.07058336 0.123400226
000090 a9 39 8d bc 2c b3 a4 3e 0d c6 87 bd 6f 8b 1b 3d
       -0.017239409 0.32167947 -0.06629572 0.03797477
0000a0 13 28 40 ba 3f 04 4f 3e 4f 1d 89 b9 9c 6a 0b 3e
       -0.000733019 0.20216464 -0.00026152513 0.13614887
0000b0 8d f1 1c 3d c2 72 b5 3d d7 0b 08 bd 11 e1 2a bd
       0.0383163 0.08859779 -0.033214416 -0.041718546
0000c0 60 ec 5f bd d6 ec 1d 3e b7 57 f9 bb 89 de 01 bd
       -0.054668784 0.15422377 -0.0076093334 -0.031706367
0000d0 1c 04 e9 3d f5 a0 0a 3e fd 5a 14 be 86 e8 94 3c
       0.11377737 0.13537963 -0.14487834 0.018177282
0000e0 74 2e 46 bc 9e 98 d6 bd 68 23 f2 bb a4 82 ee 3d
       -0.012096036 -0.10478328 -0.0073894747 0.116460115
0000f0 55 17 25 bd 8b ca 80 3d 68 b9 15 bc 5f 99 65 3e
       -0.040305454 0.06288632 -0.009138443 0.22421788
000100 cf 62 78 bc 5c 8b 80 bd 3a 96 1b be ff 08 0b bd
       -0.015160277 -0.06276581 -0.15194026 -0.033944126
000110 10 3c ab bd c3 36 bc 3e ad 83 32 be 71 23 28 be
       -0.083610654 0.3676053 -0.17433043 -0.1641977
000120 d4 2f 90 bd 40 2c fc bd 4e 7a 92 3e ff 82 87 3d
       -0.070403725 -0.123131275 0.28608936 0.066167824
000130 40 88 01 bd b3 5b 66 3d c5 3b 0a 3e 41 39 76 3e
       -0.03162408 0.056239795 0.13499363 0.24045278
000140 11 3f 75 bd 82 d4 e8 3c bb e1 4e ba ab 7e 52 3d
       -0.059874598 0.028421644 -0.0007891913 0.05139033
000150 e7 e2 47 3d 2b 27 54 bd 38 15 d4 bc a5 4a 43 3e
       0.048800375 -0.051795166 -0.025889024 0.19071443
000160 aa 48 1f bd a0 5c ce bc f6 ab 9f bd 26 56 54 bc
       -0.038887657 -0.025190651 -0.07796471 -0.0129599925
000170 0b 88 4a bd 37 3b 15 3d d5 b6 44 bd 97 d2 32 bd
       -0.049446147 0.036433425 -0.048025925 -0.043657865
000180 63 d5 9f bc 75 01 0e be fe e2 43 bd 3c 9f 74 3e
       -0.01951093 -0.13867743 -0.0478239 0.23888868
000190 36 9f 43 bd 1d da e3 bd d1 09 e4 bc e0 75 02 3c
       -0.047759257 -0.11125586 -0.027836712 0.007962674
0001a0 ef f6 36 bc 41 2e 13 be 98 8b c6 bc 0f 13 21 bd
       -0.011167272 -0.14373113 -0.024236485 -0.039324816
0001b0 13 5b 91 bd 22 cb 12 3d 57 59 76 3e b3 d9 23 bc
       -0.07097449 0.035838254 0.24057518 -0.010000634
0001c0 ff 1d 75 3d 3d b2 2d bd db 65 8d 3d cc d3 3c 3e
       0.05984306 -0.04240631 0.06904193 0.18440169
0001d0 1a 5c 88 bc 93 bb a8 3c 75 b2 79 3c 1e f9 34 bd
       -0.01664548 0.020597255 0.015240301 -0.04418289

fc2.weight f4 [84, 120]
000000 0b f1 c8 bd 91 7f cd 3e 6b ba d2 bb 30 01 dc bc
       -0.098116 0.40136388 -0.006430914 -0.026856035
000010 8b d6 b6 3c c0 3f 33 bc 5e ec 83 bd ac 4c b1 3c
       0.022319099 -0.010940492 -0.06441568 0.021643005
000020 93 72 0e 3e 06 e7 35 be 4b e0 89 3d 0b e0 26 bd
       0.13910894 -0.1776391 0.067322336 -0.040741008
000030 ac 93 0d 3d 9c e2 f7 bb e7 b5 ad bc 10 ce 87 3d
       0.03456466 -0.0075648557 -0.021204902 0.066311
000040 25 28 84 3d d6 59 a5 bd fa 07 25 3e 65 77 85 bc
       0.064529695 -0.080737755 0.16116324 -0.016292283
000050 10 09 24 3d 00 4b 36 bd 38 47 28 bd e0 d8 26 3c
       0.040047705 -0.04450512 -0.041083544 0.010183543
000060 7a f0 9b 3d 83 73 e3 bb 14 f5 88 3d 00 46 2a b9
       0.07614227 -0.0069412603 0.0668737 -0.0001623854
000070 fc bc ce bc 4b 54 7a bd 62 cd 8a be 0a 16 3a 3b
       -0.0252366 -0.061115544 -0.2710982 0.0028394484
000080 80 18 27 be 3a 4e 34 be 66 b7 c3 bd 02 60 a2 bd
       -0.1631794 -0.17607966 -0.09556465 -0.07928468
000090 bc 70 6e 3d 7f 8f c1 3e 5d 47 1a be 8e 1a 85 3e
       0.05821298 0.3780479 -0.15066285 0.25996822
0000a0 d4 95 ce bc 25 c3 50 3e b0 ef 6b 3c 9c ca b5 3d
       -0.025217928 0.20386942 0.014400408 0.08876535
0000b0 3b 6d 72 be f6 fe 0c bc 7a 6e da bd 9c a2 96 bc
       -0.2367448 -0.008605709 -0.10665603 -0.018388085
0000c0 b0 00 d4 bc 48 02 33 be 7d de 90 bd c9 f4 f8 bd
       -0.025879234 -0.17481339 -0.07073686 -0.12156064
0000d0 21 e2 06 bd d7 ac 8d 3b 83 66 6d be 1a 51 b3 be
       -0.032930497 0.0043235826 -0.23183636 -0.35022813
0000e0 09 9e da bc 17 4e 12 3d 4c 9d d6 bc cb 47 f2 bd
       -0.026686685 0.035719004 -0.026198052 -0.118301
0000f0 da b1 a4 3d b9 a1 88 bd 90 e5 7d bc 9e ed 84 be
       0.08041735 -0.06671471 -0.0154966265 -0.25962538
000100 00 ec 18 bc b0 f3 a2 bc 62 a9 b8 3b 1c 61 f6 3c
       -0.009333611 -0.01989159 0.0056354264 0.030075602
000110 5d 4c 5b 3d db ae 01 bd 17 59 2a be 26 dc 1f 3d
       0.053539623 -0.031660896 -0.16635548 0.03902831
000120 ef aa 42 bb 92 28 4c be 76 88 cf 3b 76 31 ca be
       -0.0029703935 -0.19937351 0.006333406 -0.3949086
000130 1a 56 07 3c fa 7c 8a bd 02 9e 49 3d 08 1b c6 3d
       0.008260274 -0.06762119 0.049222954 0.096731246
000140 0c 29 74 3d 0a 8b c7 3b 5f 59 21 bd 82 d3 21 3e
       0.059609458 0.006089573 -0.03939187 0.1580334
000150 8c 93 ce bd f2 f8 b0 bd f0 72 8d bb b7 b7 78 3b
       -0.10086736 -0.086412326 -0.00431668 0.00379513
000160 f3 4b 4e be a0 50 b9 bb 72 c5 e7 bd 97 7c a9 bd
       -0.2014616 -0.005655363 -0.113169566 -0.08275717
000170 a8 e2 72 3d 0f 93 e8 3c 12 4d 58 3b 38 ac a9 3d
       0.059298187 0.028390436 0.0033004922 0.08284801
000180 20 fd 97 3b 11 d9 73 3d 1a ea 95 be 43 34 39 bc
       0.004638329 0.059533183 -0.29280168 -0.011303964
000190 94 cc 19 3e a3 c2 75 be dc 40 0a bd 19 3c fa 3c
       0.15019447 -0.2400003 -0.03375326 0.030546235
0001a0 c0 e1 1e 3b 41 c0 01 be 58 f9 b4 3d 2d 66 20 bd
       0.0024243444 -0.12670995 0.08836621 -0.039159942
0001b0 bd 59 33 bd b1 43 9b be d2 63 3f be fc 93 8c 3c
       -0.043786753 -0.30325082 -0.18690422 0.017160408
0001c0 ea ef 64 bd e0 1d fd 3c 15 c8 f3 bc 18 55 25 3c
       -0.055892862 0.030898035 -0.029758492 0.010091089
0001d0 11 b8 aa bd 33 62 ac be 64 a8 ba bd d1 9d 2b bd
       -0.08335889 -0.3366867 -0.09114149 -0.041898552
0001e0 04 c8 48 bc 28 ea 2f be 44 9a ab bd bb 37 51 3d
       -0.012254719 -0.17179167 -0.08379033 0.05107854
0001f0 03 4f b5 bd 20 c8 58 bc c1 8a b4 bc 1c 10 30 bc
       -0.08852961 -0.013231307 -0.02203882 -0.010746028
000200 80 94 5a bd a5 a6 1f 3d aa f1 e6 bd 94 3d 4c bd
       -0.053364277 0.038977284 -0.112765625 -0.049863413
000210 6b 99 59 bd c7 f4 ba 3b b3 55 c4 bd 19 9d ad bd
       -0.053124826 0.0057054493 -0.09586658 -0.084772296
000220 2a b4 4a 3e c2 c3 9e bd 1d 83 30 3e 03 cd 90 bd
       0.1979529 -0.077521816 0.17237516 -0.07070353
000230 18 48 c3 3c 39 16 9e 3d fc 50 e4 3d 55 34 9d bd
       0.023838088 0.077190824 0.11148259 -0.07675997
000240 59 fe a9 bd 6c f7 af 3d b4 5a 09 3e ae 43 67 bd
       -0.08300466 0.08592114 0.13413507 -0.05646103
000250 08 6a 89 3d ed 7f 1e 3c 43 33 9b 3e db b1 00 be
       0.06709677 0.009674055 0.30312547 -0.12567846
000260 27 b3 9f 3d 81 61 a0 3a 48 d0 11 3e 47 f7 76 3e
       0.077978425 0.001223609 0.14239609 0.24117766
000270 5d 2f 66 bc 01 fe 30 3e 78 19 01 bc ee 9a 32 be
       -0.014049378 0.17284395 -0.007879607 -0.17441913
000280 a3 c1 80 be be d5 fc 3c 50 ec 9b bd 4b 6e 9e bd
       -0.25147733 0.030863639 -0.076134324 -0.077358805
000290 e2 70 81 bd 72 8d f8 3d 53 75 c3 3d 5e da 2c 3c
       -0.06320359 0.121363536 0.09543862 0.01055011
0002a0 ff 41 b0 3d cb ca e2 3d 83 46 78 bc a7 ed e3 3c
       0.08606338 0.11073836 -0.01515353 0.027823282
0002b0 15 56 f6 3d b9 17 0b be 0e 5d ac bd 5a 65 95 3e
       0.120281376 -0.13583268 -0.08416186 0.29178888
0002c0 85 8e ba bc 0f a3 fd 3c e1 39 1f 3d 99 b4 61 be
       -0.022773037 0.030961541 0.038873557 -0.22041549
0002d0 c2 f0 e8 3c 9f 69 84 3c b7 ad 43 3c 1b d8 af 3e
       0.028435115 0.016163645 0.011943272 0.34344563
0002e0 c8 db 67 3d 00 f4 4d 3a 71 c1 61 3b 71 aa 14 bd
       0.056606084 0.0007856488 0.0034447575 -0.036295358
0002f0 3b 71 be 3e 45 f6 8c 3e a7 58 05 be 92 08 d0 bd
       0.37195763 0.2753164 -0.130221 -0.10157885
000300 4e 21 1d 3e 0d 8d ff bd da 99 b9 3d 9f 73 10 3e
       0.15344736 -0.12478075 0.09062548 0.14106606
000310 4e 98 59 bc 82 9d e6 bd 70 8b 34 bd 75 f4 d7 3c
       -0.013280941 -0.11260511 -0.04407829 0.026361683
000320 13 53 0d bd 85 42 2f 3e 9b 63 a7 be 61 be 89 3e
       -0.034503054 0.17115219 -0.3269318 0.2690306
000330 09 2a 4e bd 20 5a 9d bd 8d b0 25 bd 97 4f 16 be
       -0.050333057 -0.076832056 -0.040451575 -0.14678799
000340 37 8f 70 3c 4d f7 35 bd c8 04 08 3e 2c f9 13 bc
       0.014682583 -0.044425298 0.13283074 -0.009031575
000350 9e 99 23 3d cb c3 a8 3e 82 a0 ad bd e9 43 73 bd
       0.039941423 0.32961878 -0.0847788 -0.059390936
000360 77 21 9a 3d 69 b1 d4 bd 73 7e 40 bd aa 5a c4 bd
       0.07525914 -0.10385401 -0.04699559 -0.09587605
000370 66 50 e3 bc 20 77 50 3b 91 50 07 3d 2b 14 0c 3e
       -0.027748298 0.0031809285 0.03303582 0.13679568
000380 67 bb c2 3c 56 0e 31 be f5 bf 74 3b fe 8a 9c bc
       0.023771001 -0.17290625 0.003734586 -0.019109245
000390 fa 75 30 3c bc b3 20 3e 37 c5 25 3c 48 11 74 3d
       0.010770315 0.15693563 0.01011782 0.059586793
0003a0 36 e9 80 3e 56 a6 9d 3c a3 1f 28 be ae 74 39 3e
       0.25177926 0.019244354 -0.16418318 0.18110916
0003b0 3c 7e 31 3b 3c 38 88 bd bc e0 70 3c 58 8e 4c 3c
       0.0027083298 -0.06651351 0.014702018 0.012485109
0003c0 d9 22 7a bd 86 29 7b 3d 65 87 c0 bd 15 30 66 3c
       -0.06106839 0.061318897 -0.094008245 0.01404955
0003d0 fe 94 28 be 90 5b d5 3c 0c 16 1c bd ec fb 25 3b
       -0.16463086 0.026044637 -0.038106963 0.002532716
0003e0 3f 9a e5 3c 9c ef 47 bc fd 1a 27 3b 8c 60 00 3d
       0.028027652 -0.012203123 0.0025498264 0.031342074
0003f0 ad d6 43 3c b6 d1 71 3d 8c da d8 bc 15 7f 2f 3d
       0.011953038 0.059037887 -0.026471399 0.042845804

fc2.bias f4 [84]
000000 18 06 73 3d 95 4e 1a 3e d0 1b 56 3d 2f 0d a1 3d
       0.059331983 0.15069039 0.052272618 0.07863843
000010 d2 f6 fc bc 80 34 a0 bd e9 d3 14 3e 5e 48 d4 bd
       -0.030879412 -0.078225136 0.14533962 -0.103653654
000020 a2 94 ad 3e 05 c6 94 bd a3 86 d4 3d 74 e9 c4 3e
       0.3390246 -0.07264332 0.103772424 0.3845936
000030 36 fe 0d bd 64 6b 33 bc d2 43 30 3d 86 df c8 bc
       -0.034666263 -0.010950897 0.04303343 -0.024520647
000040 9d 96 61 bc 27 16 d5 bc c5 cd c0 3e 36 df 42 3d
       -0.013768819 -0.02601154 0.3765699 0.04757615
000050 7f b2 bf ba 04 fe 12 bd a2 2a 57 3e 76 07 ce b9
       -0.001462534 -0.03588678 0.21012357 -0.0003929694
000060 a9 25 a9 3d f3 c9 9b 3d 43 b9 1b be 9c 72 e2 3d
       0.08259136 0.07606878 -0.1520739 0.11057016
000070 04 73 46 bd 01 e7 e0 bd 3b c4 8d 3e d9 a1 56 3c
       -0.04844953 -0.109815605 0.27688774 0.013100111
000080 b3 4f 2b 3e 86 9e 20 be 96 9d 27 3d 3f 56 df bb
       0.16729622 -0.15685472 0.04092177 -0.0068157013
000090 dd 42 ba 3e 09 6d 01 bc 75 3b 92 3e 33 60 a4 39
       0.36379138 -0.007899531 0.28560987 0.00031352192
0000a0 e9 64 98 bd 10 18 ad 3e cf 7c 01 be 5c 08 aa bd
       -0.07441122 0.3380742 -0.12645267 -0.08302376
0000b0 d0 28 a2 3c 2c c8 de 3c 0f e1 b7 3d 5d 22 84 3d
       0.019794852 0.027195059 0.089784734 0.06451867
0000c0 bd a9 9e bc 3b 2e 19 be 10 06 a0 bd 02 f2 95 bd
       -0.019368047 -0.14959042 -0.07813656 -0.0732155
0000d0 ef b1 cb 3d d2 50 ff 3d c5 b9 18 3e 26 23 91 3e
       0.099460475 0.12466587 0.14914615 0.2834713
0000e0 dc 66 66 bd a3 ff 81 3d 05 e3 7d bd 1e bb a6 3c
       -0.056250438 0.06347587 -0.06198408 0.020352896
0000f0 ef 20 b4 3e 72 90 17 bd d9 f5 a3 3d 08 88 31 3f
       0.35181376 -0.03700299 0.08005876 0.6934819
000100 55 0f 95 3d b2 67 d9 bc 17 d8 38 3e 8c ff 15 3f
       0.07278315 -0.026538704 0.18051182 0.5859306
000110 47 02 9e bd 16 fb f5 bd bd 97 27 3e b2 ff c5 3d
       -0.07715278 -0.120107815 0.16366477 0.09667911
000120 a5 f7 09 bd 10 31 ab 3e dc 90 30 3d 4a 67 08 bd
       -0.033683438 0.3343587 0.0431069 -0.03330163
000130 51 14 04 3e 41 4a df bd 6e d9 5d 3c ee a1 01 3d
       0.12898375 -0.10902835 0.013540609 0.03164857
000140 91 35 10 3d ef 27 ad bd f7 4f 37 bd cc 96 aa bb
       0.035207335 -0.08454882 -0.044753995 -0.0052059647

fc3.weight f4 [9, 84]
000000 67 77 1e be 96 55 17 3c c0 89 f4 bc 9a 06 7e be
       -0.15475236 0.009236714 -0.02985084 -0.24807206
000010 04 9c 92 3c 35 40 a9 be 54 3e d3 3d f3 b9 ec be
       0.01789666 -0.330568 0.103146225 -0.46235618
000020 6e 65 bf 3e 41 d9 81 bc 74 d3 0a bd 64 fb 19 3f
       0.37382072 -0.015850665 -0.033893064 0.60149217
000030 96 25 51 be eb cd 81 be 99 d3 ed be 9a 61 ee be
       -0.20424494 -0.25352415 -0.464505 -0.4655884
000040 9e 0a 8e 3d ae 07 4d be 50 38 b5 3e 7f ba a6 be
       0.06935619 -0.20022461 0.35394526 -0.3256416
000050 1a 6a a2 be 0d a3 3e bd 75 89 9c 3e 00 51 c9 be
       -0.31721574 -0.046542216 0.3057362 -0.3931961
000060 17 51 e7 bd 3f 0b e1 bc 7c 87 e5 bc ed c1 09 3e
       -0.112947635 -0.027471183 -0.028018706 0.13452883
000070 58 78 2d be 09 db 08 bf 3a 2b 5a 3e 2d 5f 47 bc
       -0.16940439 -0.5345922 0.21305552 -0.012168688
000080 a5 ef 39 3e 4e 4e fd be 45 cb 2a 3e fb b3 42 be
       0.18157823 -0.49473804 0.16679104 -0.1901397
000090 74 e5 7e 3e 5c 13 c8 be c3 b7 98 3e a0 ef da bc
       0.24892217 -0.3907727 0.298277 -0.02672559
0000a0 6d 07 8d be ef 28 c5 3e 8f 47 c0 bd 9c 67 0d be
       -0.27544728 0.38507792 -0.09388649 -0.13809055
0000b0 39 bb 74 be 52 e7 33 be 3d 94 a2 3d 89 db b9 be
       -0.23899545 -0.1756871 0.079384305 -0.36300305
0000c0 db 30 a3 be 8e 06 22 be e6 c2 6c bd 10 1d b6 bc
       -0.3187321 -0.15822813 -0.057803057 -0.022230655
0000d0 84 1f 95 bd ab a9 03 be 29 7c 43 3d 0a 49 64 3e
       -0.07281402 -0.12857692 0.04772583 0.22293487
0000e0 47 9d c9 be d0 9e 82 bc 64 8c b3 be 1b 9b 80 3e
       -0.39377806 -0.015944868 -0.35068047 0.25118336
0000f0 c2 9e bf 3e b3 6e 36 be c0 1f 8f bc 3b c5 09 3f
       0.3742581 -0.17815666 -0.017471194 0.53816575
000100 86 73 31 3d 13 b5 88 be 4e f3 3d 3e f2 95 ec 3e
       0.043323062 -0.2670065 0.18549845 0.4620815
000110 09 46 b2 be 01 61 80 3c d6 7a e3 bd 73 4c 9d 3c
       -0.34819058 0.015671255 -0.111074135 0.019201493
000120 c1 c1 d6 3d 48 15 28 3e a6 b0 95 be dd 54 8a be
       0.104861744 0.16414368 -0.29236335 -0.2701787
000130 4f 15 39 3e 50 02 e9 3c af 18 63 be d3 87 5f be
       0.18074535 0.028443485 -0.22177385 -0.21829157
000140 50 72 21 be cb df ec bd a3 77 97 be 07 5b 32 be
       -0.15766263 -0.115661226 -0.29583463 -0.17417537
000150 c3 17 9c 3e d6 a3 ae be 99 5e b7 3d 3e 2d 48 3e
       0.3048688 -0.34109372 0.0895359 0.19548509
000160 19 f1 9b 3d 2f c3 dc bd 98 c6 1b 3e 4c f2 40 3a
       0.07614345 -0.10779416 0.15212476 0.0007360324
000170 ec 3c 9a be ab 4f 4b bd be 4f c8 3b e4 ed 4c be
       -0.30124605 -0.049636524 0.0061130216 -0.20012623
000180 9a 2b 1e 3e 1f 66 fa 3d 1a 7d 68 be e5 d7 bd be
       0.1544632 0.12226509 -0.22703972 -0.37078777
000190 89 67 7a 3d a4 31 9a 3c dc 77 3d bc a8 9b c3 3c
       0.061133895 0.018822499 -0.011564221 0.023877934
0001a0 d2 ba d7 3c ea 18 0e 3d ee be 3e bd eb 38 1a be
       0.0263342 0.03469173 -0.046568803 -0.15060775
0001b0 c0 96 8f bd db 8d 38 bc 32 8c 6b bd 11 71 3a 3e
       -0.07011175 -0.01126429 -0.057506748 0.18207194
0001c0 80 c1 e9 3e 11 dd 9b 3d d2 82 b9 3d ab 6a 8d bd
       0.4565544 0.076105244 0.09058155 -0.06905111
0001d0 7c 5c d6 3d cd 24 f4 ba b1 d1 e4 bd 17 ea 43 be
       0.10466859 -0.001862669 -0.11172808 -0.19132267
0001e0 52 c3 40 be 44 f4 48 be d0 4b 2e 3e c7 ba 08 be
       -0.18824509 -0.1962443 0.17021108 -0.133525
0001f0 25 9e 4e bd 15 3b 44 3d c1 59 3b bd a0 29 3c bd
       -0.050443787 0.047907908 -0.045739893 -0.045938134
000200 a0 53 c2 3d fa 1b cb be 6c 33 f0 3d 64 88 f3 3d
       0.094886065 -0.39669782 0.11728558 0.11891249
000210 c6 a0 95 38 2d 6a 9d 3d a5 2b 03 bd 4b d9 1d be
       7.13482e-05 0.07686267 -0.032024045 -0.15414922
000220 72 a6 41 3e f0 5c 7a be 1b 47 b4 bc 5e 47 9a be
       0.1891115 -0.24449515 -0.022006562 -0.30132574
000230 9f d6 61 3d d2 7c 46 3d 5a 73 04 bc bc 59 c8 3e
       0.05513632 0.04845888 -0.008084143 0.39130962
000240 54 b1 02 bf 24 35 5a 3e 9a b2 80 bd d4 2e c5 be
       -0.5105183 0.21309334 -0.062840655 -0.3851229
000250 4d 6e c3 be 94 11 48 be cd 80 d6 be d1 c5 eb bc
       -0.3817009 -0.19537956 -0.41895142 -0.02878085
000260 a2 f8 e8 bc 08 0d a7 3c 11 02 9f be 99 50 7b 3e
       -0.02843887 0.020391956 -0.31056264 0.24542464
000270 d7 b5 0c bd 9e 54 bd 3d 22 f4 01 3e 0b 03 b2 3d
       -0.034353103 0.09244655 0.12690786 0.08691987
000280 37 38 b9 3e ec 41 27 bc e6 21 6b 3e a4 48 61 3e
       0.361757 -0.010208588 0.2296215 0.22000366
000290 7e e7 d5 bb f3 57 4c 3e 78 08 25 be 2a 40 19 3e
       -0.00652784 0.19955425 -0.16116512 0.14965883
0002a0 6f 2f 25 be ca d2 ab be b5 c9 ca 3d 8e 9c 3b be
       -0.16131376 -0.33559257 0.09901754 -0.1832144
0002b0 b1 cd 7c bc 9e be d6 3d 67 55 49 bc c8 7f 5b 3e
       -0.0154299 0.10485576 -0.012288428 0.21435463
0002c0 47 82 51 3e 4a b0 eb bc b3 2e 47 be ee 70 38 3e
       0.20459853 -0.028770585 -0.19451408 0.1801183
0002d0 16 7b 05 3e b1 cc 86 3b 21 05 df 3c ac 37 8b 3e
       0.13035235 0.0041137566 0.027224125 0.27190912
0002e0 e8 7d 45 bc 61 f5 be 3d e4 2d 12 bf 6e a9 b9 bd
       -0.012053944 0.09324146 -0.57101274 -0.09065519
0002f0 d6 ee 35 3e 90 b2 70 3d ea cd 52 3c 64 26 71 3d
       0.1776689 0.05876404 0.012866477 0.058874503
000300 c3 94 92 3d e7 25 b3 be 29 39 e5 bc e4 ad 29 be
       0.0715728 -0.34989855 -0.027981358 -0.1657024
000310 3e 66 07 be 30 73 b2 3d 6f 2a ec be b0 cd cc bd
       -0.13222596 0.087133765 -0.46126124 -0.10000169
000320 cc 67 9c be bb e6 ae 3d fb 0f ad 3d 04 d9 06 3e
       -0.3054794 0.08540102 0.08450314 0.13168722
000330 61 7c e9 be a8 bd a9 3e c7 f4 d5 bd 7d 61 08 3e
       -0.45602706 0.3315251 -0.10447078 0.13318439
000340 f3 65 f7 3d 4e 9c b7 3e a1 5a 9d bd 53 a6 58 3e
       0.12079992 0.3586144 -0.07683302 0.21157198
000350 0b ff 96 bd 5c 41 40 be 3d 95 52 be 0a f8 91 be
       -0.07372864 -0.18774933 -0.20564742 -0.2850955
000360 82 0f 3d be 20 de d4 3e 99 f6 48 3d f2 db b7 bc
       -0.18462947 0.41575718 0.0490633 -0.022443745
000370 2b 7e 8b be c8 71 26 be d1 8a 27 be 1c 33 48 3e
       -0.27244696 -0.16254342 -0.16361548 0.19550747
000380 84 28 5c bd a7 31 f0 bd 61 86 b3 3d f6 30 47 bb
       -0.053749576 -0.117282204 0.08765865 -0.0030394173
000390 3b d7 0c 3e a2 e9 f9 3d 34 80 0e bf a7 75 52 be
       0.13753979 0.12202765 -0.5566437 -0.20552693
0003a0 f5 b0 9a be b5 4a ae 3e 80 26 1a 3d 3b 8b 97 be
       -0.30213133 0.34041372 0.037634373 -0.29598412
0003b0 b3 2e 1f 3e 47 6c b8 3b ca 6c dc be d0 bd 94 be
       0.15545158 0.005628142 -0.4305175 -0.29051065
0003c0 e7 18 0d 3d e0 ae c7 be 93 1e 1c bc c6 e3 bd 3d
       0.034447577 -0.39000607 -0.009528774 0.0927196
0003d0 8b 29 05 bf 10 60 3c bd 83 7f 95 bd cb 96 b0 bd
       -0.52016515 -0.04599005 -0.072997116 -0.086225115
0003e0 2d bf 4f be 42 c1 2b bd ca 5a 39 3e 0c 08 a1 bd
       -0.20287772 -0.041932352 0.1810104 -0.07862863
0003f0 d5 70 9f be ea ed 7b be d2 27 63 bd 5b d2 53 3e
       -0.31140772 -0.24602476 -0.055457897 0.20685713

fc3.bias f4 [9]
000000 d3 81 f2 3e 77 3e c6 bc 70 4a 52 be f7 7f 62 3d
       0.47364673 -0.024199707 -0.20536208 0.055297818
000010 90 9f 67 bd db 84 2b bc 9e ea 17 3d 08 70 d6 bd
       -0.056548655 -0.010468687 0.037088983 -0.10470587
000020 27 cb 49 be
       -0.19706403
