output_visualizations/base_tsk[^]_agm[geo]_spl[S3]_mdl[lenet]_ls[SM]_tu[none]/model.pt (torch, 248071 bytes, 10 tensors)

conv1.weight f4 [6, 1, 5, 5]
0.24686463 0.24961138 -0.026286334 0.10928353 -0.21813333 0.12605849 -0.044155113 0.09629968
0.054935176 -0.33763677 0.20071182 0.054720573 0.12201971 -0.08522525 -0.056420866 -0.029146597
0.17138757 0.03571212 -0.1651416 -0.06272918 -0.11426406 0.001446272 -0.053507794 0.074726775
-0.28613237 -0.15092981 0.008415344 -0.038820133 -0.06600444 -0.3969174 0.13484742 -0.10545709
0.30929184 0.00835883 -0.2570565 0.035088528 0.07659972 0.3473407 0.053756554 -0.23203996
-0.1407969 -0.075306445 0.22419858 0.25378713 0.026107654 -0.30842546 0.06227203 0.11820874
0.23046847 -0.0825071 -0.24177884 -0.12574345 -0.15188529 0.18247983 0.109396115 0.041039225
0.018249119 -0.013280613 0.1347896 -0.14848024 0.033575572 -0.12208029 0.09370395 -0.07035553
0.07017938 0.04282516 0.23591621 -0.061393727 -0.1166441 -0.105005756 0.250109 0.12712556
0.21975198 -0.20605412 -0.23494117 -0.2022489 -0.23993872 0.018951053 0.14726122 0.340064
-0.15193635 -0.23884597 0.07909008 0.0057660057 0.2574076 -0.042575657 0.11006466 -0.10079275
-0.005100096 0.09766837 0.08010957 -0.028087862 0.14751805 0.10980104 -0.26609328 0.08659075
0.2940979 -0.028271541 -0.1317519 -0.31368175 0.043838553 0.02582513 -0.28430644 -0.4560454
-0.7284237 -0.15542299 -0.35562867 -0.29259136 -0.40861163 -0.6731659 0.024471195 -0.25836027
-0.1166159 -0.30632246 -0.22841555 -0.23364422 -0.23266476 -0.42962384 -0.29282475 -0.07057369
-0.28526548 -0.5900372 -0.5288877 -0.4624073 -0.010592096 -0.24366693 -0.11396052 -0.21639386
0.1351336 -0.05603489 0.037818156 0.009750648 -0.22598746 0.10200233 -0.05332728 -0.20099671
-0.2155279 -0.2519242 0.057716936 -0.0029445083 0.062411286 -0.0957316 0.19807355 -0.06132674
0.029722625 0.12222059 0.29260814 0.33980972 0.36106697 -0.046819285
00000000: 15ca 7c3e 209a 7f3e 7056 d7bc 0bd0 df3d
00000010: 585e 5fbe 7a15 013e fedb 34bd c438 c53d
00000020: b503 613d bade acbe 6687 4d3e ae22 603d
00000030: 78e5 f93d 938a aebd 9119 67bd d8c4 eebc
00000040: 3980 2f3e df46 123d e11a 29be 2878 80bd
00000050: 4703 eabd d690 bd3a fd2a 5bbd 5a0a 993d
00000060: f17f 92be 588d 1abe 83e0 093c dc01 1fbd
00000070: 562d 87bd c238 cbbe 7115 0a3e e3f9 d7bd
00000080: 805b 9e3e 79f3 083c e99c 83be fdb8 0f3d
00000090: 50e0 9c3d a4d6 b13e d52f 5c3d e29b 6dbe
000000a0: 102d 10be 443a 9abd 5094 653e 63f0 813e
000000b0: b8df d53c f1e9 9dbe f510 7f3d 6d17 f23d
000000c0: edff 6b3e 7cf9 a8bd df94 77be e4c2 00be
000000d0: d187 1bbe fedb 3a3e 120b e03d bf18 283d
000000e0: 2d7f 953c ee96 59bc 4906 0a3e 340b 18be
000000f0: 8a86 093d 3b05 fabd dbe7 bf3d 8f16 90bd
00000100: 35ba 8f3d 6f69 2f3d 0594 713e fd77 7bbd
00000110: 1ae3 eebd 420d d7bd 490e 803e 342d 023e
00000120: aa06 613e daff 52be 6b94 70be 561a 4fbe
00000130: 7fb2 75be 3d3f 9b3c a5cb 163e de1c ae3e
00000140: 3495 1bbe 0a94 74be fbf9 a13d c3f0 bc3b
00000150: eeca 833e d063 2ebd 9569 e13d 6e6c cebd
00000160: b51e a7bb 5b06 c83d 7c10 a43d 8418 e6bc
00000170: f90e 173e 5edf e03d 613d 88be 7e56 b13d
00000180: 0094 963e b899 e7bc f8e9 06be e59a a0be
00000190: 0e90 333d 398f d33c 9d90 91be c87e e9be
000001a0: fa79 3abf 3427 1fbe f614 b6be 89ce 95be
000001b0: 8b35 d1be 9a54 2cbf d177 c83c cc47 84be
000001c0: 51d4 eebd 4cd6 9cbe c4e5 69be 6e40 6fbe
000001d0: ac3f 6ebe a8f7 dbbe 20ed 95be f088 90bd
000001e0: 510e 92be ae0c 17bf 2f65 07bf a6c0 ecbe
000001f0: 788a 2dbc d383 79be 2264 e9bd 5a96 5dbe
00000200: 7660 0a3e d784 65bd 36e7 1a3d 2fc1 1f3c
00000210: 4269 67be 99e6 d03d b56d 5abd 15d2 4dbe
00000220: 59b3 5cbe 35fc 80be 9868 6c3d a7f8 40bb
00000230: faa2 7f3d ee0e c4bd cbd3 4a3e bf31 7bbd
00000240: dd7c f33c ca4e fa3d bcd0 953e 8afb ad3e
00000250: c5dd b83e 94c5 3fbd

conv1.bias f4 [6]
-0.0032901973 -0.02471917 -0.00030670778 -0.037014857 0.24468856 -0.013046219
00000000: 5aa0 57bb db7f cabc 9fcd a0b9 e49c 17bd
00000010: a38f 7a3e cfbf 55bc

conv2.weight f4 [16, 6, 5, 5]
-0.041173525 0.1299107 0.038872167 -0.1266161 0.14439996 -0.14074786 0.090840064 -0.029653441
-0.056248624 0.04572145 -0.19729285 0.11270171 0.056881785 -0.11134175 0.015755888 -0.14093027
0.077561654 0.032509614 -0.10951594 -0.020036453 -0.13215262 0.10762405 0.16428293 -0.1060728
0.013419019 0.14840001 0.14850156 -0.22016457 0.10799611 0.07894563 0.04469609 0.13441333
-0.25027376 0.055395998 0.06028348 -0.06191135 0.1790935 -0.14672333 -0.093353994 -0.017943824
-0.062105816 0.15463984 -0.21220721 -0.07791107 -0.08055792 -0.048593868 0.25102395 -0.13067748
-0.12007849 -0.08228269 -0.38504753 0.03290323 0.14814487 -0.104861505 0.06498395 -0.2912806
-0.1416158 -0.033639606 -0.35426214 -0.1622462 -0.38085333 -0.18180695 0.039763473 -0.2495522
-0.28856206 -0.364885 -0.24111952 -0.0775128 -0.26499543 -0.33954632 -0.52436537 -0.31987494
-0.028152563 -0.06826711 -0.5483273 0.080049105 0.024613846 0.13559805 0.1482754 0.047365144
0.09163959 -0.18540521 -0.056759052 0.032174814 -0.0593113 0.022568116 -0.16579582 -0.022521775
0.1819795 -0.16458683 -0.039143156 -0.097660154 -0.095590405 0.22099747 -0.17012218 0.055419818
-0.037556168 -0.052596606 0.16776846 -0.17185101 0.11990156 0.08548948 0.22751774 0.093907565
0.075225666 -0.0129100075 0.07824254 0.100541264 0.049015675 0.010705742 0.042517703 -0.047081556
0.059684426 -0.04079267 -0.037328143 0.021775957 -0.023178246 0.024202771 0.08639929 -0.083732635
0.05048181 -0.07509422 -0.03066568 -0.011677433 0.019211492 -0.09269111 0.0061479416 -0.1696726
-0.04927749 -0.18418619 -0.022290641 0.12708993 0.07224427 0.11753934 0.119300626 -0.12368652
-0.038286466 -0.1980949 0.122608796 -0.10219437 0.076538906 0.13555548 0.051509578 0.23257777
0.14223912 0.005647559 0.07085965 0.03376248 0.04326453 -0.047908843 0.062403444 0.059113774
0.007167563 -0.0009427721 0.036375213 0.025211887 -0.10825088 0.0080245035 -0.010071636 -0.06224552
0.042196512 0.0426477 -0.047202088 -0.03537674 -0.08790013 -0.026241 0.025703304 0.031088307
-0.04725081 -0.05853773 -0.109634005 -0.124509186 -0.060705796 0.014444367 0.066407956 -0.038348347
-0.18281107 -0.27000657 -0.34022272 -0.09030215 -0.15693729 -0.11478288 -0.15619768 -0.23809585
0.029761313 -0.10491458 -0.09433938 -0.10169291 -0.14732425 0.041567475 -0.09789642 -0.11966077
-0.07526189 -0.0812216 0.09767691 -0.14238137 -0.031721234 0.011583464 -0.14015687 0.0876503
0.10348034 0.08556781 0.12758695 0.034926463 -0.20795833 0.044290885 0.014891171 -0.09886324
-0.44563904 -0.23839891 -0.07389852 -0.20111449 -0.49269995 -0.4939127 -0.15841772 -0.47307727
-0.6072766 -0.5396049 -0.3720591 -0.15190823 -0.8646195 -0.51118046 -0.27432582 -0.07923191
0.006854356 0.031679176 0.17234626 0.11784844 0.00037981523 0.047080215 0.0719193 0.06747852
-0.08471321 -0.14150202 -0.1498262 0.10443634 0.11789944 -0.06441712 -0.048292264 -0.1295608
-0.018493151 0.010853574 -0.0646844 -0.051524226 -0.09506885 0.03525556 0.04408067 0.036141932
0.025984693 -0.11809343 -0.22427408 -0.2098908 -0.11386515 0.03611098 0.16492704 -0.26871854
00000000: 92a5 28bd 4f07 053e 6c38 1f3d a7a7 01be
00000010: 95dd 133e 3520 10be 5b0a ba3d c6eb f2bc
00000020: f564 66bd 6a46 3b3d 2307 4abe 27d0 e63d
00000030: e0fc 683d 2507 e4bd 7e12 813c 0650 10be
00000040: a5d8 9e3d cd28 053d e549 e0bd 7d23 a4bc
00000050: 0453 07be ff69 dc3d c939 283e b23c d9bd
00000060: 72db 5b3c 2cf6 173e cb10 183e d272 61be
00000070: 112d dd3d 3fae a13d 3f13 373d a6a3 093e
00000080: e223 80be eae6 623d cfeb 763d c196 7dbd
00000090: 4964 373e a43e 16be 6130 bfbd edfe 92bc
000000a0: ab62 7ebd e859 1e3e d94c 59be d78f 9fbd
000000b0: 8dfb a4bd 5d0a 47bd 3686 803e 51d0 05be
000000c0: b6eb f5bd d483 a8bd f324 c5be 8ac5 063d
000000d0: 4ab3 173e a1c1 d6bd 4e16 853d bb22 95be
000000e0: bb03 11be afc9 09bd d961 b5be de23 26be
000000f0: 35ff c2be 9a2b 3abe 06df 223d 9d8a 7fbe
00000100: 68be 93be 35d2 babe 09e8 76be 08bf 9ebd
00000110: 7bad 87be 04d9 adbe cf3c 06bf a6c6 a3be
00000120: 34a0 e6bc a0cf 8bbd 2e5f 0cbf c9f0 a33d
00000130: faa2 c93c 37da 0a3e 82d5 173e f401 423d
00000140: 8aad bb3d ddda 3dbe 2e7c 68bd bdc9 033d
00000150: 68f0 72bd c5e0 b83c 61c6 29be 967f b8bc
00000160: d658 3a3e 7389 28be 9354 20bd 0c02 c8bd
00000170: e7c4 c3bd 294d 623e 8234 2ebe e4ff 623d
00000180: 7fd4 19bd 8a6f 57bd 7fcb 2b3e b6f9 2fbe
00000190: f38e f53d 1c15 af3d 69fa 683e 9c52 c03d
000001a0: ea0f 9a3d 7f84 53bc a03d a03d 94e8 cd3d
000001b0: a9c4 483d 2367 2f3c 0b27 2e3d 97d8 40bd
000001c0: a877 743d 3716 27bd 65e5 18bd 7e63 b23c
000001d0: 4ee0 bdbc e444 c63c 1cf2 b03d 047c abbd
000001e0: 04c6 4e3d 00cb 99bd 9836 fbbc b452 3fbc
000001f0: 6b61 9d3c d6d4 bdbd ac74 c93b a7be 2dbe
00000200: 31d7 49bd 4e9b 3cbe dd9a b6bc dd23 023e
00000210: cef4 933d 77b8 f03d e353 f43d 5c4f fdbd
00000220: 45d2 1cbd 64d9 4abe 521a fb3d 484b d1bd
00000230: 6ec0 9c3d 0ecf 0a3e b5fb 523d de28 6e3e
00000240: 22a7 113e 290f b93b dd1e 913d 874a 0a3d
00000250: 2636 313d 103c 44bd c19a 7f3d 4921 723d
00000260: e0dd ea3b 5d24 77ba 2dfe 143d 2989 ce3c
00000270: a3b2 ddbd 3579 033c 8103 25bc 29f5 7ebd
00000280: 40d6 2c3d 5baf 2e3d fa56 41bd 33e7 10bd
00000290: fc04 b4bd 5ef7 d6bc bc8f d23c e8ac fe3c
000002a0: 118a 41bd 42c5 6fbd cb87 e0bd acfe febd
000002b0: a4a6 78bd 11a8 6c3c e500 883d 2813 1dbd
000002c0: d332 3bbe 4d3e 8abe ac31 aebe 55f0 b8bd
000002d0: 2bb4 20be 4913 ebbd 49f2 1fbe 66cf 73be
000002e0: ffcd f33c 75dd d6bd 0135 c1bd 5f44 d0bd
000002f0: 2bdc 16be a842 2a3d eb7d c8bd b510 f5bd
00000300: e822 9abd 8357 a6bd d50a c83d 6ccc 11be
00000310: 20ee 01bd 92c8 3d3c 4885 0fbe 0082 b33d
00000320: 80ed d33d 2d3e af3d 27a6 023e 0d0f 0f3d
00000330: 07f3 54be 5c6a 353d 19fa 733c cf78 cabd
00000340: cd2a e4be d81e 74be 1b58 97bd f5f0 4dbe
00000350: 2b43 fcbe 20e2 fcbe 4138 22be 2f37 f2be
00000360: 7b76 1bbf 8c23 0abf 887e bebe d58d 1bbe
00000370: b457 5dbf b9dc 02bf 6f74 8cbe 5744 a2bd
00000380: 819a e03b 06c2 013d 8a7b 303e 865a f13d
00000390: f021 c739 2fd7 403d 6d4a 933d 2e32 8a3d
000003a0: 1f7e adbd e8e5 10be 0a6c 19be b8e2 d53d
000003b0: 4375 f13d 1fed 83bd 1cce 45bd 96ab 04be
000003c0: f37e 97bc 30d3 313c 4179 84bd 110b 53bd
000003d0: 75b3 c2bd 2268 103d ef8d 343d 9009 143d
000003e0: dadd d43c f8da f1bd 1ba8 65be 9ded 56be
000003f0: 2232 e9bd 1be9 133d a2e2 283e 7a95 89be

conv2.bias f4 [16]
0.04059865 0.1488666 0.009943279 -0.035971314 0.027767556 -0.008119945 0.10896263 -0.017527057
-0.058906484 0.039836798 -0.054437976 0.025008315 -0.051241845 -0.032269288 0.024253212 0.0073225657
00000000: c54a 263d 7c70 183e 23e9 223c a856 13bd
00000010: c978 e33c 8509 05bc cd27 df3d e794 8fbc
00000020: ed47 71bd e92b 233d 5bfa 5ebd 3dde cc3c
00000030: f8e2 51bd cd2c 04bd acae c63c 22f2 ef3b

fc1.weight f4 [120, 400]
0.0075597093 0.041355494 -0.01370982 -0.05392356 -0.0015582866 -0.082276486 -0.055821005 -0.080175675
-0.038794305 0.0064554345 -0.032678332 -0.04233719 -0.12799776 -0.021234201 0.041957848 -0.084139794
0.029557671 -0.07872861 -0.05769912 0.040314473 -0.032130584 -0.043793377 -0.017383939 0.016002981
0.11766413 0.23533107 0.2319973 0.1902452 0.19887955 0.22029977 0.18490522 0.2169918
0.16063529 0.18524992 0.19013335 0.11377443 0.113740176 0.13651313 0.15206417 0.16160986
0.08352749 0.052526694 0.14337476 0.14003254 0.029261671 0.033252016 -0.062313426 -0.09486743
-0.110899106 -0.2034419 -0.14842886 -0.22740997 -0.24074817 -0.15938847 -0.20783038 -0.18611388
-0.14944594 -0.17301746 -0.034186274 -0.14733304 -0.05490601 -0.050619364 0.011617523 0.06644815
0.16663733 0.07909708 0.093532786 0.16869329 0.19438355 0.19587465 -0.002889358 0.0020077373
-0.048354674 0.13283372 0.033962727 -0.18293887 -0.18162481 -0.23860557 0.04866721 0.042904917
-0.0960662 -0.19217503 -0.1899334 -0.052688267 -0.0146064395 -0.058288634 -0.110238865 -0.13569064
-0.027253019 -0.045961704 -0.05431087 -0.0139051825 -0.059743654 0.05650888 -0.019089196 0.054051578
0.04022539 -0.013135877 0.11079062 0.07348711 -0.03786577 -0.11565912 -0.09777012 -0.09141438
-0.10631462 -0.26133657 -0.13811359 -0.17068161 -0.09700298 -0.21112046 -0.052751448 -0.00652152
-0.030076688 0.005335523 -0.12302937 0.031042384 -0.025520388 0.11807137 0.040242374 0.05515771
-0.046747398 -0.08885374 0.09503419 -0.0150196785 0.0043071317 -0.08274093 -0.068199486 -0.22617431
-0.05902607 0.06833279 -0.02078358 -0.063148014 -0.0664717 -0.044912852 0.04037657 -0.077168785
-0.05654858 -0.120668225 -0.009485858 -0.03019606 -0.07293638 0.04276071 0.024568105 0.040708523
0.08469567 0.002260467 -0.06564855 -0.109770566 0.07587865 0.06837653 0.01777346 -0.10941106
-0.11060694 -0.1483781 -0.0018941998 -0.15960102 -0.14066254 -0.16400172 -0.03043095 0.06912499
-0.047475595 -0.028167378 -0.06719683 -0.07255541 0.076561995 0.123456255 0.063355505 0.03818913
0.041465674 -0.015437914 0.07979847 0.12501049 0.09593344 0.08583201 0.038524095 0.1653763
-0.03927955 0.029760303 0.049941096 0.021324964 0.06259256 0.026580576 0.038394332 -0.07012169
0.0074590715 -0.0024483302 -0.010157104 -0.02480981 -0.055888746 -0.006429834 -0.04646558 -0.03782027
-0.059110854 -0.06390465 -0.0840992 0.00077367487 -0.07048278 -0.022501359 0.07805822 0.17847385
-0.022439824 -0.09051299 -0.05497925 0.05488877 0.02130356 -0.003139599 -0.13479842 -0.10967047
-0.027692998 -0.041047666 -0.0039329617 -0.17715165 -0.17635095 -0.04198815 -0.057083953 0.047109723
-0.16396293 -0.11170108 -0.045521747 0.033623848 0.029693885 -0.086287186 -0.048812237 0.04314171
0.1143414 0.03748606 0.07459976 -0.022766415 -0.029056503 0.0071631176 0.021499125 -0.018877933
-0.04107868 -0.045270067 0.010087105 -0.007155734 0.11699842 0.026801411 0.026845437 0.029448489
-0.03340239 0.08254731 0.0389542 0.013145311 0.082998835 -0.08273008 -0.061584983 0.008435502
-0.037530076 -0.039397284 -0.045496307 -0.09214172 -0.16321574 -0.020272939 0.038199436 -0.12368128
00000000: 70b7 f73b 6164 293d 279f 60bc f3de 5cbd
00000010: 6c3f ccba 9380 a8bd 91a4 64bd 2533 a4bd
00000020: c7e6 1ebd 1c88 d33b b7d9 05bd c369 2dbd
00000030: d811 03be 59f3 adbc fedb 2b3d 7c51 acbd
00000040: ee22 f23c 773c a1bd ea55 6cbd ca20 253d
00000050: 5c9b 03bd af60 33bd c368 8ebc af18 833c
00000060: e4f9 f03d a1fa 703e b390 6d3e a3cf 423e
00000070: 15a7 4b3e 4396 613e cb57 3d3e 1933 5e3e
00000080: 947d 243e 28b2 3d3e 51b2 423e 9102 e93d
00000090: 9cf0 e83d 19ca 0b3e b6b6 1b3e 0e7d 253e
000000a0: 7610 ab3d 3b26 573d d5d0 123e b164 0f3e
000000b0: 2cb6 ef3c 4433 083d 5d3c 7fbd db49 c2bd
000000c0: 121f e3bd 1353 50be bcfd 17be 29de 68be
000000d0: b086 76be bb36 23be 7dd1 54be a394 3ebe
000000e0: 5b08 19be 7d2b 31be e806 0cbd 79de 16be
000000f0: 20e5 60bd 4056 4fbd 6c57 3e3c f815 883d
00000100: faa2 2a3e a6fd a13d 1e8e bf3d efbd 2c3e
00000110: 7b0c 473e 5d93 483e 625b 3dbb 3e94 033b
00000120: 8d0f 46bd 9005 083e 801c 0b3d 5454 3bbe
00000130: dbfb 39be 0555 74be 4557 473d 11bd 2f3d
00000140: 5bbe c4bd 88c9 44be e77d 42be a7cf 57bd
00000150: d94f 6fbc 10c0 6ebd eac4 e1bd 7df2 0abe
00000160: b941 dfbc 5742 3cbd 1375 5ebd 90d2 63bc
00000170: c3b5 74bd db75 673d f260 9cbc 3065 5d3d
00000180: 61c3 243d dd37 57bc 31e6 e23d 6980 963d
00000190: 2319 1bbd b0de ecbd b33b c8bd 7637 bbbd
000001a0: 7bbb d9bd e8cd 85be a66d 0dbe 29c7 2ebe
000001b0: 80a9 c6bd f62f 58be e711 58bd 7ab2 d5bb
000001c0: 6363 f6bc 9cd5 ae3b d3f6 fbbd 994c fe3c
000001d0: 2210 d1bc 67cf f13d 30d5 243d 0ded 613d
000001e0: 337a 3fbd f3f8 b5bd 49a1 c23d 1915 76bc
000001f0: d722 8d3b 1474 a9bd 2cac 8bbd 3d9a 67be
00000200: 52c5 71bd 10f2 8b3d 5442 aabc bf53 81bd
00000210: 5122 88bd 8af6 37bd e761 253d ab0a 9ebd
00000220: 7c9f 67bd e720 f7bd 926a 1bbc ba5d f7bc
00000230: ab5f 95bd db25 2f3d 0d43 c93c fbbd 263d
00000240: ec74 ad3d 5824 143b bf72 86bd 64cf e0bd
00000250: 4466 9b3d ff08 8c3d a699 913c e812 e0bd
00000260: e485 e2bd 6ef0 17be cc46 f8ba 736e 23be
00000270: d709 10be 11f0 27be 544a f9bc 6791 8d3d
00000280: c575 42bd 46bf e6bc 7e9e 89bd ee97 94bd
00000290: 89cc 9c3d a2d6 fc3d 88c0 813d 356c 1c3d
000002a0: e9d7 293d 4eef 7cbc 616d a33d c002 003e
000002b0: c078 c43d b1c8 af3d 71cb 1d3d 6858 293e
000002c0: 98e3 20bd e1cb f33c 098f 4c3d b1b1 ae3c
000002d0: 8730 803d 82bf d93c 6043 1d3d f69b 8fbd
000002e0: 3a6b f43b 2a74 20bb fb69 26bc f13d cbbc
000002f0: 99eb 64bd 5bb1 d2bb b152 3ebd 6de9 1abd
00000300: 391e 72bd 71e0 82bd 343c acbd 71d0 4a3a
00000310: 4759 90bd c554 b8bc fddc 9f3d d9c1 363e
00000320: b9d3 b7bc e05e b9bd ec31 61bd 0cd3 603d
00000330: ce84 ae3c bbc1 4dbb 9908 0abe e99a e0bd
00000340: 6ddc e2bc 9921 28bd 13e0 80bb 3e67 35be
00000350: 5895 34be c4fb 2bbd ddd0 69bd 20f6 403d
00000360: e6e5 27be 89c3 e4bd 0375 3abd 29b9 093d
00000370: 9740 f33c 56b7 b0bd 57ef 47bd 5db5 303d
00000380: d32b ea3d fc8a 193d c2c7 983d a280 babc
00000390: e707 eebc 96b8 ea3b ef1e b03c e5a5 9abc
000003a0: 1e42 28bd 1b6d 39bd 6344 253c a67a eabb
000003b0: de9c ef3d a28e db3c f6ea db3c f53d f13c
000003c0: f2d0 08bd 900e a93d 708e 1f3d 6e5f 573c
000003d0: 4bfb a93d 636e a9bd 8940 7cbd 0f35 0a3c
000003e0: 23b9 19bd 0c5f 21bd 565a 3abd ccb4 bcbd
000003f0: 0722 27be 6f13 a6bc 0377 1c3d 9c4c fdbd

fc1.bias f4 [120]
0.06278324 -0.029130606 -0.04800782 0.04959679 -0.001403389 0.0060299803 -0.015130298 -0.05869633
0.1736386 -0.039921973 -0.040336087 -0.017397149 -0.025403308 0.15714976 0.024825376 0.18012898
-0.040338922 -0.039581068 0.10809584 -0.049052544 -0.047891255 -0.03683268 -0.07984102 -0.01627911
-0.0077624065 -0.038294196 0.04394943 -0.01640725 -0.011489254 0.16638787 0.0063451575 0.031474836
0.11619721 -0.0820378 0.06837613 0.18679264 0.22503875 0.010127344 0.20316489 -0.041192748
0.101839684 0.02726975 0.018731268 0.0036080403 0.0065303636 -0.05205065 0.022087391 -0.067509435
-0.05717998 0.12476242 0.12557249 0.16729751 -0.061783306 0.03827775 0.047717318 0.07432176
-0.08183283 -0.033052854 -0.0046066036 -0.0168956 -0.008852726 -0.031778615 -0.015655683 -0.013909315
-0.034135766 -0.0715396 -0.047468383 0.07245674 0.00994885 0.052490987 0.01204036 0.13163829
-0.01766083 -0.019807998 -0.08920778 0.029717853 0.10181373 -0.049916107 0.12730546 -0.011779961
0.059135076 0.11105065 0.13655041 -0.029516999 -0.03730806 -0.048899744 -0.068154395 0.19955128
0.15107049 -0.020816505 0.15210088 -0.000413472 -0.055245936 0.08306976 0.099940516 -0.021178039
-0.036598083 -0.025309956 -0.04743535 0.1527592 0.16522866 -0.07484865 -0.0134171 0.1021563
0.024215896 -0.009508725 0.19414327 -0.031668838 -0.04896009 0.11955923 0.09241326 0.110815845
0.14475474 0.06390255 -0.018656675 0.14746283 -0.05846931 -0.04096067 -0.06805478 -0.027950695
00000000: 8094 803d 4fa3 eebc d9a3 44bd 0126 4b3d
00000010: ecf1 b7ba 2497 c53b 12e5 77bc 906b 70bd
00000020: 51ce 313e 3985 23bd 7437 25bd 7784 8ebc
00000030: 991a d0bc deeb 203e 965e cb3c bb73 383e
00000040: 6d3a 25bd c21f 22bd 5a61 dd3d 52eb 48bd
00000050: 9f29 44bd dddd 16bd b083 a3bd c55b 85bc
00000060: c95b febb 60da 1cbd 5104 343d 7f68 86bc
00000070: 6d3d 3cbc 9561 2a3e 0aeb cf3b c2eb 003d
00000080: cef8 ed3d 6f03 a8bd c908 8c3d 9246 3f3e
00000090: 8f70 663e 29ed 253c 750a 503e bab9 28bd
000000a0: 5391 d03d d064 df3c 5172 993c df74 6c3b
000000b0: a9fc d53b 1033 55bd 9ef0 b43c 6342 8abd
000000c0: 8e35 6abd 7183 ff3d 1396 003e 0a50 2b3e
000000d0: 7e10 7dbd 21c9 1c3d 3c73 433d 0236 983d
000000e0: f997 a7bd 6e62 07bd fef2 96bb a468 8abc
000000f0: 060b 11bc 4b2a 02bd 5940 80bc e5e3 63bc
00000100: f2d1 0bbd 5b83 92bd 356e 42bd 3364 943d
00000110: 8000 233c ca00 573d ee44 453c 30cc 063e
00000120: 72ad 90bc 6244 a2bc 92b2 b6bd db72 f33c
00000130: b883 d03d d574 4cbd 5d5c 023e bd00 41bc
00000140: 9f37 723d 866e e33d dfd3 0b3e a2cd f1bc
00000150: 56d0 18bd 194b 48bd 8894 8bbd 2c57 4c3e
00000160: 39b2 1a3e 6087 aabc 55c0 1b3e 46c7 d8b9
00000170: 9049 62bd 7a20 aa3d 9dad cc3d 917d adbc
00000180: dfe7 15bd d356 cfbc 924b 42bd e86c 1c3e
00000190: b431 293e 404a 99bd 65d3 5bbc 5237 d13d
000001a0: 6a60 c63c 7cca 1bbc 7ecd 463e 2fb7 01bd
000001b0: 608a 48bd 78db f43d 2a43 bd3d 6bf3 e23d
000001c0: 963a 143e 57df 823d e2d5 98bc 7f00 173e
000001d0: 847d 6fbd 60c6 27bd 4e60 8bbd dbf8 e4bc

fc2.weight f4 [84, 120]
0.3477462 -0.027382325 -0.008288227 0.058180492 0.03470282 -0.009131394 -0.05728754 0.06393868
0.14558004 -0.08423018 0.04265859 -0.040741008 0.005841105 -0.05832754 -0.05645022 -0.016338421
-0.030009653 -0.06843672 0.047369152 0.084048554 0.040047705 -0.02992784 0.4036206 -0.070506744
0.07614227 -0.014986832 0.5348131 -0.026515646 0.26903045 -0.0052891835 0.008857995 0.2539529
0.014490026 0.081019066 0.24945837 0.34865344 0.2874564 0.08271685 0.38485408 0.116367444
0.11062605 -0.19770159 0.029117255 -0.120531514 -0.0766839 0.082898155 -0.07119642 0.1619327
-0.012256457 0.088314794 -0.05228796 -0.08227219 -0.09554248 0.00047394674 -0.034360927 0.066044405
-0.15987761 0.21912405 -0.026198052 0.032826055 0.055635765 -0.048776753 -0.0154966265 -0.11441976
0.07832174 -0.03969507 0.1128953 0.46031195 0.10124193 0.42632204 0.3854303 0.034308944
-0.07963011 -0.014047759 0.068780825 0.3523882 0.023802895 -0.080584005 0.3834666 0.030516164
-0.005672303 0.315173 0.035547744 0.11652107 0.052923657 -0.096079834 -0.004968143 0.34131545
-0.10725605 -0.005655363 0.369763 -0.027959252 0.060835496 0.35032335 -0.06698185 0.08284801
-0.058099236 -0.0010814545 0.023246864 -0.17121157 -0.108623214 0.09825047 -0.03375326 -0.10206613
0.048769657 0.019319735 0.7740589 -0.032554984 -0.012296811 0.09294212 0.10878593 0.04593984
0.014262186 0.22185348 -0.16671768 0.44358748 -0.039356917 -0.033014037 0.08326094 0.25970575
0.17687063 -0.014281173 -0.04380465 0.07526723 -0.03972737 -0.08349993 -0.020021286 0.04359764
0.05017768 0.0068867733 -0.19960326 -0.025712095 -0.058093905 -0.2117302 -0.19678283 -0.07056062
-0.028798083 -0.049352556 0.11027859 0.045039274 0.017858095 0.027922526 0.012148416 -0.03358426
-0.09327487 0.067694746 0.38615513 -0.013776958 0.41691932 0.026206333 0.009841438 0.29109457
-0.05275502 -0.026062291 0.08242187 0.25758737 0.19437031 0.045975607 0.29435432 -0.106176205
0.085006475 0.0010319301 -0.06023617 -0.10279947 0.17700599 0.017988566 0.034273047 0.2390686
0.08432553 0.17865838 0.120107435 -0.027129805 0.06502801 -0.15434298 -0.04631727 0.11841623
-0.03863143 0.21593827 0.020763913 -0.10284586 0.03311501 -0.04964092 0.0037195385 -0.0050080926
0.08583479 0.0007856488 -0.039777596 0.3221883 0.056363445 0.19468944 0.089414224 -0.042084537
0.016784273 -0.060549747 -0.04600592 0.13805547 0.11778992 -0.0056497254 0.1963347 -0.13494548
0.1808396 0.26245767 -0.0009473852 0.0183644 0.006994569 -0.14209451 -0.053234722 0.2505183
0.10797762 -0.045097332 0.25286555 0.0001032802 0.040828913 0.28186566 -0.16070792 -0.057189066
-0.070822574 -0.030334972 -0.07439907 -0.07910728 0.020098858 -0.053506974 5.4761767e-06 0.23048778
-0.0015439928 0.009319804 0.47667614 -0.036676746 0.03420719 0.15692198 0.076944955 0.05971174
0.018061455 0.21629365 -0.031180717 0.30752593 0.053587697 -0.07208417 -0.016689302 -0.10541652
-0.14449474 0.060351986 -0.09706866 0.023009662 -0.065011434 0.026634105 -0.050377626 -0.07419078
0.2188754 0.0010940679 0.09313787 0.021785457 0.04968315 0.33134195 0.3210589 0.234349
00000000: ca0b b23e e650 e0bc 58cb 07bc ab4e 6e3d
00000010: 8b24 0e3d d89b 15bc 57a6 6abd 48f2 823d
00000020: ef12 153e df80 acbd c6ba 2e3d 0be0 26bd
00000030: bd66 bf3b dce8 6ebd 5938 67bd 27d8 85bc
00000040: ced6 f5bc 8d28 8cbd 2806 423d a621 ac3d
00000050: 1009 243d 3b2b f5bc 5ca7 ce3e d765 90bd
00000060: 7af0 9b3d 548b 75bc 83e9 083f 5737 d9bc
00000070: 5cbe 893e e350 adbb 2021 113c 1d06 823e
00000080: 9367 6d3c 53ed a53d 0472 7f3e b482 b23e
00000090: 7c2d 933e 7467 a93d 980b c53e 0e52 ee3d
000000a0: e98f e23d 4972 4abe 4f87 ee3c 3ad9 f6bd
000000b0: 730c 9dbd 82c6 a93d 6ecf 91bd b0d1 253e
000000c0: 4ecf 48bc 63de b43d e62b 56bd 527e a8bd
000000d0: c7ab c3bd 0e7c f839 0bbe 0cbd 4a42 873d
000000e0: f5b6 23be 0e62 603e 4c9d d6bc 9d74 063d
000000f0: 54e2 633d 22ca 47bd 90e5 7dbc e854 eabd
00000100: 2667 a03d 4c97 22bd a735 e73d 02ae eb3e
00000110: ee57 cf3d e246 da3e 1f57 c53e 8987 0c3d
00000120: 1c15 a3bd 9228 66bc f6dc 8c3d 3a6c b43e
00000130: 4afe c23c 3a09 a5bd bc55 c43e 09fd f93c
00000140: bade b9bb 5b5e a13e 839a 113d 99a2 ee3d
00000150: 7ac6 583d 81c5 c4bd cecb a2bb e6c0 ae3e
00000160: 0fa9 dbbd a050 b9bb 9351 bd3e cd0a e5bc
00000170: a42e 793d 955d b33e c82d 89bd 38ac a93d
00000180: 77f9 6dbd 97bf 8dba 3570 be3c 1652 2fbe
00000190: d975 debd 8b37 c93d dc40 0abd 0c08 d1bd
000001a0: b1c2 473d 6c44 9e3c b928 463f 6058 05bd
000001b0: 9078 49bc 7058 be3d 28cb de3d 6a2b 3c3d
000001c0: f2ab 693c 8f2d 633e 0ab8 2abe e61d e33e
000001d0: b834 21bd ba39 07bd b684 aa3d 27f8 843e
000001e0: 931d 353e 95fb 69bc 816c 33bd b525 9a3d
000001f0: 2bb9 22bd 0302 abbd ae03 a4bc 7093 323d
00000200: 1c87 4d3d 71aa e13b cc64 4cbe 2ca2 d2bc
00000210: e0f3 6dbd cdcf 58be 7081 49be 1682 90bd
00000220: f5e9 ebbc e825 4abd bed9 e13d 1a7b 383d
00000230: 244b 923c c8bd e43c 260a 473c a68f 09bd
00000240: e506 bfbd 8ba3 8a3d 20b6 c53e c0b8 61bc
00000250: 7376 d53e aaae d63c fc3d 213c 590a 953e
00000260: a615 58bd 9680 d5bc cccc a83d 7ee2 833e
00000270: 0309 473e eb50 3c3d 9cb5 963e e972 d9bd
00000280: e017 ae3d d441 873a 34ba 76bd 8788 d2bd
00000290: 0f41 353e c25c 933c e561 0c3d 66ce 743e
000002a0: ddb2 ac3d 39f2 363e e3fa f53d 533f debc
000002b0: 682d 853d 160c 1ebe 2db7 3dbd 3584 f23d
000002c0: fe3b 1ebd ec1e 5d3e 1519 aa3c daa0 d2bd
000002d0: 9ba3 073d 4754 4bbd 80c3 733b ed1a a4bb
000002e0: 26ca af3d 00f4 4d3a d5ed 22bd ddf5 a43e
000002f0: 5bdd 663d ab5c 473e ce1e b73d d660 2cbd
00000300: 2c7f 893c 0303 78bd b470 3cbd 6a5e 0d3e
00000310: d73b f13d 5521 b9bb f70b 493e 262f 0abe
00000320: 042e 393e da60 863e f259 78ba f070 963c
00000330: b332 e53b 3981 11be a70c 5abd ef43 803e
00000340: 5f23 dd3d fbb7 38bd 9877 813e 2398 d838
00000350: 383c 273d b250 903e 9e90 24be 153f 6abd
00000360: 6d0b 91bd 0c81 f8bc 8a5e 98bd ff02 a2bd
00000370: 5ca6 a43c 212a 5bbd 00c0 b736 fd04 6c3e
00000380: cd5f caba 17b2 183c e50e f43e 5b3a 16bd
00000390: d71c 0c3d 28b0 203e 5195 9d3d 4c94 743d
000003a0: 9ef5 933c 157c 5d3e b46e ffbc 0a74 9d3e
000003b0: c67e 5b3d dea0 93bd 01b8 88bc 9ee4 d7bd
000003c0: 6ef6 13be a533 773d efcb c6bd c27e bc3c
000003d0: b724 85bd c42f da3c c558 4ebd 56f1 97bd
000003e0: df20 603e d466 8f3a 11bf be3d 6a77 b23c
000003f0: 8f80 4b3d a7a5 a93e d561 a43e 2ff9 6f3e

fc2.bias f4 [84]
0.05959766 0.20879608 0.10077426 0.13690533 -0.018549975 0.037418585 0.03734323 0.11605731
0.08501842 0.009550225 0.15308923 0.14221174 0.024477983 -0.04557615 0.18136004 0.077695236
0.062384322 0.07360075 0.11450912 0.07358206 0.17081143 -0.04819835 0.12445233 0.12171049
0.09160497 0.03165244 -0.14312144 0.109329276 -0.021454627 0.053776022 0.09679526 0.08729491
0.15749428 -0.050944954 0.043963008 -0.017096449 0.080941506 -0.006398346 0.1023811 0.044280708
0.10594546 0.09419279 -0.11994247 -0.15463032 -0.011963772 -0.10800898 0.10064723 0.015978085
-0.11365215 0.0864583 -0.08644589 0.057692505 0.0849676 0.17888348 0.06907787 0.1696296
0.07752296 -0.0808544 -0.03169652 0.028686048 -0.06350054 -0.035378717 0.16355403 0.08339701
0.08672813 0.07332649 -0.077072725 0.24650854 -0.02639159 -0.1049682 0.17267646 0.0740459
0.021922901 0.12729649 0.062838875 0.0926698 0.020915423 0.019904379 -0.10341166 0.050230756
0.19999705 0.019185621 0.050738487 -0.13037534
00000000: ad1c 743d a4ce 553e bc62 ce3d e930 0c3e
00000010: 1ef6 97bc 3b44 193d 37f5 183d 74af ed3d
00000020: 231e ae3d 8c78 1c3c 6cc3 1c3e f49f 113e
00000030: 0d86 c83c 0fae 3abd 72b6 393e ae1e 9f3d
00000040: b486 7f3d fdbb 963d c283 ea3d 31b2 963d
00000050: 31e9 2e3e a26b 45bd dde0 fe3d 5943 f93d
00000060: 639b bb3d fda5 013d 6d8e 12be 07e8 df3d
00000070: 9dc1 afbc 3f44 5c3d 983c c63d acc7 b23d
00000080: 2e46 213e a8ab 50bd 8e12 343d da0d 8cbc
00000090: a9c4 a53d 37a9 d1bb 2fad d13d b05f 353d
000000a0: eff9 d83d 26e8 c03d 66a4 f5bd 6957 1ebe
000000b0: b203 44bc d033 ddbd 2320 ce3d 79e4 823c
000000c0: 75c2 e8bd 0d11 b13d 8b0a b1bd fa4e 6c3d
000000d0: 7e03 ae3d 3b2d 373e b378 8d3d 62b3 2d3e
000000e0: 5cc4 9e3d fe96 a5bd 36d4 01bd 01ff ea3c
000000f0: 920c 82bd 46e9 10bd b57a 273e 0dcc aa3d
00000100: 859e b13d 332c 963d 4ed8 9dbd bc6c 7c3e
00000110: 2d33 d8bc 91f9 d6bd 19d2 303e 60a5 973d
00000120: a897 b33c 035a 023e abb1 803d aac9 bd3d
00000130: d256 ab3c 820e a33c 7ec9 d3bd c4be 4d3d
00000140: 07cc 4c3e 2a2b 9d3c 29d3 4f3d 1d81 05be

fc3.weight f4 [5, 84]
-0.30382946 0.026365269 -0.12205921 -0.44968635 0.022335494 -0.33360687 0.208455 -0.52783316
0.20423321 0.009177714 -0.1412356 0.14433815 -0.15208271 -0.102418825 -0.18161783 -0.3673546
0.054825317 0.09072515 0.12771717 -0.014597015 -0.45414504 -0.04724003 0.24436451 -0.4277403
-0.2620855 -0.014371219 -0.003681347 0.3088029 0.1617296 -0.50850487 0.5287793 0.10830922
0.24967106 -0.073261805 0.16851218 0.031065032 0.1893641 -0.047989875 0.4764273 -0.1122407
-0.38317606 0.32195184 -0.22057565 0.014896896 -0.056421164 0.04232561 0.35408086 -0.09918199
0.2841181 -0.04326781 -0.079641394 -0.016469387 0.062225737 -0.038275138 0.20124552 0.44539046
-0.42391175 0.04665436 -0.057549473 0.24520688 0.06566797 -0.36389413 -0.4234613 0.14172393
0.037523277 0.017255902 -0.011858335 -0.0556438 -0.0345706 -0.19825329 -0.071410514 0.21454418
-0.050027613 0.04776528 -0.062996216 -0.49373585 -0.006661849 0.048875064 0.003066969 -0.659416
0.036206633 0.049201123 -0.4017554 -0.16894384 0.054268606 -0.07138166 0.14276138 0.27651793
0.023166899 -0.20035835 0.10150066 0.06610798 -0.18516737 -0.37084985 0.16187556 0.0805197
0.29289636 0.092344165 -0.14698577 -0.15886447 0.60494393 0.010457983 0.15772381 0.010062326
0.18633468 0.07592029 -0.061225973 -0.27293503 0.15234424 0.0055473456 -0.049548313 0.17351641
0.21336637 0.17321649 -0.48212844 -0.17962727 0.09011064 0.03676836 -0.12212388 -0.024683679
-0.09680527 -0.033351947 0.07834956 -0.25952727 0.040119667 0.017585315 -0.09670316 -0.027147675
0.004848968 -0.17639571 0.14754854 0.034530967 0.13994543 0.30235335 -0.035002764 -0.5677804
0.13515477 -0.49086732 -0.16233537 -0.41421035 0.13805637 -0.07844911 -0.18341047 0.025624674
-0.06797173 0.20880838 0.23031074 -0.28377494 -0.13634674 -0.19157353 -0.06734739 -0.25936893
-0.01868771 -0.16770096 -0.12693664 0.07143213 -0.100070335 0.07294858 0.1767568 0.28139418
0.007402664 -0.1440975 -0.01626602 0.23911972 -0.109522365 0.37361294 -0.2602021 0.012004271
-0.3653476 -0.40871257 0.32953325 -0.25523895 0.024121678 0.21351214 -0.05310246 0.31414396
0.22653912 -0.2882442 -0.25749442 -0.27123606 0.0034706814 0.015597262 -0.18105836 0.22690015
0.07126274 -0.09210173 -0.07058266 0.047398977 0.026551113 0.10238216 0.05987806 0.14563134
0.030879153 -0.09746144 -0.0044578714 -0.53680885 -0.09191336 -0.07703894 0.17333265 -0.17859559
-0.08797267 -0.008010157 0.12763864 -0.00021565672 -0.046044428 0.04412351 -0.28906462 0.20265304
0.13583636 0.14111821 0.0047304803 0.0360987 0.015404813 -0.04507492 -0.16213983 -0.05403433
-0.11657363 0.06354117 0.007285225 0.0919266 -0.045439046 -0.34843037 -0.176932 0.3500821
0.012367197 -0.0633272 0.08104674 0.03482613 0.006759602 0.24108478 -0.19859962 -0.011138225
-0.20935495 0.3141673 0.06470383 -0.37369487 0.11161267 0.31466028 -0.27405268 -0.040112764
0.13839437 -0.21768357 -0.07703737 -0.0007811627 0.012517847 -0.058937214 -0.09357255 0.23929553
-0.4265273 -0.25468668 0.2858002 -0.075791724 0.037492998 -0.1505674 -0.4204511 0.20397955
00000000: 898f 9bbe fafb d73c 2efa f9bd 4a3d e6be
00000010: edf8 b63c 85ce aabe 3a75 553e 1320 07bf
00000020: 8322 513e 1f5e 163c 11a0 10be 61cd 133e
00000030: 92bb 1bbe f6c0 d1bd 06fa 39be e715 bcbe
00000040: 8390 603d 1cce b93d 4ac8 023e 5228 6fbc
00000050: b385 e8be c37e 41bd b13a 7a3e c700 dbbe
00000060: 1230 86be 4375 6bbc c142 71bb 6a1b 9e3e
00000070: 729c 253e 602d 02bf 155e 073f 39d1 dd3d
00000080: c5a9 7f3e 490a 96bd 758e 2c3e 187c fe3c
00000090: aae8 413e 0891 44bd 47ee f33e 74de e5bd
000000a0: a72f c4be dfd6 a43e 95de 61be 1c12 743c
000000b0: e119 67bd 9e5d 2d3d 164a b53e ed1f cbbd
000000c0: ed77 913e 9639 31bd 071b a3bd cfea 86bc
000000d0: 6ae0 7e3d 64c6 1cbd 4e13 4e3e 380a e43e
000000e0: f60a d9be a418 3f3d ffb8 6bbd 8317 7b3e
000000f0: ee7c 863d 5550 babe ebcf d8be 1420 113e
00000100: 02b2 193d 405c 8d3c 7649 42bc c1ea 63bd
00000110: e799 0dbd e902 4bbe ad3f 92bd 78b1 5b3e
00000120: c1e9 4cbd 87a5 433d 2904 81bd f2ca fcbe
00000130: a44b dabb 3831 483d 34ff 483b 7dcf 28bf
00000140: 684d 143d 1e87 493d e2b2 cdbe 9dff 2cbe
00000150: c248 5e3d 8c30 92bd 0a30 123e c293 8d3e
00000160: 82c8 bd3c bd2a 4dbe 94df cf3d 9f63 873d
00000170: 849c 3dbe 08e0 bdbe b5c2 253e 83e7 a43d
00000180: 83f6 953e f01e bd3d 7083 16be 5ead 22be
00000190: 9bdd 1a3f f657 2b3c 5a82 213e 74dc 243c
000001a0: 85ce 3e3e 197c 9b3d 16c8 7abd 24be 8bbe
000001b0: 2100 1c3e 82c6 b53b 2cf3 4abd 49ae 313e
000001c0: b77c 5a3e aa5f 313e 8ad9 f6be 36f0 37be
000001d0: ed8b b83d 6b9a 163d 161c fabd 6d35 cabc
000001e0: d741 c6bd 0d9c 08bd bc75 a03d c2e0 84be
000001f0: 8554 243d 140f 903c 4e0c c6bd cd64 debc
00000200: 17e4 9e3b 14a1 34be f716 173e 5870 0d3d
00000210: db4d 0f3e 0fce 9a3e 0f5f 0fbd 0e5a 11bf
00000220: 0366 0a3e f652 fbbe 3e3b 26be 6113 d4be
00000230: a65e 0d3e eda9 a0bd f4cf 3bbe d6ea d13c
00000240: c334 8bbd ddd1 553e 94d6 6b3e f34a 91be
00000250: 7b9e 0bbe da2b 44be 6eed 89bd 01cc 84be
00000260: f816 99bc cdb9 2bbe aefb 01be 024b 923d
00000270: adf1 ccbd 1166 953d bcff 343e e612 903e
00000280: 0c92 f23b 4c8e 13be 5140 85bc cddb 743e
00000290: 434d e0bd 324a bf3e 3639 85be 90ad 443c
000002a0: d70e bbbe c642 d1be 95b8 a83e aeae 82be
000002b0: d39a c53c eda2 5a3e f781 59bd 7ad7 a03e
000002c0: dff9 673e be94 93be 4fd6 83be 74df 8abe
000002d0: 5f74 633b a98b 7f3c 5d67 39be 8358 683e
000002e0: 33f2 913d d59f bcbd a48d 90bd 6e25 423d
000002f0: b881 d93c bdad d13d b242 753d 6220 153e
00000300: 47f6 fc3c dd99 c7bd 5613 92bb 4e6c 09bf
00000310: 123d bcbd 97c6 9dbd 1d7e 313e c3e1 36be
00000320: 042b b4bd 093d 03bc b4b3 023e e921 62b9
00000330: 1599 3cbd dbba 343d 4700 94be 4784 4f3e
00000340: b018 0b3e 4b81 103e 2502 9b3b 3bdc 133d
00000350: 7864 7c3c 7ba0 38bd fc07 26be 1a53 5dbd
00000360: 28be eebd df21 823d e6b8 ee3b 0344 bc3d
00000370: 4b1e 3abd 7765 b2be aa2d 35be f63d b33e
00000380: c99f 4a3c b1b1 81bd d5fb a53d d8a5 0e3d
00000390: a77f dd3b eede 763e b35d 4bbe 1a7d 36bc
000003a0: 2561 56be 89da a03e 7183 843d ef54 bfbe
000003b0: 2f95 e43d 271b a13e a250 8cbe 484d 24bd
000003c0: 41b7 0d3e 71e8 5ebe c5c5 9dbd f1c6 4cba
000003d0: a817 4d3c 2668 71bd f7a2 bfbd e309 753e
000003e0: c961 dabe 4b66 82be 6754 923e b138 9bbd
000003f0: 4292 193d 572e 1abe 5e45 d7be 04e0 503e

fc3.bias f4 [5]
0.14033045 0.075388335 -0.08225413 -0.021973735 0.070801616
00000000: c9b2 0f3e 3365 9a3d da74 a8bd 4302 b4bc
00000010: 7000 913d
