output_visualizations/base_tsk[+1]_agm[geo]_spl[S2]_mdl[lenet]_ls[SM]_tu[none]/model.pt (torch, 249415 bytes, 10 tensors)

conv1.weight f4 [6, 1, 5, 5]
00000000: aaa2 273e 93e6 2b3e 33f1 e9bd 3d91 e83d
00000010: b794 19be aad9 423d 9efa 80bd 1e9a 133e
00000020: 7444 5e3e 8b1a 12be 842d 083e 3e4f 4a3d
00000030: 783d 2b3e 6b56 273d e04f 393e 18c1 d1bd
00000040: 9de3 0b3e 71f0 a83c aacd 24be 82fa cc3d
00000050: 91b5 94bd 5598 7e3d 61e5 acbb cbdf c73d
00000060: 9380 ccbd 3dab 6dbe efdb 56bc ed04 093e
00000070: 1b70 a03d 5c36 d5be 35f3 66bc 1060 1cbe
00000080: 88d2 b23e e363 943d 2815 83be b260 babd
00000090: 50af f43c 0a79 a43e 60e9 173d 5a38 89be
000000a0: 15e8 f1bd 3b52 08bd 9e7b 6a3e eb65 3c3e
000000b0: 893f 3fbd bb83 3cbe 95d5 2e3e f6cf 563e
000000c0: 7cb0 433e 113d 2ebe c4e6 8abe d337 6dbe
000000d0: a556 47be fc99 933e ea0e 2d3e c5b7 27bd
000000e0: dc50 b5bd 487d 1d3b e393 703e 3c32 16be
000000f0: 3046 96bc 72bc 08be 1644 193e 742c 52bd
00000100: 4772 c63c 1dc9 403d 273d 9b3e 8c92 0dbd
00000110: b73f 23be f1b4 e5bd 2c36 973e ec68 423e
00000120: 99ab 2e3e 0dba 7abe 11e2 2ebe 3b46 abbe
00000130: a4ac 8fbe c6b7 953d 2e10 423e 1ad1 893e
00000140: 99c3 96be 2c95 44be b6bc 4f3e 99ab 863d
00000150: ac9f 7e3e 0aec 29be 1412 443e 404f 9bbb
00000160: a7c9 a8bc c8a5 be3d b0c6 2cbd 83be e93b
00000170: ebc6 233e 8e61 f03d 353a 31be 6786 01bd
00000180: a14d 813e b167 43bd bb4d 1fbd 293c 24be
00000190: e32c a93c d93f 2dbe 7fbb 7fbe fa83 43be
000001a0: f759 9dbe 0956 9ebe ff7a 48bf 1dd6 12bf
000001b0: 5986 09bf dcf0 42bf 4450 ad3c d919 f7be
000001c0: 799e 45be 1a92 b2be b228 15bf f3d3 3dbe
000001d0: 7f0b e7be c000 febe d9de edbe 0820 28be
000001e0: 2edf afbd f07a 38bf 3e9e 3abf 4f8a 29bf
000001f0: e5da 9c3e a57f a1be e3bb e5bd 8aa7 2cbd
00000200: aec4 533e 103c 31be 6346 14bd d15a 62ba
00000210: e33e 06be fe32 c63d d34a 41be 04d9 79be
00000220: be7a 56be f70c 7abe ed03 07bc 5a88 3ebe
00000230: b0a0 243e 59a0 abbc 49e2 213e 625f e5bd
00000240: d810 39bd cdeb 953e 316b bf3e 6603 9a3e
00000250: aec8 d73e 0e1f 923d
0.16370645 0.16787176 -0.11422958 0.11355827 -0.14998136 0.047570862 -0.062978014 0.1441426
0.217058 -0.14267938 0.13298613 0.049391977 0.16722667 0.0408539 0.18096876 -0.10241908
0.13661046 0.020622464 -0.1609408 0.10008718 -0.072611935 0.062156994 -0.0052763675 0.09759482
-0.09985461 -0.23209853 -0.01311396 0.13380785 0.078338824 -0.41643035 -0.014096071 -0.1527102
0.34926248 0.072456144 -0.25602078 -0.091004744 0.029868752 0.32123595 0.037087798 -0.26800805
-0.11811844 -0.033281546 0.22898719 0.18398254 -0.04669145 -0.18409626 0.17073663 0.20977768
0.19110292 -0.17015482 -0.27129185 -0.23165826 -0.19466646 0.28828418 0.1690022 -0.04094674
-0.08853313 0.0024030972 0.23493914 -0.146676 -0.018344015 -0.13353136 0.14967379 -0.051311925
0.024224414 0.047066797 0.30320093 -0.034563586 -0.15942274 -0.112161525 0.29533517 0.18985337
0.17057647 -0.24485035 -0.17078425 -0.3345202 -0.28061402 0.073104426 0.18951485 0.26917344
-0.29446104 -0.1919753 0.20286831 0.065756984 0.24865597 -0.16593948 0.19147521 -0.004739672
-0.020603968 0.09308964 -0.04218167 0.0071333065 0.1599385 0.11737357 -0.1730736 -0.031622317
0.2525454 -0.04770631 -0.03889249 -0.16038574 0.020651286 -0.16918887 -0.24973868 -0.19093314
-0.307327 -0.30925015 -0.7831268 -0.5735796 -0.53720623 -0.7614877 0.021156438 -0.48261908
-0.19298734 -0.34877092 -0.5826522 -0.18537883 -0.45125958 -0.49609947 -0.46459082 -0.16418469
-0.0858749 -0.7206259 -0.7289771 -0.6622667 0.30635753 -0.31542698 -0.11217477 -0.042151965
0.20680496 -0.17308068 -0.03619994 -0.00086347485 -0.13109927 0.09677695 -0.188762 -0.24399191
-0.2094526 -0.24419008 -0.008240682 -0.18606701 0.16076922 -0.020950483 0.15808977 -0.111998335
-0.04518208 0.29281464 0.37386468 0.30080718 0.42145294 0.071348295

conv1.bias f4 [6]
00000000: 82ae 88be f536 b1bc 6737 70ba 95f2 4abd
00000010: 1884 903e 31c1 99bd
-0.2669564 -0.02163265 -0.0009163529 -0.04954775 0.2822578 -0.075075515

conv2.weight f4 [16, 6, 5, 5]
00000000: dc33 323e 7bc2 103e a5fd 093d 4e3d 0abe
00000010: 0bec 9cbd 6a63 2a3e 62ef 083e 669a 64bd
00000020: da3d 3fbd 7d9e 13be d8a4 0f3e dd1c 5c3e
00000030: 2b98 c93c 387e 09be 0125 3fbe a3b9 513e
00000040: c39a 4c3e da8b 39bd 57a7 39be f576 51be
00000050: 0bff 0f3e 183c 283e 5e08 323c 331b 87be
00000060: c42d 49be 038f 8dbe 322d 5dbd ae70 a9bd
00000070: 5bdd 70be 230c d8bd 79c0 c5bd d8f6 b53d
00000080: 17b3 17bc 90b5 10be 2a4e 08bd 2480 8e3d
00000090: 4703 823e dc71 10bd f5ad 9cbd 0f91 653d
000000a0: 680d 303e ccd2 133e 3280 a3be 8f61 9bbd
000000b0: 6b66 8e3d df3a 483d d71a a2ba 3d32 13bf
000000c0: 4841 1fbe 5518 573d 366f 9d3e 455e bc3e
000000d0: b7d6 e33d 1acc 183e 38bd 233e 189c a53e
000000e0: 0cd6 e83e 2744 3b3e 1854 393e 752a 1c3e
000000f0: f02f c13e 6147 e53e 80c8 213e 3efb 8b3e
00000100: 328c f33d 70f7 f23e c706 2e3e 5c00 0e3e
00000110: 0f25 b83e f564 293e b10e fe3e c1eb 5f3d
00000120: 26e1 823d 1c86 4a3e 0ead 813c 304d 313d
00000130: 744f 5d3e 56a0 793d 462c cdbd 4fd2 0cbe
00000140: 3a8e 9dbc 2620 5f3d 24ce 23bd c3bf 30be
00000150: f2e8 06be e109 883d 2c48 873d 22de a9bd
00000160: b448 5dbd 44a8 f7bd a01d b93d f552 72bd
00000170: 8b86 1bbe 0a1f 3bbd 7ded 5fbd 099c d03d
00000180: 5013 22be 0238 8ebe 4d64 f6bd 1e31 173d
00000190: a0f7 d5bc e412 99be 9b6a 463d e591 0abc
000001a0: b0b4 43bc 7639 58be 753a 03be cead f43b
000001b0: e170 493d c000 8e3d e4f5 15be 9d85 27be
000001c0: ae00 003e 75ef 7a3d 37df 9b3d 7683 7fbe
000001d0: e12c 4ebe fdd4 4a3e e90d 783e 0ed1 ad3c
000001e0: d829 48be 16f4 e1bd 85f3 483e 1a9b 923d
000001f0: f8dc febc 9e03 79bd 1df9 e0bd aa82 c2bd
00000200: 95ea b13d 81d1 0cbd e18e c5be 2e94 99be
00000210: 9ffb 68be ea7c 0f3c b24c 1dbe b2b4 9fbe
00000220: 85a4 03bf 7974 5fbe 237b 4a3e 86a4 c1bd
00000230: bca9 5cbe b591 2ebe 8e97 f63d 6477 8c3c
00000240: ce04 77be 7da0 efbc 9bf9 9d3b b734 2e3e
00000250: a1b5 0dbe d79d 52be c433 84bd d920 aa3d
00000260: d221 50bc 894b f6bc 9ca4 5f3d 0de5 883d
00000270: eaa3 683c e7da da3d 9145 c33d 7ea2 063d
00000280: f538 2d3e 6754 623e 986f cf3d ecf6 e23c
00000290: 2bee cdbd 5a0c 1b3d 2594 133e 094e 813d
000002a0: 8b7c d8bd c433 16be 9d4d 36be 716d 13be
000002b0: 9f80 13be 175f e8bd 1d21 a9bb e548 8c3c
000002c0: 1606 c83c ca42 c0bd f217 0a3e 3bdf 6b3d
000002d0: 6d79 8e3d 6f41 ae3e d8cb 573d 76e5 9fbc
000002e0: 1c17 9dbd c2eb 0f3d c531 a53d 59a3 9fbe
000002f0: b04e a4be 9a76 513b 7290 9cbe adc5 33bf
00000300: c891 82bf 434e 00bc 652f 1c3e 7d58 26be
00000310: 10fd c2be 228b a7bd a834 c63d c477 81bd
00000320: 034a 963d f015 593e 80c1 023c b684 d43e
00000330: 81af 593d 0e97 06be 356b 5d3d f048 0d3f
00000340: 0719 033f e646 023d 702a 47be 6ba6 a63e
00000350: ed14 df3e 51c6 623d d9f4 c73d 4ecb 3cbe
00000360: 5147 bbbc 76d5 9cbe ca4a 71be 221e 353e
00000370: 7a4d 1ebf 2e11 f0be 2e23 03bf eed1 573e
00000380: 30a0 c33e c70e cbbd 4f57 5e3c 2196 14bd
00000390: 34fb c33d 5bbb 4f3e dc10 12be fea3 b7bc
000003a0: d743 243e e065 023e ab45 993d c2b2 71bd
000003b0: 8018 b63e d257 823e 570d b4bd cb5a f1bd
000003c0: 9df2 a1bd 4406 5d3d 613c 80be e566 5fbe
000003d0: 4942 bc3c 3ffd a5be 9fb2 ddbe ba52 4bbe
000003e0: f24f 0e3e dbda 74bd 0682 8c3d cb14 a33e
000003f0: eebf a73c ba12 23be 182e edbd 42a0 5abe
0.17402595 0.14136688 0.03368916 -0.13499948 -0.07662209 0.16639486 0.13372567 -0.05581131
-0.046689846 -0.14415927 0.14027727 0.21495385 0.024608692 -0.13427055 -0.1866646 0.20480971
0.19980912 -0.04529939 -0.18130241 -0.20455535 0.14062135 0.16429174 0.010866253 -0.2638794
-0.19646364 -0.27648172 -0.05399818 -0.08273445 -0.2352194 -0.1054919 -0.09655852 0.08884972
-0.009259007 -0.1413176 -0.033277668 0.06958035 0.25393125 -0.035264835 -0.07650367 0.05604654
0.17192614 0.14435881 -0.31933743 -0.07586967 0.069531284 0.04888427 -0.0012367618 -0.5749853
-0.15552247 0.05251344 0.3074891 0.36790672 0.11124938 0.14921609 0.1599015 0.32345653
0.45475805 0.18287717 0.18098485 0.15250571 0.37731886 0.4478102 0.15799141 0.2734012
0.118919745 0.47454405 0.16994773 0.13867325 0.35965773 0.16542418 0.49620584 0.05466819
0.063906 0.19777721 0.01582959 0.043286502 0.2161234 0.060943924 -0.1001821 -0.13752101
-0.019232858 0.05447402 -0.039991513 -0.17260651 -0.13174799 0.06642509 0.066055626 -0.082943216
-0.054024413 -0.12092641 0.09038854 -0.059161145 -0.15188043 -0.045683898 -0.054669846 0.10186011
-0.1582768 -0.27777106 -0.120308496 0.036912076 -0.026119053 -0.29897225 0.04844151 -0.0084576355
-0.011944935 -0.2111567 -0.12815268 0.007467008 0.049179915 0.06933737 -0.14644581 -0.16359563
0.1250026 0.06126352 0.07610934 -0.24952492 -0.20134307 0.19807811 0.24224056 0.02121785
-0.19547212 -0.11032884 0.19624145 0.071584895 -0.031111225 -0.060794465 -0.109850146 -0.094975784
0.08687321 -0.034379486 -0.3858557 -0.29995865 -0.22752236 0.008757809 -0.15361288 -0.31192547
-0.5142291 -0.21821775 0.19773535 -0.094552085 -0.21549124 -0.1704777 0.120406255 0.017146774
-0.24122927 -0.029251331 0.004821015 0.17012297 -0.13838817 -0.20568024 -0.06455186 0.083070464
-0.012703376 -0.030065315 0.054600343 0.06684313 0.014199236 0.106862836 0.09534753 0.03286981
0.16916259 0.2210251 0.10128707 0.027705632 -0.100551926 0.037853576 0.14411981 0.06313712
-0.1057063 -0.14668185 -0.17803045 -0.14397217 -0.14404534 -0.11346262 -0.005161418 0.017124603
0.024416965 -0.09387739 0.13485697 0.057585936 0.06956754 0.34034297 0.052684635 -0.019518595
-0.076704234 0.035136946 0.080661334 -0.31179312 -0.32091284 0.0031961561 -0.30578953 -0.70223504
-1.0200739 -0.007831159 0.15252455 -0.16244693 -0.38083696 -0.08180834 0.09678012 -0.063216716
0.07338335 0.21199775 0.007980704 0.415075 0.05314589 -0.1314356 0.05405732 0.5518942
0.51210064 0.031805895 -0.19449782 0.32548842 0.43570653 0.05536491 0.09763498 -0.1843693
-0.022861155 -0.30631608 -0.23563686 0.17687276 -0.6183697 -0.46888107 -0.51225555 0.21076176
0.3820815 -0.09914928 0.013570621 -0.036275987 0.095693976 0.20286314 -0.14264244 -0.022417065
0.16041504 0.12734175 0.07483991 -0.059008367 0.35565567 0.25457627 -0.08791607 -0.117848955
-0.07907603 0.053961053 -0.25046065 -0.21816595 0.022980826 -0.32419774 -0.4330034 -0.19855776
0.13897684 -0.05977903 0.068607375 0.318518 0.020477261 -0.15925112 -0.11581057 -0.21350196

conv2.bias f4 [16]
00000000: 9396 74bd 1387 12bd 8b0f 1dbb dba6 a0bc
00000010: 4f51 0bbe 7d3f 01bd 513a cabd be27 353b
00000020: 53e4 83ba 4b83 8fbd 1846 18bd ec25 f9bc
00000030: c31a 5d3d f998 c53a acb9 643e 0f7e cb3d
-0.05971391 -0.035773348 -0.0023965563 -0.019610813 -0.13605236 -0.031554688 -0.09874404 0.0027642096
-0.0010062553 -0.07007464 -0.03717622 -0.03041359 0.0539806 0.0015075497 0.22336453 0.09936153

fc1.weight f4 [120, 400]
00000000: 32b6 adbd c94f 5cbd 4df2 a6bd 665e 61be
00000010: 9ff4 1dbe f68b 20be da86 fbbd c2d0 1dbe
00000020: c7e8 ebbd 7d18 d4bd ef8d bdbd 82da e3bd
00000030: 7291 3dbe 86b4 a3bd ae20 0fbd f4aa 56be
00000040: e3a2 cbbd 7a07 4bbe 8150 abbd 68d4 b2bd
00000050: 1b22 f9bd 2499 a6be a8ef 2cbe 4ea5 bebd
00000060: 1602 1cbe 74dc 463e 970a c53c ea0d 3ebc
00000070: 69bc 24bd c865 2f39 d7f0 7f3e 0a7b 8e3d
00000080: 8685 8abc 686c 513d b77b 62bc c630 973e
00000090: 3045 cd3d 6535 15bd 23e1 72bc 7f96 c2bd
000000a0: deab a63e e774 4a3e 56e1 ff3c 1444 cdbd
000000b0: b3f8 3bbd 1ae0 643e 65a9 473e 13b4 883d
000000c0: c9fa 3bbd 0bf3 bfbd 79ab febd bcd3 57be
000000d0: b88b cbbe 0565 43be d09b bdbd f7dd 2c3d
000000e0: 5f1d 36be b98e a7be 704d 94bd 87fd 693d
000000f0: 2846 a43c dda0 3bbe 3fcc 83be 70db f2bd
00000100: 0707 c53b 1962 87bd ee90 54be 0e4f bcbd
00000110: b3bf a2bd 21ca f5bd 6b43 723b 91b5 12bd
00000120: 24f1 b83d 9667 353e 0e2e 51bd 327d 86be
00000130: f25a 773b 2857 a13d 96c2 883d bd7e 883d
00000140: 89bf 91bd 5028 c2bb 8bf2 2b3e 0b3d f43d
00000150: 17b0 df3d b4a8 943c fbc2 213e afe0 2d3e
00000160: 9401 4d3e b3ac 4e3e 7028 253d b259 2f3e
00000170: cf96 7b3e c0a4 943e fda2 733e 5c12 d83d
00000180: 3ffc 9c3d b2b1 503e 242d 7d3e 9996 443e
00000190: 8817 833d 38aa 77bc 10f7 24bd 63ec 2bbe
000001a0: 79a9 47bd 7e79 a23d 0af0 b93b 75c0 2bbd
000001b0: 6bf3 edbd f884 08bd b18f e83d 21a6 d7bc
000001c0: e47a 83bd e8b3 a2bd 0ae4 5fbd e3fb 713d
000001d0: d6d3 abbd 7a33 d7bc 86b7 8a3c 3496 a0bd
000001e0: a62a f13d 3dd6 6d3b f347 75bd 8f91 f7bd
000001f0: 62e0 e2bd a687 46be 77a0 a6bc 0e9a d13d
00000200: ab73 60bd aaf3 f3bc 9196 08be 7c16 e43d
00000210: cd22 4f3e 8159 0b3c 9dce 3abc d917 43be
00000220: b0eb 113e 75f1 333e 548f 323d 9f20 28bd
00000230: d12e 7ebe d80a 153e f1b7 723e c6bc b83d
00000240: 5ac8 29bd c1e9 abbe e04a 1f3e d3d5 d53e
00000250: 37a3 403e 892d 7e3d 7d6b b43d 8003 0fbc
00000260: 183d fe3c 3fec debd 5364 22be 9611 5bbc
00000270: 58c2 893d b311 553d 4edd 2a3d f20f d1bd
00000280: 41b8 fc3d 0099 ff3d e67d dc3d b061 983d
00000290: a409 233d b38a 103e 86a3 e3bc 840f da3c
000002a0: c2ee 893d 44cd 81bd 264d 833d 3f8e 323c
000002b0: 0449 ac3d 94f6 973d cfb5 e7bd 5bd8 d93e
000002c0: c184 e43e 4cc0 e83e 6b63 b03e 975e 9d3e
000002d0: 2239 f43e 9281 053f d980 903e 9624 f63d
000002e0: e061 803e c0b8 ec3e b585 243f ecd5 a63e
000002f0: 19a5 4e3e e950 5f3e b18d c63e c31a 1a3f
00000300: 7307 703e 4e15 fa3d cb34 ed3d 1633 303e
00000310: 2c40 a23e a93b f63d 1046 a0bc e138 7dbc
00000320: c55b 1dbe a596 77be 9015 743b 0cac 143c
00000330: 9944 a1bd 0be4 08be 29d4 88be faf0 adbb
00000340: 957f d8bc 8362 ddbc 9f16 cabd d237 35be
00000350: a0ad 9f3d f097 cc3d 70fa 003d 7a26 00be
00000360: 0f00 15be 5503 013e d6bf 6f3d 3870 04bd
00000370: 249a 1dbe c59d d5bd cdca ad3e 368f 203e
00000380: 716d eebc 5d29 573d de30 95bb 7e68 24be
00000390: 03b0 23be d7a2 0ebd 09d0 a13d b4d3 80bd
000003a0: 4684 a8bd 869a bdbd 1b47 323d a78b c2bc
000003b0: 4dd8 96bc ed56 aabd 1867 c1bc ce34 7f3d
000003c0: 1071 d0bd 79f6 20bd cc2d 5dbd 385b ba3c
000003d0: 2dbb 3c3e 6571 8ebd 7f02 78bc 4358 8c3d
000003e0: 17ff 2d3e 155e 503e d61c babe 14b9 30be
000003f0: a755 62be 4df1 39bd dafd 84bd 765f 8fbe
-0.084820166 -0.053787027 -0.08151684 -0.22008666 -0.15425347 -0.15678391 -0.1228158 -0.15411666
-0.11519008 -0.10356233 -0.09255587 -0.111256614 -0.18512514 -0.079934165 -0.034943275 -0.20963651
-0.099431776 -0.19827071 -0.08364964 -0.087319195 -0.12164708 -0.32538712 -0.16888297 -0.09308873
-0.1523517 0.19420034 0.024052901 -0.011599997 -0.040218744 0.00016727217 0.24994217 0.069570616
-0.016909372 0.051128775 -0.013823441 0.295294 0.10022962 -0.036427874 -0.014824185 -0.09501361
0.32553 0.19771157 0.031235378 -0.100227505 -0.045891475 0.22351113 0.19498213 0.066749714
-0.045893464 -0.09372529 -0.124350496 -0.21076864 -0.39755034 -0.19081505 -0.092582345 0.04220387
-0.17784642 -0.32726076 -0.072413325 0.05712655 0.020052984 -0.18323083 -0.25741765 -0.11858261
0.0060128006 -0.066105075 -0.20758411 -0.09194766 -0.0794672 -0.12001444 0.0036966454 -0.035817686
0.09030369 0.17715296 -0.05106931 -0.2626739 0.0037743417 0.07877952 0.06677739 0.066647984
-0.071166106 -0.005925216 0.16791742 0.119257055 0.10922258 0.01814685 0.15797035 0.16980241
0.20020133 0.20183067 0.040321767 0.1712406 0.24569248 0.29031944 0.23792644 0.10550377
0.076652996 0.20380285 0.24724251 0.19198073 0.064009726 -0.015116267 -0.04027468 -0.16789393
-0.048745606 0.07933329 0.005674367 -0.04193159 -0.11618694 -0.033329934 0.11355532 -0.026324334
-0.06419924 -0.07944471 -0.054660834 0.05907811 -0.08390014 -0.026269663 0.016933214 -0.07841149
0.11775713 0.0036291026 -0.05988307 -0.1208831 -0.11077954 -0.19387683 -0.020340187 0.10234462
-0.05479781 -0.029779274 -0.13338687 0.11137101 0.20228119 0.008505226 -0.0114017995 -0.19052066
0.14250064 0.17572577 0.04359372 -0.041046735 -0.24822547 0.14554918 0.2370298 0.09020381
-0.041450836 -0.33576778 0.15555906 0.41764697 0.18812262 0.062055144 0.08809564 -0.008728862
0.031034991 -0.10884904 -0.15858583 -0.013370892 0.06726521 0.052018832 0.04171496 -0.102081195
0.12339831 0.12480354 0.10766201 0.074405074 0.039804116 0.1411541 -0.027787935 0.026618727
0.067349926 -0.063379794 0.06411199 0.010898172 0.08412364 0.07420078 -0.11313974 0.4254788
0.44632533 0.4545921 0.3445085 0.3073623 0.4769984 0.52150834 0.28223303 0.12018697
0.25074673 0.46234703 0.6426652 0.32585084 0.20180167 0.21808209 0.38779977 0.60197085
0.23440342 0.12211095 0.11582335 0.17206988 0.31689584 0.12023098 -0.019564658 -0.0154554555
-0.15367039 -0.2417856 0.0037244298 0.009074222 -0.07874412 -0.13368241 -0.26724365 -0.0053082677
-0.026428023 -0.027024513 -0.09867596 -0.17697075 0.07796788 0.09989917 0.031488836 -0.12514678
-0.14550804 0.12598927 0.05853256 -0.032333583 -0.15390831 -0.10430483 0.33943787 0.1567963
-0.02910492 0.05252968 -0.0045529446 -0.16055486 -0.15985112 -0.034823265 0.07901008 -0.06290379
-0.08228354 -0.09257989 0.043524843 -0.023748232 -0.018413687 -0.08317361 -0.02360873 0.062306218
-0.10177815 -0.039297555 -0.053998753 0.022748575 0.18430777 -0.06955222 -0.015137314 0.06852772
0.1699184 0.2034839 -0.36350125 -0.17258102 -0.22102986 -0.045396138 -0.06493731 -0.28002518

fc1.bias f4 [120]
00000000: 77d9 abbd 0aae f0bb e5c3 07bd dddb 99bc
00000010: e384 16bc b3c3 bb3c 8aac ca3d f2e4 9dbd
00000020: 97fd 87bb fc2b 4e3d c005 3e3d cefe 77bc
00000030: 8abd 41bc 9b15 553b 3821 4bbd ca3d a8bd
00000040: 2cbf 4e3e f3b6 77bd aee3 a33d ea5c 5abd
00000050: 6b48 9ebd 8af8 b33e c624 1a3e 9ec6 6e3d
00000060: 70ec 77bd 6ed5 be3d 5216 96bd 0f7d 163b
00000070: 9ef8 0ebe 1b7a b63c 4321 8bbd 5ddd 03bd
00000080: 71d4 e8bd e227 87bd 7a97 6c3d a229 92bd
00000090: bfdf 1bbd 9971 ea3d 56df 23bc e99f 9dbc
000000a0: 3cf0 69bc 1dfe 7abc e921 b73b 515f efb9
000000b0: 0a60 65bd 5562 af3d 3a54 09be b8e0 1bbd
000000c0: 8358 ec3c f0d9 513c 86ec 9ebc 4950 87bc
000000d0: 5498 543d 9113 dcbc 4b9c 953e 85b5 2b3e
000000e0: badc 62bc 50b0 603d 0863 213c 1b25 b7bc
000000f0: 65fb 863d 5c4a 40bd 0309 32bc 36c8 773d
00000100: dab2 adbd 045e 96bd b7ea 4a3d 184c d4bc
00000110: 28ce d03b 3df4 a2bc d3db 2abd bcb7 eabc
00000120: 8018 923d 61fd 9fbd a22f 4dbd 1ec2 5b3d
00000130: 3c42 edbc dd6c 6dbd 9b4a da3a d362 cd3b
00000140: 0114 44bd 08ab cd3d 238b 633d 5737 373d
00000150: 0d3c 25bc 78a0 b13c 1196 00bd edc8 ba3c
00000160: 9b94 593b cf63 37bd 7102 ba3d 09a3 21bd
00000170: 1133 ab3e 2e69 1f3b acdc 1dbd 62c9 ffbc
00000180: 7a32 d1bb 9719 1fbd 69d2 07bd c42f c43d
00000190: 4077 373d 7494 213e b372 ae3c a773 ce3b
000001a0: c86d a1bc d96e 0a3e 6945 913c 8de2 773e
000001b0: 8b87 58bd cfec dc3c c457 de3e 42d4 29bc
000001c0: 697e d8bb a50c e539 2fec 72bc 50a7 293c
000001d0: a5fb c0bc fee1 ac3d 328e 9c3d b310 8abd
-0.083910875 -0.007344966 -0.033145804 -0.018781597 -0.009186956 0.022920465 0.098961905 -0.077096835
-0.0041501033 0.050334916 0.046392202 -0.015136434 -0.011824975 0.0032514099 -0.049592227 -0.0821491
0.20190114 -0.06047721 0.08002411 -0.053311266 -0.077286564 0.35150558 0.1505309 0.058294885
-0.06052822 0.09318052 -0.07328476 0.0022962724 -0.13962027 0.022275021 -0.067934535 -0.03219353
-0.11368645 -0.06599404 0.057761647 -0.07136847 -0.038055178 0.11447448 -0.010001978 -0.01924129
-0.014278468 -0.015319374 0.005588759 -0.0004565665 -0.055999793 0.08563677 -0.13411036 -0.038056105
0.0288508 0.012808308 -0.019399893 -0.016517775 0.051903084 -0.026864799 0.29220805 0.16768463
-0.013846571 0.054855645 0.009850271 -0.02235656 0.065909185 -0.046945915 -0.010866406 0.06049367
-0.08481379 -0.07342151 0.049540248 -0.02591519 0.006372232 -0.019891853 -0.041713547 -0.028652065
0.07133579 -0.07812 -0.050094254 0.05365192 -0.028962247 -0.05796515 0.0016654314 0.0062678843
-0.04787064 0.10042387 0.055552613 0.04473051 -0.010085118 0.021682963 -0.031393114 0.022800887
0.0033200148 -0.04477292 0.09082497 -0.039462123 0.33437398 0.0024324167 -0.038540527 -0.031223956
-0.006384191 -0.038842764 -0.033159647 0.09579423 0.04479146 0.15779287 0.021294927 0.006300408
-0.019705668 0.13518848 0.017733293 0.24207516 -0.05286364 0.026968388 0.43426335 -0.010365548
-0.006606866 0.00043687705 -0.014826818 0.010354832 -0.023557493 0.08441542 0.07644309 -0.067414664

fc2.weight f4 [84, 120]
00000000: ecd0 243e 322a 693c 58cb 07bc 2620 a43d
00000010: dc7e f43c d873 6ebd 3e09 2bbf f6b1 3c3e
00000020: 70a8 643d 416d acbd 6237 d73d 0be0 26bd
00000030: ac93 0d3d acc2 42bd 66dc d13d a634 af3d
00000040: b0d4 bbbe d659 a5bd a73e 79bd a62b 953d
00000050: 1009 243d 3bb3 8cbe 8eb5 c93d 90e1 b03d
00000060: 7af0 9b3d 0303 8e3c 730c 163d 0046 2ab9
00000070: b39e 9abd 9e5d 4bbe 6bed f53d 2bb2 38bb
00000080: 2d5a ca3d 9486 b73d 63c5 cc3d eb1e b3bd
00000090: 1626 0dbd dc18 323e 2a47 87bd 98a6 3c3d
000000a0: 2fba 2cbe f167 9bbe b0ef 6b3c b00f 8e3d
000000b0: 7291 a8bd 6b73 343e 9bc6 c93c 9ca2 96bc
000000c0: 4e02 18bf af3f 07bd a83a 6f3e cb26 07bf
000000d0: f74c 8cbe a895 1fbe 393d ba3d 0fa1 3bbe
000000e0: 7282 3abd d572 363c 6100 393e 4020 593d
000000f0: b460 963e 9330 3ebe 90e5 7dbc a1a0 90bd
00000100: 1d54 04bf 22c0 a7bd b213 5fbe 1c61 f63c
00000110: aebf a53d 5023 15bc e4a5 c9bc e636 273e
00000120: 7fbb fb3d 5b2e 4f3c 70cc 133c 892a 233b
00000130: 9094 573d 8096 9abd 9771 70be b415 363d
00000140: 0c29 743d 7ef0 54be 085a 363e 5ede 873e
00000150: 800c c7ba f4d5 88be f072 8dbb f444 56bc
00000160: 9ab3 9abe a050 b9bb b27e 6e3d d32b 3b3c
00000170: d2bb 293e 96a2 93be 5936 413c 38ac a93d
00000180: aeec 283e 4a65 6fbd f024 383c d1ba b53d
00000190: df05 50be f739 5f3d 5d48 efbe c47d 3e3e
000001a0: c0e1 1e3b 107f 8a3e 8448 d53e c473 3cbc
000001b0: 9078 49bc 0047 5bbd 1d0a 69be 50ac aa3c
000001c0: 54cf 9abe e4da 5f3d 1af1 92bd 1010 723d
000001d0: 11b8 aabd b1d9 cebe e7ab d43c d19d 2bbd
000001e0: d517 81bd 1399 10bd b307 2bbd 5883 113d
000001f0: 7c6a 41bc 7d06 a4be 83b5 7a3d 7263 0f3c
00000200: 8c34 523c 65c3 79be ea74 8abe d3d5 0ebd
00000210: 4679 4ebd 913b aebc 547d 52bd eae9 36be
00000220: c54e 38be 150b 9dbd 338d 283f 28f7 723b
00000230: 181f 573d 5eaa 2abd 3f65 b73d 250e 833e
00000240: bd79 10bd 78b9 d13e dec6 f13c 99a1 12bd
00000250: cbd9 133d 8788 d4bd 4097 07bd d000 41bd
00000260: a831 94be 5668 2bbd 6f7c 743e da68 e93d
00000270: a7b9 cb3c dab4 143d 0970 35bd 0070 31bd
00000280: c6e9 6e3c 6247 f43e 1b3e f8bc 0dae 653d
00000290: 2713 83bd 1a04 94bd 0892 b73e e4a3 73bc
000002a0: c1f3 253d 0bc1 653d 4f7c bcbc 83ec e73e
000002b0: 59c8 7e3e 1df0 31bf 070a 89be 5a30 ae3d
000002c0: 7201 153d 5e34 6e3e f517 923d ac47 aabd
000002d0: ebe2 443e 8994 f1bd 99f3 3cbc dccb 053e
000002e0: 50ba 9fbe ddfb 9abd fcfd 6dba 3310 3dbd
000002f0: 35c4 8a3d 4598 e43d 02a7 e1bc 26f0 253d
00000300: 1097 713d 92bb 4dbd 25c6 c03d 0956 0f3e
00000310: e82a 143d b25d f9ba 5ea8 de3e 7624 9bbd
00000320: 2824 f3bb 0ee1 e33e abe9 05bd cb4f ad3d
00000330: 73fd 663c bffb d0be 2a84 25bd da46 b13d
00000340: 1d1d 3e3d 3cb6 adbd b26f 1b3e 6b26 8fbd
00000350: f868 28be 13f1 d43e 4c53 32bd b30f 88bc
00000360: f635 3b3e fc3b f0bc c3fe 8bbd 73fe 33be
00000370: 1fbf f4bd bb02 9abd cfa5 fb3d 6d94 9a3e
00000380: 46d8 c13c 4e4a 7fbd eb69 e63d 64ae 72be
00000390: 6212 393d 7052 903d 0b6e f7bd baa0 d03d
000003a0: acd5 e23e 6471 433b d950 27bd bfc8 473d
000003b0: cfb4 833c 4f32 52bc 18ac 3cbe 5c45 5e3c
000003c0: 0ea6 a8bd 48e4 493d 490a 8ebd 4e4a 80ba
000003d0: 99f9 cbbd 10e3 31bb f9e0 81bd 4522 0dbd
000003e0: 1c3d 843d 8b21 c1bc f31a 1bbd 0852 153d
000003f0: 4550 93bb 07e8 8d3d d56d d8bb ecfb fe3c
0.16095322 0.014231252 -0.008288227 0.08013944 0.029845648 -0.058215946 -0.6681098 0.18427262
0.055824697 -0.08419276 0.1050861 -0.040741008 0.03456466 -0.047548935 0.10247116 0.08554964
-0.36685705 -0.080737755 -0.060850766 0.07283716 0.040047705 -0.27480492 0.09849082 0.08636773
0.07614227 0.01733542 0.036632966 -0.0001623854 -0.07549801 -0.19859931 0.120081745 -0.0028182368
0.09880481 0.089612156 0.09998586 -0.087461315 -0.03446015 0.17392296 -0.0660537 0.046057314
-0.16867898 -0.30352738 0.014400408 0.06936586 -0.082308665 0.17622153 0.024630835 -0.018388085
-0.59378517 -0.033019718 0.2336222 -0.5279357 -0.2740247 -0.15584433 0.090937085 -0.18323158
-0.04553456 0.0111357765 0.18066551 0.05300927 0.29370654 -0.18573217 -0.0154966265 -0.070618875
-0.51690847 -0.08190943 -0.21784857 0.030075602 0.080932006 -0.009102657 -0.024615236 0.16329536
0.122916214 0.012645329 0.00902091 0.002489718 0.052631915 -0.07548237 -0.23480831 0.04445429
0.059609458 -0.20794865 0.17807782 0.2653684 -0.001518622 -0.26725733 -0.00431668 -0.013077963
-0.3021515 -0.005655363 0.058226295 0.011424023 0.16575554 -0.2883498 0.011792743 0.08284801
0.16496536 -0.058446206 0.011239275 0.08873523 -0.2031474 0.05449864 -0.46734896 0.18602663
0.0024243444 0.27050066 0.41656888 -0.01150221 -0.012296811 -0.053534508 -0.22757764 0.020834118
-0.30236304 0.05465211 -0.07174893 0.05909735 -0.08335889 -0.4040046 0.025960876 -0.041898552
-0.06303374 -0.035302233 -0.04175539 0.03552565 -0.011805173 -0.320362 0.06120826 0.008751737
0.012829911 -0.24390943 -0.27042323 -0.034871887 -0.050408624 -0.021268638 -0.051389053 -0.17862669
-0.17998798 -0.07668129 0.6584045 0.0037073586 0.052519888 -0.04166638 0.08954858 0.2559673
-0.03527235 0.40961814 0.029513773 -0.035798643 0.036096375 -0.10377603 -0.033103228 -0.047119915
-0.28944135 -0.04184755 0.23875593 0.11396952 0.0248688 0.036305286 -0.0442963 -0.043319702
0.014582103 0.4771071 -0.030303052 0.05607419 -0.064001374 -0.07227345 0.358536 -0.014870618
0.040515665 0.056092303 -0.023008494 0.45297632 0.24881114 -0.6950701 -0.26765463 0.08505316
0.03637833 0.23262164 0.07133476 -0.083144516 0.19227187 -0.11795909 -0.011532688 0.13066047
-0.31196833 -0.0756757 -0.0009078679 -0.046158027 0.06775705 0.111618556 -0.027545456 0.040512227
0.058981955 -0.05022771 0.09412793 0.13997664 0.03617373 -0.0019025116 0.4348783 -0.07575314
-0.0074200816 0.4450764 -0.032693546 0.08462485 0.014098513 -0.40817067 -0.040409245 0.08656092
0.046414483 -0.08482024 0.15179327 -0.069897495 -0.16446292 0.41590175 -0.04353647 -0.016609048
0.18282303 -0.029325478 -0.06835701 -0.17577533 -0.11950516 -0.07520052 0.12287485 0.30191365
0.023662698 -0.06232672 0.11250671 -0.23699337 0.045183547 0.07046974 -0.12081536 0.10186906
0.44303644 0.0029822225 -0.040848587 0.04877543 0.016077427 -0.012829377 -0.18425024 0.013566341
-0.082347974 0.04928997 -0.069355555 -0.000978777 -0.09959716 -0.0027143396 -0.06341738 -0.03445651
0.06456968 -0.023575565 -0.037867498 0.036455184 -0.004495653 0.06929021 -0.00660489 0.031125985

fc2.bias f4 [84]
00000000: 4b91 c23d 50a1 8e3d b846 473d 205b 3c3c
00000010: 3dea 123e c623 0f3e dfd6 903e 5975 f43c
00000020: ff57 ba3d c634 d9bd 9aee c5bd e543 983e
00000030: 4fc4 743c d55d ce3e 3991 5e3c d876 da3d
00000040: a87e ae3e 7f17 503e 6548 5f3e a484 ad3e
00000050: 16a0 de3e 1963 983e 75ff 733d fad8 933e
00000060: 8206 803e c4ff 653d c5b8 4fbe 7dd4 fcbd
00000070: d587 3fbe 380e 5b3e acb3 693e 4f4a 443b
00000080: 0ef1 ec3d 1bef c1bd 37a2 533e c31a b2bc
00000090: bae8 9b3e adb5 8c3e f1ce 8b3d 2969 043e
000000a0: 80cc e4ba 975c 723e d431 5ebe 3b9c 72bd
000000b0: 0caf 9cbd ccb7 5d3d ce83 8abc 67b0 2a3d
000000c0: 3746 74be 69eb 293e 1e01 e1bd 55ec ddbd
000000d0: d530 543e cff9 5c3e 0d58 493e 64a0 0abd
000000e0: ff93 623d 55a0 ae3d 2c04 08be a663 afbd
000000f0: 8045 5e3d 5724 f6bd b091 c93c 33f4 673d
00000100: 5777 6bbd 843c 983e a5a8 833c b582 c03b
00000110: a6f0 473e 25ae 03be ba5f 2ebd ae18 c53e
00000120: 2106 1e3e d810 383e 37e2 4e3e 00f2 473e
00000130: 9290 8abd 99c0 cabd 9e23 ebbd e9a0 aabd
00000140: b5f8 d23d 1a3e 99bd 036d 1dbd e5eb 55be
0.09500369 0.06964362 0.048651427 0.011496335 0.14347167 0.1397849 0.28288934 0.029841112
0.09098815 -0.10605769 -0.0966465 0.297393 0.014939382 0.40305963 0.0135844285 0.10667199
0.34081006 0.20321463 0.2180496 0.3389026 0.4348151 0.29763106 0.059569795 0.28876477
0.25004965 0.05615212 -0.20285328 -0.123452164 -0.1870416 0.21392143 0.22822446 0.0029951518
0.11569415 -0.09469434 0.20667349 -0.021741277 0.30450994 0.27482358 0.0682658 0.1293074
-0.0017455965 0.23668133 -0.21698695 -0.059231024 -0.07650575 0.05413036 -0.016908552 0.041672137
-0.2385491 0.16593708 -0.10986541 -0.108360924 0.20721753 0.2157967 0.19662495 -0.033844367
0.05531692 0.08526675 -0.13282841 -0.08563928 0.0542655 -0.1201865 0.024605602 0.05662937
-0.05748686 0.2973367 0.016071627 0.0058749565 0.19525394 -0.128594 -0.04257176 0.38495392
0.15432025 0.17975175 0.20203482 0.1952591 -0.06765856 -0.09900016 -0.11481403 -0.083314724
0.10301343 -0.07482548 -0.03843404 -0.20890768

fc3.weight f4 [9, 84]
00000000: b19d b2bd c6c1 6f3d bf28 cebc baa0 babd
00000010: b3dd 4c3d 30b3 45bf 7948 313e 4067 40be
00000020: ae0b 353f b470 6a3d c677 81be e48b 53bd
00000030: bca5 f7be dae6 b13e bf29 bcbd 6572 10bf
00000040: 5c0f e33e 32e0 17bf ba41 2e3e affd c13d
00000050: 5d3d 24bf 0778 18bf 4d16 d53d 326e 40bf
00000060: 46a5 40bc 89c9 e6bd eb17 3f3c 0e41 bc3d
00000070: e456 02bd ff6f 45bf 2067 e03d 31f5 e13c
00000080: b064 943e e02f 29bd 3fa6 5bbd 0a1f bc3e
00000090: 51b7 603e 8f06 adbe 7a6d c53d 16cd 513f
000000a0: 9465 17bd 049a 093f 70e0 05be c8cb b13d
000000b0: 4296 64be 3444 d73e 5790 b33d 708d 1abf
000000c0: ace7 423e 41cb 10bd f811 b5bd 6780 67bd
000000d0: eb02 8abe 44c9 2dbe 9477 40be 55f7 1f3e
000000e0: 6534 31bf 7af1 e33e a7ac c1bd 152b ac3c
000000f0: 4a1e b83e 5781 f6be 51ca babd 04c5 2abe
00000100: 444f 24bd a677 2dbf 215b c43e 7a6b 233e
00000110: 0323 46bf df12 9b3b 5b44 10be 1df4 ce3d
00000120: 28ad b83d 845d 843e d8d0 4dbf e93a f3be
00000130: d1bd 993d a38c c83e 709c 1d3b 67f0 36bd
00000140: 6138 23be 47ce d53d b22b 86be 8194 f1be
00000150: a583 5dbe 0776 c9be c86f a43d 9a87 f93d
00000160: b511 b0bc f0e4 1fbe ca21 683e 1a19 c4be
00000170: 255d 41bf 27ee b1be 5452 29be dfef ae3e
00000180: 7e68 763e 067c c43d dc78 aabb b73b f2be
00000190: 0d65 ed3e c483 65bd a7f7 9f3e 7588 8e3d
000001a0: dc5f 1abe 9aa7 7abd 1cee 29be 8c86 9dbe
000001b0: d386 413d 24b3 343e 475f 0dbe 5549 813d
000001c0: e6d6 be3e 0c51 0a3e 4dd6 703e f052 afbd
000001d0: 9d0b d13d 9fe4 893c 2b14 d3be 9281 05bf
000001e0: 7f45 5fbf e5df ccbe 68dc 06be 33f2 d4bd
000001f0: aacd 54bd 238e 703e 9aa5 bb3c e12a 5f3e
00000200: 91c2 1ebe 94ce 14bf fe12 9d3c 2636 663e
00000210: 7cb4 cc3e 701a e53e 66dd eabd bfbb 5bbd
00000220: 519e 6d3d bafd 353c c99d e4be 7050 27be
00000230: d7ca 663d 6762 473d c65b d8bd 2bf4 6b3d
00000240: 7ed5 25bf 8f29 933e 7c98 443d edff 6abe
00000250: 9ef0 4ebe 92e5 b2be 51a8 0fbf 2ba8 96bd
00000260: cf50 c2bb 0c01 a3bb edc8 52be a08f 7c3e
00000270: c800 ed3d 497a 293f e8cc 113e 663e c6bd
00000280: f602 8d3d 0849 18be 12ae 463d e0bd 27be
00000290: dc47 023d cd50 c43e 0842 a0bd 721f 773e
000002a0: 8aa2 e2bc 6609 2f3d 660d c03d 311e aabd
000002b0: 9cbe bbbd d829 123e 615a 043e 3433 0e3f
000002c0: 1f16 f33d 4244 dfbd ecb4 8fbe d123 0fbd
000002d0: 7528 8bbc 8d1a 823e 1a3f e4bc eff8 f5bc
000002e0: 4ddb 01bf 98fb 0a3e 58bb 623d d1af 4c3e
000002f0: 3ebe 8e3e 4e6a a83e 39dd 533b 56a0 ad3d
00000300: 0f49 9bbe fa5a e1be dd61 c53e d5d8 84bd
00000310: a356 2bbf b1cf 8b3d 76d6 c33d ddf4 c3bd
00000320: 1a24 56bf cecc dcbc 5883 bc3e 863b edbe
00000330: 379f 0d3e 22b8 9d3e 10bb c1be a7ca fbbe
00000340: 3980 503d 96b5 10bf 3269 b8bd d9e6 8dbe
00000350: 5743 7c3e 8715 88be bd45 75bd 37de c7be
00000360: d1f4 d5be 03ca bdbd 894a d8bd 2e41 5bbd
00000370: 07d6 b13e 6f9d 1abf 5282 963d 8429 da3c
00000380: 0c1b 503d 95ed 673e f9cb 19bd 23c9 d13b
00000390: 0f37 73bb ab64 eabd 72e0 65bd fd28 16be
000003a0: f584 06bf c617 ca3e a9b6 1cbe 4039 8bbe
000003b0: 90d8 263e 7b12 8e3c 4430 c9be 2ff0 b3bd
000003c0: 88c0 ad3d c05e cd3b a98c 0dbe 9d61 b239
000003d0: 8627 0a3c 8cd5 74be 7547 a0bd f474 893d
000003e0: d062 37bf fc01 10bf ba4a a73d 4168 6a3d
000003f0: 6fba 0a3f d0ce e5be e8a1 adbd 6fc1 e33c
-0.087214835 0.058534406 -0.025165914 -0.091126874 0.050016116 -0.77226543 0.17312802 -0.18789387
0.70720947 0.05723639 -0.25286692 -0.051647082 -0.48368633 0.34746438 -0.0918765 -0.5642455
0.44347656 -0.5932647 0.1701726 0.094722144 -0.6415613 -0.5955815 0.10404644 -0.75168145
-0.011758154 -0.112689085 0.011663417 0.09192096 -0.031821147 -0.7712402 0.109571695 0.027582737
0.28983068 -0.041305423 -0.05362534 0.3674243 0.2194493 -0.33794066 0.096400216 0.8195356
-0.036962107 0.53750634 -0.13073897 0.08681446 -0.22322944 0.42044222 0.08767765 -0.60372066
0.19033688 -0.035350088 -0.08841318 -0.05651894 -0.2695535 -0.16971308 -0.18795615 0.15621693
-0.6922057 0.4452017 -0.09456759 0.021016637 0.3596061 -0.48145553 -0.0912062 -0.16676718
-0.040114656 -0.67760694 0.38350776 0.15958968 -0.77397174 0.004732474 -0.14088576 0.10105155
0.09017402 0.25852597 -0.80396795 -0.47505882 0.07506908 0.39169797 0.0024049543 -0.04466286
-0.15939476 0.10439735 -0.26205212 -0.47183612 -0.2163225 -0.3934786 0.08029133 0.12184067
-0.021492818 -0.15614676 0.2266914 -0.383004 -0.7553275 -0.34752008 -0.16535312 0.34167382
0.24063298 0.09593968 -0.005202396 -0.47311184 0.46366158 -0.056033865 0.3124363 0.06959621
-0.1507563 -0.061194994 -0.16594738 -0.30766714 0.04724772 0.17646462 -0.13805877 0.06312815
0.3727333 0.1350748 0.2351925 -0.08560741 0.10207293 0.016832648 -0.41226324 -0.52150834
-0.8721542 -0.40014568 -0.13170016 -0.10397758 -0.05195395 0.23491721 0.022906113 0.21793701
-0.15503909 -0.58127713 0.019174095 0.22481593 0.3998145 0.44746733 -0.1146801 -0.053645846
0.05801231 0.011107856 -0.4465163 -0.16339278 0.056345787 0.04867783 -0.105643794 0.057605904
-0.6477889 0.28742644 0.047996983 -0.2294919 -0.20208976 -0.34940773 -0.56116205 -0.07356294
-0.0059300433 -0.00497449 -0.2058446 0.24664164 0.11572415 0.6620222 0.14238322 -0.0967987
0.068853304 -0.14871609 0.04850585 -0.16381025 0.03180681 0.38342896 -0.078250945 0.24133089
-0.027665395 0.042733572 0.093775555 -0.0830654 -0.09167215 0.14273775 0.12925102 0.5554688
0.11869454 -0.10901691 -0.2806772 -0.034946267 -0.016987065 0.25410882 -0.02786212 -0.030025927
-0.5072525 0.13572538 0.055354446 0.19988944 0.27879518 0.32893604 0.0032327904 0.08477847
-0.30329177 -0.44014722 0.38551226 -0.0648667 -0.6692907 0.06826723 0.095623896 -0.09568188
-0.83648837 -0.026953127 0.36818957 -0.46334475 0.13830267 0.30804545 -0.3783803 -0.4917805
0.050903533 -0.5652708 -0.090044394 -0.27715185 0.24635063 -0.26578924 -0.05988096 -0.39036724
-0.41788343 -0.09267046 -0.105610915 -0.053528957 0.34733602 -0.60396475 0.073490754 0.026631124
0.050807044 0.22649224 -0.03754804 0.006402151 -0.0037111675 -0.11444982 -0.05612225 -0.14664073
-0.52546626 0.39471263 -0.15304054 -0.27192116 0.1629355 0.017342797 -0.39294636 -0.08786046
0.08483988 0.0062673986 -0.13823189 0.00034023533 0.008432275 -0.23909587 -0.07826129 0.0671176
-0.7163515 -0.5625303 0.0816855 0.05722833 0.54190725 -0.44884348 -0.08478147 0.027802197

fc3.bias f4 [9]
00000000: d95d 843d 79ea c6bd 0d5e 33bd 84b8 903e
00000010: 73c6 50be 7855 03be 0b8d 0f3e ea16 65be
00000020: 9b51 d9bd
0.064632125 -0.09712691 -0.043790866 0.28265774 -0.20388202 -0.12825572 0.14018647 -0.22372022
-0.10611268
