output_visualizations/base_tsk[+1]_agm[crop_plus]_spl[S3]_mdl[lenet]_ls[SM]_tu[none]/model.pt (torch, 249415 bytes, 10 tensors)

conv1.weight f4 [6, 1, 5, 5]
000000 4e f8 d9 3e 6c 5b 9d 3e ce 4a ed bd 21 6c c3 3d
       0.42572254 0.30733812 -0.115865335 0.09542108
000010 de cc 60 bd b1 00 73 3e 88 b5 28 bd af 99 28 3d
       -0.054882877 0.23730733 -0.041188747 0.04116219
000020 a4 7d 0d 3e 93 aa ab bd 8a 6d 70 3e b7 26 e8 bc
       0.1381746 -0.08382144 0.23479286 -0.028338773
000030 e0 a9 0b bc 99 24 50 bd 62 22 46 3e 9b 1f c3 3d
       -0.008524388 -0.050816152 0.19349054 0.09527513
000040 ac 71 2e 3e 95 f3 8b bd 84 13 06 be 74 98 5e 3e
       0.1703555 -0.06833569 -0.13093382 0.21737844
000050 24 b8 73 3d 68 b1 96 3c 39 cc 41 be 72 43 a0 3d
       0.059501782 0.01839514 -0.18925561 0.07825364
000060 8b 6d c6 bc 0a 2e 33 3d f4 d8 e5 3d bc f3 01 be
       -0.024222156 0.04374508 0.11223021 -0.12690634
000070 8b e2 89 be 67 44 0c bf 45 d8 32 3e 48 3a 37 bd
       -0.2693065 -0.54791874 0.17465313 -0.044733316
000080 94 cc 10 3e 5e 04 7d be 39 f1 c8 be b1 3f 98 3d
       0.1414054 -0.24708697 -0.39246538 0.07434023
000090 a0 39 3c 3e 24 3a 81 3e bb e3 00 be 01 27 93 be
       0.18381357 0.2523967 -0.12586872 -0.28740695
0000a0 d3 05 bf 3a a2 f3 fe 3d 51 24 96 3e 75 ab 61 3e
       0.0014573879 0.12448813 0.29324582 0.22038062
0000b0 5e b5 55 3d 85 5a e1 bd 84 c5 9c 3e ec 09 a8 3e
       0.05217492 -0.11003593 0.30619442 0.3282007
0000c0 b7 b5 9c 3e bb cb 74 bc 8e 8d e1 be 16 b7 55 be
       0.30607387 -0.014941151 -0.4405331 -0.20870623
0000d0 49 9e f5 bd 35 78 b0 3e 04 8d c5 3e 9d d3 2a be
       -0.11993081 0.3446671 0.3858415 -0.16682287
0000e0 60 ed 2e bd fd 58 e7 3c 79 0d 63 3e cc 58 73 bd
       -0.042706847 0.028240675 0.22173108 -0.059410855
0000f0 6c fe 4f bd e8 25 b8 bd da d6 27 3e bc 9f 10 bd
       -0.050779745 -0.08991605 0.16390553 -0.035308585
000100 a3 70 8a 3c c6 29 9e 3d 2e 3c 91 3e 8e 5f 21 bd
       0.016899412 0.077228114 0.28366226 -0.03939777
000110 41 c9 10 be 8b d7 2f be 99 10 ee 3e b5 8a 34 3e
       -0.14139272 -0.17172067 0.46497038 0.17631038
000120 9a 4c ac 3d 12 09 c3 be fe 7f aa be 5b 25 cb be
       0.08413048 -0.38092858 -0.33300775 -0.39676937
000130 74 d0 b6 be 54 4e f7 bc 59 f5 5b 3e 8c 9d a2 3e
       -0.35705912 -0.030188717 0.21480311 0.31760824
000140 cd 39 a5 be bd cc 74 be cb 09 07 3e 6a 3e f0 3d
       -0.3227066 -0.23906226 0.1318733 0.117306545
000150 e7 9f 70 3e ad 46 90 be 89 a3 8b 3d c4 43 80 bc
       0.23498498 -0.2817892 0.06818301 -0.015657313
000160 6b 5d ea 3d a7 a9 0f 3e fb e0 25 be 16 2c 20 bd
       0.11443599 0.14029561 -0.16199104 -0.039104544
000170 51 76 80 3e 59 01 8e 3e 9a 21 d7 bd 01 c7 f0 bd
       0.25090268 0.27735403 -0.10504456 -0.11756707
000180 da 71 aa 3e fc a5 31 3e a7 58 0a 3e a5 63 bc bd
       0.33289987 0.17348474 0.1351038 -0.09198693
000190 c5 f2 3a bf f4 7d 48 3e 8b 19 10 be cd 35 db bd
       -0.73026687 0.19579297 -0.14072244 -0.10703621
0001a0 c5 97 91 3d 92 e3 22 bf 3c f9 ed bd b7 a4 95 be
       0.07109026 -0.63628495 -0.11619803 -0.2922723
0001b0 ed c5 1d be 44 98 dc bd b4 34 4b bd 80 ef 23 3e
       -0.15407534 -0.1077123 -0.04961081 0.16009331
0001c0 a3 63 5a bd fa 09 06 be 89 89 11 be 31 f3 31 be
       -0.053317677 -0.13089743 -0.14212622 -0.17377926
0001d0 fd 21 95 3e 63 a2 03 be 75 05 c4 3d 92 80 a4 bd
       0.29127494 -0.12854914 0.09571353 -0.08032335
0001e0 03 26 7b bb 57 aa b1 3e 43 b8 87 3e 36 ae 3b 3e
       -0.0038322217 0.3470027 0.26507768 0.18328175
0001f0 dc ef 2d bb 73 08 c1 be 9e 68 a4 be 5c 3b b3 be
       -0.0026540672 -0.3770176 -0.32111067 -0.35006225
000200 7b fe 94 3d 92 51 52 bc ee 3d a0 3c 8b b6 0a be
       0.07275101 -0.012836831 0.01956078 -0.13546197
000210 81 60 ae be a8 09 81 3d 07 1a 15 bd 36 7c f2 3a
       -0.34058002 0.0630067 -0.036401775 0.0018500153
000220 e6 2f 22 be a6 56 6c be d0 2f 97 3d 7b 4d 54 3d
       -0.15838584 -0.23079929 0.073821664 0.051831704
000230 e9 2d a2 3e 0c 3d 9f 3c 74 ea 64 3e cc 12 d0 bd
       0.31675652 0.01943829 0.22355062 -0.10159835
000240 71 7a 8f 3d 36 32 d1 3e 05 7f f9 3e 46 51 cb 3e
       0.07005776 0.4085862 0.4872972 0.39710444
000250 e9 ab ac 3e a2 00 ab 3c
       0.33724907 0.020874325

conv1.bias f4 [6]
000000 73 f0 bf bd 1b 15 23 be d0 53 0a bc c1 ad 6a bd
       -0.09372034 -0.1592602 -0.008442834 -0.05729461
000010 90 0c 30 3e ec 64 92 bd
       0.17192292 -0.071481556

conv2.weight f4 [16, 6, 5, 5]
000000 93 58 47 3e bf f6 a0 3d d2 4c 05 be 42 6b 91 be
       0.19467382 0.07859563 -0.13017586 -0.28402144
000010 09 3a cc bc 94 af 0f 3e bf 09 a0 3d ae ad 1f be
       -0.024930017 0.14031821 0.07814359 -0.15593597
000020 ed 14 e1 bd 92 d7 c5 bd e0 5a f3 3d d8 d6 3d 3e
       -0.109903194 -0.096602574 0.118825674 0.18538988
000030 65 7d 6b bc 83 24 30 be ea 93 11 be 88 f4 18 3e
       -0.014373158 -0.17201428 -0.14216581 0.14937031
000040 42 00 3a 3e 12 2e 09 bd 55 f4 61 be fd 68 2a be
       0.18164161 -0.0334912 -0.22065862 -0.16641612
000050 74 13 f1 3d 84 e4 4c 3e 9e 7f 3a 3d 43 ec 98 be
       0.117712885 0.20009047 0.04553186 -0.29867753
000060 71 3e 18 be 07 d5 89 3e f5 3f 3f 3e c8 58 11 be
       -0.1486757 0.2692034 0.18676741 -0.14194024
000070 20 b5 e4 bd 34 2c 49 bd 4e 2d 7b 3e 99 ed 0e 3e
       -0.11167359 -0.04911442 0.24529001 0.13957824
000080 39 69 1f be 59 23 26 be 5b 57 f1 bd c4 64 58 3e
       -0.15567483 -0.16224422 -0.1178424 0.21132189
000090 d4 29 55 3e 51 cf 11 be d1 aa 48 be 4c 42 c6 bd
       0.20816737 -0.14239241 -0.19596411 -0.09680614
0000a0 f5 a6 81 3e b4 e4 3b 3e 0d a9 50 be 6a 5a 01 be
       0.2532269 0.18348962 -0.20376988 -0.12632146
0000b0 ee c4 51 bd cb f8 c1 3e ca 4b be 3e 22 2f 4e be
       -0.051213197 0.37885126 0.37167197 -0.20135167
0000c0 05 65 4b be 13 51 11 3c 7f ac cb be 46 fa e8 be
       -0.19862755 0.008869427 -0.39780042 -0.45503443
0000d0 5b 2d 7e be 7e 49 b8 3e 16 47 87 3e 83 99 26 be
       -0.24821989 0.3599357 0.26421422 -0.16269498
0000e0 1b 8c 74 be da 7e 89 bd 35 b8 96 3e 15 1c 0e 3e
       -0.23881571 -0.06713648 0.29437414 0.138779
0000f0 7d b8 5e be 68 5a 0d be ef 84 a5 3d 12 6e 16 3e
       -0.21750064 -0.13804018 0.08081996 0.14690426
000100 59 01 ba 3d 3f a3 8a be 58 bc 0e be b4 6a db 3d
       0.09082288 -0.27077672 -0.13939035 0.107137114
000110 f2 0e 87 3d be 77 43 3e 0f 8e c1 bd 39 4c 94 3d
       0.065946475 0.19088647 -0.09450924 0.07241101
000120 95 43 f7 3c cc 91 1a be c2 67 df 3d be be 8a 3e
       0.030183593 -0.1509468 0.10908462 0.2709865
000130 7d 68 0c bd e0 6d 65 be 34 a7 22 3e 5b d8 0c 3d
       -0.034279335 -0.22405195 0.15884095 0.03438602
000140 e5 b8 93 3e 50 80 20 bd 6a 3e 6f be d1 c1 e5 bb
       0.28852 -0.03918487 -0.23363653 -0.00701163
000150 52 53 94 bc 49 65 9c 3e 2d c9 1d 3d 5c 9e ec bd
       -0.018106136 0.30546024 0.038521934 -0.11553642
000160 32 eb 7a 3d ef 60 de bc 53 45 b5 3e dc b3 bf 3d
       0.061259456 -0.02714583 0.35404453 0.09360477
000170 ee a9 d0 3d e6 12 12 3e 9e 4b da 3d 7f 6f 0a 3f
       0.101886615 0.14265022 0.10658954 0.5407638
000180 61 e9 11 3e f4 d3 c6 bc 51 8a bd 3d da 24 04 3e
       0.14249183 -0.024270989 0.092548974 0.12904683
000190 56 f0 80 be c8 60 2e bc d7 fa 5d 3e 5a 59 3b 3e
       -0.25183362 -0.010643192 0.21677719 0.18295804
0001a0 5c 5d c7 3d 45 0a d8 be a1 34 a0 3d 91 ca 99 3d
       0.09734604 -0.42195335 0.07822538 0.075093396
0001b0 56 f6 32 3e 0b c1 d8 3d 67 ae ea be 52 85 ad 3b
       0.17476782 0.10583695 -0.45836183 0.005295434
0001c0 3b ac 26 3e 09 7d 2d 3e 4c cb 14 3e f8 88 25 bf
       0.16276638 0.16942228 0.14530677 -0.6466212
0001d0 0c 12 06 be e0 66 f3 3d 55 d4 8e 3e 21 61 9a 3d
       -0.13092822 0.11884856 0.2789637 0.07538057
0001e0 55 91 20 bf 37 01 65 be fd 70 db 3d e0 06 14 3e
       -0.6272176 -0.22363745 0.1071491 0.14455748
0001f0 e6 bc fa 3d 3f 55 16 be 4e 95 54 be 0d dd 17 bd
       0.12243061 -0.14680956 -0.2076008 -0.037076045
000200 b3 f3 49 3e e9 4c aa 3c e5 13 09 be af 54 15 be
       0.1972187 0.020788627 -0.13386495 -0.14583085
000210 f6 bf 80 3d 44 8d 1a 3e fb 67 09 bd 6a ef 60 be
       0.06286614 0.15092951 -0.03354643 -0.21966329
000220 69 64 a2 be c9 83 89 bd 48 68 09 3e 31 d2 ae bd
       -0.31717232 -0.06714589 0.13418686 -0.085361846
000230 ae 4d 80 be 22 49 50 be 8e ec 0d bd f5 77 bf bc
       -0.25059265 -0.20340398 -0.034649424 -0.02337263
000240 fd 64 b9 bd 5f 76 05 3e 69 9e 55 bd 9a 41 24 be
       -0.09052465 0.13033436 -0.052153025 -0.1604065
000250 10 b8 47 be 56 8e d5 ba 13 e2 97 3e 99 ac a7 3e
       -0.19503808 -0.001629303 0.29664668 0.3274887
000260 99 50 5b 3e c6 3a 1f 3e 63 fd 39 3e a9 16 32 3e
       0.21417464 0.15549764 0.18163066 0.17391457
000270 5d c2 50 3d 0a 78 27 3e af 77 f5 3d cf f6 03 3d
       0.05096661 0.16354385 0.119857185 0.032217797
000280 aa 8d 95 bb 68 29 9a 3d a3 24 5f 3d f7 a4 97 3c
       -0.004564007 0.07527429 0.0544783 0.018511279
000290 e5 ea a6 bd 71 e9 61 be e3 a4 ac 3c 6a 43 a3 3d
       -0.08150271 -0.22061707 0.021074718 0.079718426
0002a0 fb c2 43 bd 07 43 e6 bd a2 3c a6 be f2 f8 ea bd
       -0.04779337 -0.11243253 -0.32468134 -0.11473264
0002b0 51 ce b4 bd fa b6 f5 bc 01 d8 8e 3d fb c9 8b bc
       -0.08828414 -0.029994477 0.06974793 -0.017064085
0002c0 1a 49 dc bd f1 2d 75 be 3f 17 4f bd be fe 8f bd
       -0.107561305 -0.23943307 -0.05055928 -0.0703101
0002d0 6d af ed bd da f6 04 bd a1 00 ff bd 8e 20 2d bc
       -0.116057254 -0.03246198 -0.12451292 -0.010566844
0002e0 37 b0 5b bd e6 49 d4 bd 33 95 16 bd f2 27 a3 bd
       -0.05363485 -0.103656575 -0.03676338 -0.07966603
0002f0 12 c5 86 bd 96 f6 f3 bd ec 83 fb 3d 6b 7c 47 3d
       -0.06580557 -0.11912267 0.122810215 0.04870264
000300 db 05 e1 bd c1 6d 6f bd f5 ca 1d bd 64 a2 61 3c
       -0.10987445 -0.05845428 -0.038523633 0.013771627
000310 e8 4f ba bd c1 fd 8f be 94 83 40 be 8b 7e 3b bd
       -0.09097272 -0.28123286 -0.18800193 -0.045774978
000320 eb 23 8e 3e b6 19 79 3e c8 fd 59 3e 11 d8 76 3e
       0.27761778 0.24326214 0.21288216 0.2410586
000330 26 bb 4b 3e c2 fb b1 3d d8 a3 eb 3d 0a 49 c5 3d
       0.1989561 0.08690597 0.1150586 0.09633072
000340 27 b7 5a 3e 43 75 e6 3e 9f cd 14 3c e2 1b 3f 3e
       0.2135893 0.4501134 0.009082227 0.1866298
000350 96 f5 0f 3e d6 5a d8 3e 9b 89 04 3f 28 cd 44 bc
       0.14058527 0.42256802 0.5177247 -0.012011804
000360 ff 96 6d 3e 5e 43 66 3e a9 63 30 3e 2f 52 93 bc
       0.23202132 0.22486636 0.17225517 -0.017983524
000370 fe 42 94 3c 4a fd 97 3e b7 78 27 3e 84 98 8c 3d
       0.01809835 0.29685432 0.16354643 0.068650275
000380 05 5a 5a 3d a7 c9 9a bc 75 0f 68 3c 18 cc 62 3a
       0.053308506 -0.018894983 0.0141638415 0.0008651628
000390 d2 66 25 3c eb 87 e5 3d cb c7 0b be 0f 5e 8e bd
       0.010095315 0.11207565 -0.13650434 -0.06951534
0003a0 a0 4f 62 3c 22 6e 91 3d d6 33 a1 3d 8b 27 4b bc
       0.013812929 0.07101084 0.07871215 -0.0123995645
0003b0 e0 04 5c 3e 47 ea 26 3e bc 90 d3 3d b6 5a ca bd
       0.21486235 0.16300307 0.1033034 -0.09880583
0003c0 3b 65 69 3d b1 a7 39 3e 9a 96 64 3d 85 cf 2c be
       0.056981307 0.18130375 0.055807687 -0.16876037
0003d0 85 31 3f be 67 92 1e 3d 4a 0e 0d be 41 69 5f be
       -0.18671234 0.03871384 -0.13774982 -0.21817495
0003e0 01 77 01 be fb 24 4c 3d 84 08 54 be 49 83 14 be
       -0.12643053 0.049839955 -0.20706373 -0.14503206
0003f0 68 77 5c bd 3f 62 dd 3c 2c 81 3a 3b fd 47 d6 bd
       -0.053824812 0.027024386 0.002845834 -0.104629494

conv2.bias f4 [16]
000000 61 0b c9 bd e8 9c 7f bc 36 7b 89 bd 48 d9 7e 3d
       -0.098166235 -0.015601374 -0.06712954 0.062218934
000010 69 25 8f 3e b4 09 02 bd 5c fd 4f 3c 28 46 86 be
       0.2795823 -0.031747535 0.012694683 -0.262254
000020 3f df 62 be 91 c5 2a 3e d8 62 d2 bd 42 1c ec 3b
       -0.22155474 0.16676928 -0.10272759 0.007205517
000030 a8 be ca 3d 9e 3b 8d bd d1 16 3c bd 73 86 0b 3e
       0.09899646 -0.06896137 -0.045920197 0.13625507

fc1.weight f4 [120, 400]
000000 00 e9 a0 bc 5f fd ed 3c 6b 2c 72 3d 90 22 93 bc
       -0.019642353 0.02905148 0.05912439 -0.017960817
000010 2b e0 03 bd 7e 6b 83 bd e4 2d 51 bd 2d 7a 21 3d
       -0.032196205 -0.06416987 -0.051069155 0.039423157
000020 64 60 d5 3c 95 0a 08 bd 44 09 c7 3c 10 52 69 bd
       0.02604694 -0.033213217 0.02429641 -0.056963027
000030 44 be a0 bc 71 0b 25 3c 77 42 d9 bc 7c c4 f7 bc
       -0.019621976 0.010073529 -0.02652095 -0.030245058
000040 47 1a 1b 3c f3 74 01 bd a1 07 69 bc 8a 14 b0 bc
       0.009466714 -0.031605672 -0.01422301 -0.021494169
000050 9c 2f 37 3c 51 63 cf bc 58 0a 1b 3c 19 a9 7d 3c
       0.011180785 -0.025315912 0.009462915 0.015482211
000060 a4 be b6 3c b2 10 b2 3c 23 f0 e0 3c e3 74 a8 bc
       0.022307701 0.021736477 0.027458256 -0.020563548
000070 d0 aa 85 bd c9 03 6c bd 1e 5d 1d 3c aa 6e de 3c
       -0.065267205 -0.057620797 0.00960472 0.027152378
000080 18 cf f5 bc 71 aa a1 3c 83 39 9c bc ab 70 58 3c
       -0.030005977 0.019734593 -0.019070392 0.013210456
000090 c1 ee 7a 3c b3 66 80 bb 75 7f 1e 3d a6 52 3f bc
       0.015315712 -0.0039184927 0.03869577 -0.01167742
0000a0 c1 ca 8e 3d 3d 2e 31 bc af 3a 94 bc cf e6 82 bc
       0.06972266 -0.010814247 -0.018094389 -0.015979199
0000b0 58 5a 81 3c 1b ae 6d 3d 26 8e f1 3c 16 87 7e bd
       0.01579015 0.058027368 0.029486727 -0.062140547
0000c0 89 e3 d7 bc fc da 5c bd c6 30 79 bd f9 c1 79 3c
       -0.026353614 -0.053919777 -0.06083753 0.015244001
0000d0 46 54 81 bd e0 77 88 3c 2f 8f 3c bd 06 21 e4 bb
       -0.06314902 0.016658723 -0.046034988 -0.0069619445
0000e0 48 4a 19 3d 96 7c 89 bd 54 b8 73 bb 67 51 b1 bc
       0.037424356 -0.06713216 -0.0037188726 -0.021645261
0000f0 55 0d 06 bb 2c fb 30 3d 1a fa 59 bd 63 dc 5a bd
       -0.0020454724 0.043208286 -0.05321703 -0.053432833
000100 c2 1a 07 3d 99 21 c0 bc 0d f4 9b bc 23 ae 20 3c
       0.032984503 -0.02345352 -0.01903727 0.009807142
000110 11 ee 56 bd cb e8 84 bb cd 2f 88 3b 1e ed 00 3c
       -0.05247313 -0.0040560714 0.004156089 0.007869033
000120 6e 30 59 bd 12 1f 15 bc 6d 6d 29 bd 4c 61 1a bd
       -0.0530247 -0.009101646 -0.041364122 -0.037690446
000130 e6 54 b4 3c 92 b2 01 bd fd 0f 52 bd 03 ff fe bc
       0.022013139 -0.03166444 -0.05128478 -0.031127458
000140 80 06 b4 3b 35 1f 00 bd cc ba 4c bd 42 be 82 bd
       0.005493939 -0.03127976 -0.04998283 -0.06383945
000150 dd 69 13 bc bd 67 7e bc 5a cf a6 3c ad 96 b0 bc
       -0.008997408 -0.015527663 0.020362545 -0.021556223
000160 14 f6 29 bd d1 e0 d1 bc c6 a5 01 b9 b6 b8 3d 3c
       -0.041494444 -0.025619896 -0.00012364154 0.011579683
000170 d9 c2 67 bc 30 54 83 bd 1d 9d 63 bd fb 69 89 3d
       -0.014145576 -0.06412542 -0.055569757 0.06709667
000180 2f fb b3 3b 9d ff 25 bd 2c 76 88 bc f1 41 cb 3c
       0.00549259 -0.040526975 -0.016657911 0.024811717
000190 02 89 91 bd bc a0 65 bd 51 72 57 bd 0e c3 98 bc
       -0.0710621 -0.05606149 -0.052599255 -0.018647697
0001a0 e8 77 65 bc e3 2a 22 bd 01 66 0e 3c fb cc 7e bd
       -0.014005639 -0.03959168 0.008691312 -0.062207203
0001b0 d3 ef ee 3c 30 79 51 bd 16 e5 82 bc 5c 00 d0 bb
       0.029167091 -0.051140964 -0.015978377 -0.006347699
0001c0 fd d8 21 bd f8 45 b2 3c bd 2b 7e bd c1 16 39 bc
       -0.039513577 0.02176188 -0.06205343 -0.011296929
0001d0 18 db 51 bd c6 2f d1 bb dd 4e 96 3c 1e 61 cf 3c
       -0.051234335 -0.006383869 0.018348152 0.025314864
0001e0 93 90 49 3b a7 8c 02 bd c5 47 01 3d f6 8e 38 bc
       0.003075634 -0.031872418 0.031562585 -0.011264553
0001f0 3f 13 dc 3c b4 80 3c bd b3 3f 18 bd b0 22 33 bc
       0.026864646 -0.04602118 -0.037170123 -0.010933563
000200 f2 c6 66 3d e3 da b5 bc a8 c0 72 bd 83 5a 6c bc
       0.056342073 -0.0221991 -0.059265763 -0.014425877
000210 d4 8d d3 ba d7 4c 21 3c da 30 7c bc a9 f0 58 bd
       -0.001614029 0.00984498 -0.0153925065 -0.052963886
000220 33 86 cf bc 4a d8 e4 bc 79 6f 88 3c 9c f6 a4 bd
       -0.025332546 -0.027935166 0.016654717 -0.080548495
000230 a3 bc b0 bc c4 47 3b 3c 53 54 d4 3c bc 79 11 3c
       -0.021574324 0.0114306845 0.025919115 0.008879121
000240 11 53 6b 3b 84 1b 86 3c 17 c2 cf bc 25 2b dc bb
       0.0035907666 0.016370542 -0.025361104 -0.0067190104
000250 ea e8 da bb 62 c2 44 3c 49 d6 90 3c 1f 94 28 bd
       -0.0066805976 0.012009235 0.017680304 -0.041156884
000260 08 b1 9c bc 44 2c 4a bd 63 d6 44 bc 96 64 af bd
       -0.019127384 -0.04935862 -0.012014004 -0.08564107
000270 1c 4f 80 bc b1 5a 2c bd 00 57 05 bc 6d 0c 97 bc
       -0.015662722 -0.042078678 -0.008138418 -0.018438542
000280 c7 70 42 bd 97 94 76 bb ba 36 f2 bb 33 89 84 bd
       -0.047470834 -0.0037625188 -0.007391778 -0.06471481
000290 26 bb 9a 3c 35 2a eb 3c a0 66 9c 3b 18 70 fe bc
       0.018888067 0.02870665 0.004772976 -0.03105931
0002a0 dc ee fb bb b7 bd 7b bd 39 6f 34 bd fa ba dd bb
       -0.0076883864 -0.061460223 -0.044051383 -0.006766674
0002b0 dc f5 c4 bb cf 86 6b bc 9e 96 a9 bd 34 30 d2 3c
       -0.006010754 -0.014375403 -0.08280681 0.02565775
0002c0 65 9b 2a bd bf 0c d3 3c 63 f3 72 3c 11 50 8f bc
       -0.041652102 0.025762914 0.014828536 -0.017494233
0002d0 b1 23 f8 3c ef 1f 28 3c 14 3c 83 3c fa 4a 22 bd
       0.030290456 0.01026152 0.016019858 -0.039622284
0002e0 71 2b 94 3c 53 9e 57 bc 33 f2 ed 3b 28 ef a8 bc
       0.01808712 -0.013160306 0.0072615384 -0.020621851
0002f0 f8 31 7f 3c 2a 5e a9 3c 01 95 8b bd f5 f2 83 3c
       0.015575878 0.020674784 -0.068155296 0.016107062
000300 10 25 47 bd 3f 15 79 bd a2 62 89 bd 75 46 7b bc
       -0.04861933 -0.060811277 -0.06708266 -0.0153366225
000310 29 78 88 bd 32 cf 11 bd 4c 49 4b bd 76 41 ad bb
       -0.06663544 -0.035597987 -0.04963045 -0.0052873446
000320 a4 c4 90 bd db 9f 1a bd a1 8f af bc fd 15 7c bc
       -0.07068756 -0.037750106 -0.021430792 -0.015386102
000330 43 41 18 bd 91 a0 c9 3c cf b5 02 bd 23 44 88 bd
       -0.037171613 0.024612697 -0.031911667 -0.06653621
000340 b2 8d 05 bd 84 3c bf bc d7 1e 2e 3d 80 56 ce bc
       -0.032605834 -0.023344286 0.04250988 -0.02518773
000350 f6 84 f3 bc 35 e2 34 bc b7 db 2b bd 30 45 4c 3c
       -0.029726487 -0.01104026 -0.041957583 0.012467667
000360 b5 d9 08 bd 90 fb 22 bd d9 d1 4e bd 29 ed 39 bc
       -0.033410747 -0.03979069 -0.050493095 -0.011348047
000370 ff d9 59 bd 1a ca 6f bd e8 3e 86 bb e1 2c 8a 39
       -0.053186413 -0.05854235 -0.0040968545 0.00026354849
000380 20 59 88 3d 43 08 65 3c 77 b1 cf 3c 03 54 a8 ba
       0.06657624 0.0139790205 0.025353177 -0.001284242
000390 61 a3 ad 3a 83 0e 8b 3c 71 e6 89 3c dc a2 6d bd
       0.0013247543 0.016974693 0.016833516 -0.058016643
0003a0 36 eb b4 bc b5 1c 8b bd 3f ad c6 bc 7f f3 44 bd
       -0.022084814 -0.06792585 -0.024252532 -0.04808378
0003b0 2a 57 85 3c 0c 7e b8 bb c7 18 a6 bc 76 ed 75 bd
       0.016276915 -0.0056302603 -0.020275487 -0.060040914
0003c0 d5 79 93 bd c9 bc b4 bc cf a1 2b bd e2 cb 35 bd
       -0.07200972 -0.022062676 -0.04190236 -0.04438389
0003d0 51 fc 45 3c 5d 6a 79 bd 2c 23 5e bd c6 15 9f 3c
       0.012084083 -0.06089245 -0.05423276 0.019419562
0003e0 64 89 39 b9 81 f1 53 bd d5 9a bb bb 79 ef 80 3c
       -0.00017694157 -0.051743988 -0.0057252445 0.01573919
0003f0 da dd 8a bc a6 84 69 3c cb 92 0c bb 95 b8 ba bc
       -0.01695149 0.014252817 -0.00214498 -0.022793094

fc1.bias f4 [120]
000000 83 78 59 bd a3 d9 34 bd e6 0c a4 ba 09 d2 44 bd
       -0.053093445 -0.044152867 -0.0012516051 -0.048051868
000010 90 31 9d bc bc 2c ea 3a 65 71 ec 3d 03 cb 82 bd
       -0.019188672 0.0017866115 0.11545066 -0.06386378
000020 c7 7b 49 bd c7 71 b8 3e 06 58 14 3c c6 24 f3 bc
       -0.04919031 0.36024305 0.00905419 -0.02968062
000030 fe e5 d0 3c 5e e0 84 bd cb bc c1 bd 16 7e 3a 3e
       0.025500294 -0.06488107 -0.094598375 0.1821216
000040 78 a4 c2 3e d7 e2 30 bd e1 51 9a 3c 58 d7 27 bd
       0.38016105 -0.04318508 0.018837871 -0.040976852
000050 92 5d 93 bd 1e 2d ba 3e ac 1b 8a be 01 77 89 bd
       -0.071955815 0.36362547 -0.26974237 -0.06712151
000060 ca 2d a2 bc 52 5c cf 3d c1 eb 1e be bf 65 d6 bd
       -0.019797225 0.101250306 -0.1551962 -0.10468625
000070 97 f4 c8 bd 0d 8e 48 3e 75 f9 65 3e 07 5a 5c bc
       -0.09812277 0.19585438 0.22458442 -0.013449199
000080 51 77 cb bc a3 81 8e 3c 01 9d ea bd 26 cb 4f 3f
       -0.024837168 0.0173958 -0.11455727 0.81169355
000090 40 32 db 3c 6e 7f c7 3e 80 e8 1e be 75 57 2a bd
       0.02675736 0.3896441 -0.15518379 -0.04158731
0000a0 80 98 94 bc e3 00 bb 3d 16 1c 4c 3c b7 f5 98 3e
       -0.018139124 0.091310285 0.012457868 0.29874966
0000b0 2e a6 9b bd 8e b2 b8 bd 91 07 57 be a4 d6 59 be
       -0.07600056 -0.090184316 -0.2099898 -0.21273285
0000c0 ec 34 dc bc c6 07 c9 3c 66 b1 07 3e a5 72 2b be
       -0.026880704 0.02453984 0.13251266 -0.16742952
0000d0 8d 43 7a 3e 1c ed 1f 3d bc ca a3 3d 35 05 57 bc
       0.24439831 0.039044484 0.07997653 -0.0131238
0000e0 e2 64 93 bd 2b 7e d2 bd 29 a6 7d bb e4 9b 19 bc
       -0.07196976 -0.10277971 -0.0038703775 -0.009375546
0000f0 6f 54 d6 bd 51 4a 7d bb cc 2e a7 bc 33 a6 9d 3c
       -0.10465323 -0.0038649032 -0.020408057 0.019244289
000100 f3 9d f3 bb a0 87 78 bd 1e 96 af 3d 81 ac 8b bd
       -0.0074346005 -0.060676217 0.085735545 -0.06820012
000110 9d 70 b0 3d ba 83 e1 bc fb c3 38 bd 72 eb fd bc
       0.08615229 -0.027528632 -0.045108777 -0.030996058
000120 51 be 95 be 0e 0c 3d bd c2 6e 92 3d f1 21 2a bc
       -0.29246762 -0.046154074 0.071500316 -0.010384069
000130 7d fb 61 3f 63 f4 92 3e e7 76 8b bd bf 68 c5 bb
       0.88274366 0.28702077 -0.06809788 -0.0060244496
000140 ae 61 9b bd a6 b0 98 bc f3 9d 62 3e fb 78 26 be
       -0.0758699 -0.01863892 0.22130565 -0.16257088
000150 8b c8 41 3e 23 5a 88 be 61 69 57 3e de 3f 19 3d
       0.18924157 -0.2663127 0.21036293 0.037414424
000160 6b 86 8c be 39 f6 7e bd e0 d6 47 3d 79 67 d1 bd
       -0.27446303 -0.062246535 0.048788905 -0.10224814
000170 0a 70 24 3d ba 5e a1 bd 99 ee 43 be 0e 6c ce bc
       0.04014591 -0.07879396 -0.19133987 -0.025198009
000180 a0 70 2a bd 99 f0 e9 bc e5 fd 0e bd 94 6a 51 3e
       -0.041611314 -0.028557109 -0.0349101 0.20450813
000190 61 a6 a8 3c 09 06 98 be c4 fa 95 bc 30 2a 42 bd
       0.020587148 -0.29692104 -0.01830805 -0.047403514
0001a0 ad 0e 40 bc cc e3 7b bc 19 ca 61 3d 16 21 da be
       -0.011722249 -0.015374135 0.055124376 -0.42603368
0001b0 99 4e 5b bd a7 0c 3d 3e cb 3e 8e 3e de 7a 41 3c
       -0.053541753 0.18461858 0.27782282 0.011809079
0001c0 e1 27 b5 bd 5e ad 4e bd 0e 73 4f 3e a4 f6 2b 3e
       -0.08845497 -0.050458305 0.20258734 0.16793305
0001d0 59 12 f5 3e 86 5e 9b bc 5f c0 81 be 70 09 9a be
       0.4786556 -0.01896597 -0.2534208 -0.30085325

fc2.weight f4 [84, 120]
000000 00 01 cf 3b ff ab d4 bb 31 f5 13 be 65 af 96 3e
       0.006317258 -0.00649023 -0.14449002 0.2943069
000010 a2 d0 4e 3d eb 09 8c bd f6 c7 30 be ac 4c b1 3c
       0.050491937 -0.06837829 -0.17263779 0.021643005
000020 fc d5 00 3d a4 7d 1e 3e e6 ee 4b 3c c5 77 cd bc
       0.03145407 0.15477616 0.012447095 -0.025081525
000030 53 43 44 3e 8b 58 87 bc 5b f8 55 3d 00 e5 32 be
       0.19166307 -0.016521713 0.052238803 -0.17470169
000040 2c e3 64 be d6 59 a5 bd e9 39 dc 3c fb 2f 34 3d
       -0.22352284 -0.080737755 0.026883082 0.04399107
000050 e9 2f 37 3c c4 d4 61 bc 56 43 ee 3a be 2e 86 bd
       0.011180856 -0.013783637 0.0018178027 -0.06551884
000060 d4 c1 9a 3d 3c 6c a2 be 2e 8d ac 3b 3c 47 8e bd
       0.07556501 -0.317232 0.0052658534 -0.06947181
000070 2d 56 a5 bd d9 40 9b 3e 87 89 39 3e 9c 4f 90 3c
       -0.08073077 0.30322912 0.18118869 0.017616086
000080 a0 4f 2d 3c ae f1 97 3e e4 c3 01 3d fd d8 bc 3d
       0.010578066 0.29676574 0.031680956 0.09221075
000090 86 53 5e be 21 e8 36 3e ed 9b 6d be 98 a6 3c 3d
       -0.21711549 0.17861988 -0.23204012 0.046057314
0000a0 f9 31 b1 bc 7b 5c ac be b0 ef 6b 3c 41 3c 00 bd
       -0.021630274 -0.33664307 0.014400408 -0.031307463
0000b0 a4 5a a8 bd 40 a3 66 3e 40 d2 49 3d b2 e3 64 be
       -0.08220413 0.22523212 0.049272776 -0.22352484
0000c0 ad d8 ae be 1a 91 78 bd ab 1a 48 bd 3e 48 c6 3d
       -0.34149686 -0.060685255 -0.048853558 0.09681748
0000d0 60 b6 cd bd a6 37 f4 bc a3 d4 32 be 69 90 98 3d
       -0.10044551 -0.029811691 -0.17463927 0.07449419
0000e0 b4 26 d8 bd ba 0e 39 3d 20 f7 56 bd 40 20 59 3d
       -0.10554257 0.04518006 -0.05248177 0.05300927
0000f0 11 7b d2 3e f5 48 15 3e 90 e5 7d bc 78 f6 bd be
       0.41109517 0.14578612 -0.0154966265 -0.37102103
000100 91 57 88 3d b0 f3 a2 bc a5 a1 05 3e 2e 62 10 3d
       0.06657327 -0.01989159 0.13049944 0.03524988
000110 36 28 00 3f cb d5 db bd ae 18 82 3c 30 d7 ad 3d
       0.5006136 -0.10734137 0.015880909 0.084883094
000120 1e c1 00 bd 54 fd 88 3c 0d c1 ea 3e 9a 9d 59 3d
       -0.03143417 0.016722359 0.4585041 0.053128816
000130 87 4b 68 be e2 ca 48 be 98 f0 1b bc b4 5c db bd
       -0.22685061 -0.19608644 -0.009517811 -0.10711041
000140 0b b9 ba 3d 7f 68 ca be 98 dc 06 3e f1 de 63 3e
       0.091173254 -0.3953285 0.13170087 0.22253014
000150 bb f8 e7 bd dc 4b b0 bc d9 95 cb 3c df b0 47 be
       -0.113267384 -0.021520548 0.024851726 -0.19501065
000160 88 9d 4b be f0 58 bf 3c 3f 91 93 3e 84 02 63 3d
       -0.19884312 0.023357838 0.2882175 0.05542232
000170 d0 4d 39 bd fb 80 14 3e 76 a0 7d be 38 ac a9 3d
       -0.045240223 0.14502327 -0.24768242 0.08284801
000180 d0 21 0c 3e 80 37 a5 3b 50 09 39 3d 79 42 7f 3e
       0.13684773 0.0050420165 0.045174897 0.24927701
000190 a8 ca d0 bc 73 22 a4 bb dc 40 0a bd c9 d2 fa bd
       -0.025487259 -0.0050089895 -0.03375326 -0.12247235
0001a0 c0 e1 1e 3b c3 94 49 3d 96 d0 ca bc 08 06 8b bd
       0.0024243444 0.049214136 -0.024757665 -0.0678826
0001b0 90 78 49 bc 6d 25 1d be d8 56 1b be d2 a6 51 3d
       -0.012296811 -0.15346308 -0.15169847 0.051184483
0001c0 0a 8c 83 bd 40 ca d6 3c 2c dc 8b bd a2 2e 69 bd
       -0.06423195 0.026219487 -0.06829104 -0.05692924
0001d0 8a 7b 90 be a8 f9 c8 be c8 f2 9e 3d 7b 36 b1 3d
       -0.28219253 -0.39252973 0.077611506 0.086529694
0001e0 22 58 41 bd 32 0c 8f bd ba 11 ab bd d0 42 c8 bd
       -0.04720319 -0.06984748 -0.083529904 -0.097783685
0001f0 57 e1 15 3d 78 d3 a2 bd 73 46 22 3b c2 c2 5a 3c
       0.036591854 -0.07950491 0.002476123 0.013352098
000200 09 01 c5 3c 29 27 12 3e 46 4f b1 bd 64 12 2c bd
       0.024048345 0.14272751 -0.08657698 -0.042009726
000210 f8 81 52 be 5c ae 2b bd 93 e5 1c 3d 2a 4c 4d be
       -0.20557392 -0.04191433 0.038304877 -0.20048586
000220 50 ba f1 3d 00 56 a0 bd d4 94 4b 3d 5f 83 18 3d
       0.118031144 -0.07828903 0.04970248 0.03723466
000230 1c 4f 34 bc 53 62 a2 3c 5c 37 80 3d 3e 15 3d 3c
       -0.011005189 0.019822275 0.06260559 0.011540709
000240 65 16 6d bc 76 8c 8c 3e fa bd 7c 3e cc ba df bc
       -0.014470671 0.27450913 0.24681845 -0.027310751
000250 da db 87 bd 0e e7 3d be 7c d7 1f 3e 81 6f e4 bc
       -0.0663373 -0.18545172 0.15609545 -0.0278852
000260 98 6c 6b bd 01 d8 30 3d 89 c8 a2 3d 69 55 c2 3e
       -0.05747661 0.043174747 0.07948405 0.37955788
000270 68 b5 35 3c 0d db b2 3d 07 db d8 bd 90 c0 79 bd
       0.011090614 0.08733187 -0.10588651 -0.060974658
000280 2a 4f 8d bd 67 38 6b 3c 83 d4 96 bd c7 b9 93 3e
       -0.06899865 0.014356709 -0.07364752 0.28852674
000290 38 db 8b bd b6 d1 8a bc 91 2c 78 3e f5 49 96 bd
       -0.06828922 -0.016945701 0.2423575 -0.07338325
0002a0 c9 36 c0 3c a2 c0 aa 3d e3 9f 29 3e 24 6f 7b 3d
       0.023463624 0.08337523 0.16564898 0.06138529
0002b0 50 1f cc 3c ba d5 66 bd 36 97 0c bd 36 51 2e 3e
       0.024917275 -0.05635617 -0.034323893 0.17023167
0002c0 c1 02 b6 bd 0a 38 1c bd 63 93 a2 ba 12 1d 92 bc
       -0.08887244 -0.03813938 -0.0012403544 -0.017836127
0002d0 80 e7 1d be f7 f9 de be c9 07 de bb 03 6c 57 3e
       -0.15420341 -0.43550083 -0.0067758304 0.21037297
0002e0 ef 2d 68 3d 00 38 54 3c 67 51 7f 3d 45 2a b1 bd
       0.05668443 0.012952805 0.06233349 -0.086506404
0002f0 47 23 02 3e cd 01 cc 3d 5e 51 b5 bc dd a8 83 bd
       0.1270877 0.09961281 -0.022133525 -0.064286925
000300 40 6e 76 3e 4c 17 9e bd a5 bc e6 3c 8c 06 19 3e
       0.24065495 -0.07719287 0.028166125 0.14943904
000310 ec dc 26 3e fd 47 e0 bd 6f 7f e2 3d 0c b1 e6 bd
       0.16295213 -0.10951231 0.11059462 -0.11264238
000320 e6 1e e2 3b 7e 2e 12 3c d3 55 77 be 75 b0 62 bb
       0.006900656 0.008922217 -0.24153833 -0.003459004
000330 31 71 b5 3e 4c a6 2a be f0 14 cf be 90 6c 0c be
       0.3543792 -0.16665 -0.40445662 -0.13713288
000340 c8 e2 05 3e 16 55 ea b8 4d c1 bc bd 13 78 4e bd
       0.13074791 -0.00011173838 -0.09216557 -0.05040748
000350 6a 9a 40 3e 93 d6 53 3e cd 55 34 be c0 1c d2 bc
       0.18808904 0.20687322 -0.17610855 -0.025648475
000360 77 13 0e 3e c5 cc 3e bc 1e 72 49 bd d9 e1 28 bf
       0.13874613 -0.011645501 -0.049181096 -0.65969616
000370 fe a7 a4 bd 31 ec bd be 77 4f a0 3c e2 fa 76 3d
       -0.080398545 -0.37094262 0.019569142 0.060297854
000380 18 ee c8 3c af 27 3d 3c 62 70 90 3e 35 0f 8b be
       0.024527594 0.011545106 0.2821074 -0.2716004
000390 60 eb ab 3c 0e 44 06 3d e0 8a 8a 3e 6a 1b b6 3d
       0.020986259 0.032779746 0.27059078 0.088919476
0003a0 c6 ea f3 3d 16 9e aa 3c 83 9d 80 bc 8d 25 9f 3e
       0.11910014 0.020827334 -0.015700107 0.31083336
0003b0 f9 b5 85 be 34 a9 83 bd b4 56 8a 3d 89 9c a0 3e
       -0.26115397 -0.06428757 0.067548186 0.31369427
0003c0 65 21 50 bd 45 83 52 3d 44 8e 48 bd 87 84 a4 3b
       -0.050813098 0.05139472 -0.0489638 0.0050206813
0003d0 e4 1b b8 bd 20 6f dc 3c 8c d2 66 bd 76 17 83 bc
       -0.08989695 0.026908457 -0.056353137 -0.016002398
0003e0 1a 62 9b 3d 58 8f 32 3c 1a cb 17 bb 15 fc ff 3c
       0.07587071 0.010898434 -0.002316183 0.031248132
0003f0 21 07 1b bc 30 1e 7b 3d c1 2d 62 39 17 45 c9 3b
       -0.009462149 0.061308086 0.00021570084 0.0061422694

fc2.bias f4 [84]
000000 f9 af 5a be 7d d8 81 3d 3f 52 02 3d 7b e7 59 3d
       -0.2135619 0.0634012 0.031816717 0.053199273
000010 e8 22 10 bd 2a d8 be bb 72 e0 04 3f 27 bf b6 bd
       -0.03518954 -0.0058241086 0.51904976 -0.08923178
000020 30 ca 6d 3e 82 cd 17 be 5a 26 15 bc 39 da 73 3e
       0.2322166 -0.14824489 -0.009103382 0.23813714
000030 69 38 cc bd b2 08 c2 bd 97 dd f2 3c 6d 85 5c 3c
       -0.09971697 -0.09474315 0.029646678 0.013459546
000040 2f 2e 55 3e 12 2b 1d bd 03 ae c3 3e 78 7e 45 3e
       0.20818399 -0.038371153 0.38218698 0.19286525
000050 6a f4 22 3c dc 49 93 bd 6a 16 e9 3e 65 1b 88 3e
       0.009945968 -0.07191822 0.45524913 0.265834
000060 a1 1a 37 bd 3d 79 55 3e 92 2a 76 be 02 a8 96 3e
       -0.04470313 0.2084703 -0.24039677 0.29425055
000070 72 e9 34 bc cc 3b e1 bd 9c 95 3b 3e 0a f8 0d 3e
       -0.011041986 -0.109977335 0.1831879 0.1386415
000080 51 06 c7 3e a2 56 cd be 6b 0a 9e 3e 16 57 ac 3e
       0.38872007 -0.40105158 0.30867323 0.3366019
000090 57 14 3e 3e 1f 56 50 3e 39 a6 5c 3e 1f dc 8e 3e
       0.18562447 0.20345353 0.21547784 0.27902314
0000a0 1b 81 80 3d 28 b4 d0 3e 82 07 15 be 43 d8 d1 3e
       0.06274625 0.40762448 -0.14553645 0.40985307
0000b0 c5 a2 00 be 56 f3 a3 3d f7 4b a7 3e 0e 50 86 bd
       -0.12562092 0.08005397 0.32675144 -0.06558238
0000c0 57 36 e8 bc 3d d8 18 3d 5a 1d 13 be e8 3f 58 3e
       -0.028346224 0.037315596 -0.14366665 0.21118128
0000d0 01 e6 d6 3d 41 3c e3 3d 38 03 e3 bd b0 7c 7c 3e
       0.104930885 0.11095477 -0.11084598 0.2465694
0000e0 74 08 95 3c cf 61 53 3e 1a 3f eb bd 9a bd 2f be
       0.018192507 0.2064278 -0.11486645 -0.17162171
0000f0 76 9c 3d 3e d6 00 a1 be 18 13 49 3d 70 ed e0 3e
       0.18516716 -0.3144595 0.049090475 0.4393115
000100 38 ff bc 3e c2 a2 3d 3e f4 67 11 3e a4 6b c1 3e
       0.36913466 0.18519118 0.14199811 0.37777436
000110 8e 05 72 bd c5 16 8c be a0 fa 4e 3e 4c 90 22 3e
       -0.05908733 -0.27361122 0.20212793 0.15875357
000120 e7 07 a7 bb ee 35 95 3e 81 2b dc be 56 10 be be
       -0.0050973776 0.29142708 -0.4300194 -0.37121838
000130 d1 12 2d bd 41 ac 1a be aa 84 eb bd b9 ea bd bd
       -0.042254273 -0.15104772 -0.11499913 -0.092732854
000140 a6 04 e3 bd 6f 83 98 be 5a 2f 4a 3e 4a 4b 3e be
       -0.11084871 -0.29787776 0.19744626 -0.18583408

fc3.weight f4 [9, 84]
000000 d9 c2 f2 be 72 a0 81 3d 32 c1 67 bc 30 f0 e0 be
       -0.47414282 0.06329431 -0.014145182 -0.4393325
000010 b8 a2 c1 3c 69 42 f4 bd f9 bf 92 3e ee 09 32 bf
       0.02363716 -0.11926729 0.2866209 -0.695464
000020 24 62 11 3e 34 10 cc be ca ee a8 be e2 05 0a 3e
       0.14197594 -0.39856112 -0.32994682 0.13478807
000030 e7 e5 fc be 28 e6 a7 bd 0d 3d 93 bd 94 9d c8 bd
       -0.49394152 -0.08198196 -0.07189379 -0.09795681
000040 9c a8 92 3e 26 94 56 bd 0e 33 98 3e d7 5e 4b 3c
       0.28644264 -0.05238738 0.29726452 0.012412748
000050 e6 9b 09 bf 76 f1 79 bd 5f d4 63 3e c0 b8 17 bf
       -0.5375351 -0.06102129 0.22248982 -0.5926628
000060 6f a7 31 3e 00 b0 79 bd bd 40 9b bd 69 c2 1a 3e
       0.17349027 -0.060958862 -0.07580707 0.15113224
000070 2b 67 80 bd 09 96 77 be cd af e5 bd d1 6f 32 be
       -0.06269678 -0.24178328 -0.11215172 -0.17425467
000080 2b f1 2a 3e 24 d1 e9 be 54 e7 49 3e ca 5f 4f be
       0.16693561 -0.45667374 0.19717151 -0.20251384
000090 6e c5 55 bd 95 2a ce be 5f 4d 1c 3e 0c 23 8a bd
       -0.052190237 -0.40266863 0.1526389 -0.06744966
0000a0 91 4b 60 bd a1 ca 62 3e 5c c0 91 bd a9 f5 2a 3e
       -0.054759566 0.2214761 -0.07116768 0.16695274
0000b0 f0 e6 34 be 0c 8e 9d be 8e ee a3 3e 19 90 1a bf
       -0.1766622 -0.30772436 0.3201794 -0.60376126
0000c0 7b 8f ce 3d e0 06 31 bd 00 3c 4e 3c c9 d4 a6 3e
       0.100859605 -0.043219447 0.012587547 0.32584217
0000d0 3b 2e cd 3d 5d 26 18 be c1 3b 87 3e 59 79 17 3c
       0.100185834 -0.14858384 0.26412776 0.00924524
0000e0 78 b1 cb be 43 75 3a 3e 98 17 fe bd 69 11 8c be
       -0.39783835 0.18208794 -0.12406844 -0.27357033
0000f0 a7 ef 64 3e 6d 46 8b be 8b f8 61 be b8 0e 6d 3e
       0.22357045 -0.27202168 -0.22067468 0.23150146
000100 7e e7 4e 3e 9f bc 47 be e9 f8 8a 3e 7a ac 89 3d
       0.20205495 -0.19505547 0.27143028 0.067223504
000110 5f a4 97 be 0e f3 f2 be 6f ae 69 3e d2 6a 1b 3e
       -0.29617593 -0.4745106 0.22820447 0.15177467
000120 36 85 ac bd c4 9c 7e 3e b8 8c 0f bf ff ae 04 bf
       -0.084238455 0.24864489 -0.56074095 -0.5182952
000130 ad 2e 16 3d 83 66 90 bd 3a 58 58 3d 99 88 c9 be
       0.036665607 -0.070508026 0.052818514 -0.39362028
000140 98 ad b2 be a8 ce 03 be 97 9c eb be de ef 8d be
       -0.34898067 -0.12871802 -0.46017906 -0.27722067
000150 d6 a1 89 bd d0 aa 78 be 69 36 58 3d 04 b4 0d 3e
       -0.06720321 -0.2428391 0.052786265 0.13838202
000160 6e db 83 3d 20 40 8a bd 19 76 95 3e a6 19 09 be
       0.06438337 -0.06750512 0.29191664 -0.1338869
000170 f8 1c 90 bd af 72 d0 3d 0a 74 bb 3c cb 9c 1e 3e
       -0.07036775 0.10178124 0.02288248 0.154895
000180 e8 17 c5 3d 20 fa cc 3d ce 47 95 bd b4 16 02 bf
       0.096237004 0.10008645 -0.07289086 -0.5081589
000190 39 da 45 3e ac 9b 2c bd ec 41 69 3e d5 17 e1 bd
       0.19321527 -0.042140648 0.22779053 -0.10990874
0001a0 2d 90 06 be 92 8a 82 3d f7 00 89 3d 65 74 b4 be
       -0.13140936 0.063740864 0.06689637 -0.35245052
0001b0 ba a2 d4 3c 95 97 b5 3d 60 3e 07 3c 26 2a 35 3e
       0.0259565 0.088668026 0.008254617 0.1769186
0001c0 94 59 00 3e cc f2 26 3e a7 39 8c bd 77 95 6e be
       0.12534171 0.16303557 -0.06846934 -0.23299204
0001d0 fb 1e 9e 3c 8c f7 43 3c 4a 77 3a be 91 e4 8a be
       0.019301882 0.011960875 -0.18209568 -0.27127507
0001e0 2d c6 f8 be e7 50 52 be 4f 0a 2c be 86 67 3d be
       -0.48588696 -0.20538674 -0.16800807 -0.18496522
0001f0 04 f5 fb bd 31 58 41 3e 0c 0d 1c 3c ff 9d 80 3e
       -0.123025924 0.18881299 0.009524595 0.2512054
000200 59 d5 55 3d 07 66 67 bd 6c f5 87 be 0f 02 37 3e
       0.052205417 -0.056493785 -0.2655443 0.17871879
000210 9d d9 65 3e f4 b0 c2 3d c5 78 15 be ba 2e d7 be
       0.22446294 0.095064074 -0.14596851 -0.42027837
000220 61 e2 4f 3e 64 d6 ed be 3d 05 9e be 96 26 af 3c
       0.203012 -0.4645263 -0.30863371 0.021380704
000230 e4 67 d2 3c 01 9d 20 3e 3a f2 8a bd 1b 32 25 be
       0.025684305 0.15684892 -0.06784482 -0.16132395
000240 5d f9 5a be 7d 0f 8e 3e 52 ca 62 be 8f 10 bb bd
       -0.21384187 0.27746192 -0.22147492 -0.09134018
000250 2b 76 9f be 78 a6 0a be 06 30 b0 be 40 f5 8c 3d
       -0.31144843 -0.13540065 -0.3441164 0.06882715
000260 62 ef a6 bc 02 77 38 be c8 3d af be bb e4 51 3e
       -0.020377818 -0.18014148 -0.34226823 0.2049741
000270 c0 3a 6d 3d 76 35 8d 3e da 94 89 3c ea 50 a7 bc
       0.057917356 0.2757985 0.01679461 -0.020424325
000280 3a 30 11 bc f1 7e 26 3d ac 2a 7f bc 1f cb d9 3d
       -0.008861596 0.040648405 -0.015574139 0.106344454
000290 3b 94 b7 bd e3 67 68 3e 6a 84 2f 3e a7 1f 1a 3e
       -0.089638196 0.2269588 0.17140356 0.15051137
0002a0 09 15 71 be ed 2c b6 be 51 9d a5 3d f2 33 8b be
       -0.2354318 -0.3558115 0.08086646 -0.2718807
0002b0 4e b4 8a bd a0 e1 49 3d d3 5d ba be fa e0 04 3e
       -0.06772672 0.04928744 -0.36399707 0.12976447
0002c0 16 7e 87 3e d5 ed e1 be df 06 85 be 55 6d cd 3c
       0.26463383 -0.44126764 -0.25981805 0.025076548
0002d0 8d 52 b0 3d a3 cc 01 3d 23 59 fa bb 30 f5 e8 be
       0.08609495 0.031689297 -0.0076400205 -0.45499563
0002e0 ca 7c 1b 3e 99 28 72 3c e2 9f df be 2d 0f 1c 3d
       0.15184322 0.014780187 -0.43676668 0.03810041
0002f0 06 99 31 3e 36 7f 2d 3d 4c df 91 3d f8 3e 4f 3c
       0.1734353 0.042357646 0.071226686 0.01264929
000300 57 a5 92 be 0d b5 83 be bb 7e cd bd 6d 83 9f 3d
       -0.2864177 -0.25724068 -0.100339375 0.07788739
000310 4d 18 86 3e 4a 9d ca 3d a8 5c 67 3d 1e ef 8e be
       0.26190415 0.09893282 0.05648485 -0.27916807
000320 43 30 81 be cd 34 47 3d bf f7 83 3e 9d 28 39 3e
       -0.25232133 0.04863434 0.25774953 0.18081899
000330 ca 8e d7 bd ed b3 c5 3e 64 6a 80 bc 9b c4 0b 3c
       -0.10525282 0.38613835 -0.015675731 0.008530761
000340 82 d0 13 bd 66 90 5e be ce b3 b5 bd d3 e9 98 be
       -0.03608752 -0.21734771 -0.08872186 -0.29865894
000350 e5 c2 43 be 97 e4 bd be d3 2c e2 be c9 89 4f be
       -0.19117315 -0.37088463 -0.44174823 -0.20267405
000360 65 d5 26 bf 52 e6 80 3d 2b 61 0a be 38 96 ad be
       -0.65169364 0.0629393 -0.13513629 -0.3390367
000370 2a 20 59 be 1a aa 87 3e 16 57 cf be 6e 7f 2c 3e
       -0.21203676 0.26496965 -0.4049613 0.16845486
000380 d2 26 7d 3d 48 58 a4 bd b0 f0 01 bd 6b ee 99 3e
       0.0618046 -0.08024651 -0.031723678 0.3006471
000390 ef 6e 1b 3e 20 a2 9d bd 12 66 9a be cc 57 fc bd
       0.15179037 -0.076969385 -0.30155998 -0.123214334
0003a0 dd 82 8f be 2f bb a8 3e f7 ba 89 3e 44 8e 14 3e
       -0.28029528 0.3295531 0.26900455 0.14507395
0003b0 9d 62 d9 3d 3a 9b e0 3e 4b 01 b9 bd 94 0e 63 be
       0.10614512 0.43868428 -0.0903345 -0.2217353
0003c0 f1 f5 36 be ba c9 b8 be 3f 5e 48 bc 45 ec 9a 3d
       -0.17867257 -0.36091405 -0.012229501 0.07564596
0003d0 2c ce b2 bd b2 09 a4 bc e8 70 b6 bd e9 93 d4 3d
       -0.087307304 -0.020024154 -0.08908254 0.10379774
0003e0 86 0f c4 be e9 dc a9 bd ea 85 44 be 42 d2 18 3d
       -0.38293093 -0.082940884 -0.19191709 0.037309892
0003f0 30 ec 45 3e 4e 94 6c be 30 01 c2 bd ab 9f 1b bd
       0.1932838 -0.23103449 -0.09472883 -0.037994068

fc3.bias f4 [9]
000000 cc 21 2b 3f 4c 42 52 be 42 36 a6 bd 92 a0 f5 3d
       0.66848445 -0.20533103 -0.081158176 0.11993517
000010 a5 65 1b be 17 43 d8 bd db b4 94 3d 32 69 2a be
       -0.15175493 -0.10559671 0.07261058 -0.16641691
000020 95 4d 55 be
       -0.20830376
