output_visualizations/base_tsk[+1]_agm[ac]_spl[S1]_mdl[lenet]_ls[SM]_tu[none]/model.pt (torch, 249415 bytes, 10 tensors)

conv1.weight f4 [6, 1, 5, 5]
00000000: d79b b23e ea66 b23e 082a 123e 2360 ba3e
00000010: 9277 ed3d 6110 9a3e 0db0 223e 66ab af3e
00000020: 1c76 cf3e 5124 8f3d 99b4 0e3f 5812 e53e
00000030: 505b 0c3f 4010 d33e e2fe d33e e259 983e
00000040: 7528 f13e 461b c83e 2ee2 5d3e c8df 893e
00000050: f046 0e3e 1973 603e 4f5a 543e 2d6d af3e
00000060: c82e c2bc 3ccb 00bc f8ab 073d d6ab 743c
00000070: 65f6 203e e98c 08be 67d0 933e 6711 c1bc
00000080: cac5 a63e c717 493e aa58 053d 92d5 a23e
00000090: c849 8d3e 6027 c93e 519f 7c3e 813f e43d
000000a0: beee 843e 0d03 5e3e 4225 bb3e 01f5 dd3e
000000b0: d1bb ab3e 575e cf3d a9c9 b53e 26ea a33e
000000c0: 1a52 c43e 3a24 de3d 06f1 a2be b320 1e3e
000000d0: 156a c63e cd8b dc3e e712 af3b a9fd 6c3d
000000e0: aa9d 093f 5d16 303f 157e de3e d7c7 86be
000000f0: d978 943e 6a9e 0c3f 6457 4b3f b6d8 0b3e
00000100: 63bf dbbd 1f3b f43e 32a9 623f d9a2 fd3e
00000110: 01d9 d5bc 9218 8fbe 000a 4e3f cd04 2e3f
00000120: 320e 083f 76e4 8ebe 8402 0cbf 6a76 8ebe
00000130: 2a94 2cbe bb0e 493e 704d b73e bb78 c03e
00000140: 882a 36be 2390 6ebd 4107 ab3e fa17 633e
00000150: fef3 903e 3268 203b 5ce9 a43e c4cc 073e
00000160: 2a94 273e 0f93 0e3e 3d9d 4c3e 37ea 823e
00000170: 47a1 cd3e b0e7 963e f5e5 2dbe 3953 cd3d
00000180: 7f16 003f b795 cd3d eedc d1bd dfbb c3be
00000190: f150 7ebd be2c 433e 2c88 de3d bbb8 5abd
000001a0: ce0f a43b 9814 2dbd c654 84bd 093e c6bd
000001b0: 4a72 79be feb3 96be 9f7a bf3e 5523 073e
000001c0: 209c c83a 205a 9cbe 6b15 8abe 86e9 fe3d
000001d0: f45a e53d fa01 7bbe b6b8 4cbe 397d 5bbe
000001e0: a03a 263e db4b 89bd 8138 c0bd 80d3 62be
000001f0: 4514 1fbe 3008 bfbe 9c28 07bf 82d0 9cbe
00000200: 5618 f73e 4de5 873e 2973 4abe 5220 bcbe
00000210: d14f 0ebe c353 173f b2c8 733e 66e7 08bf
00000220: e546 f6be 7ef1 8e3d 5a5c 143f b500 063e
00000230: 5c3c de3c 9618 693d e937 363f 2322 d43e
00000240: 9ad3 003e 015e 923e 0910 243f 4b43 503f
00000250: 269a 2f3f d717 30bd
0.3488452 0.34844142 0.14273846 0.36401471 0.11595072 0.3009062 0.1588747 0.34310454
0.40519798 0.06989349 0.5574432 0.44740558 0.5482683 0.41223335 0.41405398 0.29756075
0.4710118 0.39083308 0.21668312 0.26928544 0.13894248 0.21918906 0.20737575 0.34262982
-0.023703948 -0.007860955 0.033122987 0.014933547 0.15718992 -0.13335003 0.28869936 -0.023567868
0.32572776 0.19637977 0.03255526 0.31803566 0.27595353 0.39287853 0.2467015 0.11144925
0.25963396 0.21680851 0.36551863 0.43350986 0.3354173 0.10125416 0.35505417 0.3201458
0.3834389 0.108467534 -0.3182451 0.15442161 0.3875281 0.4307541 0.0053428295 0.057859097
0.537562 0.68784124 0.43455568 -0.2632434 0.2899845 0.5492922 0.7943022 0.13656887
-0.107298635 0.47701356 0.8853942 0.49538305 -0.026104452 -0.27948433 0.8048401 0.67976075
0.5314666 -0.27908677 -0.5469134 -0.27824718 -0.16853395 0.19634525 0.35801268 0.3759211
-0.17789662 -0.05824293 0.33403972 0.22177115 0.2831115 0.0024476168 0.3220929 0.13261706
0.16365114 0.13923286 0.19981857 0.25569317 0.40162107 0.2947364 -0.16982253 0.10025639
0.50034326 0.100383215 -0.10247217 -0.38229272 -0.06208891 0.19060037 0.108658165 -0.05339883
0.005006767 -0.042255968 -0.06461482 -0.09679801 -0.24360004 -0.29434198 0.3739824 0.13197072
0.0015305318 -0.3053751 -0.26969466 0.12446885 0.111989886 -0.24512473 -0.19992337 -0.21434487
0.16233301 -0.067039214 -0.09385777 -0.22150993 -0.15535076 -0.37310934 -0.5279634 -0.3062783
0.48260754 0.2654213 -0.19770493 -0.36743408 -0.13897635 0.59112185 0.23807028 -0.53478086
-0.48100963 0.06979655 0.5795342 0.13086207 0.027128391 0.056908213 0.7117906 0.41432294
0.1258072 0.28587344 0.6408697 0.8135268 0.68594587 -0.042991485

conv1.bias f4 [6]
00000000: 0048 02bd e0b8 e3bd c6f0 98bd 9892 5dbd
00000010: 0576 ad3e 1699 a9bc
-0.031806946 -0.111192465 -0.07467799 -0.05409488 0.33879104 -0.02070288

conv2.weight f4 [16, 6, 5, 5]
00000000: 183a 213e 4ca4 9e3d 0607 b13c eb7f d7bd
00000010: 31ca 493d 0f3e 243e 07f6 543d 6275 e0bd
00000020: 4aad 4cbd 1dec bebc fa61 253e 83c8 2f3e
00000030: 12e6 3a3d dcef 98bd 21cb b5bb 3585 563e
00000040: 8a77 4f3e 1e70 873d b842 babd 170d 56bd
00000050: 45c8 e83d e7e9 493e 7b4b 2b3e 7f1c 3cbe
00000060: c781 fabd ed77 3b3e 8b17 773d 33a7 a2bd
00000070: 55f8 d1bc 812c 103d fd5d 633e d02d 713d
00000080: 2bbe 3dbd c9b9 d0bc ddc7 c83c f83b 6a3e
00000090: ec26 533e f5d6 f83d 2820 4cbc 9cd0 583d
000000a0: 114a 783e 526a 503e 3904 f23d 5359 4abd
000000b0: 8f54 09be 1117 0c3e b67c 8b3e 46f8 083e
000000c0: 53a0 01be b5ad 5dbe 0666 fc3c 9c7a 543d
000000d0: 40dc a2bd 364a b0bd 2382 59bb 72e4 0c3e
000000e0: 3cd1 bd3c 749c 0cbe 524e 1cbe 1f7e 5b3d
000000f0: 2d6a e63d fea7 953d 8b7a 803c 121c 9cbd
00000100: 7826 91bd 1e0a c93d f7ab a23d 1a6b 9b3d
00000110: 37ff 07be 8710 5bbd e4c4 133d e84d 103e
00000120: 7325 313d b89f 3cbe d9ba 78be 791a 233e
00000130: 64f4 0a3d 426a d8bd d848 c0bd 39e8 45bd
00000140: fce5 8f3c 3d97 2cbe 8a7b a0be e1c3 61be
00000150: 6f98 2bbd 955a a7bc 1b6c 06be 7be4 4ebe
00000160: 950b 19bd d7a8 c0bd 5053 92bd 07b1 25bd
00000170: f011 d0bd 2bbe afbc 8256 05be bdc1 1cbd
00000180: aca3 30bd 54f8 03be 9e17 60be ad21 86be
00000190: 6249 9c3d 0091 dbbc 9845 a53d f540 1bbd
000001a0: 25ee a53d b23b 8ebd cb72 b93d 29d9 d1bd
000001b0: ae99 2cbe 5c43 c6bc 66cf 43bd bbb5 4cbb
000001c0: bed9 68bd c2b0 4bbe 8839 8cbd 8461 6ebe
000001d0: 185c 7bbb 04a9 dc3d 1a4a 1a3d 1612 c4bd
000001e0: 3ee5 41be b645 16bd 4168 353e 7268 d6bc
000001f0: 74f7 8b3d 461a 023d 13f7 85bd 0c20 4bbe
00000200: 0c40 e3bd 5e39 52bd 135c 02bc 7168 52bc
00000210: 843c 1dbd e344 cb3c f799 dd3c 3983 103d
00000220: 4d5f 01be e5e7 73bd e771 d33d 87c9 d03c
00000230: 3003 12be 7fbc 08be 0b89 78be b29c 76be
00000240: 2ca6 38be 9428 3fbd 6080 cbba 60c2 4ebe
00000250: f3e9 38be 3692 02bd 5e2c 663d 1b86 b53d
00000260: 4050 293d 83c2 a83d 2aed e03d 4262 673e
00000270: 29af 963d 7199 313e 4679 563e dc21 be3d
00000280: 5907 803e 3df6 563e 843f d33d 5660 933d
00000290: c299 3dbd 5839 c13d 1bca 9f3d c504 5ebc
000002a0: c914 50be 87ce 57be 2113 1cbd 89f0 ebbd
000002b0: ece8 49be 743d 51be 093e 99bd 7f77 1f3e
000002c0: 256c a03d 2a0a 8b3d 7a74 3d3e af21 c43c
000002d0: 105a 503e a861 693e 5d34 1b3e 8d79 103e
000002e0: f685 a73d e2be 0e3e e7ef 533d cb71 11bd
000002f0: ca50 c8bd 5604 bcbd 76b1 123e dd08 48bd
00000300: 8a29 34be f70d 3bbe b3d5 0fbe c3fb 3a3d
00000310: b34f 0f3d 01b0 1fbd 2a7e 39be 9676 33bd
00000320: c2ff 283e 56ad bb3d da2b 033d 6b61 503e
00000330: 4427 693d 3795 093e 72b7 613d 7485 e43d
00000340: 9c06 323e 1f9d 083d 210a 3c3e 8f2b 423d
00000350: 4f85 babc 8c7e fc3b 7168 64bd 2ad0 fd3d
00000360: 5ee6 48bd ba9b e1bd f8f6 8abe 5852 acbe
00000370: 1f29 19bd ecde 13bd 28f8 c6bd 650c 86be
00000380: b091 07be c329 033e d536 d83d bc9d 343e
00000390: ddde c93d 5442 62bc 04a0 3e3e 6882 043e
000003a0: 8d2a 5a3e d4c0 023e 21ad bfbd 23d0 463e
000003b0: 6c9b 353e 8b72 ec3d 90b0 e03a 8822 2dbe
000003c0: e734 b23c 06fd a1bd 45d1 babd 6b0e 77be
000003d0: 4b75 81be bada 99bb cff3 07be 2e0a 59be
000003e0: 0437 20be b78e f7bd 9ba1 c4be 672d b1be
000003f0: 41e0 c9be 7df7 c7be 1c68 86be b1b7 a7be
0.15744817 0.07746181 0.021609794 -0.10522445 0.04926509 0.16039298 0.051992442 -0.10959889
-0.04996995 -0.023305947 0.16150656 0.17166333 0.04562957 -0.074676245 -0.0055478965 0.20949252
0.20260444 0.066131815 -0.09094757 -0.052258577 0.113663234 0.19718133 0.16728012 -0.18370245
-0.12231784 0.18307467 0.060325187 -0.07942047 -0.02563111 0.035198692 0.22203822 0.05888158
-0.046323936 -0.025479214 0.024509365 0.22874439 0.20620316 0.12150375 -0.0124588385 0.05293332
0.24247004 0.20353058 0.11817212 -0.049401592 -0.13411163 0.13680674 0.27243584 0.13375959
-0.12658815 -0.21648295 0.030810367 0.051874742 -0.079521656 -0.086079046 -0.003318914 0.1375902
0.02317106 -0.13731557 -0.15264252 0.053587075 0.1125072 0.073074326 0.015683433 -0.076225415
-0.070874155 0.09816383 0.07942956 0.075887874 -0.1328095 -0.05348256 0.03607644 0.14092219
0.043248605 -0.18420303 -0.24290027 0.15928067 0.033924475 -0.10567142 -0.09388894 -0.048317168
0.01756572 -0.16854568 -0.31344253 -0.22047378 -0.04189342 -0.020428935 -0.13127176 -0.20204346
-0.03736456 -0.09407204 -0.07144797 -0.04045203 -0.10159671 -0.021452984 -0.13021281 -0.0382707
-0.04312484 -0.12887698 -0.21884009 -0.26197568 0.07631184 -0.02680254 0.080699146 -0.037903745
0.08102063 -0.0694498 0.09055098 -0.10246498 -0.16855499 -0.024202041 -0.047805212 -0.003123625
-0.05684828 -0.19891647 -0.06846911 -0.23279387 -0.0038354453 0.10774425 0.037668325 -0.09573762
-0.18935105 -0.036687575 0.17715551 -0.02617285 0.06834307 0.031763338 -0.06541266 -0.19836444
-0.110962 -0.05132424 -0.0079565225 -0.012842284 -0.03838779 0.024813121 0.027050955 0.035281394
-0.1263401 -0.059547324 0.103244595 0.02548672 -0.14259028 -0.13353156 -0.24271028 -0.24083212
-0.1803214 -0.046669558 -0.001552593 -0.20191336 -0.18057995 -0.03187772 0.056194656 0.08863469
0.041336298 0.08240225 0.109827355 0.22596076 0.07357628 0.1734369 0.209447 0.09283802
0.25005606 0.2099237 0.10314849 0.07196109 -0.046289213 0.094347656 0.078022204 -0.013550942
-0.20320429 -0.21074878 -0.03810418 -0.11520488 -0.19717759 -0.20433599 -0.074825354 0.15572928
0.07833127 0.06789048 0.18501464 0.023941843 0.20346856 0.22791159 0.15156694 0.14108868
0.08179848 0.13940004 0.05174246 -0.035508912 -0.09781034 -0.091805145 0.14325508 -0.048836578
-0.17593971 -0.18267046 -0.14046364 0.045650255 0.034988116 -0.03898621 -0.18114534 -0.043814264
0.16503814 0.091639206 0.032024242 0.20349662 0.056922212 0.13435827 0.055106588 0.11158267
0.17385334 0.033352967 0.18363239 0.047404822 -0.022768645 0.0077055153 -0.055763666 0.1239322
-0.04904782 -0.110160306 -0.27141547 -0.33656573 -0.03739273 -0.036101267 -0.09715301 -0.2618133
-0.13239169 0.128089 0.105573334 0.17638296 0.09856961 -0.013809759 0.18615729 0.12940371
0.21305294 0.1276887 -0.093591936 0.19415335 0.1773507 0.11545285 0.0017142463 -0.16907704
0.021753741 -0.079095885 -0.09121946 -0.24126594 -0.252848 -0.0046952637 -0.132766 -0.2119529
-0.15645987 -0.120877676 -0.38404545 -0.34604952 -0.39428905 -0.39056006 -0.26251304 -0.32757333

conv2.bias f4 [16]
00000000: 33aa 0838 d7d5 e5bd bb8f 7e3b 93a2 f83c
00000010: 59b4 a33c 42bd 793d cfee 523c c71c 983d
00000020: 7b68 c33c cd11 7abc c683 9ebc 8140 c0bb
00000030: 9b6f ee3d 4574 a73c 35e5 90bb 3a8b 1e3c
3.2583437e-05 -0.11222427 0.0038842994 0.030350959 0.019983457 0.060971506 0.012874319 0.07427364
0.023853531 -0.015263033 -0.019349944 -0.0058670645 0.11642381 0.020441184 -0.004421855 0.009676749

fc1.weight f4 [120, 400]
00000000: 6d36 933c e28b 243e da48 2b3e 07a5 8dbc
00000010: 6eeb 4dbd 003d 1ebd 7ade eb3d a45a 283d
00000020: 9262 e13d 45b2 483d 8f0b 8f3d 6721 8e3d
00000030: c889 2f3d 0291 973d 5230 50bc 5a8b be3d
00000040: c4e8 9d3d f97f b43d b3bc ec3a 7844 1ebc
00000050: 8426 de3d d4f5 24be 12c7 f1bc 434b 063d
00000060: 9bd8 c73c 6711 6ebc d5b2 e6bb eb4b c7bb
00000070: f3d0 34bd dc5f bb3c fb12 1cbd 452a 363e
00000080: 82c8 d63d ed26 533d 1ee2 afbc 9006 10be
00000090: 2cd9 9f3d cbb2 eb3d 01be 353d bd4a 26bc
000000a0: e4c6 e43c 0ea7 41bd dc2a d23c b633 16bd
000000b0: c4e1 74bd 9be8 a23d b236 713c 6546 38bd
000000c0: 5a32 c43b 28c0 84bd 1e56 38bc b0cd 883d
000000d0: 4537 2a3c 5d91 663d ee2f dcbd cd4a 303c
000000e0: c9a4 9a3d cc0e 86bc 8ec8 143d b3c4 46bd
000000f0: 3335 213c e3c5 4e3d 94c5 f8b9 808b b4bc
00000100: bdad 883c c690 2a3b 6107 2ebd 440a 583d
00000110: 4043 3cbd a670 f8bc 6be4 5cbd 8c65 3fbc
00000120: 6f5d 4f3b e757 093d e9d5 b7bd 2893 9dbd
00000130: 117f cf3d 376e d5bd bb27 a2bd 62c3 013e
00000140: 1a99 d83d ae7a 7b3d c0b9 12be 3d03 f9bd
00000150: 47a5 8e3d d399 123e c779 613e 865e a03b
00000160: 3997 453c c72a 863d 7da6 ff3d fa19 6b3e
00000170: b7b3 1a3d 24ff 58bd 2ce7 96bd 5b22 6d3d
00000180: bc06 1c3e 734b c8bb 7b56 15be 3c2b 34bd
00000190: c893 54bc 9aed 2fbe ac6c d5bd 7303 cebd
000001a0: 20ab 123b 071e 343d 43fb 0fbe 5d0d 2dbe
000001b0: e196 bbbd 5dc2 26be f66a 14bd 488b e7bb
000001c0: 9e13 e4bd 6bd9 34be a848 36be 4fe3 fabd
000001d0: 1234 80bd 81de 94bd 6df4 53bc e0c3 b73d
000001e0: 5615 bc3c 95df 85bd 9574 433d 5ce7 16bd
000001f0: 43f0 9d3d f405 573c cca3 9e3c 4c02 39bc
00000200: 22c5 d73d 6836 883d 5499 423d fb5c 69bd
00000210: 0c1d 32bd c092 133e 0a66 253e d94f b2ba
00000220: 7d83 a3bd 6068 19bc ed44 403d f1e2 513d
00000230: 7cd5 04bd 2350 543b f48e 363e 897f 193d
00000240: 0757 6c3d a87b 2abe 474f e8bd 707d 263e
00000250: 0d6d 483c d957 f03d 05af 313e 3b2d c63b
00000260: 6ce6 143c e145 b4bd e708 38bd 8880 91bd
00000270: 82a7 d33d 8423 073c fa90 6e3d 754e 023d
00000280: 2c1b 20be edc9 993d c566 4b3d be51 49bd
00000290: d618 d03b 06ba b4bd 3ec1 303d 91f8 2dbc
000002a0: 223d 7dbd 29ae 95bd 54e4 82bd 24b1 13bd
000002b0: 809b b33d c088 3d3e 9eba ac3d 1f8b 823c
000002c0: 6b47 33bd 1740 89bd 64bc 2e3e df39 203e
000002d0: e5c7 0e3e 7045 b53d b591 bd3c c8cd 313d
000002e0: f8e2 923d 63ca d73d cfc4 593e c690 6c3d
000002f0: 05f9 b43d 0851 d43d 5aca 093e 2be7 5b3e
00000300: d65e 18bd 9a5a 04be 7df1 8abd 984a 1f3d
00000310: 8c9b 3bbd d3a5 81bd 632f 89bd f69d 70bd
00000320: b9c2 9ebd 64b7 ea3c 9272 2e3d 3b29 c13c
00000330: 6ee5 83bd f173 8b3c 73ba 8cbd caff cfbb
00000340: 22d3 99ba 432f 68bd 466a 2b3d 7e45 09bd
00000350: 4cde a3bd 7548 fabc 872a b3bd c678 1dbd
00000360: bce1 3a3d 5710 6abd 36d4 a0bd 0e2c c23d
00000370: 0362 9d3d e006 883d e61b 753d 4033 98bd
00000380: 3bac f03d 199a ef3c 3a8b d83b bbd0 5a3d
00000390: 02d9 ab3c 728c 23bd 3502 b53b 0871 2fbd
000003a0: e55a 593c 89a6 1fbd e2c2 14bc af89 86bd
000003b0: af95 a23d 091d 033d 4d74 85bc 8d73 7abd
000003c0: f572 40bd 8fff e73c c8a6 193d 71b5 74bd
000003d0: e926 edbc 4a96 59bd 119c debd d868 583d
000003e0: f428 df3c fee7 a7bd d3fc 4f3c 1a07 523d
000003f0: 7ea5 06bd 36da 36bd 3d2a df3c 42f2 103d
0.017970288 0.16068986 0.1672701 -0.017290605 -0.05027335 -0.038632393 0.115170434 0.041102067
0.11005129 0.048998136 0.069846265 0.06939965 0.042856008 0.07400705 -0.012706833 0.09303923
0.07710412 0.08813471 0.0018061608 -0.009659879 0.1084719 -0.16109401 -0.02951387 0.03278662
0.024395278 -0.014530516 -0.0070403614 -0.006082048 -0.044144582 0.022872858 -0.03810404 0.17789562
0.104874626 0.051550794 -0.021470126 -0.14065003 0.07805094 0.115087114 0.044370655 -0.010149655
0.02792687 -0.047278456 0.025655203 -0.03667041 -0.05978562 0.07954522 0.014722513 -0.04498901
0.0059874477 -0.064819634 -0.011251001 0.06679857 0.010389154 0.056290973 -0.10751329 0.010760021
0.075509615 -0.016364478 0.036324076 -0.04852743 0.009839344 0.05048169 -0.00047449453 -0.022039175
0.016684407 0.0026026233 -0.042487506 0.052744165 -0.045962572 -0.030327152 -0.053928774 -0.0116819255
0.0031641384 0.033531096 -0.08976347 -0.076940835 0.10131658 -0.104214124 -0.07917734 0.12672189
0.10576077 0.061396293 -0.1432867 -0.12158821 0.06965118 0.14316492 0.2201911 0.0048940806
0.01205998 0.06551128 0.12482927 0.22959128 0.037769046 -0.052977696 -0.07368311 0.057894092
0.15236944 -0.00611251 -0.14583771 -0.043986544 -0.012974687 -0.17180482 -0.10421118 -0.10059252
0.002237983 0.04397395 -0.14060692 -0.16899629 -0.09159637 -0.16285081 -0.03623482 -0.007066164
-0.11136554 -0.17661063 -0.17801154 -0.12250387 -0.062599316 -0.07269002 -0.012936694 0.08972907
0.022959393 -0.065367855 0.047718603 -0.036841735 0.07711842 0.013123978 0.019365214 -0.0112920515
0.10535647 0.06651002 0.047509506 -0.05697344 -0.043484733 0.1441145 0.16152206 -0.0013604119
-0.07984064 -0.009363264 0.046940733 0.05124182 -0.032430157 0.0032396398 0.1782797 0.037475143
0.057700183 -0.16648734 -0.11343246 0.16258788 0.012233031 0.117355056 0.17351921 0.0060478724
0.00908814 -0.08802391 -0.044930365 -0.071045935 0.10334684 0.008248214 0.05824373 0.031813104
-0.15635365 0.075092174 0.049658556 -0.04915022 0.006350617 -0.08824544 0.04315304 -0.010618345
-0.06182588 -0.07308609 -0.063912064 -0.036057606 0.08769894 0.18509197 0.08434032 0.015935479
-0.04376928 -0.06701677 0.17064053 0.15647076 0.13943441 0.08851135 0.023140768 0.04340914
0.07172197 0.10536649 0.21266483 0.057755254 0.08836559 0.10367018 0.13456097 0.21474902
-0.037199818 -0.12925187 -0.067843415 0.038889498 -0.045802638 -0.063304566 -0.066984914 -0.058744393
-0.07751984 0.0286519 0.04258973 0.02357923 -0.064402446 0.017023059 -0.068715 -0.006347631
-0.0011735896 -0.056685697 0.041849397 -0.03351354 -0.08001384 -0.030552128 -0.08748346 -0.038445257
0.045625433 -0.05714449 -0.07852976 0.09481059 0.0768471 0.06641936 0.05984106 -0.0743165
0.117516 0.029248284 0.006608394 0.053421717 0.0209775 -0.03992886 0.0055239447 -0.042832404
0.0132663 -0.03897718 -0.009079667 -0.0656923 0.07938706 0.032010112 -0.016290808 -0.061145354
-0.04698463 0.028320102 0.03751257 -0.05974335 -0.028949218 -0.053121842 -0.10869611 0.05283436
0.027241208 -0.08198546 0.012694555 0.051276304 -0.03287267 -0.044641696 0.02724182 0.035387285

fc1.bias f4 [120]
00000000: be64 43bc 1ae5 493c fa85 a5bc 2129 4c3c
00000010: 2938 893c d742 da3c 2f18 83bc 124b 01bd
00000020: 0f77 29bb 5e77 01bd 2d25 bf3a 2cf2 d13c
00000030: 55b2 efbc 7ddd 4a3e fe1e 93bd 4b0f eb3c
00000040: 8c61 c73b 62cf 24bd 4e78 ca3d f47c 21bc
00000050: 1c93 b53c 7318 0ebc 0bb7 85bb a7b6 45bd
00000060: bf1a 00bd cfdc 733c b1bf 18bd 21ee 913c
00000070: 269d e8ba 3028 a93d ab97 1d3d c7b4 0a3c
00000080: 2a1d bfbc cec6 1bbc a17b f2bc ffbf e43c
00000090: 63e2 293d c80d f73c 2d6b 3e3c 8038 59bc
000000a0: 6206 bd3b 493b b03d 2776 9a3c 2497 b23d
000000b0: 91bf 1a3d 9479 2abd 7c04 35bd 41af 0e3c
000000c0: c72d c4bc b2c2 493d c636 c73c 972d 223d
000000d0: a8d2 ac3d 7222 133e 84b8 8e3d ba21 7cbd
000000e0: 805e b5ba 6a11 703d 8d8c 07bc 60cd 433d
000000f0: 0225 373e 0fbd 95bc edf4 c2bb 7863 b53d
00000100: ee79 ffbb 7870 6fbd 3bae d33c db70 0b3d
00000110: 5d2f 8b3d c2a0 473d 99d4 41bb db2f 3c3d
00000120: 27ad a03b b88f f6ba 702a ccbc 0581 7d3d
00000130: 2fa7 ad3d 8d77 27bd 1908 653d b284 eb3b
00000140: 2a5f 0cbd 6288 eb3d 0ac0 7a3a e60d f43c
00000150: 235e 023b 4ec8 a03d 1569 d0bc 7029 2a3c
00000160: 2e19 743d 9abd c2bc 632f 843d e5ca 163a
00000170: dba2 4ebd fdfb c93c e7c6 323d fd37 c7bb
00000180: 98c1 47bd 67a3 153b c1f9 dabd ac8d df3c
00000190: ea6b c53d 34b9 f2b8 87b4 9e3d 9747 173d
000001a0: f955 32bc ee76 1a3d a731 cebc 8f58 4f3c
000001b0: 11d6 4bbd a622 d23d 56e5 0f3d 4140 403d
000001c0: 3417 04bd ad50 1dbd 99e5 2d3d 7a41 823d
000001d0: 7779 8bbc 4ff2 043c 90b9 81bc d823 32bd
-0.011925874 0.0123226885 -0.020205487 0.012460978 0.016750412 0.0266432 -0.016002743 -0.031565733
-0.0025858318 -0.031607978 0.0014583223 0.025628172 -0.02925984 0.19811054 -0.07183646 0.028693816
0.0060846265 -0.04023684 0.098862275 -0.009856451 0.022164874 -0.008672821 -0.0040806583 -0.048269894
-0.031275507 0.014884188 -0.037292186 0.017813744 -0.0017747029 0.08259618 0.03847472 0.008465952
-0.023329336 -0.009507848 -0.029599966 0.027923582 0.041475665 0.030157939 0.011622232 -0.0132581
0.005768583 0.08605058 0.018855168 0.08720234 0.03778035 -0.041619852 -0.04419373 0.008708776
-0.02394761 0.04925794 0.02431811 0.03959426 0.08438617 0.14368609 0.06968787 -0.0615556
-0.0013837367 0.058610357 -0.008273256 0.047803283 0.17885211 -0.018278627 -0.0059496076 0.08856863
-0.0077965176 -0.058456868 0.025839915 0.034043174 0.06796143 0.048737295 -0.002957618 0.045944076
0.004903454 -0.0018811142 -0.02492258 0.06189062 0.08479153 -0.040885497 0.055915926 0.0071874494
-0.034270443 0.11500622 0.0009565359 0.029791784 0.0019892536 0.07850705 -0.025440732 0.010385856
0.059594326 -0.02377205 0.06454351 0.00057522795 -0.05044828 0.02465629 0.04364672 -0.0060796724
-0.04876861 0.002283299 -0.10692168 0.027289234 0.096397236 -0.00011573956 0.077492766 0.036933508
-0.010884755 0.037711076 -0.02517016 0.012655391 -0.049764697 0.10260515 0.03513082 0.046936277
-0.03224869 -0.038407017 0.04245529 0.06360145 -0.017025692 0.0081144115 -0.015835553 -0.043491215

fc2.weight f4 [84, 120]
00000000: 0d57 d83c 60d6 84bb c185 b8bb 8420 a43d
00000010: dc7e f43c eb09 8cbd e6a8 a9bc ac4c b13c
00000020: 2e83 aa3d 2c1d c1bd 2a2e 903d 87da 243d
00000030: 4ae3 4f3d 06b7 16bd 1a1b 003e 25cc 7b3d
00000040: 6302 36be 5933 82bd fddc 253d cfd3 c3bc
00000050: fd0e 15bd 3ab6 50bd 7f9d 793e 4e09 b9bd
00000060: 27e0 f83d 21b6 06bd cff3 dbbd 0046 2ab9
00000070: 315b 0f3e f213 85bd 5836 b83c f7e2 1b3d
00000080: a04f 2d3c 9369 4c3e c7e7 753c 31d0 4a3d
00000090: 1c4e 6abe 5eba 8d3d 3f43 c4bd fb6a 3a3d
000000a0: 31f2 59bd 9e84 66be 27e5 163d 2245 4c3e
000000b0: c484 adbe fd73 b93d ad16 d9bd 7471 6b3d
000000c0: 15d7 0a3e 7707 8cbe 5268 b4bd 7a38 86bd
000000d0: 7e0c 2cbd 20fb 07bd 82d2 6abd ea5d d7bb
000000e0: c5c4 f8bc 9ab8 c13d 6683 55bd 8975 b43c
000000f0: 754f 8bbd ef6c 8abd 8d27 bcbc 8b38 283d
00000100: 80cd ff3d 2cf1 ffbc b134 d73d 6e3a b5bd
00000110: 5cea 903d 12cb 3f3c 9d24 73bd c8d9 153e
00000120: 806e ebbb ea9b 1c3c bf06 11bc e072 37bd
00000130: c897 1c3e 9863 c0bd 0f88 333e 7c41 153d
00000140: 9809 903d 0cb8 49be 237b 413d 8a13 093e
00000150: 800c c7ba 03bf 10bd f072 8dbb 00ef 00ba
00000160: 4af6 9fbd 1a32 533c f9c8 7e3c d299 85bd
00000170: a8e2 723d ca41 723e 02e7 30be 86cf b63d
00000180: 9135 25bd a155 e3bb 8fd9 8a3c f475 9abd
00000190: d4dd 80bd 9e45 9b3d c812 aa3d 7fe8 d23d
000001a0: c0e1 1e3b 49c7 afbc 810e 003e d0a6 9f3d
000001b0: 9078 49bc c2a0 b0bb c247 16be 8a6a 0fbd
000001c0: 0116 c93d f23b 613d 595a 96bd aeea 2bbd
000001d0: 11b8 aabd 0dbb 07be 4287 073e d19d 2bbd
000001e0: dbaf 8bbd ca32 2cbd 8e31 1dbd cd52 a63c
000001f0: 62e0 2abd a8d9 a3bd b85a febc 614c 22bb
00000200: c215 6d3c 4500 d93b c31a 44bd 4929 ac3b
00000210: 7dc3 b1bd c428 2fbd 0ede d7bc c547 b8bb
00000220: 82c0 33bd 769b a2bd 7f8e c43d 6e57 523d
00000230: b0e4 3bbd 9228 2abc a8f0 b53d c0a5 8f3c
00000240: ddbe 8cbc bbe1 823d 6ec6 9db8 6461 c7bc
00000250: ba03 473e 1423 bdbc 5c4f f93c 0c73 9bbd
00000260: cb08 6cbd 989d a5bd dc3c d73d a8f2 c03d
00000270: 0e9f 03be a6ed 9f3c b08e adbd aeb9 6abd
00000280: d731 42bd 0d0c 56be 2dba 03bd cfd5 553e
00000290: 4ffb 313c ed60 e93c f059 aa3c b043 b43d
000002a0: 7be3 3e3e a4ed 93bc 4756 493c ae1b 603d
000002b0: 6811 233e 6487 92bd dd5f c5bd 8729 c53d
000002c0: dadf 313d 08de ab3d 3548 8ebc d203 66be
000002d0: 840a 2c3d d06c d4bc e267 0d3c 5fcb 843e
000002e0: 3a03 333e 16d2 2dbc f8e4 ad3c eb99 98be
000002f0: e249 033e e0d9 d63d b243 03be de20 85bc
00000300: 3085 643d 4342 c3bd 457a 9c3d 954f d13c
00000310: 9831 443e 99f7 7c3c a596 52bc 7c37 bfbd
00000320: a371 aebc 26b6 5fbe 1e96 01bd 4e42 e73d
00000330: 8ceb 9fbc d665 5d3e 3a7e 5bbd 076d a5bd
00000340: 5ec3 243d 392b 23bd ba3e e33d 3cb0 bcbc
00000350: 70c5 443d be24 713e 8dd2 88bd 19f5 e93c
00000360: 9b0c 553d 7f41 50bc c61f b1bd 315a 7ebd
00000370: ac22 cdbd 5e9a 57bd 0244 403e a618 0d3e
00000380: 7c74 a93c ca93 b0bd 7447 14bd 1a82 24bd
00000390: ce16 573d d4a5 003e e84a 543c 2636 593c
000003a0: 383e d33d 603a ac3c 19c5 6dbe d603 2d3d
000003b0: 290a 9fb9 c049 f9bd 6ce4 863c 7e09 933c
000003c0: 7353 3bbd 6d54 793d 490a 8ebd e954 a03c
000003d0: e41b b8bd 49a6 113d 440a 93bc e261 103b
000003e0: 095b 073d 1455 2b3c 8973 0abd c497 5e3e
000003f0: 42db 9cbb 3a85 dc3d 64ba de3c c428 8b3d
0.026408697 -0.004053876 -0.005631179 0.08014014 0.029845648 -0.06837829 -0.02071042 0.021643005
0.08325802 -0.09429392 0.07040055 0.040247466 0.05075387 -0.03679564 0.12510338 0.061473984
-0.17774348 -0.0635745 0.040493954 -0.02390471 -0.036391247 -0.050955035 0.24376486 -0.09034978
0.12152129 -0.032888535 -0.10739862 -0.0001623854 0.1399963 -0.06497945 0.02248685 0.038058247
0.010578066 0.19962148 0.015008873 0.049514953 -0.22881359 0.06920312 -0.09583139 0.04551218
-0.053209487 -0.22511527 0.03683963 0.19948247 -0.33890355 0.09055326 -0.10600028 0.057481244
0.1355861 -0.27349445 -0.0880896 -0.06553741 -0.0420041 -0.033198476 -0.057329662 -0.0065724747
-0.030367265 0.09459038 -0.052127264 0.022028701 -0.068022646 -0.06759059 -0.022968078 0.04106955
0.12490368 -0.03124293 0.10508097 -0.08849035 0.070759505 0.011706131 -0.05936109 0.14633858
-0.0071848035 0.009558657 -0.008851706 -0.044787288 0.15292275 -0.09393996 0.17532371 0.036439404
0.0703308 -0.19699115 0.047236573 0.1338636 -0.001518622 -0.035338413 -0.00431668 -0.0004918426
-0.07810648 0.012890363 0.015550845 -0.065234795 0.059298187 0.23657909 -0.17275622 0.08926301
-0.040334288 -0.006937698 0.016949443 -0.07542029 -0.0629231 0.07581638 0.083043635 0.10298251
0.0024243444 -0.021457331 0.12505533 0.07795489 -0.012296811 -0.0053902576 -0.14675811 -0.035013713
0.0981865 0.05498881 -0.07341451 -0.041971855 -0.08335889 -0.13254948 0.1323519 -0.041898552
-0.06820651 -0.042040624 -0.038377337 0.020303154 -0.041717894 -0.08000499 -0.031049117 -0.0024764764
0.0144705195 0.0066223466 -0.047877084 0.005253945 -0.086798646 -0.042763487 -0.026351001 -0.00562379
-0.04388476 -0.07939808 0.095974915 0.05135291 -0.04587239 -0.010385649 0.08883792 0.01753509
-0.017180854 0.06390711 -7.523304e-05 -0.024338432 0.19435015 -0.023088016 0.03043335 -0.07590303
-0.057625573 -0.08086699 0.10509655 0.09421283 -0.12853643 0.0195225 -0.08474481 -0.057305984
-0.047410812 -0.20903035 -0.032159973 0.20882343 0.010863139 0.0284886 0.020794839 0.08801973
0.18641464 -0.018057652 0.0122886365 0.054713897 0.15924609 -0.0715473 -0.09637425 0.09627061
0.043426372 0.083919585 -0.017368415 -0.22462395 0.042002216 -0.025930792 0.008630725 0.2593641
0.174817 -0.01060917 0.021227345 -0.2980493 0.12821153 0.10490775 -0.12818792 -0.016251024
0.05579108 -0.09534123 0.076405086 0.025550643 0.19159544 0.015439891 -0.012853299 -0.09336755
-0.02129442 -0.21846828 -0.031637304 0.112919435 -0.019521497 0.21620879 -0.053587176 -0.08077436
0.04022538 -0.039836142 0.110959485 -0.023033254 0.048039854 0.23549172 -0.066807844 0.028559254
0.052013975 -0.012710928 -0.086486384 -0.062097732 -0.10016379 -0.05263745 0.18775943 0.13778934
0.020685427 -0.086219385 -0.036200956 -0.040163137 0.052511983 0.12563258 0.012957312 0.013257539
0.10314602 0.02102393 -0.23219718 0.042239986 -0.00030334413 -0.1217227 0.016466342 0.017948862
-0.04573388 0.06087153 -0.069355555 0.019571738 -0.08989695 0.035558973 -0.017949231 0.0022031
0.033045802 0.010457296 -0.03380159 0.21737581 -0.0047868798 0.107675985 0.027188487 0.06794885

fc2.bias f4 [84]
00000000: faba 7abd 10dc e13d af6a b53d 2ac0 c03d
00000010: bb31 50bc d34d 0bbd e1a5 b13d 2736 363d
00000020: 21ac fa3d 75a0 80bd ce63 893c 5539 083d
00000030: 5d6d 1c3d 561c 8dbd b5ca a43d 34b8 833d
00000040: a981 f13d b9b3 de3c 2391 183e f722 ae3d
00000050: fc49 453e f6bb 28bd 4297 8d3d f82e de3d
00000060: c63d 013e af3a b93d 67c5 b6bd 1fb2 2fbc
00000070: 73c5 dbbd 8c67 c23c 412d a93c 51c2 153c
00000080: 192c 093e c6a9 023e 546f 2b3d e4eb c73d
00000090: 664a 3a3e d83b 943d 51fe c93c cce1 133d
000000a0: f225 c83c 76a2 6d3c 4f9b f5bd d2ef 83bd
000000b0: 25a6 06bb 7d2d edbd c45e 7d3d afae 9a3d
000000c0: 28df 04be 2ecc 013e f195 9cbd b01d 93bd
000000d0: 24af 973d 9a1b f63d ba48 913c bac5 d5ba
000000e0: e8d8 54bd 9a66 173b c650 f93c 11f2 b6bd
000000f0: c630 18b9 8c53 b0bd ab6f cf3d b388 053d
00000100: 874c 153d 7f2e 603d 5e4a 2dbd a723 263e
00000110: c194 a7bc 178b f1bd a734 f53c 8a01 f13d
00000120: 0406 70bd c5be 263e 23a2 163d 4bd0 d03d
00000130: a6ed ae3c c2f9 88bd c521 e5bd 52cc 3dbd
00000140: 97d6 cd3d 9649 dabc 3d1d 8c3d ffa3 74bd
-0.06121347 0.11028302 0.08858239 0.094116524 -0.012707169 -0.034009766 0.08674217 0.044485237
0.12239862 -0.06280605 0.016771223 0.0332578 0.038190234 -0.0689017 0.08046476 0.06431618
0.11792309 0.027185308 0.14899115 0.08502763 0.19266504 -0.04119488 0.06913616 0.10848802
0.12621221 0.09044396 -0.0892437 -0.01072362 -0.1073102 0.023731016 0.020651462 0.009140567
0.13395728 0.12760076 0.041854218 0.097617894 0.18192443 0.07237977 0.0246574 0.03610401
0.024432156 0.014504066 -0.119925134 -0.064422265 -0.0020545807 -0.11580942 0.061857954 0.075528495
-0.12975752 0.12675545 -0.076457866 -0.07183397 0.07406452 0.12016983 0.017734874 -0.0016309537
-0.05196467 0.0023101927 0.030434024 -0.08932889 -0.00014514019 -0.08609685 0.10128721 0.03260107
0.036449935 0.054731842 -0.04230725 0.16224538 -0.020456674 -0.117941074 0.029932333 0.11767872
-0.058599487 0.1628371 0.03677572 0.10195979 0.021353554 -0.066882625 -0.11188082 -0.046337433
0.100506954 -0.026646417 0.06841514 -0.05972671

fc3.weight f4 [9, 84]
00000000: a18d bfbe 596a 993c 01f5 f53c 00fd 08be
00000010: 6e5d 903c 4ca7 08be 2a23 8e3e 30bf 75be
00000020: 804a 773e 966d afbb bfae 08be 4343 4bbd
00000030: 32eb 3bbe 79b9 e8bd 6051 41be 99bc 6ebe
00000040: add4 4a3e 379c ccbd 6a5d 953e c458 8dbb
00000050: 7c17 c5bd 49da 54bd 9911 b93d 09c3 71be
00000060: 2a54 4fbe a4c4 89bd 4faf 07bc a7d4 2e3e
00000070: a83a 6d3c ebd0 24be d67b 4e3d 3eff 51bc
00000080: 3b3b 253e 24e7 0d3f 77bd fc3d ed81 bfbd
00000090: 14ab de3e a74b 0dbe d968 8b3d e469 29bd
000000a0: ad66 8abc 0662 ad3d e789 98bd 0c9b 923c
000000b0: f8fd 62be b724 483d f5f0 453e 04f8 99be
000000c0: 7875 283e d3e5 f53c 6743 15bd 2c2d abbd
000000d0: 22f8 4fbe b843 aebc 99d0 4d3d d283 0e3e
000000e0: a897 62be 41c4 11be 91b1 5fbe 2567 6c3d
000000f0: 7f97 563e dd0b ac3d 9b25 84be ae0b 2cbc
00000100: 690b ff3d 00bb 47bd 8ce9 e23d b097 0c3e
00000110: 2610 7bbe 5cdb 653c ba47 c7bd 61e4 ab3d
00000120: e6fd 323d 7e35 533e 2c14 2abe 699d 2cbe
00000130: 410d 5e3e 3dad 253c 4989 183c 3bc0 77bd
00000140: 6a64 60be 3e3d 35be b985 5bbe a76f 90bd
00000150: 2662 babd 0021 f8bd 5435 863e 0508 233e
00000160: f55c 633d 543a 28be 30da 4b3e 57f0 d4bb
00000170: eabb 8ebe 64a3 23bc 24c0 b0bc ae53 033d
00000180: d35c 313e 2faf 723d ab3e b0bd 7717 6bbe
00000190: 4db8 173e 2de5 6ebc 3ce6 aa3e f937 8e3c
000001a0: ea8e 583d 4d2e 9d3d b814 fbbc 3b51 2dbe
000001b0: 9768 85bd 98c1 903a c14b f0bd e630 153e
000001c0: e743 db3d 65e0 c63d f580 fabd c6bd 13bd
000001d0: 9f0c dc3b 9bf9 cd3d ebc8 4cbe 27d3 82be
000001e0: 44f1 4abe c7d7 2b3d 0477 debc 7380 dabd
000001f0: 543a 26bd c831 413d fa39 06bd 2523 30be
00000200: eaf7 0a3e b840 9fbd ea1c 1d3e ee89 973d
00000210: 6d06 4e3d b906 593e c338 80bd 099f acbd
00000220: e42e f23d da0a 24be f01e 3fbd 787a 46bd
00000230: ba05 443d ce9f 123d ee67 04bd 51da 8a3d
00000240: 8fca ddbe fe3b 3f3e 26a2 9f3d 8364 153d
00000250: 3e02 bcbe 552c b8be e3e3 84be 96e3 d8bd
00000260: 864c e03c 373c 7dba 1c9a 6cbe 4518 273e
00000270: 05cb 61bd e87a da3d 2cfd 303e b3d8 ed3d
00000280: 769b f33d b057 7d3c 4a70 4e3d c2e7 183d
00000290: 3390 c13d 1d2f ae3e 75f4 44be 0c79 0e3e
000002a0: f49f 4c3c af8f 8cbe 23a9 ab3e c55f 59be
000002b0: b0f4 68bd bde3 ca3d 2c7d bf3d 8b30 293e
000002c0: b153 743d 7021 c0bd 3827 26be 318b 03bd
000002d0: 7438 663d d0e9 473b cbf6 5bbd 82c3 0e3e
000002e0: e36e d73c 5c6c 823c 826f 19be 1d5f 103d
000002f0: 54e3 193e a3e4 b13d d70a 403d 3fb3 d23c
00000300: dec7 393e e5be 7cbe 1c31 5f3e f0a5 15be
00000310: 92dc 76bd d1a7 4b3d e4a7 54be 9a80 e4bd
00000320: 14d6 9bbd 1ffa 8abe cc7d 563e f311 103e
00000330: e0b3 0abf 3952 1c3e 0c96 67bd 3b9f 0d3e
00000340: 1e01 013e 97be 543d 60d7 60bd 0da1 963d
00000350: c27d 5bbc 3545 a1bd 2813 bebd 307b 43be
00000360: 6aaa fb3c d6f7 b03d 86ed 493d a91c 963b
00000370: 664d 4bbd b64f 20be 956b 55be ffac 0fbe
00000380: 62aa 9abc eb59 26be 7f19 adbd 38d3 01bd
00000390: c118 78be b482 963d 0c46 dabd 4a2a 09be
000003a0: 0f32 3bbe 414f 423e 7f0f 913e a7b1 4ebd
000003b0: b5a2 b93d db3f 1b3d 79fe e4bd a66e 77bd
000003c0: 6f09 70bd 820d 92be 0627 cdbd 81bf 9b3d
000003d0: 6220 14be 0d7d ea3d 1eb7 9ebd d807 3cbd
000003e0: 4260 51be 6578 5fbd daa4 033e c19d 9bbd
000003f0: 9046 ed3c f4d2 f9bd 97ba 7bbe 6ecb 253e
-0.37412742 0.018727468 0.030024054 -0.13377762 0.017622676 -0.13345069 0.27761203 -0.23998713
0.24149513 -0.00535364 -0.1334791 -0.049624693 -0.18351439 -0.11363501 -0.18878698 -0.23314132
0.19807692 -0.09990733 0.29172832 -0.00431356 -0.0962362 -0.051965985 0.090365596 -0.23609556
-0.2024695 -0.06726959 -0.008281543 0.17073308 0.014479317 -0.16095321 0.050411068 -0.012817202
0.16135876 0.5543082 0.12340825 -0.09350953 0.43489897 -0.1379839 0.068071075 -0.04136075
-0.016894663 0.08465962 -0.07448178 0.017896198 -0.22167194 0.04886314 0.19330199 -0.30072033
0.16451061 0.030016815 -0.036441233 -0.08358225 -0.20309499 -0.021272525 0.050247762 0.13917473
-0.22128165 -0.14235021 -0.2184508 0.057715554 0.20956229 0.084007 -0.2580994 -0.0105008315
0.12453348 -0.04876232 0.11079702 0.13729739 -0.24517879 0.01402935 -0.09730478 0.08393169
0.043699168 0.20625874 -0.16609257 -0.16856922 0.21684743 0.010112104 0.009310075 -0.06048606
-0.21913305 -0.17699143 -0.2143773 -0.07052546 -0.091007516 -0.12115669 0.2621256 0.15921028
0.055508573 -0.164285 0.1990745 -0.0064983773 -0.27877742 -0.009987686 -0.021575995 0.032062225
0.17320566 0.0592491 -0.08605703 -0.2295817 0.14816399 -0.014581007 0.3337878 0.017360674
0.05287067 0.07674847 -0.030649528 -0.16925518 -0.065140896 0.0011044024 -0.11733199 0.14569435
0.10706311 0.097107686 -0.12231628 -0.036069654 0.0067153717 0.10057374 -0.19998519 -0.2555172
-0.19818598 0.04195383 -0.02715636 -0.10669031 -0.04058297 0.047166616 -0.032770135 -0.17200907
0.13571134 -0.07776016 0.15343061 0.07399355 0.050299097 0.2119397 -0.062608264 -0.08428771
0.1182535 -0.16019765 -0.046660364 -0.04845664 0.047857024 0.035796933 -0.032325678 0.06779922
-0.43318602 0.18675229 0.07794599 0.03647281 -0.3672046 -0.35971323 -0.25955114 -0.105902836
0.02738024 -0.0009660157 -0.23105663 0.16317852 -0.055125255 0.10667974 0.17284077 0.11613598
0.11894886 0.015462801 0.050400056 0.037330396 0.09451332 0.3402032 -0.19233878 0.13913363
0.012489308 -0.27453372 0.3352748 -0.2122794 -0.056873977 0.09906719 0.093500465 0.16522424
0.059650127 -0.09381378 -0.16225898 -0.032115165 0.05620618 0.0030504353 -0.053702157 0.13941768
0.026297992 0.01592081 -0.14983943 0.035246957 0.15028125 0.08686187 0.046885338 0.025720237
0.1814265 -0.24682195 0.21796077 -0.14614081 -0.060268946 0.04972059 -0.2076717 -0.11157341
-0.076091915 -0.27143952 0.20946425 0.14069347 -0.5418072 0.1526574 -0.05653958 0.13830273
0.12598082 0.051939573 -0.054892898 0.07354937 -0.013396682 -0.07874528 -0.092809975 -0.19089961
0.030720908 0.08641021 0.049298786 0.0045810533 -0.04963436 -0.15655407 -0.2084182 -0.14030837
-0.018880073 -0.16245238 -0.084521286 -0.031695575 -0.24228193 0.073491484 -0.10657892 -0.13395038
-0.18280815 0.18975545 0.28332135 -0.05046239 0.09064237 0.037902694 -0.11181349 -0.060408257
-0.058602747 -0.2852593 -0.10017209 0.07604886 -0.14465478 0.11449633 -0.077497706 -0.045905918
-0.20446876 -0.054558177 0.12855855 -0.075984485 0.02896431 -0.12198439 -0.24582897 0.16190884

fc3.bias f4 [9]
00000000: 7830 023e 96ee c93a cf1b 01be 41cd 053d
00000010: 489d d4bd edf7 ea3c 6e27 5d3d 577e 9abd
00000020: 01b8 21be
0.12713802 0.0015406187 -0.12608264 0.03266645 -0.103815615 0.028682673 0.05399268 -0.07543629
-0.15792848
