output_visualizations/base_tsk[x]_agm[ac]_spl[S3]_mdl[lenet]_ls[BCE]_tu[none]/model.pt (torch, 246727 bytes, 9 tensors)

conv1.weight f4 [6, 1, 5, 5]
0.16899335 0.20778355 -0.003464759 0.23842388 0.011935519 0.02179893 -0.08930464 0.13065386
0.19540502 -0.13145459 0.15828827 0.049480017 0.15149386 0.029960027 0.10548597 -0.026025709
0.17774375 0.034236334 -0.09106914 0.077977926 -0.099083535 -0.0126247695 -0.09192982 0.12841514
-0.14169414 -0.112039566 -0.033202738 -0.10943696 0.024776448 -0.18852478 0.17500395 -0.13456124
0.1807196 0.0427967 -0.067682564 0.12057523 0.07565199 0.20187262 0.04552572 -0.061033558
0.055074602 -0.00046532875 0.13558705 0.21786506 0.13270539 -0.10104001 0.14997739 0.060586426
0.11089664 -0.13265686 -0.2652556 -0.12924458 -0.13817692 0.22292025 0.11874967 0.0178541
0.011690767 -0.007708672 0.18100856 -0.1339429 0.017708497 -0.12373197 0.08476761 -0.059399642
0.03036821 0.027703261 0.23688798 -0.06630283 -0.13010553 -0.17364223 0.23039018 0.120653026
0.2187184 -0.20053743 -0.2767241 -0.21335527 -0.16790304 0.06355611 0.112830356 0.22523712
-0.13849244 -0.15229952 0.1148474 -0.010226112 0.19837785 -0.03379974 0.14195593 -0.12313789
-0.0461878 0.10213444 0.098175585 0.0124100335 0.15922 0.14896557 -0.16375212 0.0043876427
0.28254536 -0.010888511 -0.06451139 -0.22561032 -0.110363185 0.058076285 -0.024683014 -0.14643355
0.006904893 -0.14992712 -0.1673557 -0.106537215 -0.16346262 -0.11468428 0.16370066 0.028307648
0.0708522 -0.16293085 -0.11196056 -0.10697741 0.02073031 -0.1666102 -0.06485773 -0.0956043
-0.012057723 -0.062156677 0.0034317938 -0.12551613 -0.12613918 -0.05045376 -0.015024538 -0.10642644
0.22797516 -0.04742303 0.22060834 0.11713415 -0.108567186 0.19363028 -0.06262485 -0.059524704
-0.18265907 -0.19444424 0.088918164 -0.05477047 0.14463046 -0.16513959 0.17064011 -0.08003087
0.027296297 0.1271389 0.11834622 0.19838448 0.26458806 -0.07564214
00000000: 980c 2d3e 36c5 543e 0311 63bb 6425 743e
00000010: 328d 433c ab93 b23c 5ae5 b6bd 20ca 053e
00000020: 4118 483e 089c 06be 5216 223e 8fab 4a3d
00000030: 3521 1b3e bb6e f53c 0709 d83d de33 d5bc
00000040: 7502 363e 663b 0c3d 7582 babd e4b2 9f3d
00000050: 4fec cabd 1fd8 4ebc b445 bcbd 427f 033e
00000060: 4518 11be 0075 e5bd 98ff 07bd 7c20 e0bd
00000070: faf7 ca3c a40c 41be 3c34 333e 6cca 09be
00000080: 8f0e 393e 984b 2f3d 289d 8abd 25f0 f63d
00000090: 6eef 9a3d b2b7 4e3e 2d79 3a3d 53fe 79bd
000000a0: e895 613d 5ef7 f3b9 55d7 0a3e 0518 5f3e
000000b0: ece3 073e 11ee cebd ac93 193e 7929 783d
000000c0: c71d e33d 33d7 07be 95cf 87be b158 04be
000000d0: 407e 0dbe 3545 643e 0733 f33d c342 923c
000000e0: a18a 3f3c 0799 fcbb 4f5a 393e 5428 09be
000000f0: 6911 913c 3067 fdbd a49a ad3d 0a4d 73bd
00000100: c1c6 f83c f3f1 e23c c392 723e c7c9 87bd
00000110: 623a 05be 45cf 31be 67eb 6b3e ef18 f73d
00000120: b7f7 5f3e af59 4dbe c8ae 8dbe ce79 5abe
00000130: c6ee 2bbe b529 823d 9a13 e73d 8fa4 663e
00000140: f6d0 0dbe 68f4 1bbe 1d35 eb3d 6c8b 27bc
00000150: 9023 4b3e 9971 0abd e55c 113e b82f fcbd
00000160: 6b2f 3dbd dc2b d13d 4810 c93d 7453 4b3c
00000170: 910a 233e 6e8a 183e a3ae 27be 37c6 8f3b
00000180: c9a9 903e ba65 32bc 8c1e 84bd 6406 67be
00000190: 1806 e2bd 66e1 6d3d 0834 cabc adf2 15be
000001a0: 7142 e23b 7f86 19be 4b5f 2bbe 2f30 dabd
000001b0: bf62 27be 97df eabd 25a1 273e 71e5 e73c
000001c0: f51a 913d 58d7 26be 944b e5bd f916 dbbd
000001d0: 9cd2 a93c dd9b 2abe 21d4 84bd 30cc c3bd
000001e0: c18d 45bc 0098 7ebd f2e7 603b 4d87 00be
000001f0: a12a 01be 9aa8 4ebd 7b29 76bc 1bf6 d9bd
00000200: 5272 693e a73e 42bd 27e7 613e 07e4 ef3d
00000210: 7958 debd 0447 463e 7541 80bd 2dd0 73bd
00000220: fb0a 3bbe 641c 47be ba1a b63d 0057 60bd
00000230: 021a 143e 5a1a 29be 48bc 2e3e 3ae7 a3bd
00000240: 7c9c df3c b330 023e 815f f23d 4d25 4b3e
00000250: 1678 873e 44ea 9abd

conv1.bias f4 [6]
-0.0020419597 -0.0850449 -0.010187297 -0.035129573 0.18454541 -0.13599876
00000000: 66d2 05bb 052c aebd 9fe8 26bc 07e4 0fbd
00000010: 79f9 3c3e 4243 0bbe

conv2.weight f4 [16, 6, 5, 5]
0.03908998 0.0026801203 0.016593607 -0.047297142 0.0605081 0.032929536 0.011714028 -0.058415856
0.033594638 -0.038393036 -0.007828779 0.09724978 0.050491452 -0.03898663 -0.070316434 0.02670508
0.075451225 0.010248799 -0.043633938 -0.06001604 -0.020220755 0.054735105 0.09188299 -0.07430779
0.0048065213 0.022523222 -0.017283473 -0.056582175 -0.0025785728 -0.030854102 0.044655096 0.008933624
-0.0027832654 -0.0005646686 -0.06121053 -0.025902567 0.06521956 0.092072695 -0.025647407 -0.0642517
0.012236452 0.024715504 0.057843857 0.03606022 -0.064531155 -0.03177887 0.06995988 0.048088294
0.005657103 -0.031370755 0.10187365 0.048919354 0.12567578 0.21349071 0.1802604 0.15160556
0.05206711 0.087040015 0.13482957 0.13643712 0.1267583 0.11950508 0.15850267 0.077470444
0.0077224486 0.1973779 0.10631012 0.107734926 0.011313697 0.12557943 0.23512633 0.15984182
0.024449287 -0.008983671 0.05422953 0.0718277 0.06494465 0.14871241 0.19005038 0.032485336
-0.009933663 -0.00063183566 0.017513337 0.004424762 0.006043816 0.0036319771 0.0746489 0.011017132
0.014170192 -0.11395682 0.03786546 0.11481132 0.02435233 0.032053646 -0.03701068 0.03928898
0.030072175 -0.044333227 -0.025125088 -0.025338437 0.04621342 -0.04744124 0.04395565 0.043414302
0.085344285 -0.065702446 0.060529172 -0.03739389 0.058608092 0.12376055 -0.034633353 -0.027225384
-0.01925487 -0.038454417 0.08512489 -0.100245826 0.0427077 0.07261375 0.12491621 0.031226397
-0.06390664 0.03575644 0.067034945 -0.03913776 0.02788804 -0.07850096 -0.07985686 -0.043144755
-0.085227355 -0.09111565 -0.17762317 -0.03388096 0.0012243018 -0.13625035 -0.12450146 -0.09136671
-0.13529001 -0.08575847 -0.042126622 -0.058845714 -0.08374247 -0.07970755 -0.05686663 -0.09023921
0.005054347 -0.086654484 -0.11507869 -0.08258797 -0.1097083 0.096684515 -0.04475035 -0.021726586
-0.020621069 0.03897235 0.09875771 0.031831674 -0.094137184 0.037595097 0.08369267 0.0068186712
0.06647542 0.08972572 0.0051835785 0.019206515 -0.0798199 0.019628529 0.08399005 0.085437305
-0.030541644 -0.0683865 -0.02464877 -0.07227448 -0.038433604 -0.012043978 0.049571864 -0.0059591364
-0.10514518 -0.10746164 0.010822707 -0.12346906 -0.008545719 0.035894062 -0.045414988 -0.022807728
-0.061571214 -0.014746962 -0.04121037 -0.024141457 -0.032208312 -0.058462933 0.11349111 -0.00065816374
0.027883796 0.09048849 0.066664286 0.012103995 0.044477887 0.065258965 -0.060470108 0.0020522482
0.17555673 0.11773711 0.0811133 0.22093931 0.071484946 0.027687715 0.021712916 0.12400086
0.20067869 0.034524135 0.107805945 0.009518393 0.01396035 0.10540714 0.13974647 0.14591534
0.02746561 0.06289425 -0.020496037 0.01868118 0.14318 0.09832087 0.11591727 0.017910607
0.07632091 -0.08071204 0.070847146 0.2711623 0.103947684 0.10488611 -0.15347034 -0.008545892
0.19902755 0.08582712 -0.03714915 -0.056767248 0.074895814 0.087750666 0.0438377 -0.019077819
-0.026203504 0.050226085 0.09718634 -0.020723034 0.000270458 0.08286102 -0.049541384 -0.05124192
0.013025951 -0.101008296 -0.065194584 -0.0039748205 -0.062366508 0.0042081526 -0.017462902 -0.03805057
00000000: d11c 203d f5a4 2f3b 51ef 873c a6ba 41bd
00000010: 57d7 773d 1fe1 063d 32ec 3f3c 7745 6fbd
00000020: 889a 093d 0442 1dbd 4744 00bc e52a c73d
00000030: 20d0 4e3d 72b0 1fbd 1002 90bd 9dc4 da3c
00000040: 2c86 9a3d 94ea 273c 80b9 32bd 61d3 75bd
00000050: ffa5 a5bc eb31 603d 262d bc3d af2e 98bd
00000060: 0680 9d3b 9f82 b83c 1296 8dbc b6c2 67bd
00000070: 46fd 28bb bec1 fcbc 43e8 363d 565e 123c
00000080: 7267 36bb 4506 14ba e5b7 7abd 9f31 d4bc
00000090: d591 853d 9c90 bc3d 831a d2bc 6596 83bd
000000a0: 667b 483c 2b78 ca3c aeed 6c3d e2b3 133d
000000b0: e928 84bd 8f2a 02bd 2047 8f3d 3bf8 443d
000000c0: 385f b93b 9f7e 00bd 22a3 d03d a95f 483d
000000d0: 27b1 003e 4f9d 5a3e 2f96 383e 7d3e 1b3e
000000e0: 5244 553d 0942 b23d c310 0a3e 2cb6 0b3e
000000f0: eecc 013e 14bf f43d 864e 223e d3a8 9e3d
00000100: 980c fd3b 6f1d 4a3e 1fb9 d93d 21a4 dc3d
00000110: 165d 393c e597 003e f5c4 703e 93ad 233e
00000120: df49 c83c 3f30 13bc c91f 5e3d 671a 933d
00000130: b301 853d 1148 183e 919c 423e 580f 053d
00000140: cdc0 22bc c6a1 25ba 2178 8f3c 98fd 903b
00000150: 340b c63b 7706 6e3b 86e1 983d 3381 343c
00000160: 182a 683c 3162 e9bd d018 1b3d 3322 eb3d
00000170: 8a7e c73c af4a 033d 8398 17bd 7bed 203d
00000180: ec59 f63c c296 35bd 21d3 cdbc 8e92 cfbc
00000190: 484a 3d3d bf51 42bd d70a 343d 32d3 313d
000001a0: fcc8 ae3d 018f 86bd 70ed 773d 562a 19bd
000001b0: 0a0f 703d 2c76 fd3d b4db 0dbd c507 dfbc
000001c0: 64bc 9dbc 6182 1dbd f555 ae3d af4d cdbd
000001d0: 45ee 2e3d 85b6 943d 12d4 ff3d 80ce ff3c
000001e0: 7ce1 82bd 5875 123d 9e49 893d ea4e 20bd
000001f0: 7575 e43c 1cc5 a0bd fe8b a3bd 8eb8 30bd
00000200: ae8b aebd d89a babd d9e2 35be c3c6 0abd
00000210: c078 a03a 3685 0bbe 9ffa febd 781e bbbd
00000220: 7789 0abe 23a2 afbd f78c 2cbd 3408 71bd
00000230: 2c81 abbd b63d a3bd fcec 68bd 56cf b8bd
00000240: f09e a53b e877 b1bd 60ae ebbd e223 a9bd
00000250: bfae e0bd 8802 c63d 254c 37bd f4fb b1bc
00000260: 84ed a8bc 79a1 1f3d 7b41 ca3d ee61 023d
00000270: ffca c0bd 51fd 193d 1067 ab3d 296f df3b
00000280: 4424 883d 1ec2 b73d 02db a93b fb56 9d3c
00000290: 9e78 a3bd 02cc a03c fa02 ac3d c1f9 ae3d
000002a0: 7832 fabc 390e 8cbd 38ec c9bc a404 94bd
000002b0: 8e6c 1dbd 1b54 45bc de0b 4b3d dc44 c3bb
000002c0: 5b56 d7bd d914 dcbd b951 313c 59dd fcbd
000002d0: 5803 0cbc a705 133d 1105 3abd 46d7 babc
000002e0: 1932 7cbd 3e9d 71bc 34cc 28bd 4ec4 c5bc
000002f0: ddec 03bd d476 6fbd 076e e83d 9f88 2cba
00000300: 8f6c e43c 0852 b93d 4987 883d d64f 463c
00000310: 722e 363d 7ea6 853d 81af 77bd 037f 063b
00000320: 25c5 333e 2720 f13d bb1e a63d ea3d 623e
00000330: b366 923d 59d1 e23c 49df b13c 2af4 fd3d
00000340: b77e 4d3e 2e69 0d3d 5dc9 dc3d 09f3 1b3c
00000350: f4b9 643c b3df d73d b319 0f3e d56a 153e
00000360: 8fff e03c b3ce 803d 4ee7 a7bc 4609 993c
00000370: c79d 123e 745c c93d 0966 ed3d 44b9 923c
00000380: 234e 9c3d 5b4c a5bd 4f18 913d c9d5 8a3e
00000390: 86e2 d43d 87ce d63d 5427 1dbe 1204 0cbc
000003a0: e1cd 4b3e 21c6 af3d b529 18bd c684 68bd
000003b0: fa62 993d 9fb6 b33d 298f 333d 1649 9cbc
000003c0: bba8 d6bc deb9 4d3d a209 c73d 5ac3 a9bc
000003d0: 42cc 8d39 0ab3 a93d e8eb 4abd 0ce3 51bd
000003e0: cc6a 553c 70dd cebd bd84 85bd 363f 82bb
000003f0: 0674 7fbd 8be4 893b 5c0e 8fbc eada 1bbd

conv2.bias f4 [16]
-0.020799085 0.004278878 0.018172933 0.019303894 0.012860835 0.029596156 0.0842269 -0.012126561
-0.05737816 0.015598823 -0.016166015 0.04020671 0.068762444 -0.022671921 0.05596791 0.08001681
00000000: d862 aabc d535 8c3b 67df 943c 3323 9e3c
00000010: 40b6 523c a373 f23c 277f ac3d 7cae 46bc
00000020: 5d05 6bbd 3592 7f3c 976e 84bc cbaf 243d
00000030: 53d3 8c3d 77ba b9bc 9b3e 653d dadf a33d

fc1.weight f4 [120, 400]
-0.010471502 0.05991143 0.040099416 -0.033744164 0.016702682 -0.055898085 0.0288857 0.076484315
0.0700297 0.050982744 0.04074239 0.0016395532 0.03631823 0.039339397 0.034083437 0.0010485495
0.074841455 0.043129288 0.024145598 0.027675895 0.043664534 0.056826208 0.07006624 0.06303192
0.056852102 0.00646036 0.02428821 -0.004142798 -0.0727843 -0.0471677 -0.0032219207 0.03780452
0.017952304 0.09169128 0.035292424 0.0030684767 0.01361819 0.030452505 0.09835007 0.025549065
0.040934406 -0.016164165 0.029787738 0.08218422 0.05921217 0.033163916 0.03473664 -0.018883945
0.046671577 -0.03048611 -0.056405384 0.036567453 0.0050063813 0.072217785 -0.030845966 0.03943569
0.067754395 -0.003468663 0.057878885 -0.010980456 0.034428306 0.07972805 0.020362789 0.033743132
0.046245515 0.023559805 0.044991165 0.0835942 0.02286033 0.012361231 0.06778319 0.04770436
0.01015877 0.032869857 -0.052531093 -0.06614985 0.026921988 0.0009415398 -0.038879413 -0.020486867
0.03101667 -0.0066515664 -0.05134659 -0.04994669 -0.027762014 -0.00046298784 0.052080713 -0.0040148823
-0.036820102 -0.05847839 -0.019629195 0.027509104 0.052787587 -0.039612528 -0.07298364 0.062471952
0.055313285 0.05423047 0.022592405 0.028344473 -0.029995926 -0.011811969 -0.053423125 0.015047374
0.04446364 -0.08442497 0.026660062 -0.09133881 0.046347436 -0.016563326 -0.030633805 -0.007620287
-0.021736002 0.0028058342 -0.039991733 -0.013875948 -0.031671338 0.06954032 0.07259839 0.07772553
0.091494374 0.08590491 0.19751124 0.13251555 0.17103367 -0.00071994297 0.0011659923 -0.025538107
0.12978354 0.025438642 -0.068367235 0.12574764 0.07921797 0.11172516 0.050683938 -0.044123575
0.11292607 0.045123417 0.08404261 0.010443841 0.006280826 0.12394052 0.12996511 0.07415115
0.0520485 0.0521332 0.048831657 0.074803814 0.030988235 0.026336351 0.07842224 -0.023744054
-0.0017830316 -0.025420595 0.02313011 -0.042094935 0.006848888 -0.010284861 0.010975379 0.005892443
-0.032755904 0.011722108 0.029072277 -0.021988234 0.060677364 0.03751291 0.01315803 0.0023975233
0.042341985 0.0006650579 0.00038767335 0.031818025 0.037992988 0.048276894 -0.0073723067 0.032353826
-0.026444444 0.051466223 0.037890688 -0.0010321699 0.05267894 0.061325077 0.075765654 0.022960544
0.061801463 0.012082282 0.066406675 0.026272075 0.07349262 0.060591117 -0.040625982 0.07469256
0.010441184 0.006766568 -0.021256436 0.019523008 -0.00041866268 0.01787315 0.0069290367 0.01768511
-0.07221817 0.0032521049 0.07721011 0.054766443 -0.013280745 0.059966657 0.033378627 0.0047280276
0.09945083 0.0046674577 0.087123305 0.04424078 0.03856103 0.09258398 -0.021459319 0.110225424
0.0872901 0.05591637 0.028186683 0.002091367 0.043369602 0.04359208 0.0840461 0.04735035
0.050847635 0.040415764 0.044345517 0.019409098 0.019715488 0.025434736 0.039201524 -0.022469882
0.02122776 -0.023355689 0.0029921955 -0.030337859 0.051985394 0.043589767 0.037662655 -0.02311298
-0.044356365 0.02318793 0.01631503 0.022782821 0.058085814 -0.017563833 -0.008691348 0.07325496
0.04766065 -0.023569265 -0.009082263 0.05653167 -0.0047545894 0.043311592 0.030362403 -0.0032441511
00000000: aa90 2bbc b065 753d 493f 243d 5237 0abd
00000010: 10d4 883c 64f5 64bd b4a1 ec3c cfa3 9c3d
00000020: bb6b 8f3d 48d3 503d 7ee1 263d 47e6 d63a
00000030: 6dc2 143d 5922 213d 139b 0b3d 7c6f 893a
00000040: 7a46 993d 56a8 303d fdcc c53c 8fb8 e23c
00000050: 95d9 323d 99c2 683d e47e 8f3d e116 813d
00000060: c0dd 683d 6db1 d33b 11f8 c63c 4fc0 87bb
00000070: ef0f 95bd eb32 41bd dc26 53bb ead8 1a3d
00000080: b610 933c a3c8 bb3d ca8e 103d 7f18 493b
00000090: d41e 5f3c 8877 f93c c36b c93d 464c d13c
000000a0: d6aa 273d b66a 84bc 6a05 f43c 3350 a83d
000000b0: 7688 723d e3d6 073d 0248 0e3d 81b2 9abc
000000c0: b22a 3f3d 02be f9bc 5509 67bd c1c7 153d
000000d0: 920c a43b ebe6 933d aeb0 fcbc 5187 213d
000000e0: d1c2 8a3d 8252 63bb 6912 6d3d 5fe7 33bc
000000f0: b204 0d3d 7648 a33d ddcf a63c 3d36 0a3d
00000100: f06b 3d3d 7e00 c13c a848 383d 7033 ab3d
00000110: 9645 bb3c c386 4a3c ead1 8a3d a665 433d
00000120: f870 263c 8ba2 063d d82a 57bd 9379 87bd
00000130: 808b dc3c abd1 763a 0540 1fbd 13d4 a7bc
00000140: ac16 fe3c 62f5 d9bb cd50 52bd e794 4cbd
00000150: 2a6d e3bc 2dbd f2b9 9652 553d 468f 83bb
00000160: add0 16bd 0987 6fbd 68cd a0bc c65a e13c
00000170: cc37 583d bf40 22bd 7278 95bd 97e2 7f3d
00000180: 2f90 623d c520 5e3d b513 b93c ab32 e83c
00000190: 04ba f5bc fd86 41bc 35d2 5abd 4389 763c
000001a0: 811f 363d 00e7 acbd 3466 da3c d80f bbbd
000001b0: cfd6 3d3d d0af 87bc bff3 fabc 9ab3 f9bb
000001c0: b30f b2bc 16e2 373b 5fce 23bd f257 63bc
000001d0: ceb9 01bd 286b 8e3d 77ae 943d 902e 9f3d
000001e0: 6761 bb3d eaee af3d 6340 4a3e 28b2 073e
000001f0: 7323 2f3e 8eba 3cba 36d4 983a 4b35 d1bc
00000200: fae5 043e b364 d03c 1f04 8cbd fdc3 003e
00000210: 083d a23d 29d0 e43d f699 4f3d ecba 34bd
00000220: c945 e73d 55d3 383d 881e ac3d a51c 2b3c
00000230: 63cf cd3b 87d4 fd3d 9315 053e 8fdc 973d
00000240: cf30 553d 9f89 553d b403 483d be32 993d
00000250: 0adb fd3c 55bf d73c d79b a03d e482 c2bc
00000260: 9db4 e9ba da3e d0bc 5b7b bd3c bd6b 2cbd
00000270: a36c e03b d581 28bc 13d2 333c 6515 c13b
00000280: 0e2b 06bd 160e 403c fc28 ee3c ab20 b4bc
00000290: d488 783d 23a7 193d c794 573c c41f 1d3b
000002a0: ca6e 2d3d 4857 2e3a a340 cb39 9e53 023d
000002b0: 899e 1b3d febd 453d 6493 f1bb 7285 043d
000002c0: 05a2 d8bc 3fce 523d 4433 1b3d e049 87ba
000002d0: dfc5 573d 0130 7b3d 062b 9b3d c017 bc3c
000002e0: 8823 7d3d c4f4 453c 3900 883d 8938 d73c
000002f0: 4c83 963d 642e 783d 6e67 26bd 6af8 983d
00000300: 8011 2b3c 16ba dd3b fa21 aebc b7ee 9f3c
00000310: f47f dbb9 b66a 923c f90c e33b 5de0 903c
00000320: 1fe7 93bd 4421 553b 5620 9e3d c752 603d
00000330: 7b97 59bc 999f 753d 07b8 083d 92ed 9a3b
00000340: e0ac cb3d 79f1 983b b46d b23d d235 353d
00000350: 2cf2 1d3d ab9c bd3d 74cb afbc debd e13d
00000360: 27c5 b23d 9008 653d c2e7 e63c 510f 093b
00000370: 53a4 313d 9c8d 323d 5d20 ac3d 71f2 413d
00000380: 9c45 503d 008b 253d a5a3 353d d4ff 9e3c
00000390: 6082 a13c 825c d03c c791 203d c212 b8bc
000003a0: d7e5 ad3c 6e54 bfbc b618 443b 1a87 f8bc
000003b0: a3ee 543d 2f8b 323d 2844 1a3d 6f57 bdbc
000003c0: 05af 35bd 9df4 bd3c 19a7 853c 0aa3 ba3c
000003d0: 64eb 6d3d 07e2 8fbc 2866 0ebc b206 963d
000003e0: d037 433d 5514 c1bc c6cd 14bc c18d 673d
000003f0: 63cc 9bbb 7f67 313d 93ba f83c d39b 54bb

fc1.bias f4 [120]
-0.03578119 0.007082064 -0.023506356 0.07867822 0.017849099 0.06666662 0.026793078 -0.03325027
0.0005556942 -0.02452919 0.08588676 -0.0070915935 -0.008528019 0.040783506 -0.038594164 0.027220711
0.05310668 -0.037391175 0.03048163 -0.01800816 -0.04587276 0.015422041 0.037498396 -0.04867065
-0.0005754009 0.067710236 -0.04514588 0.018417114 -1.4889138e-05 0.035145476 0.08113463 -0.011549469
-0.02507975 -0.025449818 -0.037506707 0.043495275 0.012334051 0.07149854 0.012711208 -0.008055482
0.0043857517 0.019146219 0.031099586 0.028493984 -0.032960102 -0.028519338 -0.010335901 -0.010987359
-0.00048117567 0.05783382 0.040905412 0.049979374 0.063717104 0.09529005 -0.016724711 0.06624368
0.04281825 0.005232557 0.0059360904 -0.007812487 0.03365728 -0.04900769 0.041271165 0.018010654
0.049419347 -0.047038335 -0.008298063 -0.021280065 0.06209203 0.061085306 0.00957436 0.053235404
0.016837426 -0.039248895 0.036545824 0.050163165 0.018196065 -0.024305133 0.0056857793 0.029700896
-0.047592063 0.02278155 0.007891023 0.059234373 0.052343085 0.004016057 -0.021752976 0.013851472
0.01822949 -0.01351413 0.035969857 0.047022294 -0.040932395 0.033854667 -0.015239787 -0.0152623085
0.046153184 0.021958632 -0.033338595 0.022340113 0.018062107 -0.032443065 -0.00076798146 0.008333434
-0.009439615 -0.009449992 0.02847576 0.03068275 -0.009899177 0.08528999 0.08535722 0.022078313
-0.025625074 0.018276807 0.018294726 0.0663362 -0.013709137 0.015159556 -0.050767846 -0.043676402
00000000: 4c8f 12bd a910 e83b 6790 c0bc 0c22 a13d
00000010: 4638 923c 8288 883d 287d db3c 6f31 08bd
00000020: 02ac 113a 71f1 c8bc 66e5 af3d 9960 e8bb
00000030: 1bb9 0bbc 9b0c 273d ea14 1ebd f8fd de3c
00000040: 6486 593d 7d27 19bd 9cb4 f93c d985 93bc
00000050: 13e5 3bbd baac 7c3c eb97 193d e05a 47bd
00000060: 80d6 16ba aaab 8a3d e3ea 38bd 7ddf 963c
00000070: 5ccc 79b7 b4f4 0f3d ea29 a63d fc39 3dbc
00000080: 0c74 cdbc 237c d0bc a2a0 19bd 1a28 323d
00000090: c214 4a3c d46d 923d ac42 503c 24fb 03bc
000000a0: 5ab6 8f3b 88d8 9c3c 8fc4 fe3c 376c e93c
000000b0: 2c01 07bd 63a1 e9bc e957 29bc 5304 34bc
000000c0: 4e46 fcb9 28e3 6c3d 6f8c 273d 2cb7 4c3d
000000d0: 1d7e 823d 6e27 c33d 4302 89bc c4aa 873d
000000e0: 3062 2f3d df75 ab3b 8983 c23b e4ff ffbb
000000f0: 37dc 093d 4abc 48bd f40b 293d 148b 933c
00000100: f16b 4a3d 45ab 40bd 99f4 07bc 8853 aebc
00000110: 3654 7e3d 9634 7a3d c7dd 1c3c 5e0d 5a3d
00000120: a4ee 893c 73c3 20bd 13b1 153d e477 4d3d
00000130: ea0f 953c 8f1b c7bc c64f ba3b 4b4f f33c
00000140: e5ef 42bd 60a0 ba3c 5949 013c be9f 723d
00000150: b465 563d 2199 833b 4c33 b2bc 49f1 623c
00000160: 0356 953c 5f6a 5dbc 2155 133d 739a 403d
00000170: baa8 27bd 31ab 0a3d 4db0 79bc c30e 7abc
00000180: 1f0b 3d3d 97e2 b33c 0d8e 08bd 9d02 b73c
00000190: fcf6 933c 05e3 04bd 5d52 49ba f588 083c
000001a0: 9da8 1abc 24d4 1abc ff45 e93c 645a fb3c
000001b0: 2830 22bc 85ac ae3d c4cf ae3d 94dd b43c
000001c0: adeb d1bc 3eb9 953c d2de 953c 46db 873d
000001d0: 4a9c 60bc c95f 783c f2f1 4fbd 07e6 32bd

fc2.weight f4 [84, 120]
0.006317258 -0.004053876 -0.008288227 0.08013944 0.029845648 -0.06837829 -0.06441568 0.021643005
0.055824697 -0.08423018 0.03347539 -0.040741008 0.03456466 -0.047548935 0.076762915 0.08540209
-0.06362499 -0.080737755 0.026353829 0.07283716 0.040047705 -0.04450512 0.07747473 -0.09034978
0.07614227 -0.032888535 -0.006312184 -0.0001623854 -0.0252366 -0.020877853 0.02248685 0.017616086
0.010578066 0.089612156 -0.008979276 -0.056518327 -0.079976335 0.06920312 -0.0660537 0.046057314
-0.053209487 -0.060946334 0.014400408 0.06936586 -0.08220413 0.0599858 -0.090838864 -0.018388085
-0.025879234 -0.06476152 -0.07073686 -0.038057048 -0.07307359 0.0009313822 -0.061019246 -0.042476926
-0.04553456 0.026845425 -0.026198052 0.05300927 0.055635765 -0.067136094 -0.0154966265 -0.09099907
0.043696463 -0.01989159 0.023516975 0.030075602 0.080932006 -0.009102657 -0.027004354 0.08614443
-0.0071848035 0.016722359 0.00902091 -0.048125964 0.052631915 -0.07548237 0.045647427 0.04445429
0.059609458 -0.06450763 0.0640959 0.08433813 -0.001518622 -0.086412326 -0.00431668 -0.0004918426
-0.07985887 -0.005655363 -0.030158151 -0.08275717 0.059298187 0.024028651 -0.038894873 0.08284801
0.004638329 0.0050420165 0.011239275 -0.07542029 -0.038529295 0.012305073 -0.03375326 0.04749854
0.0024243444 0.019319735 0.08836621 -0.039159942 -0.012296811 -0.053534508 -0.0798837 0.020834118
0.06496437 0.030898035 -0.07174893 0.05909735 -0.08335889 -0.06390875 0.08307482 -0.041898552
-0.05673187 -0.038603205 -0.03288124 0.062565744 -0.042947892 -0.017454809 0.03054711 0.02075834
0.011871636 -0.004502538 0.10656965 -0.031108161 -0.05785557 -0.066862956 -0.067065604 -0.058044214
0.052963052 -0.13851033 0.031152975 0.008745941 0.017865365 0.08926666 0.07437417 0.013668874
-0.14122248 0.11045136 0.054919522 -0.034130853 0.0761351 -0.044609487 0.106997624 -0.08507879
-0.05520249 0.041123588 0.026314862 0.059813462 -0.10542346 0.08335755 -0.048615795 -0.057699416
-0.043112338 -0.09830696 -0.052245043 0.04014174 -0.028940504 0.021960706 0.068853304 0.029416686
0.097313546 0.14627087 0.006064053 0.02729104 0.14903644 -0.015259343 -0.06918615 0.086696066
0.122723095 0.004205076 0.019757327 -0.080727085 0.10425413 -0.031263135 0.043325856 0.089216776
0.15670247 0.0007856488 -0.06059754 -0.09868039 0.10013384 0.1739568 0.026290227 -0.05232178
0.047900554 -0.1299893 0.12140774 0.076120146 0.07362269 0.0009674006 -0.025473913 -0.061340194
-0.050647046 0.1451331 -0.030151961 0.08397636 0.058988553 0.0282574 -0.045702968 -0.077690914
0.010162163 -0.050358843 0.016250117 0.044477787 0.0480465 0.12851308 -0.10328904 -0.046760168
0.11716832 -0.014103115 -0.07501679 -0.048054244 -0.105934225 -0.06872318 0.00021515966 0.017883062
0.010212066 -0.03733793 0.06306936 0.020776143 0.030977841 0.13078454 0.10550948 0.08133834
0.09501211 0.090937175 -0.037212875 0.13803047 0.005876131 -0.0056921416 -0.016731916 0.006387659
0.005421548 0.055935822 -0.07827037 0.018389769 -0.094845995 -0.0031614876 -0.05782066 -0.016924737
0.064549394 0.021077659 -0.090887144 0.03497794 0.012823988 0.11213487 0.056282286 0.12992635
00000000: 0001 cf3b 60d6 84bb 58cb 07bc 2620 a43d
00000010: dc7e f43c eb09 8cbd 5eec 83bd ac4c b13c
00000020: 70a8 643d df80 acbd 7e1d 093d 0be0 26bd
00000030: ac93 0d3d acc2 42bd e035 9d3d 4ae7 ae3d
00000040: d24d 82bd d659 a5bd fce3 d73c a62b 953d
00000050: 1009 243d 004b 36bd 12ab 9e3d 4e09 b9bd
00000060: 7af0 9b3d 21b6 06bd 70d6 cebb 0046 2ab9
00000070: fcbc cebc 0808 abbc 5836 b83c 9c4f 903c
00000080: a04f 2d3c 9486 b73d d01d 13bc c37f 67bd
00000090: a2ca a3bd 5eba 8d3d 2a47 87bd 98a6 3c3d
000000a0: 31f2 59bd dda2 79bd b0ef 6b3c b00f 8e3d
000000b0: a45a a8bd acb3 753d ba09 babd 9ca2 96bc
000000c0: b000 d4bc b0a1 84bd 7dde 90bd b5e1 1bbd
000000d0: 9ba7 95bd 0028 743a 51ef 79bd 49fc 2dbd
000000e0: 7282 3abd f0ea db3c 4c9d d6bc 4020 593d
000000f0: 54e2 633d a67e 89bd 90e5 7dbc b85d babd
00000100: 10fb 323d b0f3 a2bc aca6 c03c 1c61 f63c
00000110: aebf a53d 5023 15bc 3c38 ddbc 7e6c b03d
00000120: 806e ebbb 54fd 883c 70cc 133c bb1f 45bd
00000130: 9094 573d 8096 9abd ccf8 3a3d b415 363d
00000140: 0c29 743d 941c 84bd b644 833d 78b9 ac3d
00000150: 800c c7ba f2f8 b0bd f072 8dbb 00ef 00ba
00000160: 0c8d a3bd a050 b9bb 3a0e f7bc 977c a9bd
00000170: a8e2 723d bcd7 c43c 3b50 1fbd 38ac a93d
00000180: 20fd 973b 8037 a53b f024 383c f475 9abd
00000190: e5d0 1dbd 389b 493c dc40 0abd d48d 423d
000001a0: c0e1 1e3b 6c44 9e3c 58f9 b43d 2d66 20bd
000001b0: 9078 49bc 0047 5bbd 119a a3bd 50ac aa3c
000001c0: 0a0c 853d e01d fd3c 1af1 92bd 1010 723d
000001d0: 11b8 aabd 97e2 82bd 2223 aa3d d19d 2bbd
000001e0: ad5f 68bd 651e 1ebd 7bae 06bd 7822 803d
000001f0: 21ea 2fbd 63fd 8ebc ef3d fa3c 650d aa3c
00000200: 4081 423c 078a 93bb 3041 da3d 8bd6 febc
00000210: f6f9 6cbd 72ef 88bd b159 89bd c5bf 6dbd
00000220: c9ef 583d a7d5 0dbe 8634 ff3c 234b 0f3c
00000230: 635a 923c 70d1 b63d 7c51 983d 6af3 5f3c
00000240: a09c 10be 5334 e23d 4bf3 603d cbcc 0bbd
00000250: b8ec 9b3d 70b8 36bd 9221 db3d ca3d aebd
00000260: 021c 62bd 3571 283d 4492 d73c f6fe 743d
00000270: 41e8 d7bd 5db7 aa3d 5b21 47bd 3956 6cbd
00000280: 9096 30bd 2955 c9bd e6fe 55bd aa6b 243d
00000290: a314 edbc f0e6 b33c f602 8d3d 43fb f03c
000002a0: 534c c73d 08c8 153e f7b4 c63b 7691 df3c
000002b0: 029d 183e 5302 7abc 78b1 8dbd b58d b13d
000002c0: 3f56 fb3d bcca 893b 1eda a13c 3e54 a5bd
000002d0: 3083 d53d c60d 00bd 7476 313d 49b7 b63d
000002e0: 9d76 203e 00f4 4d3a 2035 78bd f218 cabd
000002f0: f912 cd3d bb21 323e 9a5e d73c 5d4f 56bd
00000300: 5f33 443d ea1b 05be 9fa4 f83d e1e4 9b3d
00000310: 7ec7 963d 2899 7d3a abae d0bc db3f 7bbd
00000320: 4773 4fbd c59d 143e 3f01 f7bc ccfb ab3d
00000330: fb9d 713d 107c e73c 0933 3bbd 6a1c 9fbd
00000340: 337f 263c 1345 4ebd f71e 853c 572e 363d
00000350: 68cc 443d ef98 033e 3489 d3bd 9787 3fbd
00000360: f2f5 ef3d c010 67bc 67a2 99bd 87d4 44bd
00000370: 0bf4 d8bd bdbe 8cbd 7b9c 6139 807f 923c
00000380: 8250 273c a8ef 18bd 822a 813d bb32 aa3c
00000390: 3ec5 fd3c 62ec 053e 5b15 d83d b794 a63d
000003a0: b695 c23d 453d ba3d 876c 18bd dc57 0d3e
000003b0: 8f8c c03b 2585 babb 5f11 89bc 914f d13b
000003c0: 3ea7 b13b f61c 653d 374c a0bd 24a6 963c
000003d0: 9e3e c2bd f630 4fbb 5bd5 6cbd bfa5 8abc
000003e0: 7932 843d 0eab ac3c 0a23 babd 0745 0f3d
000003f0: b41b 523c f7a6 e53d 4188 663d 6a0b 053e

fc2.bias f4 [84]
-0.09030703 0.10497513 0.07700625 0.06495008 0.05159452 0.025267063 0.053215828 0.069672026
0.100255504 -0.05350935 0.043485984 0.015271039 0.05239604 -0.008663101 0.08577709 0.01757222
0.051183768 0.011123615 0.089817934 0.11562532 0.08681307 0.014779591 0.12338173 0.09168653
0.11631421 0.083473824 -0.075855285 -0.099288754 -0.082921706 -0.048596583 0.020708578 0.010691305
0.12562133 -0.029392859 0.0788258 0.018393569 0.06296651 -0.008221334 0.07413043 0.022019831
0.026735617 0.08531306 -0.087644644 -0.048730887 0.028219616 -0.088686086 0.02154319 0.040006287
-0.09153525 0.054169394 -0.06417313 -0.06300642 0.08728762 0.107333824 -0.023836942 -0.032215863
0.000663772 -0.054159693 -0.07895153 0.0294066 0.04608844 -0.040272515 0.07728805 0.048612818
0.037964355 0.06698435 -0.04767252 0.09294784 -0.04304975 -0.0905842 0.068460315 0.06039807
0.039111163 0.08229206 0.042074688 0.041378822 0.035769545 -0.041702535 -0.10153594 -0.0054122405
-0.00041028057 -0.04399928 0.05739027 -0.05266817
00000000: e4f2 b8bd 33fd d63d 74b5 9d3d 8c04 853d
00000010: c754 533d dffc ce3c d7f8 593d 35b0 8e3d
00000020: c252 cd3d 9f2c 5bbd 5c1e 323d 6133 7a3c
00000030: 3b9d 563d aeef 0dbc e6ab af3d 9ef3 8f3c
00000040: 12a6 513d d33f 363c 77f2 b73d f8cc ec3d
00000050: 0dcb b13d 1926 723c 8faf fc3d 26c6 bb3d
00000060: 2536 ee3d 53f4 aa3d 045a 9bbd e757 cbbd
00000070: dbd2 a9bd 360d 47bd 09a5 a93c 952a 2f3c
00000080: e1a2 003e 4bc9 f0bc 6c6f a13d 1cae 963c
00000090: 96f4 803d c6b2 06bc b2d1 973d ef62 b43c
000000a0: a704 db3c 9db8 ae3d 097f b3bd 0a9a 47bd
000000b0: d32c e73c 0da1 b5bd 587b b03c a2dd 233d
000000c0: d576 bbbd bae0 5d3d 346d 83bd 8309 81bd
000000d0: dac3 b23d d6d1 db3d b145 c3bc c8f4 03bd
000000e0: fc00 2e3a 8ed6 5dbd 57b1 a1bd 1ce6 f03c
000000f0: 3bc7 3c3d cbf4 24bd 3249 9e3d 3c1e 473d
00000100: 8380 1b3d 172f 893d 4344 43bd 705b be3d
00000110: ef54 30bd 3684 b9bd ec34 8c3d f763 773d
00000120: 0733 203d bd88 a83d 8256 2c3d d77c 293d
00000130: 1683 123d 47d0 2abd 13f2 cfbd 2a59 b1bb
00000140: ed1a d7b9 9738 34bd 0f12 6b3d 94ba 57bd

fc3.weight f4 [1, 84]
-0.02123221 0.11957873 -0.07855712 -0.1427292 0.0975426 -0.16998617 0.16609475 -0.12939498
0.1280573 -0.006943342 -0.08836488 0.13775219 -0.12835443 -0.13665548 -0.15357819 -0.061977796
0.17245185 -0.09724639 0.11880583 0.08991006 -0.10353184 -0.1940411 0.18241484 -0.1546852
0.116251715 0.08116788 -0.074802555 0.080241814 0.0353932 -0.16495267 0.25531387 0.0062602074
0.15999542 -0.12680107 0.11802905 0.008792482 0.14185618 -0.090316415 0.15303992 -0.097939506
-0.088430464 0.17617077 -0.05246276 0.101027116 -0.11317287 0.04886397 0.10909098 -0.13868506
0.065364175 -0.089461155 -0.05551686 -0.042647682 0.09030671 0.07982409 0.037101407 0.047220115
-0.12157942 0.06235091 -0.105637945 0.24935536 0.25476798 -0.030295566 -0.11878601 -0.052450564
0.11455288 -0.11282683 0.039161094 0.09732184 -0.11374361 0.022894628 0.09609901 0.1492068
0.090468645 0.097916305 -0.11719596 -0.15645082 0.15109903 0.11842221 0.017823339 -0.11812614
-0.076925166 -0.058328345 -0.15860753 -0.007494199
00000000: 2cef adbc b1e5 f43d 8ee2 a0bd 9a27 12be
00000010: 6ac4 c73d db10 2ebe be14 2a3e 1e80 04be
00000020: 7421 033e f984 e3bb a5f8 b4bd e90e 0d3e
00000030: 586f 03be 6aef 0bbe 9a43 1dbe 6edc 7dbd
00000040: 3897 303e 1e29 c7bd 7950 f33d c422 b83d
00000050: 8008 d4bd b6b2 46be f5ca 3a3e cc65 1ebe
00000060: 6115 ee3d 583b a63d 1532 99bd d255 a43d
00000070: 76f8 103d 5ae9 28be 80b8 823e 6d22 cd3b
00000080: d7d5 233e 24d8 01be 37b9 f13d 580e 103c
00000090: bf42 113e d0f7 b8bd 7fb6 1c3e 8294 c8bd
000000a0: 081b b5bd 1c66 343e 31e3 56bd 4ee7 ce3d
000000b0: 2dc7 e7bd 9625 483d 176b df3d 7503 0ebe
000000c0: a7dd 853d 6937 b7bd a665 63bd 56af 2ebd
000000d0: b9f2 b83d d07a a33d a5f7 173d e169 413d
000000e0: a2fe f8bd ab63 7f3d b558 d8bd 0357 7f3e
000000f0: f370 823e 682e f8bc 1446 f3bd 67d6 56bd
00000100: b39a ea3d c111 e7bd 6267 203d ac50 c73d
00000110: 69f2 e8bd 848d bb3c 8fcf c43d abc9 183e
00000120: a047 b93d 5888 c83d 6f04 f0bd a534 20be
00000130: b4b9 1a3e 5887 f23d 4002 923c 1eec f1bd
00000140: f18a 9dbd b4e9 6ebd 036a 22be e691 f5bb
