output_visualizations/base_tsk[x]_agm[geo_ac]_spl[S1]_mdl[lenet]_ls[BCE]_tu[none]/model.pt (torch, 246727 bytes, 9 tensors)

conv1.weight f4 [6, 1, 5, 5]
000000 ff 73 0d 3e 51 54 2c 3e b2 3e 53 bd 42 d0 2b 3e
       0.1381378 0.16829039 -0.051573463 0.16778663
000010 b3 e2 51 bd 39 d8 dd bc 37 f3 16 be f4 61 a8 3d
       -0.051241588 -0.027080642 -0.14741217 0.08221808
000020 e2 20 e5 3d aa 07 60 be a0 cf 14 3e 65 6d 08 3d
       0.111879125 -0.21877924 0.14532328 0.03330745
000030 2b fe 11 3e 10 ad a9 bc 37 a5 99 3d fd 6d 44 bd
       0.14257114 -0.020712405 0.07502215 -0.047956455
000040 18 78 31 3e 77 8a e1 3c 40 16 17 be 10 8c ea 3c
       0.17330968 0.027531845 -0.14754581 0.02863124
000050 b5 e6 0e be 45 29 28 bd 60 49 db bd 53 36 90 3d
       -0.13955195 -0.041054983 -0.107073545 0.070416115
000060 28 6b 5d be b1 af 11 be 32 20 cb bd 2e 3f 10 be
       -0.21622908 -0.14227177 -0.0991825 -0.14086601
000070 a9 16 84 bd 92 d4 c1 be 43 af 30 3e 10 c5 3b be
       -0.064496346 -0.3785749 0.17254357 -0.18336892
000080 6c 81 2f 3e d4 51 43 bc b9 5e 31 be ae b4 20 3e
       0.17139214 -0.011921365 -0.1732129 0.15693924
000090 0b 6f 92 3d f6 a4 64 3e b6 0c 39 3d 4f b2 a9 bd
       0.07150086 0.22328553 0.045178138 -0.08285963
0000a0 61 2a b9 3d ae 0b 0a bc f9 29 21 3e 04 b9 74 3e
       0.09041286 -0.008425636 0.15738668 0.23898703
0000b0 c0 f8 08 3e 8f 99 ef bd 09 33 e2 3d 2a 46 94 3d
       0.1337614 -0.11699211 0.110448904 0.07239945
0000c0 8f 80 db 3d 59 61 3c be 0f fb 99 be 7f 56 19 be
       0.1071788 -0.1839651 -0.30074355 -0.14974402
0000d0 c6 36 00 be ef 9f 7c 3e eb 8c 36 3e 77 7c 94 bc
       -0.12520894 0.24670385 0.17827193 -0.018125756
0000e0 0c 0b 1e bc cf 66 a5 bc ac 6b 2e 3e 1d 67 ce bd
       -0.0096461885 -0.020190625 0.17033261 -0.10078261
0000f0 5a 07 ee 3b 49 8d 00 be 40 51 9e 3d ec d3 5a bd
       0.00726406 -0.12553896 0.07730341 -0.05342476
000100 32 59 5b 3d d9 95 c6 3c 6b be 5f 3e 24 40 8c bd
       0.05355186 0.024241375 0.21849982 -0.06848171
000110 8c b9 f6 bd 42 cb 20 be c3 43 62 3e 37 71 e2 3d
       -0.12047109 -0.15702537 0.22096162 0.1105675
000120 cf 91 3f 3e cc 2b 67 be ee e0 94 be d1 92 8f be
       0.18707965 -0.22575301 -0.29077858 -0.280417
000130 65 16 77 be da 7a 66 3d 66 c3 0f 3e a9 6b 81 3e
       -0.24129637 0.056269504 0.14039382 0.2527745
000140 6c 1b 35 be 5f b7 4c be 61 cb e1 3d 0e 94 24 3c
       -0.17686242 -0.19991826 0.110251196 0.010045065
000150 89 92 59 3e a8 b9 42 bd 85 57 d0 3d b7 a0 ef bd
       0.21247305 -0.047540337 0.10172943 -0.11700576
000160 62 34 25 bd 94 89 c4 3d 1e 8b 9c 3d 29 13 c3 bc
       -0.04033316 0.095965534 0.07643722 -0.023812847
000170 76 a1 00 3e ab b1 eb 3d d8 78 41 be ac 68 34 3d
       0.12561592 0.11508497 -0.18893754 0.044045135
000180 15 b9 8a 3e 31 20 e5 bc ab af b7 bd 6b d8 89 be
       0.2709433 -0.027969452 -0.08969053 -0.26922926
000190 a1 ae 15 be 2a 09 c5 3c a3 1a 36 bd 73 1e 0e be
       -0.14617397 0.024052221 -0.044458997 -0.13878803
0001a0 95 71 44 3b d8 49 30 be 2a 3b 40 be 95 b3 c4 bd
       0.0029974927 -0.17215669 -0.1877257 -0.09604565
0001b0 5b 11 01 be c9 fd be bd 9b 40 1b 3e e9 fa 94 3c
       -0.12604277 -0.093257494 0.15161364 0.01818605
0001c0 f0 c4 a8 3d 8e e2 03 be 5d 0a b0 bd fd a6 eb bd
       0.08240688 -0.12879393 -0.08595727 -0.1150646
0001d0 c6 44 40 3c 30 12 1e be 2e 0e b0 bc 77 42 85 bd
       0.011735147 -0.15436625 -0.021491136 -0.06506818
0001e0 dc 8e 9d bc 8d ad a2 bd 50 f1 6e 3c cb 37 92 bd
       -0.01923316 -0.079432584 0.014583901 -0.07139548
0001f0 a7 4b b0 bd a8 88 af bd f5 00 9d bd 09 3c ce bd
       -0.086081795 -0.08570987 -0.07666198 -0.100700445
000200 f1 42 89 3e c5 ab ab bc 15 fc 98 3e 72 9c 2f 3e
       0.26808885 -0.02095593 0.29879823 0.17149523
000210 41 cf 52 bd 16 d3 8c 3e 7b 64 10 3d ef 40 ee bd
       -0.051467184 0.27504796 0.035252076 -0.11633479
000220 7a b0 7a be d1 ed 70 be 3b cd 95 3d 9a 19 8d bd
       -0.24481383 -0.2352822 0.07314535 -0.06889649
000230 be 9f 21 3d c4 a3 88 be 24 fb e5 3d 9a 51 04 be
       0.039458983 -0.26687443 0.11229542 -0.12921754
000240 5e bc 5c bd f3 81 92 3d 98 ff 78 3d 9c 9b 26 3e
       -0.05389058 0.07153692 0.06079063 0.16270298
000250 38 96 92 3e 1d b2 f2 bd
       0.28630233 -0.11850379

conv1.bias f4 [6]
000000 b1 6b 6c bc 31 93 b3 bd 4d d8 61 bc e7 c3 61 bc
       -0.0144299725 -0.08768309 -0.01378448 -0.013779617
000010 22 01 0d 3e e5 fa fe bd
       0.13769963 -0.12450198

conv2.weight f4 [16, 6, 5, 5]
000000 f5 26 cf 3c cc d3 a9 bc 74 4f bb bc 49 be a1 bd
       0.02528713 -0.020730875 -0.022865035 -0.07897622
000010 55 ee 64 3d b5 3f 92 3c 68 dd 22 bc 84 2a c9 bd
       0.055891354 0.017852644 -0.009940483 -0.09822562
000020 4b fb 02 3c f4 48 0d bd ce 36 df bc 30 71 8f 3d
       0.007994483 -0.0344934 -0.027247813 0.07004011
000030 15 ee 63 3c e8 50 7d bd 0b df 88 bd 8c 29 e7 3b
       0.013911744 -0.061844736 -0.06683167 0.0070545133
000040 db 6e 57 3d 96 4a b9 bc 7e e4 8c bd ab 04 73 bd
       0.052595954 -0.022618573 -0.06879519 -0.059330624
000050 0d fe 4b bd 02 99 34 3d 2b 26 8a 3d 9c af d6 bd
       -0.04980283 0.044091232 0.06745561 -0.104827136
000060 e6 cb 01 bc f3 cb 19 3d 77 7e 00 be 61 ac 21 be
       -0.007922148 0.037548017 -0.12548243 -0.15788414
000070 92 57 98 bd 86 15 03 bd 4d c9 93 3d 3d e2 ae bd
       -0.07438578 -0.03200295 0.072161295 -0.08539245
000080 b7 a6 bd bd 47 35 9c bd b5 a6 c6 bd 96 b3 06 3d
       -0.09260314 -0.07627349 -0.096997656 0.03288611
000090 49 a3 07 3d 02 1e e1 3c 8c 8f 95 bd e6 65 87 bd
       0.033114705 0.02748013 -0.0730277 -0.066112325
0000a0 36 bb 0f 3d 53 8c 82 3b d5 cd c7 3c 9d 1e 1e bd
       0.035090648 0.003984013 0.02439014 -0.038603414
0000b0 29 b1 0b be fb ba 8b bd f1 35 4b 3d aa 4d 15 3d
       -0.136418 -0.06822773 0.04961199 0.03645102
0000c0 69 62 eb bc ec cd d5 bd 55 5c b0 3d c7 55 9b 3d
       -0.028733449 -0.10439667 0.08611361 0.0758472
0000d0 4a 0b b9 3d da 22 02 3e 5c e7 c9 3d d7 d9 35 3e
       0.09035356 0.12708607 0.098585814 0.1775888
0000e0 37 90 91 3d 4e 45 99 3d a5 a6 af 3d 0f 49 1d 3e
       0.07107585 0.07483922 0.08576707 0.15359901
0000f0 ee fb 15 3e 0a ac 1f 3e 1a 93 30 3e 6e c4 9c 3d
       0.14646885 0.15592971 0.17243615 0.076546535
000100 d5 4e f6 bb b7 d9 38 3e 5b 2e 1e 3e e0 49 36 3e
       -0.0075167217 0.18051802 0.1544737 0.17801619
000110 07 33 c0 3d da 4e c0 3d f2 8b 32 3e fc df 26 3e
       0.09384733 0.0939004 0.17436197 0.16296381
000120 2f 22 08 3e 79 59 e0 3d bf f5 73 3d 60 55 6d 3d
       0.1329429 0.109545656 0.059560534 0.057942748
000130 ff d5 3a 3d a5 4b 10 3e 9a de f4 3d a8 1e 68 3d
       0.04561424 0.14091356 0.119565204 0.05666986
000140 f0 15 7a 3c 92 ba 0b bc 5a d7 c5 3c d7 2e ab 3b
       0.015264019 -0.008528369 0.02415054 0.0052240896
000150 44 d4 99 3d 73 e9 23 3c 3e 81 98 3d 0c 6a d0 3c
       0.075111896 0.010004389 0.07446526 0.025441192
000160 5e 55 a6 3c 09 7d c6 bd d3 cf 89 3c 2d 85 d2 3d
       0.020304378 -0.09691817 0.016822731 0.102793075
000170 07 2a 72 3d fa 53 da 3d 9d 94 5e bd 31 40 ea 3c
       0.05912211 0.106605485 -0.054340947 0.028595062
000180 21 82 46 3d b3 73 1b 3d 80 fe c5 3c 26 0e 0a 3d
       0.048463944 0.037952136 0.024169207 0.0337049
000190 22 96 30 3d 7f 89 26 bd b8 6c 71 3d 3c eb 31 3d
       0.043111928 -0.04065847 0.058941573 0.043437228
0001a0 58 f0 56 3d 39 a2 a3 bd 10 9a 6d 3d 97 0a ff bc
       0.052475303 -0.07989926 0.058008254 -0.03113298
0001b0 4d b2 4f 3d 0a 7f bd 3d 74 8d 35 bd 1c f0 a2 bc
       0.05070715 0.092527464 -0.044324353 -0.019889884
0001c0 7e 9b 4e bc 2b f0 4d bd fb 5d 4a 3d aa 14 f7 bd
       -0.012610314 -0.05027787 0.049406033 -0.12064488
0001d0 bc 1d fe 3c 50 a8 89 3d a5 1d cc 3d 5e fa 9c bc
       0.031020038 0.06721556 0.09966592 -0.019162353
0001e0 90 23 c7 bd a1 69 12 3c be 8e 5f 3d c6 96 72 bd
       -0.0972358 0.008936317 0.05457949 -0.05922582
0001f0 59 13 96 bc f7 d7 13 be 8d 95 2f be e1 c3 5d be
       -0.018319773 -0.14437853 -0.17146893 -0.21656753
000200 19 76 19 be 7b cf da bd 62 02 7f be a0 1b 19 be
       -0.14986457 -0.10684105 -0.24903253 -0.14951944
000210 ce 92 1b be 7f 99 34 be 4b e2 09 be f3 8f 19 be
       -0.1519272 -0.17636679 -0.1346523 -0.14996319
000220 88 94 6c be 4b 4a 75 be 62 56 cd bd 7f 24 d2 bd
       -0.23103535 -0.23954122 -0.10026242 -0.10260867
000230 a6 c3 ef bd f7 d7 e2 bd dc ad 1d be b1 78 1c be
       -0.11707239 -0.11076348 -0.15398353 -0.15280415
000240 30 06 cf bc 48 b9 54 bd af 21 bc bd 34 e4 dc bd
       -0.025271505 -0.05193451 -0.09186112 -0.10785714
000250 f8 79 16 be 19 67 a1 3d 17 21 90 bd 93 92 82 bc
       -0.14694965 0.078809924 -0.070375614 -0.015939033
000260 59 77 43 bd fd a3 4d 3c cc d0 d1 3d 9f 9b 10 bc
       -0.04772124 0.012551305 0.10244903 -0.008826165
000270 ce 23 ef bd 0a 33 2a 3c 98 63 8f 3d e6 6e 01 3d
       -0.11676751 0.010388145 0.07001418 0.0315999
000280 99 9f 11 3d 29 f6 91 3d 2e 10 4b bc 0b be dd 3b
       0.035552595 0.071270294 -0.012393994 0.0067670397
000290 72 be 7c bd d5 3f ac bc c9 20 81 3d 4a e9 3d 3d
       -0.06170506 -0.021026531 0.063050814 0.04636506
0002a0 61 a2 92 bd e5 e8 b8 bd 7d df 73 bd 59 19 95 bd
       -0.071598776 -0.09028796 -0.059539307 -0.07280225
0002b0 92 27 83 bd c3 80 36 bd 0a a7 e5 3c bd 09 03 be
       -0.06404032 -0.04455639 0.028033752 -0.12796684
0002c0 72 5c 5a be d0 7c 3e be c4 34 dd bc 8d 1c c1 bd
       -0.21324328 -0.186023 -0.0270027 -0.09429274
0002d0 ef 50 94 bd 3c e2 3f bd e7 a5 24 be 48 5d 00 be
       -0.07241999 -0.046846613 -0.16078912 -0.12535584
0002e0 8f 0a c5 bd 76 63 c3 bc ab 23 92 bd ee 3d 26 be
       -0.096211545 -0.023851138 -0.071357094 -0.16234562
0002f0 51 52 23 be 6c ab e7 bd 5d 4c 6e 3d 6c bb fe bc
       -0.1594937 -0.11311993 0.058178294 -0.03109523
000300 2a 57 de bd 19 8e 57 bd 2e 89 dd bc 31 bb 90 3c
       -0.10856469 -0.05262575 -0.027042951 0.017667385
000310 a5 41 9f 3d 2a 68 76 3b 31 fe 19 be fd da 54 bd
       0.077761926 0.0037598708 -0.15038373 -0.051966656
000320 5a a2 2e 3e 41 ac 12 3e 04 7d 32 3d 28 bf 22 3e
       0.1705412 0.14323522 0.043576255 0.15893233
000330 cf fe a2 3d 7f 03 e1 3d 51 3b 00 3e 14 89 0d 3e
       0.07958757 0.10986995 0.12522627 0.13821822
000340 2a f7 29 3e c7 43 07 3e 23 81 1d 3e 9e 86 d0 3d
       0.16598192 0.13209449 0.15381293 0.10181926
000350 67 63 9f 3d 02 be da 3d 98 25 bc 3d 87 1d 2e 3e
       0.07782631 0.10680772 0.09186858 0.17003451
000360 f4 7a 8a 3d 25 a4 02 3e b4 ee 94 3d f6 f7 97 3c
       0.06761733 0.12757929 0.072720915 0.018550854
000370 2f c8 8c 3d 54 a7 1b 3e 66 14 32 3e bc 70 aa bc
       0.068741195 0.1520055 0.17390594 -0.020805709
000380 a7 76 82 3d ed da 0b bc ae 2f f7 3d 9b 07 2e 3e
       0.063702874 -0.008536083 0.12069641 0.16995089
000390 7c d9 07 3e 9a 95 24 3e 63 cd 41 3a d1 d7 ed 3d
       0.13266557 0.16072693 0.0007392971 0.11613429
0003a0 42 94 46 3e 44 18 33 3e 2e d7 84 3d 6a 64 5e 3d
       0.19392493 0.17489725 0.06486355 0.05429498
0003b0 ac 73 2b 3e a6 67 27 3e 71 33 27 3e 7a 25 34 bd
       0.16743344 0.16348132 0.16328217 -0.043981053
0003c0 21 06 34 bc 9c 6a 16 3d 71 d3 69 3d d1 75 5f bb
       -0.010987789 0.036722764 0.057086412 -0.0034097324
0003d0 ca 56 82 bd e4 b2 9a 3d 74 f6 ac 3c e1 ea 36 bc
       -0.0636421 0.07553652 0.021113612 -0.011164398
0003e0 13 3e 78 bd 33 4c c2 bd 5e e9 66 bd d4 32 e0 bc
       -0.060606074 -0.0948719 -0.0563749 -0.027367987
0003f0 d7 ff a4 bd fb 9c e9 bc cf 0c 88 bd a0 49 ae bc
       -0.0805661 -0.028517237 -0.06643068 -0.021275342

conv2.bias f4 [16]
000000 63 c8 00 bd 82 d2 25 ba d0 c7 bc 3b dd 47 26 3c
       -0.031441104 -0.00063256186 0.005761124 0.0101489695
000010 c2 76 16 3d 4a 6d bc 3c 2a a1 96 3d ca 32 7c bc
       0.03673435 0.023001332 0.07354958 -0.015392968
000020 9b 98 0e bd a9 b9 4f bd b6 e6 21 bc d9 1e a7 3c
       -0.034813505 -0.05071417 -0.009881666 0.020400451
000030 be 99 0c 3d e6 70 34 bd e3 ee 60 3d b5 b6 d8 3d
       0.034326307 -0.04405298 0.05491532 0.105817236

fc1.weight f4 [120, 400]
000000 e6 f2 ca 3c 5a da 66 3d 43 08 0c 3d b5 45 01 bd
       0.024774026 0.05636058 0.034187566 -0.03156062
000010 0a 3e 6e 3b d5 24 04 3c 80 1f ac bc ba 9b eb 3c
       0.0036352896 0.008065422 -0.021011114 0.02876078
000020 c2 43 67 3d a7 32 8f 3c bc 84 e1 3d dc 83 06 bc
       0.056461103 0.017480208 0.11011645 -0.008210149
000030 ca e2 6f 3c df 69 c5 3c 46 de ac 3c 7c 91 92 3d
       0.014641473 0.024098335 0.021102082 0.07156655
000040 0e 67 b5 3d 52 db 51 3d f6 0c 96 3c 55 99 15 3d
       0.08857547 0.05123455 0.018316727 0.036523182
000050 d5 40 ac 3d 28 cf 51 3c 42 db a0 3d 96 c9 b2 3d
       0.08410803 0.012805738 0.0785432 0.08729856
000060 1e 1d ca 3d ed a8 92 3d 79 d8 da 3d d8 6a 1e 3d
       0.09868835 0.07161126 0.1068582 0.038676113
000070 42 cb d8 3c cf c3 d4 3c 26 aa 73 3d e9 a6 80 3d
       0.026464108 0.025972275 0.059488438 0.062818356
000080 07 a9 00 bd 88 a8 05 3d e5 28 db 3c e6 e8 7b 3d
       -0.031411197 0.032631427 0.026752898 0.061501406
000090 09 48 2b 3d 40 62 27 3c 36 c7 3f 3d 02 62 34 3d
       0.041816745 0.010216296 0.04682084 0.04403878
0000a0 00 9f b5 3d 23 6e 1e 3d ce 09 2f 3d 31 00 02 3d
       0.088682175 0.038679253 0.04273396 0.031738464
0000b0 ea 17 ea 3d 16 5e ed 3c 1c e8 08 bc d9 a8 97 bd
       0.114303425 0.028975528 -0.00835612 -0.07405252
0000c0 05 c0 a2 3c 99 53 c9 3c 88 1e ab bc e9 a6 26 3d
       0.019866953 0.024575995 -0.020888582 0.04068652
0000d0 60 95 a1 bc 6f fa 09 3d ee b9 1f bd bb 53 12 3d
       -0.019724548 0.033686098 -0.038995676 0.035724383
0000e0 2c 1b 3c 3d ad 5e 02 bd 6f 92 23 3d e7 63 6b 3c
       0.04592435 -0.03182857 0.03993457 0.01436708
0000f0 3c c1 44 3d 49 01 b7 3d 8e a5 40 3d 2d 00 e0 3c
       0.048035845 0.08935792 0.047032885 0.027343834
000100 e1 c5 e4 3d fd 35 27 3c ba 33 4f 3c eb c2 10 3d
       0.11170555 0.010205743 0.01264661 0.03534214
000110 3d e8 d7 bc cb cf 29 3d c1 d8 8f 3c 6b 00 28 3c
       -0.026355857 0.041457932 0.017559411 0.010254006
000120 c2 a7 de bc fd 42 a6 3c ba df ed bb b0 2b 35 bd
       -0.027179603 0.020295614 -0.0072593363 -0.044231117
000130 c4 6d bd bc 77 88 97 bd fe 3c 5d bd 71 73 bb bc
       -0.02312363 -0.073990755 -0.054013245 -0.022882195
000140 69 03 cf 3c 49 33 b8 bc a3 9c 0e bd 9e c4 42 bd
       0.02527018 -0.022485392 -0.03481735 -0.04755079
000150 2f a3 6c 3c ff cf 02 bd fc c2 92 bc e6 2d 24 bd
       0.014443203 -0.03193664 -0.017915241 -0.040082835
000160 c1 2a 86 bd 65 82 42 bd 85 f8 c7 3c dc 28 63 3d
       -0.065511234 -0.047487635 0.024410496 0.05545889
000170 ab 2f 48 3d c4 39 a2 bb 24 77 e1 bb a1 47 35 3d
       0.048873585 -0.004950734 -0.0068806577 0.044257764
000180 e4 8e 2c 3d eb 15 e7 bb 46 f0 5e 3c 60 fb 0e 3d
       0.04212846 -0.0070521734 0.01360709 0.0349077
000190 c5 b4 43 be 57 eb 2f be ae 74 e2 bd c5 d6 20 bd
       -0.19111927 -0.17179619 -0.11057411 -0.03926732
0001a0 05 4e 4c bd 20 fd ef bd eb c4 e0 bc 71 82 fa bc
       -0.049879093 -0.11718202 -0.027437648 -0.030579777
0001b0 e6 0b 8b 3d ae eb a5 bd c2 81 97 bd 09 1b 5c 3c
       0.06789379 -0.08101593 -0.07397796 0.01343418
0001c0 88 85 7b 3c 8b 10 a9 3d 9e 39 ae bd 53 b4 73 bd
       0.015351661 0.082551084 -0.08507083 -0.059498142
0001d0 57 e6 b2 bc d4 ca 89 3c 4c f3 86 3d 98 c3 46 3c
       -0.02183835 0.016820349 0.06589374 0.012131594
0001e0 86 90 0e 3d 45 c8 ef 3c ef 38 ee 3c 06 57 1a bc
       0.034805797 0.0292703 0.029079882 -0.009420162
0001f0 50 e6 98 bc b0 04 e6 3c fe 80 c9 3c af da 1a 3d
       -0.018664509 0.028078407 0.024597641 0.03780621
000200 56 cd b0 3d 28 a9 52 3d b2 2f 5d 3d de d3 91 3d
       0.08632915 0.05143085 0.054000564 0.071204886
000210 b5 77 5c 3d 66 be f9 3c 9e 48 e8 3d 62 5e b3 3d
       0.0538251 0.030486297 0.11341976 0.087582365
000220 c8 cf d3 3d ce 09 ff 3b 34 a2 9e 3d ac 54 8a 3d
       0.103423655 0.007783151 0.077457815 0.06754431
000230 30 cb b1 3d a0 6c aa 3d 87 c1 bc 3d 76 24 74 3d
       0.08681333 0.083215 0.092166 0.059605084
000240 de dd b1 3d 65 24 c4 3d d8 a8 14 3d 28 9d 7d 3d
       0.08684896 0.09577254 0.036293834 0.061917454
000250 ef 15 85 3d 71 8c b6 3d 2a ca 53 3c 7d 29 81 bd
       0.06498324 0.08913506 0.012926618 -0.063067414
000260 06 5a c6 3b fd 1b 33 bc 6d 33 2c 3c d5 a9 bb bd
       0.006053212 -0.010931966 0.010510308 -0.09163252
000270 38 3e a5 bc 9d 98 cc bc e5 68 43 3c a1 da b2 bc
       -0.02017127 -0.024975115 0.011926864 -0.021832766
000280 74 ac 25 bd 1d 9e b5 3c 44 c4 e1 3c 42 dd 40 bc
       -0.040447667 0.02217012 0.027559407 -0.011771502
000290 17 6d 27 3d 5d b4 db 3c 9f d9 aa 3c ea fc d1 bb
       0.04087552 0.026819402 0.020855723 -0.0064083235
0002a0 b7 10 e9 3c 57 f6 18 bd e3 d3 c0 bc 83 7c 7b 3c
       0.028450353 -0.037344303 -0.023538535 0.01534951
0002b0 5f 66 bc ba 58 19 bd 3b 89 e4 9c bd 47 c9 5d 3d
       -0.0014373771 0.0057708435 -0.07660777 0.05414703
0002c0 7f 89 86 bb 10 c7 95 3d ea ca 21 3d 2a 97 8a 3c
       -0.0041057463 0.07313359 0.039500155 0.016917784
0002d0 30 4a 9b 3d a5 f0 52 3d eb 9c 54 3d 08 bd 0f bc
       0.075825095 0.051499028 0.05190746 -0.008773096
0002e0 6c e9 9a 3d 18 20 29 3d 00 ae 99 3d 1a 00 e2 3c
       0.07564053 0.041290373 0.07503891 0.027587939
0002f0 29 f9 8e 3d c1 5b c7 3d dd 41 35 bc 7b 15 84 3d
       0.06981117 0.097342975 -0.011063066 0.064494096
000300 5c 53 ad bb 58 82 94 bb f1 a4 3c 3c c6 2d 90 3c
       -0.005289478 -0.0045321397 0.0115139345 0.017599951
000310 7f 61 80 bc d1 90 41 3c ef 4a b8 3b c9 0b 7f 3d
       -0.01567149 0.011814312 0.005624167 0.0622671
000320 cf 9a 33 bd c7 d5 f8 bc 71 53 3c 3b db a4 07 bd
       -0.04384881 -0.030375374 0.0028736258 -0.033116203
000330 1e 16 81 bc c0 b2 93 3d a5 06 c8 3c 72 66 fd 3c
       -0.015757617 0.07211828 0.02441723 0.030932639
000340 2c 45 64 3c 4b 4b 52 3d f1 d3 de 3d cf 75 bd 3d
       0.0139325075 0.051341336 0.10880268 0.09250986
000350 7a f8 c1 3d 33 b0 e2 3d 53 a6 8b 3d b4 c4 b1 3d
       0.09471221 0.110687636 0.06818833 0.08680096
000360 c9 f6 2a 3d 93 55 15 3d ec 2a ba 3c c1 f0 14 3d
       0.04173926 0.036458563 0.022725545 0.036362413
000370 b0 0f 97 3b 81 80 c8 3b 26 87 89 3d 40 71 4b 3d
       0.0046100244 0.0061188345 0.06715231 0.04966855
000380 aa 3b d1 3d 82 0e 80 3d e3 cc 8f 3d 0b cc 2e 3d
       0.10216458 0.06252767 0.07021501 0.04267506
000390 32 ff 15 3d e8 3c 3c 3d 55 0b 8e 3d c0 1c 0d bc
       0.036620326 0.045956522 0.06935755 -0.008612812
0003a0 c8 6b f0 3c 0c 07 9f bc 3e e2 fe 3c 4b a5 d2 3b
       0.02934827 -0.01941254 0.03111374 0.006428396
0003b0 48 55 a9 3d 60 57 54 3d 0e ed 48 3d 9a ca 90 3c
       0.08268219 0.05184114 0.049054198 0.017674733
0003c0 09 39 c9 bc 6b 13 dd 3c be 07 84 bb 27 e0 f9 3b
       -0.02456333 0.026986798 -0.0040292433 0.007625598
0003d0 9e 2a 8a 3d ca 85 f0 bb 1d 80 ce 3b 43 72 90 3d
       0.0674641 -0.0073401676 0.0063018934 0.07053044
0003e0 a0 b1 84 3d 38 fe 3e 3c 8a 26 93 3d 99 0e 85 3d
       0.06479192 0.01165729 0.07185085 0.06496925
0003f0 48 d9 c6 3b 95 31 62 3d 22 94 21 3d c6 86 95 3d
       0.0060683824 0.055223066 0.03944791 0.073010966

fc1.bias f4 [120]
000000 4a 12 03 bc 6d 7f f3 3c 7c 5d c7 bc 30 7f 85 3d
       -0.007999966 0.029723847 -0.024336569 0.065184
000010 d4 31 b2 3c 2c 2f c9 3c ea 0f 8c bb 9d ba 2a bb
       0.021752276 0.024558626 -0.004274358 -0.0026051172
000020 53 14 76 ba 88 43 01 bc b6 9a 15 3d ce 6d 15 bc
       -0.0009387184 -0.007889636 0.036524497 -0.009120418
000030 1f 9f 50 3c 2e 58 87 3d eb 4d 4b bc 39 5c 69 3d
       0.01273325 0.06608616 -0.012408714 0.056972716
000040 f9 38 89 3c aa 83 8b bb ef d1 8b 3d 9d 37 b8 bc
       0.0167508 -0.004257639 0.06827151 -0.022487456
000050 f0 14 3c bd db c7 62 3b 07 9f 99 bc f8 b0 45 bd
       -0.045918405 0.0034603986 -0.018752588 -0.048264474
000060 67 01 f3 3c d7 3b 3c 3d 39 da 8a bc fb 47 8f 3c
       0.029663755 0.045955505 -0.01694976 0.017490378
000070 dd 00 ac 3c 31 e5 79 3d 38 ad 7b 3d 32 e3 9c 3c
       0.020996505 0.06100959 0.06144449 0.019151304
000080 c0 ad 36 bc 46 f1 ac bd 05 47 10 bc 5c 1f 1b 3d
       -0.011149824 -0.08444457 -0.008805995 0.037871704
000090 6e f3 2d 3d 4e 0a 92 3d b0 13 4b 3c e2 5b 0d 3d
       0.04246848 0.07130872 0.012394831 0.034511454
0000a0 2e b1 96 3b 3f 98 42 3d f7 f3 16 3c 07 0e b3 3c
       0.004598758 0.047508474 0.009213439 0.021857275
0000b0 37 4e d0 3c 03 c0 14 bd be db b3 3c 1b 7a 09 bd
       0.02542792 -0.03631593 0.021955367 -0.033563714
0000c0 62 1b 1e 3c 90 95 36 3c c4 6d 39 3d 7f 9a 8f 3d
       0.009650083 0.011144057 0.045270696 0.0701189
0000d0 ba 2c 55 3d bd df 92 3d e0 9b 12 3b 5d 30 83 3d
       0.052044608 0.07171581 0.002237074 0.06405709
0000e0 7f 69 f1 ba bf 47 0f 3d f6 4e e6 3c d5 eb 9d 3c
       -0.0018418281 0.03498053 0.028113823 0.019277493
0000f0 ae 29 78 bc 99 34 4f bc a8 5f 87 bc 56 9b 3b 3c
       -0.015146656 -0.012646818 -0.016525105 0.011450609
000100 4b b1 aa bc c9 03 57 bd 1d 4c 6e 3c 59 24 00 3c
       -0.020836493 -0.052493844 0.014544514 0.007821166
000110 0e ba 02 3d a5 cc 80 3d d4 f6 e6 bc b4 a1 4f 3d
       0.031915717 0.06289033 -0.028193869 0.05069132
000120 f4 72 31 3d f9 4b 17 bc 5c 7a f6 3b fb 71 dd 3c
       0.04332252 -0.009234422 0.0075219106 0.02703189
000130 98 49 76 3c 2c f5 0a bd 5c 28 87 3d 42 66 10 bb
       0.015032195 -0.03392522 0.06599495 -0.0022033607
000140 fc 55 58 bc 11 fb 66 bc af 33 bc 3c 6b 92 76 3d
       -0.013204094 -0.014097945 0.022973863 0.06019823
000150 88 1c d9 3c a4 ec 16 bd 6e ee a3 bc af ef 6a 3c
       0.026502863 -0.03684677 -0.020011153 0.014339372
000160 7b 39 16 3d 1f fa 75 bb 3c de 8e 3d e6 c1 1c bc
       0.03667591 -0.0037533117 0.069759816 -0.009567713
000170 d2 69 6d bd 5f cc 7d 3c 03 d8 07 3c 3f fa 8a 3c
       -0.057962246 0.01549062 0.008291247 0.01696503
000180 d6 ad a1 3c 62 b3 07 3d 7d 42 4a 3c 5d ab 45 3c
       0.019736212 0.033130057 0.012344954 0.012064782
000190 1e a6 32 3d 15 48 cd bb 8a 36 c1 bc fa ac ff 3b
       0.043615453 -0.0062646964 -0.023585577 0.007802603
0001a0 a9 02 2f 3d 65 06 7f 3c 6d e9 c7 b9 46 97 8e bc
       0.042727146 0.015565489 -0.00038130154 -0.017406117
0001b0 5b e3 8a bd 6e 45 84 3d fe 9f 3a 3d 9b 88 af 3c
       -0.06781646 0.06458555 0.045562737 0.021427443
0001c0 33 43 ce bc 45 11 b0 bc f5 6b a9 3c 88 4c 28 3d
       -0.025178527 -0.02149261 0.02068136 0.04108861
0001d0 8c 14 5d 3c 41 49 8a 3d a5 c4 a1 bc c9 e6 32 bd
       0.013493668 0.06752253 -0.019747088 -0.043677125

fc2.weight f4 [84, 120]
000000 77 27 75 3d fa 7f c9 bd e9 82 b2 bc b0 f8 eb 3d
       0.05985209 -0.09838863 -0.021790938 0.11522043
000010 27 5d ef 3d ea 52 c4 bd 86 da 8c bd 01 d7 08 3c
       0.11687689 -0.09586127 -0.068776175 0.008352042
000020 70 a8 64 3d ad 92 82 bd 17 a4 1d 3d 0b e0 26 bd
       0.055824697 -0.063756324 0.038486566 -0.040741008
000030 43 a0 24 3c 19 88 6f be e6 d6 04 3e b9 76 1d 3e
       0.010047975 -0.23391761 0.12972602 0.1537732
000040 bd 0f b7 bd 5d 8e 1e bc f4 d0 48 3d a6 2b 95 3d
       -0.08938549 -0.009677497 0.0490274 0.07283716
000050 10 09 24 3d fa 70 3d 3c 65 a9 fb 3b 4e 09 b9 bd
       0.040047705 0.01156258 0.0076801055 -0.09034978
000060 6e 8b 25 3e a6 fd 8a bb 4b 40 4b 3d 00 46 2a b9
       0.1616647 -0.004241663 0.04962186 -0.0001623854
000070 f6 49 ea bb 37 2f 32 3d 4d 0d 1b 3d e3 d7 b8 3d
       -0.00714993 0.04350206 0.03785448 0.09025552
000080 f7 e2 a3 3c 97 ab bb bd a3 f8 60 3d 46 7c 0d be
       0.020005686 -0.091635875 0.05492462 -0.13816938
000090 c7 fe 89 bc 5a 3d 12 3d 2a 47 87 bd e0 13 0c 3e
       -0.01684512 0.03570304 -0.0660537 0.13679457
0000a0 31 f2 59 bd ec 79 cc 37 bf 7a 90 3c 08 6f 7b 3d
       -0.053209487 2.437547e-05 0.017636655 0.061385185
0000b0 6e 5b a2 be a5 cd 8f 3d f4 8e af bb ce 03 dc bc
       -0.3171038 0.070216455 -0.0053576175 -0.026857283
0000c0 dd dc 9d 3c 69 ee 11 be 9c 4c 47 bd 79 ed 8c 3c
       0.019270355 -0.14251103 -0.048657045 0.01720308
0000d0 f9 9e 43 bd 96 ba 04 3d ff 26 cb 3b 8d 2c d8 3a
       -0.04775903 0.032404505 0.006199717 0.0016492769
0000e0 29 62 7c bd c7 dd cc 3d 44 4b 3b bd 66 86 e5 3d
       -0.06161705 0.10003238 -0.045726076 0.11207275
0000f0 31 38 30 bc 7b b8 48 bc 1b c5 1f bc 33 0e 3d be
       -0.010755585 -0.012251015 -0.009751583 -0.18462448
000100 f8 24 23 bd 7d ea a1 bc 2d e9 b8 3d 79 75 b3 3d
       -0.039830178 -0.019765133 0.0902885 0.087626405
000110 67 d2 b9 3d f3 5d be bd 6d f2 cf bd d7 b7 08 3e
       0.09073334 -0.09295263 -0.10153661 0.1335138
000120 ee 41 26 3d 91 20 9a 3d 54 3c f7 3c f9 f7 dd bc
       0.04059022 0.07525743 0.030180134 -0.027095782
000130 bf 56 8e 3d c0 57 6f 3d 8f 29 bd 3d 83 64 29 bd
       0.06950139 0.058433294 0.09236442 -0.04135562
000140 34 52 fa 3d 48 b5 b7 bd 94 55 cf 3d 2f 97 0c 3e
       0.1222271 -0.089701235 0.101237446 0.13729547
000150 74 b5 b7 3c b0 53 1c bd f0 72 8d bb 00 ef 00 ba
       0.02242539 -0.038165748 -0.00431668 -0.0004918426
000160 f9 6b 9e bc 81 f3 7c bd dd de f9 3c 2f 59 16 be
       -0.019338595 -0.06175566 0.030501777 -0.14682458
000170 89 c5 65 3d a8 e6 11 3d fd cf 68 3c 18 ea 21 3e
       0.056096587 0.03562036 0.0142097445 0.15811956
000180 69 26 b4 3c 38 08 6b 3d 77 c1 a7 bc 42 d1 a1 bd
       0.021990972 0.057380885 -0.020477993 -0.07901241
000190 39 37 81 3c ec 4a 91 3d dc 40 0a bd f9 36 5d 3d
       0.015773403 0.07094368 -0.03375326 0.054007504
0001a0 e4 ff d7 bd af ad ac 3d 91 69 d2 3d fa b0 ad bd
       -0.10546854 0.08431565 0.102740414 -0.08481021
0001b0 c6 8c 7e bc 9b 4b 05 bd b5 98 78 bd 33 14 55 3c
       -0.015536493 -0.032542806 -0.060692508 0.013005304
0001c0 0a 0c 85 3d 93 9e 39 ba 98 9d 86 bc ed 88 8d 3d
       0.06496437 -0.00070808193 -0.016432568 0.06910882
0001d0 1c b2 19 be 8d 61 9b bc ab 95 d3 3d d1 9d 2b bd
       -0.1500935 -0.018967414 0.10331281 -0.041898552
0001e0 0b 0e 1d bd be fc 0a 3e 8b 8d f1 bc 7a 3f 8e 3d
       -0.03834347 0.13572976 -0.029486438 0.06945701
0001f0 98 b3 fe bc d7 ce 32 3c 72 04 5d 3d 76 e7 e0 3d
       -0.031091496 0.010913572 0.053959318 0.10981648
000200 fe 81 4d 3c d8 24 a5 3d c7 4c 4f bc 69 ae b6 bc
       0.0125432 0.08063668 -0.0126525825 -0.022299962
000210 b9 44 cd bc af 81 2c 3e bc 5a 28 bd 7d d6 ab bc
       -0.025057184 0.16846345 -0.041102156 -0.0209763
000220 08 fc 9c 3d 4e 5c c5 bd 87 3f b8 3d 2b de d1 3c
       0.07665259 -0.09636746 0.08996492 0.025618633
000230 6a 60 92 3c 46 4a 71 3c e1 5a 01 3e c0 a5 8f 3c
       0.01786824 0.014727181 0.12632324 0.01753509
000240 da 64 de bd 1f f1 f3 3d bb 71 a2 3d 38 82 e4 bc
       -0.1085908 0.119112246 0.079318486 -0.027894124
000250 38 ec 18 3e 06 e9 cc bc b3 12 f8 3d b0 85 60 bd
       0.1493386 -0.025013458 0.121129416 -0.054814994
000260 ee 01 9d 3c 5e 4e 0e 3e ca 0a 80 3d b8 2a f2 3d
       0.01916596 0.13897082 0.06252058 0.11824554
000270 29 83 8b bd be d0 ff 3d ee 00 45 bd 83 7f ad bd
       -0.06812126 0.12490986 -0.04809659 -0.084715866
000280 a3 07 31 bd 74 99 9a bd d4 9f c2 bc 0f ce 3c 3d
       -0.043220174 -0.075488 -0.023757853 0.04609495
000290 c1 38 63 3e be db ec 3b b3 10 82 3d 21 a1 00 3d
       0.22189619 0.0072283437 0.063508414 0.031403664
0002a0 94 53 e4 3d ad d3 46 3e 8f b6 87 3d 1b 84 31 3d
       0.11148754 0.19416685 0.06626617 0.043338876
0002b0 ec 1c 15 3e 6b ec 05 bc 82 fc 69 bd ce 4f be 3d
       0.14561814 -0.008174042 -0.057125576 0.09292565
0002c0 d1 d9 0c 3e 1c 5f ff 3c 0c 4f 79 3d 57 d5 3a bd
       0.13754965 0.031173281 0.0608664 -0.045613613
0002d0 28 d5 17 3e 3f 52 9d 3c 55 91 a3 bb b8 c3 e8 3d
       0.14827406 0.019204257 -0.00499169 0.113654554
0002e0 ef 6d 3c 3e 00 f4 4d 3a 2e d6 a3 bc d2 dc 85 bd
       0.18401311 0.0007856488 -0.01999959 -0.06536259
0002f0 cd 98 f4 3d f7 b6 71 3e 59 ad 9d 3d cb 6d 46 bd
       0.11943207 0.23604952 0.07699079 -0.04844455
000300 f8 1b 89 3d c8 12 c7 bd 89 bf 13 3e f2 89 9e 3d
       0.06694788 -0.09720379 0.14428534 0.07741155
000310 51 43 e4 3d e4 6a ee bc b4 5a 55 3d a0 e5 86 3c
       0.11145652 -0.029103704 0.052088454 0.016466916
000320 f2 48 95 bc 61 c6 2c 3e 29 ca 44 3e 8c 62 af 3d
       -0.01822326 0.1687255 0.19217743 0.08563718
000330 c2 aa 5d 3d bd 73 e8 bc a0 9c 0c bd 94 58 89 bd
       0.054117925 -0.0283755 -0.034329057 -0.06706348
000340 70 58 af 3c de 47 6d 3d 2f ba 4d 3d c6 a7 ab 3d
       0.021404475 0.057929866 0.050226387 0.083816096
000350 04 2e 87 3d e1 51 1f 3e 8d 57 a2 bd 54 7b 71 bd
       0.06600574 0.15558578 -0.07926855 -0.058955505
000360 bc 5d 0a 3e 2f 2e 06 bc 31 33 22 3c 18 be 37 bd
       0.1351232 -0.008189722 0.0098999 -0.044859022
000370 77 40 ad bd bf 8e 5b bd f7 c3 c8 3b 1d 15 96 3d
       -0.08459561 -0.05360293 0.0061268765 0.07328246
000380 d9 71 2c 3e a0 ce 01 bb a3 a3 98 3d 8a 67 63 3d
       0.16840304 -0.0019806996 0.07453086 0.055518664
000390 a1 8a 44 3d 6b 71 09 3e 19 08 de 3d 21 bf ad 3d
       0.04798377 0.13422172 0.10841388 0.084837206
0003a0 1a 98 c1 3d 4a 9b e4 3d f7 5c 03 bd 32 98 12 3e
       0.09452839 0.111624315 -0.03207108 0.1431587
0003b0 14 dd 4e 3e f0 58 a7 3c 85 58 3d 3d 9b 19 ce 3b
       0.20201522 0.02042815 0.046226997 0.0062896735
0003c0 04 a0 84 3a 9b 07 27 bd 4c ad a9 bd e0 dc b5 3c
       0.0010118489 -0.040778738 -0.08285007 0.022200048
0003d0 d3 9c 91 bc bb 9a 23 bb df 46 86 bd 34 5d 4d bd
       -0.017774975 -0.0024964053 -0.06556486 -0.050137714
0003e0 cc f4 82 3d 0e ce d1 3a 45 21 5c 3c f8 ab 45 3d
       0.063943475 0.0016006844 0.013435666 0.048259705
0003f0 67 cc 08 3d 4b db 9f bd 15 1a 5a 3d 2a 47 fa 3d
       0.03339806 -0.07805499 0.05324753 0.12220605

fc2.bias f4 [84]
000000 95 b3 f4 bc f2 5b fd 3d c4 da c3 3d d8 21 a6 3d
       -0.029870788 0.12371053 0.095632106 0.08111924
000010 c8 d8 2a 3c 59 08 2d 3d 65 c9 45 3d 0b 9f c9 3d
       0.010427661 0.04224429 0.048287768 0.09844788
000020 73 08 a8 3d 50 3d 43 bd ac e6 a2 3d 3d db c2 3c
       0.082047366 -0.047665894 0.079541534 0.023786182
000030 c7 dd a0 3d a7 ee 55 3c 93 d8 d3 3d 33 d7 49 ba
       0.07854801 0.013057387 0.10344043 -0.00076996087
000040 68 a0 1d 3d 8a 08 32 3d 54 e2 8c 3d b2 b2 ef 3d
       0.038483053 0.043465175 0.06879106 0.11704005
000050 14 77 f8 3d 53 27 d1 3c 20 30 f9 3d 00 3c ef 3d
       0.12132087 0.025531447 0.12167382 0.11681366
000060 e1 62 bb 3d a9 c9 9c 3c 65 70 8d bd e2 33 c7 bd
       0.09149719 0.019139128 -0.06906203 -0.09726693
000070 db d2 a9 bd 48 ef 8c bc 8d c1 e0 bd fc b7 4b 3d
       -0.082921706 -0.017203942 -0.10974417 0.049736008
000080 fe 48 de 3d 3b e4 09 bc 4d 78 83 3d d3 8d 5c 3c
       0.10853766 -0.008416231 0.0641943 0.013461548
000090 9d 31 a0 3d e1 1a c8 3c 19 09 a8 3d a7 22 48 3d
       0.07821963 0.02442688 0.0820486 0.048861172
0000a0 5a a0 82 3d f5 c8 ad 3d 09 7f b3 bd 75 8f 89 bd
       0.06378241 0.08485595 -0.087644644 -0.067168154
0000b0 27 87 72 3d 0d a1 b5 bd 4e 8f e7 3c 67 22 98 3d
       0.059210923 -0.088686086 0.028266575 0.07428437
0000c0 f0 01 bc bd e6 38 c1 3d fa ee a7 bd bd 3e 98 bd
       -0.09180057 0.09434681 -0.08199878 -0.074338414
0000d0 6d f5 a2 3d a0 34 ad 3d 78 5a d5 bc 27 d9 88 3c
       0.079569675 0.08457303 -0.026044115 0.016705109
0000e0 8d 9e 1e 3d 0d df 77 bd d4 bb 97 bd e1 10 85 bc
       0.038725425 -0.060515452 -0.07408872 -0.0162434
0000f0 b1 d5 8e 3c 24 f2 8e bd 67 38 dc 3d 42 3f 40 3d
       0.01743588 -0.069797784 0.107529454 0.046935327
000100 67 e2 01 3d 68 ce c2 3d 43 44 43 bd ca 13 a7 3d
       0.031710055 0.09512025 -0.04767252 0.08158071
000110 72 7b 30 bc ef cc 82 bd 74 c1 5b 3d 06 72 76 3d
       -0.010771619 -0.06386744 0.05365129 0.060167335
000120 c2 5a ea 3c 06 75 68 3d 64 2b 7f 3d d6 21 8b 3d
       0.02860773 0.056752227 0.06229724 0.06793563
000130 0b 19 dc 3c 55 c4 b7 bd 23 62 cb bd b8 d0 5d 3c
       0.02686741 -0.08972994 -0.099308275 0.013538532
000140 cc 17 0d 3d 7f 7b bd bc 34 89 8e 3d 49 42 56 bd
       0.034446523 -0.023130177 0.06959763 -0.05230931

fc3.weight f4 [1, 84]
000000 45 d0 b1 bd b4 d7 0c 3e 87 c1 99 bd 28 85 14 be
       -0.086823024 0.13754159 -0.075076155 -0.1450392
000010 04 9c 92 3c b1 be 33 be bd 26 43 3e c1 1c 06 be
       0.01789666 -0.17553212 0.19057746 -0.13096906
000020 fb b3 24 3e 08 23 50 bc 30 25 c1 bd cf b3 2e 3e
       0.16084282 -0.012703665 -0.09430921 0.17060779
000030 71 6f 09 be 8d 45 13 be 51 2b 29 be ed f2 6f bd
       -0.13421418 -0.14382 -0.1652043 -0.05858128
000040 74 bc 4b 3e e2 c0 ca bd fe c2 1f 3e 47 3b ea 3d
       0.19896108 -0.09900071 0.15601727 0.114370875
000050 6f f8 e6 bd 8d 96 80 bd e6 52 58 3e ab bd 1e be
       -0.11277854 -0.06278715 0.21125373 -0.1550204
000060 74 53 14 3e 63 53 20 bc 12 d4 86 bd 17 81 a7 3d
       0.1448496 -0.009785506 -0.06583418 0.08178919
000070 76 f8 10 3d cd da 31 be 1f a9 bd bc 99 d8 e2 3d
       0.0353932 -0.17368622 -0.023151932 0.11076469
000080 e4 09 40 3e ca 63 0b be d5 1d 1d 3e 77 ee 35 3c
       0.18753773 -0.13612285 0.15343411 0.011104218
000090 8b 66 2a 3e 5a b7 b2 bd 4d 54 38 3e 0c 49 d9 bd
       0.1664068 -0.08726378 0.18000908 -0.10609636
0000a0 f1 96 b2 bd 00 e8 39 3e 31 e3 56 bd 7d f1 fe 3d
       -0.08720196 0.18154907 -0.05246276 0.12448404
0000b0 1f 2a d3 bd 96 25 48 3d d5 8e ed 3d 10 e9 13 be
       -0.10310768 0.04886397 0.11599509 -0.14444375
0000c0 9d ea 85 3d c2 80 c5 bd d0 6b 58 bd 93 e8 2a bd
       0.065388896 -0.09643699 -0.052837193 -0.041725706
0000d0 8f ea e0 3d e4 02 cd 3d 74 78 17 3d 03 8d 9b 3e
       0.109822385 0.10010317 0.036980107 0.3038102
0000e0 1a e7 ff bd e1 1b 4e 3d 6c 2f d9 bd d5 9b ed 3d
       -0.12495251 0.050319556 -0.10604748 0.11601988
0000f0 4a 2c 2c 3e b7 13 d2 ba 18 35 03 be 15 b9 e5 3d
       0.1681377 -0.0016027604 -0.12813222 0.11216942
000100 3d 52 15 3e c5 86 e1 bd 62 67 20 3d 21 55 03 3e
       0.14582153 -0.110120334 0.039161094 0.12825443
000110 6e 82 fb bd 48 b7 a7 3e 64 fa 03 3e 9b bb 35 3e
       -0.12280737 0.3275702 0.12888485 0.17747347
000120 bd a2 f3 3d 04 b2 0c 3e 2f 1c fa bd c4 eb 23 be
       0.11896274 0.13739783 -0.12212407 -0.16007906
000130 79 29 26 3e 4b 17 69 3b 89 79 a2 3c af b2 fe bd
       0.16226758 0.0035566862 0.019833343 -0.12436425
000140 bc be a4 bd d9 48 70 bd 31 5d 23 be 3c d3 d2 bc
       -0.08044192 -0.058663223 -0.15953518 -0.02573549
