output_visualizations/base_tsk[^]_agm[geo_ac]_spl[S2]_mdl[lenet]_ls[SM]_tu[none]/model.pt (torch, 248071 bytes, 10 tensors)

conv1.weight f4 [6, 1, 5, 5]
00000000: b186 853e 43fb 9b3e 7196 d8bd 1e19 353d
00000010: 1063 6ebe c249 ea3d 7194 a13d fd3e 383e
00000020: 39ff dc3d 7d5b 93be ca08 473d c60f ba3d
00000030: b0cb 653e bc56 23bd c259 cebc de1c 55be
00000040: 19a2 363e 11de 1e3e c3fa c6bd e2bc f73c
00000050: 59c3 5fbe 2b7c 453b 6951 5a3d 66fc 3f3e
00000060: b90c fcbd 516e a1bd 6d3f 53bd 89d3 c1be
00000070: d7d3 dcbe bdc7 07bf ed37 a03e cc76 f9bc
00000080: 5f4c a23c 3a9c 90be aef8 92be 3642 893e
00000090: c949 963e 75a2 663e 125c d4bd 3bd3 51be
000000a0: b443 053c 538e 0c3e cb39 673e a262 5c3e
000000b0: 3444 0a3e 2483 97be 2f6a 273e ee2e e53d
000000c0: 6389 143e f47e 013c d2c8 aebe 6cbb 5cbe
000000d0: 56b6 02be 6410 893e a7aa 3d3e c959 163c
000000e0: 6927 3abc 62c6 fd3b 190e 3e3e 6681 01be
000000f0: bdcb 1c3d df9a d0bd 45e0 f83d 4170 8fbd
00000100: 3b1f 873c 535b ac3d 616e 9a3e df86 0bbd
00000110: e749 35be c530 57be 4573 9a3e fb78 533e
00000120: 7ada 4c3e 8815 a9be 2299 bfbe 9e45 bdbe
00000130: 9a53 84be 4c41 0a3e ed8a 6a3e b4a0 ae3e
00000140: 8ded 91be be6e 67be efaf 1e3e 526b 483d
00000150: d408 9c3e 0d49 0abe 370a bf3d 5ec0 83bd
00000160: 6dcc d73c 3cde 543e a06d 183d f000 d7bc
00000170: 102a 593e d143 503e 3e34 04be ccd5 4bbd
00000180: 6da8 573e 20da 9ebc 47cf d2bd 75da a6be
00000190: feeb a23c 6642 773e d8c0 a13e 6b15 983c
000001a0: 6939 103d 9f2c 2bbe f2d5 bfbd d7af bc3d
000001b0: f2a0 83be 822e dcbe a7b1 123e 771f cb3c
000001c0: 0f4b 033e fd93 88be dc13 89be ef83 edbd
000001d0: 6d2a 61bd 8cdb 7fbe 5d4f 81be 672f 69be
000001e0: c46b 7c3d e017 90bd 2a7e 09be 77de ebbe
000001f0: 1957 8cbe d9b4 23be f55d 88bd 2346 30be
00000200: 7001 b23d 47b5 d8bd d937 113e 25cf 953d
00000210: 3ed3 39be 87a7 803d da45 8cbd dd3c dabd
00000220: 7218 13be e54c 8cbe cac1 88bc f7ef 43bc
00000230: 4914 0e3e 8aab 1dbd 9cfd 223e 1eb5 c8bd
00000240: 67ba 963d fb71 453e 115a a23e 0043 8b3e
00000250: dbdb ad3e b7f6 23bc
0.26079324 0.30465135 -0.105755694 0.044213407 -0.23279977 0.114398494 0.07889641 0.17992778
0.10790867 -0.28780738 0.048592366 0.0908504 0.22440982 -0.03987764 -0.025189284 -0.20811793
0.17835273 0.15514399 -0.09715798 0.030241434 -0.21851863 0.0030133824 0.053300295 0.18748626
-0.12307114 -0.07882369 -0.05157416 -0.378567 -0.4313037 -0.5303915 0.31292668 -0.030452155
0.019811807 -0.2824419 -0.28705353 0.26808327 0.2935317 0.2252291 -0.103691235 -0.20490734
0.008133817 0.13726167 0.2258064 0.21522 0.1350258 -0.2959224 0.163491 0.11190592
0.14505534 0.007903803 -0.3413759 -0.21555871 -0.12764868 0.26770318 0.1852213 0.00917668
-0.011361935 0.0077445963 0.18560065 -0.12647018 0.038280237 -0.10185789 0.12152151 -0.070038326
0.016494384 0.08415856 0.30162337 -0.03406417 -0.17703973 -0.21014698 0.3016607 0.20651619
0.20005217 -0.3302424 -0.3742152 -0.36967176 -0.25845033 0.13501471 0.22904558 0.34106982
-0.2850155 -0.22600839 0.15496801 0.048930474 0.30475485 -0.13504429 0.0932812 -0.064331755
0.026342595 0.207879 0.03721392 -0.026245564 0.21207452 0.2033837 -0.12910554 -0.04976444
0.21060343 -0.01939112 -0.10293441 -0.32588544 0.01988792 0.24146423 0.3159244 0.0185649
0.035211 -0.1671624 -0.09366979 0.09213226 -0.2570873 -0.43004233 0.14325581 0.024795277
0.12821601 -0.26675406 -0.26772964 -0.1159743 -0.0549721 -0.24986094 -0.25255862 -0.22771989
0.06162621 -0.07035804 -0.13427034 -0.46068165 -0.274102 -0.15986957 -0.06658546 -0.17214255
0.086916804 -0.10581451 0.1418146 0.073149 -0.18146989 0.06281953 -0.06849261 -0.1065614
-0.14364794 -0.27402416 -0.016693968 -0.011959068 0.13874926 -0.03849367 0.15917057 -0.0980017
0.07359772 0.19281761 0.3170934 0.27199554 0.339568 -0.010007552

conv1.bias f4 [6]
00000000: 3e13 26bd 44b2 7ebc 822f d3bb 3a29 27bd
00000010: c7c5 c93d 9051 8ebd
-0.040545695 -0.0155454315 -0.0064448724 -0.0408108 0.09852176 -0.069491506

conv2.weight f4 [16, 6, 5, 5]
00000000: 0cdd 013e 8671 d53d 0e99 ba3d 2418 ecbd
00000010: 2b92 3dbe 191e db3d 5b2b 563d 46b5 553c
00000020: 454f 1b3c 2cb0 f1bd 6c5e 323d f710 893d
00000030: 9003 083d 87e2 e8bd 38b5 c0bd de77 013e
00000040: cbdc 513d 6f64 cbbd 3eeb 22be 3265 2bbc
00000050: ef2d 613d 49ce 13bd fa1b d8bd a151 35be
00000060: 4d7e c73d df53 c93d bd7b 643c 2434 b23d
00000070: f3c3 f73d a79d 903c ffda fcbd 7fda 54be
00000080: efc8 57bd 1ac2 c2bc d330 89bd 34de 0ebe
00000090: b130 9bbd 84a2 2b3c 7f76 80bd e2c6 bcbc
000000a0: e1a0 bdbd 1b50 12be f55d 0abe 73ab 10be
000000b0: a874 00bb a9e4 25be dbd7 efbd ea94 11be
000000c0: a415 7dbd 6d05 fd3d 8a11 763e 8d4f 7d3d
000000d0: 3e50 bdbd ff18 90be 1dd1 a5be 05e9 a03e
000000e0: d584 b9b9 63c0 28be efbc 0abf 1bc6 3abe
000000f0: dfc1 aa3e 5a19 3dbd 3277 ecbe 19bf 08bf
00000100: 3b6b a5be bdfd 833e 19f4 c4be 8c41 f3be
00000110: 2718 1dbf 1a71 c7be 7c11 55be 3640 17bf
00000120: 1c76 51bf 6177 7bbf a73b c1bd 9e2f 803e
00000130: 9445 573e 18a1 07bd 1c6c b8be 5727 c4be
00000140: ee00 393e 1461 55bb 9903 07be 73ce 1dbf
00000150: 1206 e9be c2a7 c23d 67f1 123d 1adb d6be
00000160: 9c44 c3be ca1a e1be c087 8bbd b89b 97be
00000170: f046 c5be 390f 6ebe cb12 8fbe a7ae 7abe
00000180: d71f a2be 35cc acbe 9994 46be 1355 793c
00000190: 97ab 94bd 8928 45be aa87 203c 3c0e 0e3d
000001a0: 5574 063e 9864 0ebe ca04 8dbc f029 26bd
000001b0: 59db e13c 9bb7 1c3e 2192 303c c199 82bc
000001c0: 9605 8c3c 4438 45bd 5efa 2b3e a05d 93bc
000001d0: 6ad6 473d fbf0 543d 6eea e53d a10d a83d
000001e0: 275c 203d 90fd 683d a6d9 023e 0a20 75bc
000001f0: d8f4 a23d 4a8d 023e bf8c e43d 13cd 983b
00000200: 84cf bbbd 4610 72bd 2941 253e a402 103e
00000210: a6a4 3a3d f939 1f3d 8751 df3d 5560 4d3e
00000220: 72ab 80bd b7f7 b4bd 8b88 d23d 9324 f63d
00000230: 083a d83d 2235 7d3d 72d0 403d 8a43 b53d
00000240: a73a 9c3e 8b9d eebd 7b3f 27be 463f 39be
00000250: 4846 d1bc 2b86 a33e 1aae 3e3d 6955 2a3d
00000260: cf78 77bd 6041 8fbd cb80 98bd 37ab ce3d
00000270: b945 86bd cecd f83c e232 0a3d 70a6 86bd
00000280: e188 db3d e4b7 fa3d 6ed6 f8bb bff8 a03b
00000290: 48ed 98bd b6ce 093d 7183 ed3d 10af 9a3d
000002a0: 108f 1dbd 0bd4 10bd 85b4 b8bd a423 afbd
000002b0: 0242 82bd e27e c1bc 6441 103c ab3d 31be
000002c0: bf0c b5be 0106 91be 5a77 20be 80d9 90be
000002d0: 57ea 53be 6611 8abe b614 91be f9ba 98be
000002e0: 9ebb 8ebe 03a4 44be 85db 98be ca72 b6be
000002f0: def4 c0be 251d 82be 6490 d4bd c27c 6fbe
00000300: 222f 8abe 2ba1 83be d25e f9bd e6ca babd
00000310: 9e35 32bd cabc 813c 0a81 cfbc a6fe 043d
00000320: d2de c83d 7a98 463b 7d2a 57bd 31c9 38be
00000330: 0480 abbe 6c9b 68bd e7d7 b9bd cb69 cabd
00000340: 12bb e1bd b8aa 33be 2e10 33bd ac69 a1bd
00000350: 9f2e 0cbe 0e61 80bd f1ad 19be d4ec 5ebe
00000360: e02e d2be 536f 56be 9712 bcbe 4a51 05bf
00000370: 553d 1fbf e2c1 1dbf 126a e5be 18ba dcbe
00000380: c1c4 e8bd b3fe b6bd cace ca3c e737 fabd
00000390: 4b07 a2be af61 66be f56f 9a3c dbd4 043d
000003a0: a1db cabd c629 6cbe 3c4d 67be 44d3 263d
000003b0: e7fa 0e3e 9161 763c e146 a0bc 3554 bdbd
000003c0: 2323 063e cae0 1d3e 8681 ed3d b723 ba3d
000003d0: 69c6 a03c f1be cb3d 74a5 fdbc 1583 d2bd
000003e0: c0ac 893d 85d3 793e 9847 56bd e4e5 c03c
000003f0: 1702 0e3d e588 bb3d a973 4a3d 9c6c 43bc
0.12681979 0.104220435 0.09111224 -0.11528042 -0.1851279 0.106991 0.05228744 0.013043707
0.009479349 -0.1180118 0.04354708 0.06692689 0.033206522 -0.11371332 -0.09409565 0.12643382
0.051235955 -0.099312656 -0.1591005 -0.010461139 0.054975446 -0.0360854 -0.10552211 -0.1770692
0.09740887 0.0983045 0.013945517 0.08701351 0.12097921 0.0176533 -0.12346458 -0.20786475
-0.05268186 -0.023774195 -0.066987656 -0.13951951 -0.075776465 0.010475758 -0.06272601 -0.023044053
-0.09259201 -0.1428837 -0.13512404 -0.14127903 -0.0019600783 -0.16200508 -0.11711093 -0.14216962
-0.061788216 0.123545505 0.24030128 0.061843444 -0.092438206 -0.2814407 -0.32386103 0.3142778
-0.00035384917 -0.1647964 -0.5419454 -0.18239634 0.33351037 -0.046166755 -0.4618469 -0.5341659
-0.32308373 0.25779524 -0.38467482 -0.47510946 -0.6136498 -0.38953477 -0.20807451 -0.59082353
-0.81820846 -0.9822903 -0.09435206 0.2503633 0.21022636 -0.033112615 -0.3601998 -0.38311264
0.18066761 -0.0032559084 -0.13184966 -0.6164314 -0.45512444 0.095046535 0.03587475 -0.41964036
-0.38138282 -0.4396575 -0.06813002 -0.2961099 -0.38530684 -0.23247994 -0.27944025 -0.24480687
-0.31664917 -0.33749548 -0.19392623 0.015218037 -0.07259291 -0.19253744 0.00979797 0.034681544
0.13130315 -0.13905561 -0.017214198 -0.04056734 0.027570413 0.15304415 0.010777027 -0.015942456
0.017092507 -0.048149362 0.16794726 -0.01798898 0.048788466 0.05198763 0.112263545 0.082057245
0.039150383 0.05688244 0.12778339 -0.014961252 0.079568565 0.1274921 0.11159658 0.0046631186
-0.0917044 -0.05909755 0.16138138 0.14063507 0.045567177 0.038873646 0.10904222 0.20056279
-0.062827006 -0.0883631 0.1027995 0.12018695 0.105579436 0.06181825 0.04707379 0.08850773
0.30513498 -0.11651143 -0.1633281 -0.18090543 -0.025546208 0.319383 0.046552755 0.04158536
-0.060417946 -0.06994891 -0.0744644 0.100912504 -0.06556267 0.030371573 0.033739932 -0.06574714
0.10719467 0.122421056 -0.0075939214 0.0049124653 -0.07467133 0.0336444 0.11597336 0.07552922
-0.038466513 -0.03535847 -0.09018806 -0.0855172 -0.06360246 -0.023620073 0.008804653 -0.1730868
-0.35361287 -0.28324893 -0.15670529 -0.2829094 -0.20694862 -0.269664 -0.28336114 -0.2983015
-0.27877516 -0.1920319 -0.2985498 -0.35634452 -0.3768682 -0.2541286 -0.10379103 -0.23387435
-0.26989084 -0.257089 -0.12176289 -0.09120731 -0.043508165 0.015837092 -0.025330085 0.032469414
0.098081246 0.0030303285 -0.052530754 -0.18045498 -0.33496106 -0.056788847 -0.09074383 -0.0988346
-0.11022009 -0.17545593 -0.043716602 -0.078814834 -0.1368966 -0.06268512 -0.1500776 -0.2177003
-0.41051388 -0.20940904 -0.36732933 -0.5207716 -0.6220296 -0.61623967 -0.44807488 -0.43110728
-0.11365653 -0.08935299 0.024756808 -0.12217694 -0.3164619 -0.22498201 0.018852213 0.032429557
-0.09905172 -0.2306281 -0.22588056 0.040728822 0.13962899 0.01503791 -0.019565048 -0.09244577
0.13099341 0.15417781 0.1159697 0.09088843 0.01962586 0.099485286 -0.030962683 -0.10278908
0.067224026 0.24397095 -0.05231437 0.02354712 0.03466996 0.0915697 0.04942671 -0.01192775

conv2.bias f4 [16]
00000000: 056b 6abd 430f f93d 1a8d 773d 7f25 74bc
00000010: 0b45 073d 7683 703e 7859 b63d ee87 dbbc
00000020: 385b 49bd 96ec 243d 8ef9 ca3c 50f5 c63d
00000030: 23ee 233e 2211 1ebd 51fc c73d 265d 383e
-0.057230968 0.12161114 0.0604373 -0.014901518 0.03302483 0.23487648 0.089037836 -0.026798215
-0.04915926 0.04026469 0.0247772 0.097147584 0.1600881 -0.038590558 0.097649224 0.18004283

fc1.weight f4 [120, 400]
00000000: 69e6 813d 6915 2a3c 1656 24be 3bc0 1ebe
00000010: 5c52 73bd ef86 bb3c 6b27 91be 8a0a 2ebe
00000020: cd67 5fbd e19a 3fbe f286 e7bd f8f3 94be
00000030: f05a a3bd 70e8 acbc 49c7 bdbd 2f02 47be
00000040: 543d 33bd c818 9d3d 3014 cb3d b539 393e
00000050: b516 1a3e 9e01 523e 6e7e 193e 12bd 023e
00000060: 8b5a ad3e b2ab b7bd 27d8 8a3d 0e50 203e
00000070: d680 86bc e59d bbbc d451 7bbd bec1 d5bb
00000080: f7fe 40be 884b 34be b5e5 0abe 3747 813e
00000090: cadc d73d df79 c2bd 916a 2cbe b8e5 29be
000000a0: a68a 453e 4211 1c3d e2e1 3e3c 4845 223d
000000b0: a8c3 f03d 4e32 403e 3b41 433e 7306 0c3e
000000c0: 8c33 6d3e 73b3 933e 11c7 73be 84d1 b83c
000000d0: 9cee 06bd 21d1 f8bd 390b 8fbe ade9 853c
000000e0: c4eb 713c 7250 0a3d 7ac8 783d af2f d33c
000000f0: 3856 c2bb 79b1 b23d 3576 e63d a763 333d
00000100: aceb fc3b 0d27 253d 8105 303c 961f 763c
00000110: b957 6dbd 6236 bdbc 5262 4c3d 4c7d 903c
00000120: 08b9 7939 545a 933c e800 af3c 166a fd3d
00000130: bb9c 253e c16f 4f3e 3688 1f3e c485 c13d
00000140: 5152 c4bd dffe 5fbd d874 e6bd 9a3a 54be
00000150: 47b1 c0bd 9d08 83be 8237 76be b91d 7bbe
00000160: 5db5 02be 71cd 32be 0bde 8cbe 521d 7fbe
00000170: d484 8ebe e794 5cbe caca 86be da98 99bd
00000180: e8d1 dfbe ff65 01bf 0975 4bbe a034 6ebe
00000190: 60e4 6b3e ea39 473e 9dd9 123e 7ae7 4c3e
000001a0: 1b2a 213e 5b11 35be 01cb 2fbe 0a64 a2bd
000001b0: c3b2 8a3d 7d59 47bd df92 46bd 186f 26bd
000001c0: 84c3 14be 32ff babd 05f6 00bd 4ad8 dc3d
000001d0: 83a3 ca3c 5791 0f3d f485 5f3b 3eea a0bd
000001e0: 6c21 41be 0493 a7be f3c1 4fbe 5da1 e8bd
000001f0: 7c61 8ebd eee4 37bd 068e 413e a5b5 8e3e
00000200: 574b 823e e25c 773e 611f f8bd fed4 46bd
00000210: dc10 7bbd b24e e5bd 63e5 52bb 2ab6 1f3d
00000220: dcb3 893c 5ac0 2fbe e03f 10be 141a ccbd
00000230: dee0 6d3e 3eae 843e 47bf 3b3d 8e69 583d
00000240: 714b 583e 92cb 6a3e 4a03 413e 7c76 b93d
00000250: 9e2e d13d 5b81 8f3e 643b 97be 46aa 86be
00000260: 240c 32be 989d 0cbe 920c 0dbe 29b8 15be
00000270: ba00 de3c 1f59 2bbd 8084 63bd 4633 bcbd
00000280: 2635 363d f019 8e3d 74e8 b33d d156 41bd
00000290: aef4 023c 6e8a eb3d 59fd 173e a57f 893d
000002a0: 8434 023d dd49 ffbc 79f1 b13d 73c1 c33d
000002b0: c8ce 443d e8f7 c03c baac 0cbe fe89 313d
000002c0: 9ce7 04bd e780 89bd 1083 03be 97fb 63be
000002d0: 4f5d 113e 9c11 083e 4bb0 733e 1a90 633d
000002e0: 8984 e23d fe21 113e 4103 ff3d 79b2 fb3d
000002f0: 9aec 163e 4e0b 303e df5b 2b3e 2394 003e
00000300: 1081 be3c 1ea0 a33d f060 20be e949 143e
00000310: c314 0ebd 037e 9ebd 8221 f3bb 49a0 843d
00000320: 299a 0f3e 91e8 df3d 314f 1d3e 0bc9 163e
00000330: 6992 f03d 09fe 51bc d986 5ebd 92c2 1bbc
00000340: bf42 923d 884b 9abd 052d d4bd 08d4 b0bd
00000350: 450b 83bc b6ca f8bc b9a3 bbbd 5bfc 21bd
00000360: 2cf4 86bd 06d5 a9bc a9cc debd eb74 c6bd
00000370: ce2f e83c e13f 1bbd 10cd 893b c8c3 c9bd
00000380: a9fa 1cbe 7f17 19be ea58 46bc 1b73 2e3d
00000390: 2efa 9cbd 276a 1d3d 1ab3 af3d d428 1bbb
000003a0: 7faa 943d 0c60 5abb b697 3d3c 5669 de3c
000003b0: 7e16 aa3d 2600 223e e1b6 743d d819 65bd
000003c0: c5ff ef3d 6e3b e53d a313 0c3d 094b bd3c
000003d0: 4747 293d 3309 8d3e 366e 423e 595a 103e
000003e0: eae7 063e 16d6 fd3b 9618 ae3e ca1d a03e
000003f0: 8dfb 803e 0d3b 993e c497 993e ed15 a7bb
0.063427754 0.010381081 -0.16048464 -0.15503018 -0.059404716 0.02289149 -0.28350386 -0.16996208
-0.05454235 -0.18711425 -0.11305036 -0.29092383 -0.07976329 -0.021106929 -0.09266526 -0.19434427
-0.04375966 0.07670742 0.0991596 0.1808842 0.15047725 0.2050843 0.14989635 0.12767437
0.3385814 -0.08968295 0.06779509 0.15655538 -0.016418856 -0.022902438 -0.061357334 -0.00652334
-0.18847261 -0.17606938 -0.13564189 0.25249645 0.10540159 -0.09495901 -0.16837527 -0.16591537
0.19291171 0.038102396 0.011650534 0.039616853 0.117560685 0.1876919 0.19067852 0.13674335
0.23164195 0.28847846 -0.23806407 0.022560842 -0.0329424 -0.12149263 -0.2793825 0.016346777
0.014765684 0.033768125 0.060738064 0.025779573 -0.005930688 0.087252565 0.11253015 0.043796208
0.007718524 0.040320445 0.0107435 0.015022179 -0.057944987 -0.02309722 0.049898453 0.017637871
0.0002381542 0.017987408 0.021362737 0.1237375 0.16173069 0.20257474 0.15579304 0.09449342
-0.09586013 -0.054686423 -0.11252755 -0.2072548 -0.09408813 -0.2559251 -0.24044612 -0.24523057
-0.12764497 -0.17461182 -0.27513155 -0.24913529 -0.27835715 -0.21541177 -0.2632659 -0.07499857
-0.43714833 -0.5054626 -0.19868864 -0.23262262 0.23036337 0.19455686 0.14340825 0.20010176
0.15738718 -0.17682402 -0.17167284 -0.07929237 0.06772377 -0.048669327 -0.04847991 -0.04063329
-0.14527708 -0.09130706 -0.031484623 0.10783441 0.024736172 0.035050716 0.0034106942 -0.07857178
-0.18860406 -0.32729352 -0.2028883 -0.113589026 -0.069521874 -0.04489606 0.18901834 0.2787296
0.25448105 0.24156526 -0.1211536 -0.04854297 -0.061295375 -0.111966506 -0.0032180182 0.038992085
0.016809396 -0.1716322 -0.14086866 -0.099659115 0.23230311 0.25914186 0.045836713 0.05283504
0.21122529 0.22929218 0.18848911 0.09055802 0.1021397 0.28028378 -0.295375 -0.26301783
-0.17387444 -0.13731992 -0.13774326 -0.14621033 0.027099956 -0.04183304 -0.055546284 -0.09189467
0.04448428 0.06938541 0.08784571 -0.047201935 0.0079929065 0.11501013 0.14842738 0.067137994
0.031788364 -0.03116315 0.086886354 0.09558382 0.048048764 0.02355571 -0.13737765 0.04334449
-0.032447442 -0.06714039 -0.12842965 -0.22263943 0.1419575 0.13287967 0.23797719 0.055557348
0.11060435 0.14173123 0.124517925 0.122899 0.14738694 0.17191812 0.16734265 0.1255651
0.023254901 0.07989524 -0.15661979 0.1448132 -0.03468777 -0.077388786 -0.007419766 0.064758845
0.14023651 0.109330304 0.1536224 0.1472513 0.117466755 -0.012816914 -0.05432782 -0.009506838
0.07141637 -0.07533938 -0.10360149 -0.08634192 -0.015996585 -0.030370098 -0.09162087 -0.039547306
-0.06589541 -0.02073146 -0.108788796 -0.09690269 0.028343108 -0.037902717 0.0042053536 -0.098517954
-0.15329994 -0.1495037 -0.01210616 0.042590242 -0.076649055 0.038431313 0.08579083 -0.0023675459
0.07259082 -0.0033321409 0.011571815 0.027149837 0.08305071 0.15820369 0.05974472 -0.05593285
0.11718706 0.11192976 0.034198415 0.023107069 0.04132774 0.2754608 0.18987355 0.14096965
0.13174406 0.0077464683 0.34003133 0.31272727 0.25191918 0.29927865 0.299986 -0.0050990493

fc1.bias f4 [120]
00000000: 6de1 123e 2f6a bf3b 5889 df3d 349c 483e
00000010: 0ffd 723d 0581 84bc aa92 99bd cbed b4bd
00000020: 4478 44bd ab2a f4bc a0dc 36bd 0c46 cebd
00000030: 3e70 eebc e168 acbd 4d0f 2dbd a764 1b3e
00000040: 7c4f 8c3d 6ef7 00be aa37 913c 2c66 833d
00000050: 060f bd3a 6416 dbbc a0db e23d 61b9 743d
00000060: 31c7 0ebd fd1f 8abc 2291 02be 1921 f53d
00000070: a637 4a3e 14fb 7b3d d2a0 fd3c 2aec b73c
00000080: 2810 043e 7347 82bd 9cd6 693d b619 d43c
00000090: ac35 06bd 4c20 0d3e ab1d 4cbd 614c 9e3c
000000a0: c975 223c 8097 793e 9d7b c13b 7c5a 68bc
000000b0: ac45 2c3d 3838 a1bd a37b 1dbe b0a8 d1bc
000000c0: 9b4c a6bd 63eb 1e3e 643c 97bd ed61 113c
000000d0: 453c 27bc 97a0 fe3d 0d96 143e 0570 69bc
000000e0: bd82 a9bb 8733 993d 7069 a5bc 0165 0dbd
000000f0: f165 72bc bf02 233d 0476 d4bc 158d 373e
00000100: 3043 84bc 1ad0 da3b b6a1 a43c 257d 20be
00000110: ac59 4b3e 8af7 a53d bab6 04be 6cc3 24bd
00000120: 79b3 57bb ff3d 823d 1d0a bcbd 63df f23d
00000130: b1ae 2d3d fc20 7b3d 231a 8f3d c418 d03d
00000140: 8c21 8b3d 07b9 de3c b52c d0bb 02bf 573c
00000150: 8a6b aebb 1b03 de3d 61cd 0dbd 1b18 efbc
00000160: 398a e93d 7b05 c4bc 82d8 c43d 94c5 40bc
00000170: d65b 243d b18e 133d 3e37 b23c e401 00bd
00000180: 22ab bb3d 4904 35bc fb2f 7ebd 5bed eb3c
00000190: 9472 3a3e ae0c d73d 78fc 1fbc 1e2c 4e3c
000001a0: 45e5 d9bc 936e 303d 331c 133d dc8e 82bd
000001b0: 0ce4 52bd 40a5 d9bc 6a42 0e3d 5b9e 943d
000001c0: 051e 27bd f6a6 1a3d 6d7a 65bc aba4 093e
000001d0: 2d29 c0bd 6187 cebc ac4c 50bd 18a9 9bbd
0.14343806 0.0058415155 0.10914868 0.19590837 0.059323367 -0.016174803 -0.07498677 -0.08834418
-0.047966257 -0.029805502 -0.044644 -0.10071954 -0.029106256 -0.084184416 -0.04225092 0.15175115
0.06851098 -0.12594387 0.017726738 0.06415972 0.0014424033 -0.026744075 0.110770464 0.059747104
-0.034857932 -0.016860956 -0.12750676 0.119692035 0.1974779 0.061518744 0.030960474 0.022451479
0.12896788 -0.06361284 0.057089433 0.025891166 -0.03276603 0.13781852 -0.04983298 0.01932353
0.0099157775 0.24374199 0.0059046284 -0.014181729 0.04205863 -0.07872051 -0.15379195 -0.025593132
-0.0812008 0.1551948 -0.073845655 0.008873445 -0.0102072405 0.12432974 0.14510365 -0.014247899
-0.005173056 0.07480531 -0.020191878 -0.034520153 -0.014794813 0.03979754 -0.02593518 0.17924912
-0.016145319 0.0066776397 0.020096641 -0.15672739 0.19858426 0.08103855 -0.1296033 -0.04022543
-0.003291337 0.06359481 -0.091816165 0.11859014 0.042402927 0.061310753 0.06987407 0.10160974
0.06793508 0.027187837 -0.0063529857 0.013168098 -0.0053228782 0.10840436 -0.034619693 -0.0291863
0.11403317 -0.023928395 0.09611608 -0.011765856 0.040126644 0.036024753 0.021754857 -0.031251803
0.091635 -0.011048385 -0.062057476 0.028799703 0.1820777 0.10500465 -0.009764783 0.012583761
-0.026598582 0.0430742 0.035915565 -0.063749045 -0.051487014 -0.026568055 0.034731306 0.072567664
-0.040800113 0.037756883 -0.014006239 0.13441722 -0.09382854 -0.025211038 -0.05085437 -0.076006114

fc2.weight f4 [84, 120]
00000000: 95c2 863e c65d e03c 6976 aebc dece 1f3d
00000010: 92b6 19bd 3aab 27be 9be4 34bd 6aa4 c13c
00000020: 8905 ae3e df80 acbd 1a81 853d e394 5d3d
00000030: 1aa2 513d df0d c7be cb08 ba3c 63b8 933e
00000040: 372a 7ebd bec8 88be 0fc8 173e 959a f3bc
00000050: bba4 b73d 96e4 35bd d0e3 833d 6234 f6bd
00000060: b7ea b03c 3d9a 4cbd 1d37 30be 8aa5 98bd
00000070: d012 733e eca7 02be 4d0a 81bc 8959 bc3d
00000080: d876 45bd 3812 d53d d4ca 53bd a09e 25be
00000090: 29cd f1bd e94e e63e e2ad 9bbd 864d 513d
000000a0: 5186 d03d 4348 7c3d dba4 fb3c 0ab4 de3d
000000b0: 4106 89bd 0228 093e e567 313d 3bbc 3d3d
000000c0: a27d 233c 38cd 05bc 9d2a 073e 0fa4 cdbd
000000d0: 9ba7 95bd 0da2 b3bd fdf4 cb3d d8b6 903b
000000e0: 7282 3abd 1b8b 95bd e3e8 1bbc 6baa d43d
000000f0: 8efb a23d c339 153e 592d 0d3e 69d3 f0bd
00000100: 5bad e63c 646e 963d a88e 633e b9b8 bf3d
00000110: 1fed dd3d e181 063e b612 24bd 0534 9d3d
00000120: 03bc fdbc 0a2e bfbc c847 a93d 32e9 60be
00000130: a9cb 0f3e 51ab fa3c 6853 a43d a4a8 603d
00000140: 1691 793d 84d9 823d 47a6 6f3e d93d af3d
00000150: c15f e83c fbd4 0abe b608 82bd d55e 063e
00000160: 28e9 2dbe 2a4a 8abc f901 08bd f092 4cbd
00000170: 8799 423d 7a18 b2bd 70ec 07be 38ac a93d
00000180: acce 8fbe 4ac9 173e 6b1a 88bc 0aba b8bc
00000190: 4b85 d7bd 9893 83bd dc40 0abd 2636 223e
000001a0: df73 263b 17bf 0f3e 218b 633d ec07 73bd
000001b0: cb20 abbc f7c6 02be 8a0b 9dbd 8c90 b03c
000001c0: 8d12 b83c 00b2 1a3e 2172 4abd b0fb 843e
000001d0: 9e7a 8abd 749e f7bd c32e a73d 9334 2cbc
000001e0: 9edb c8bd a580 66bc 2ce8 54bb 403e 0e3e
000001f0: 7bd9 dcbd 2f0e 8bbd 1293 6fbd 8b2e b2ba
00000200: d82e 723d 02cd e13b 04cd 72be bea1 6a3d
00000210: 29bc 8ebd 39c6 19be c033 10be 5aa1 4c3e
00000220: bfce 1b3e 869f 873d 2e19 4a3e 6a75 4ebd
00000230: 73df 193e 48d5 263d 3fa6 9e3d e734 80bd
00000240: cbbd 67bd c540 1a3d 79a2 8b3b fd31 5cbd
00000250: bb87 3b3e 3086 143e 68a1 c33d d2c7 52be
00000260: 9c48 6f3d 62c4 40bd 3d92 42bc 2142 bd3d
00000270: edfd 34be c173 5c3e e427 01be 9270 f9bc
00000280: 86eb 8bbc 6e18 34be 1572 3abd 0744 a63c
00000290: 44d6 00be 4b63 ca3d 54bc 6b3e d4ed 323d
000002a0: f582 9d3d 3dcf d53d 18a2 903e 97d3 123e
000002b0: a1b9 c03d fd6a a5bd c43f 2a3e 5e9f d63d
000002c0: 1504 5e3d ef16 833d ad03 403d ef19 d63c
000002d0: 4d3c fa3c 98c1 483e 45e7 dc3d 1b3d b43d
000002e0: 4931 5b3d 717f 5b3e a7f4 d83d 1a7b 63be
000002f0: 194d 0a3d 78a9 6f3e b622 a3bd bae6 423c
00000300: a70e 8b3d 8847 11be 82ae 5c3e ae04 0b3e
00000310: 4494 383e 035b a8bc 57ff 633e c897 00be
00000320: 2d64 993d 883e 0d3e 94e1 bb3d d68a 9f3d
00000330: 9878 f6bb 02b5 8cbd e1fc d0bc 7549 173c
00000340: 5f9d a63e a201 21bd 5991 343d 5d29 313c
00000350: 0c81 c1ba 5138 b1bd b7c7 24be 6490 85bd
00000360: 317e 8c3d 8197 1d3e 44e5 40be 620b 833e
00000370: 2732 18bd 7048 063b 00c0 b736 ca61 9e3e
00000380: ce79 9e3c 01e9 103e dd92 f13d 22ec edbd
00000390: 7bfd 563d d750 063c f573 4c3d 6733 b23d
000003a0: f70e 623d f10c 343d d27b 15bd 513d 633e
000003b0: a98b 7cbd c759 a9bd aaaa 83be 2d44 cd3b
000003c0: 1c6d 0cbe 2ec8 b43d 0775 95be ed64 30be
000003d0: bc07 a5bd 5c1f 553c 5c15 cdbc 0956 8abb
000003e0: 5061 773e 88ac 223c 4492 bbbd 0ecc 563d
000003f0: 0e55 bfbb 675c 38be 99d0 31bc 48a6 213e
0.2632033 0.027388465 -0.021296697 0.039015643 -0.03752763 -0.16373911 -0.044163328 0.023637969
0.33988598 -0.08423018 0.06518765 0.054097068 0.051179983 -0.3887777 0.022709271 0.28851613
-0.062051978 -0.26715654 0.1482241 -0.029736796 0.08966967 -0.04440745 0.06439936 -0.1202171
0.021596296 -0.04995178 -0.17208524 -0.07453449 0.23737645 -0.1275937 -0.015751982 0.09196765
-0.04820904 0.104038656 -0.051707104 -0.16173792 -0.11806709 0.4498208 -0.07601525 0.051099323
0.10181869 0.06159235 0.030718258 0.108741835 -0.06690646 0.13394168 0.043311972 0.04632209
0.009978684 -0.008166604 0.1319985 -0.10041057 -0.07307359 -0.08771143 0.09958837 0.004416328
-0.04553456 -0.07301923 -0.009515974 0.10384067 0.079581365 0.14572816 0.1378683 -0.11759073
0.028158834 0.07345274 0.22222388 0.09361405 0.10836243 0.13135482 -0.040056907 0.076759376
-0.03097344 -0.023337383 0.08265644 -0.21963957 0.14042534 0.030599268 0.08023721 0.05484833
0.06092938 0.06389144 0.23403274 0.085567184 0.028365972 -0.13557808 -0.06349318 0.13122113
-0.16983473 -0.016881067 -0.033205006 -0.049944818 0.047509696 -0.08696075 -0.13273787 0.08284801
-0.28087366 0.1482288 -0.01661416 -0.022549648 -0.105234705 -0.06424636 -0.03375326 0.15840968
0.0025398654 0.14037739 0.055552606 -0.059333727 -0.02088966 -0.12771212 -0.076682165 0.0215533
0.022469783 0.15106964 -0.049425248 0.25973272 -0.067616686 -0.120907694 0.08163216 -0.010510582
-0.09807514 -0.014068757 -0.0032487018 0.13890934 -0.107836686 -0.06789815 -0.058489867 -0.0013594193
0.059126705 0.006890894 -0.2371102 0.057283156 -0.069694825 -0.15017022 -0.14082241 0.19983426
0.15215586 0.066222236 0.19736168 -0.050404944 0.15026645 0.040730745 0.07746553 -0.0626009
-0.056577485 0.037659425 0.0042613116 -0.05375861 0.18313496 0.14504313 0.0955227 -0.20584038
0.058418855 -0.047062285 -0.011875686 0.09241129 -0.1767499 0.21528532 -0.12612873 -0.030449186
-0.01708008 -0.17587444 -0.045518953 0.02029611 -0.12581736 0.0988222 0.2302106 0.04368384
0.07690994 0.10439918 0.28248668 0.14338528 0.09410406 -0.08077047 0.16625887 0.10479616
0.05420311 0.064008586 0.046878505 0.026135413 0.030546332 0.196051 0.10786299 0.088007174
0.0535138 0.21435334 0.10593539 -0.22214928 0.033764932 0.23404491 -0.07965605 0.01189583
0.06789904 -0.14187443 0.21550944 0.13576004 0.18025309 -0.02055121 0.22265373 -0.125579
0.0748981 0.13793385 0.09173885 0.07790153 -0.0075217 -0.06870462 -0.025511207 0.009233822
0.3254194 -0.039308198 0.044083927 0.010813084 -0.001476319 -0.086533196 -0.1609181 -0.06521681
0.068600066 0.15389825 -0.18837458 0.25594622 -0.037157204 0.0020489953 5.4761767e-06 0.30933982
0.01934519 0.14151384 0.1179559 -0.116173044 0.05248783 0.008197985 0.049915273 0.087012105
0.055190053 0.043957654 -0.036495037 0.22191359 -0.061656628 -0.08269077 -0.25716144 0.0062642307
-0.13713497 0.08827244 -0.29190847 -0.17226 -0.08058116 0.013007965 -0.025034599 -0.004221682
0.24158216 0.00992883 -0.09158757 0.052440695 -0.0058389967 -0.18003999 -0.010852956 0.15786088

fc2.bias f4 [84]
00000000: 1067 f7bc 7e60 6d3e cec7 cf3d 3a4b 903e
00000010: 77cd 9bbc bbea 3dbd 8604 743c 0847 043d
00000020: 60c3 11be ccac 85bd 5e62 e23d 1f67 193c
00000030: 45c1 b2bc add3 81bd 792a f13d 5adc e03d
00000040: ce83 d4bc 8489 f23b 041c aa3d 24c1 523e
00000050: 8ee5 113e 00e0 95bd 496f d63d c2ff 5e3e
00000060: 1a3e 2a3d f4cd 7b3e 54a9 6cbe f328 323e
00000070: 804a 873a 914c a5bd e960 24be 4d7f 1bbc
00000080: c58e 1b3e d775 01be 746b 89bd a25c 803d
00000090: b9df 823e dbba 09bd 8ff9 713e 34ae fabb
000000a0: eb2b 5b3d 2cf1 cc3c 8015 24be cdba 1dbe
000000b0: a903 023d 9d93 bdbd b579 8b3d 1819 0a3e
000000c0: 1576 1b3e b627 bc3d 0b71 9bbd e869 a1bd
000000d0: fb5d ac3c d138 963e b2f2 ba3d f31b 03be
000000e0: f1d0 3b3d e076 b23c 282f 91bd 99af 9abd
000000f0: d5c9 abbd 6364 a8bd 55ec 143e 19f7 6e3e
00000100: 8a47 b13c e84e c83c e0a6 1abe 1eab 193e
00000110: 79f7 3f3c edb7 10be 35b6 473e 0882 d53d
00000120: 3e22 043c f6db a43e 775c 3b3e a00d db3d
00000130: 130f 97bd caff d2bc 5d3b f0bd 7015 873d
00000140: 439e 2f3e 9a7e 82bb 2f98 ce3d c49f 84bc
-0.030200511 0.2318134 0.101455316 0.28182393 -0.019018872 -0.046366435 0.014893657 0.032294303
-0.14234686 -0.06527099 0.11053918 0.009362965 -0.021820674 -0.06339202 0.11775679 0.10979529
-0.025941756 0.007401647 0.08306125 0.2058149 0.14247724 -0.07318115 0.10470445 0.21777251
0.04156313 0.24590284 -0.23111469 0.17398433 0.0010321885 -0.080712445 -0.16052593 -0.0094908
0.15191181 -0.12642609 -0.06709948 0.06267668 0.25561312 -0.033625465 0.23630355 -0.007650161
0.05350868 0.025017343 -0.16023827 -0.1540329 0.03174177 -0.092566706 0.06810323 0.13486135
0.15181763 0.09187262 -0.075899206 -0.07881528 0.021040907 0.29340222 0.09128322 -0.1280363
0.04585356 0.0217852 -0.070890725 -0.07553024 -0.08388106 -0.08222272 0.14543279 0.23336448
0.021640558 0.024451688 -0.1510272 0.15006682 0.011716717 -0.14132662 0.195031 0.10425192
0.008064805 0.32199067 0.18296991 0.10695958 -0.07375922 -0.025756735 -0.11730073 0.06595886
0.17150216 -0.0039823772 0.100876205 -0.016189463

fc3.weight f4 [5, 84]
00000000: e8db 133d d444 0b3e 4f06 48bd 9f7b c5be
00000010: a57c e73b 403e bfbe 7abf ea3d 60b1 0ebe
00000020: fe3c b03c 9ea4 e33c 746d 73bd a97b 273e
00000030: 0f87 8abe d334 54bd 7fec 1fbe a1d1 ffbd
00000040: 6605 ccbb 4430 64be b539 cc3d 5062 d03d
00000050: 3596 c5be 72cb aebc 3dfb 303e 8643 adbe
00000060: b8dc c83d aeef 4b3f 7e71 f6bd e082 c03d
00000070: 647a f03d 2fa9 4cbd 5be5 083e bc21 353e
00000080: acf7 183e 291b 6fbd 0339 a93a 6957 a43b
00000090: 09d9 0d3e b3b6 0cbd dc72 ec3e 93c8 93bd
000000a0: 0913 8cbe 9e64 683d 3c18 67be 93c6 d33d
000000b0: 3e77 20be fb65 6abe 69e9 af3e d7b2 05be
000000c0: bfed 293e dc88 e23d 07e3 c1bd c3fc f5bc
000000d0: 75bc 643c 3a2c 26bc ce71 e23d 5a53 1d3d
000000e0: 1203 8fbe 459e 3d3e e3cf 46bb caaf 123e
000000f0: 78e5 473d 388d 4fbe 9ab5 00be 34ac 1a3d
00000100: fce2 183e 6a31 d7bc 9580 6a3d 7f5b e03d
00000110: 0080 ebbd 3355 88be 9d3d a8bd 4f05 2d3e
00000120: 5cd9 203d c084 2cbe 0d13 f7bd 0f5d aabe
00000130: e3c0 3e3d 9e90 8ebe 55b9 0c3b e4eb 46be
00000140: bc71 9a3d 6c3c 0b3e cd7f afbe 129c 07be
00000150: 135b c33d 350d 80be ec59 77bd c651 133e
00000160: f765 8d3d 53aa 0dbe ca4b 043e e688 7cbd
00000170: 1a43 b8bd 6415 89be 1c24 bfbd 0551 c93c
00000180: ee03 813e 6ed9 983d 5222 e0bd e023 37be
00000190: 11e5 223d bada 9c3d 7f49 8e3d 6d9b 84be
000001a0: 354a 4abb 6178 013d 5bce 2fbe 1535 7fbe
000001b0: f69e ff3d 151d 06bf 3e51 4ebe a153 0b3e
000001c0: e84d 263e 8ba5 7abd 1e3d c1bd c735 28bd
000001d0: a420 e3bd ddb8 b83d 5824 f5bd fd12 fabd
000001e0: 83a2 bbbe 4b7a b9bd c3fc b0be eca2 a2bc
000001f0: c938 423c 0ae3 893d 9cce e4bc 1c4f 8dbd
00000200: 94af dbba 3a2d 0abe 4963 423d cf40 633e
00000210: 8aca 5c3e 10f5 dabd 3ab6 aebc 7b64 81bd
00000220: a5bd 053d ab5f ddbe f8a1 50be 48ea 4e3b
00000230: 839a 193e c644 393e 7c38 8bbc 240f a83d
00000240: 60d6 1abe eaf8 8a3e b5e9 82bd 6199 e0be
00000250: 3f78 0cbe 8718 cbbd ac68 27be 9fac 11be
00000260: 3ed5 bebc bd12 96bd 291a bbbe 9924 c73c
00000270: cbb8 fabb e995 e1bc a8eb 8c3d 4804 0e3e
00000280: db7b 443d fafd bcbd 6a7f 823d de55 a73e
00000290: 86b4 89bd e491 7e3e 809a 67be 2f13 753e
000002a0: 4bca 8bbe de80 91be 6811 873c 4e33 40be
000002b0: b860 31bd ae0c 803e 7104 d23d aff4 bf3d
000002c0: bb7d 873d 34e6 98bc 10fa 6abd 50e6 f2bd
000002d0: bcad 073e c9a6 44bb 5739 97bd bc3e 9e3c
000002e0: ba17 25bd 024b 463d c6dd 1dbd 742a dd3e
000002f0: e24b 6a3e 487d a43d 4b1a cc3d b330 883d
00000300: a958 0bbc 8e54 08bf 7bd7 433d 740f a5be
00000310: e847 d6bd b638 063e c051 30bd 808b 84bd
00000320: eff9 2f3c c683 5f3d ce91 0c3e a09b 53bd
00000330: 2650 d23b 9c73 1a3e 49a7 82bc 54ea 94bd
00000340: 8089 443e f6d9 c43c dce5 14be c897 983d
00000350: e743 2abd 4f55 5dbd c8b2 d3bd 2ada 8fbe
00000360: 2e8f e9be 22ec 163e 5751 923d 3dc1 00bc
00000370: 9bb3 8f3c f487 22be e5a9 143d 7191 963d
00000380: 24e2 35bd 318b abbe 641b 3fbd c2d2 d63d
00000390: 89dd 973c 91c2 ab3d 4a22 ebbd 0f03 443d
000003a0: f942 0fbe 492b f53c 7d68 803d 125e 99bd
000003b0: 356e 0d3d f609 8f3e c066 8ebd ef1a 50bd
000003c0: ea20 cd3d 2ff0 97be d531 15bd f629 a9bc
000003d0: 4c29 39bd 0974 2abe 9480 72bd 376d 48be
000003e0: 7cea 80be cf52 8cbe 4acc 713e 3200 d33b
000003f0: 1ddc 6abd a18e bcbb 5d0c 7ebe 6bc6 883e
0.03609839 0.13600475 -0.04883414 -0.38570878 0.0070644193 -0.3735218 0.114623025 -0.1393485
0.021513458 0.027788457 -0.059430555 0.16355766 -0.27056167 -0.05180819 -0.1561756 -0.124911554
-0.0062262295 -0.22284037 0.09971944 0.101750016 -0.3859116 -0.021337245 0.1728334 -0.3384058
0.09807724 0.796626 -0.12033366 0.093999624 0.11742094 -0.049966034 0.13368742 0.1768865
0.1493823 -0.05837551 0.0012910668 0.005015303 0.13852324 -0.034353923 0.4618138 -0.07215991
-0.27358273 0.05673658 -0.22567838 0.103406094 -0.15670487 -0.22890465 0.34357765 -0.13056503
0.16594599 0.1106126 -0.0946713 -0.030027753 0.013960947 -0.01014238 0.11056863 0.03840957
-0.2793203 0.18517406 -0.0030336312 0.1432487 0.048802823 -0.20268714 -0.12569275 0.037761882
0.14930338 -0.02626868 0.05725153 0.109549515 -0.114990234 -0.26627502 -0.08214877 0.16896556
0.03926979 -0.16847515 -0.120641805 -0.33274123 0.04657067 -0.2784471 0.0021472771 -0.19425923
0.07541224 0.13597268 -0.34277192 -0.1324313 0.095388554 -0.25010076 -0.06038849 0.14386663
0.06904214 -0.13834505 0.12919536 -0.061653994 -0.089971736 -0.26774132 -0.09333059 0.024574766
0.2519831 0.074633464 -0.10944046 -0.17884779 0.039769236 0.07658906 0.06947612 -0.2589983
-0.0030866985 0.031608943 -0.17168562 -0.24922593 0.12481491 -0.52388126 -0.20148179 0.1360612
0.16240656 -0.06119303 -0.09435485 -0.04106691 -0.1109021 0.09019635 -0.11969823 -0.12210653
-0.36647424 -0.09056529 -0.34567842 -0.019853078 0.011854359 0.067327574 -0.02793055 -0.068998545
-0.00167607 -0.13493815 0.047457967 0.22192691 0.21561638 -0.10691273 -0.021327127 -0.06317993
0.032651562 -0.4323705 -0.20374286 0.0031572748 0.15000348 0.18092641 -0.016994707 0.08206013
-0.1512084 0.2714303 -0.06392232 -0.4386702 -0.13717745 -0.099167876 -0.16348523 -0.14226006
-0.023295041 -0.07327793 -0.36543396 0.024309443 -0.0076514236 -0.027537303 0.06880885 0.1386882
0.04796968 -0.0922813 0.063719586 0.326827 -0.06723885 0.2486034 -0.22617531 0.23933099
-0.27302775 -0.2841863 0.016487792 -0.18769571 -0.04330513 0.25009674 0.102547534 0.093728416
0.06615778 -0.018664457 -0.057367384 -0.11860335 0.13249868 -0.0030006638 -0.073839836 0.019317023
-0.04030583 0.048411377 -0.038541578 0.43196452 0.2288051 0.08031708 0.099659525 0.06649914
-0.008505025 -0.5325402 0.04781292 -0.32238352 -0.10462934 0.13107571 -0.043046713 -0.0647192
0.010740741 0.05456903 0.13727495 -0.051662087 0.006418246 0.15083164 -0.015948908 -0.07271257
0.19193077 0.024029713 -0.1454081 0.07450825 -0.041568663 -0.054036435 -0.10336834 -0.28096133
-0.4561705 0.14738515 0.071444206 -0.007858572 0.017541697 -0.15872175 0.036294837 0.073519595
-0.044405118 -0.33504632 -0.04665698 0.104894176 0.018538253 0.0838672 -0.114811495 0.04785448
-0.13990392 0.029927867 0.062699296 -0.074886456 0.03452893 0.27937287 -0.06953192 -0.050806936
0.100160435 -0.29675433 -0.036424477 -0.020649891 -0.0452054 -0.16645826 -0.059204653 -0.19572912
-0.25178897 -0.27406928 0.23613086 0.0064392323 -0.057338823 -0.0057543074 -0.24809404 0.2671388

fc3.bias f4 [5]
00000000: 4a5d 843d 7987 f03c 7307 31be 296a e93d
00000010: f8f5 8b3d
0.06463106 0.029361473 -0.17287998 0.113972016 0.06834024
