output_visualizations/base_tsk[^]_agm[crop]_spl[S3]_mdl[lenet]_ls[SM]_tu[none]/model.pt (torch, 248071 bytes, 10 tensors)

conv1.weight f4 [6, 1, 5, 5]
0	0x3e6bdb8e	0.23032972
1	0x3ea2a140	0.3176365
2	0x3dcf0372	0.10108079
3	0x3e62ee73	0.22161274
4	0xbddf25b1	-0.10895861
5	0x3e365ffa	0.1781005
6	0x3e0b628d	0.13611813
7	0x3eb7a8c7	0.35870954
8	0x3e9b170a	0.30291015
9	0xbe14d032	-0.14532545
10	0x3e8fb8c0	0.2807064
11	0x3e81c0ba	0.2534235
12	0x3ec94342	0.39309126
13	0x3e304104	0.17212301
14	0x3df50e2c	0.11965594
15	0xbd3876a4	-0.04503502
16	0x3e790df6	0.24321732
17	0x3e36982d	0.17831488
18	0xbb3dc337	-0.0028955468
19	0x3d59c1d6	0.053163372
20	0xbe8fbbea	-0.28073055
21	0xbdf6f46e	-0.1205834
22	0xbdcd903c	-0.10037276
23	0x3dcd3768	0.100203335
24	0xbe6ccc89	-0.23124899
25	0xbd857245	-0.06515936
26	0xbc788b83	-0.015169981
27	0xbdb46c2a	-0.08809693
28	0xbc85aed1	-0.01631871
29	0xbe98701c	-0.29773033
30	0x3e7feef5	0.24993499
31	0xbd7ad058	-0.06123385
32	0x3e891ad6	0.26778287
33	0x3da7b9eb	0.08189758
34	0xbdb5a6eb	-0.08869728
35	0x3e4e7747	0.20162688
36	0x3e34c0ee	0.17651722
37	0x3eac50eb	0.33655486
38	0x3e144f9b	0.14483492
39	0xbc53a7fe	-0.01291847
40	0x3dae3a4a	0.085072115
41	0x3d7d06e9	0.06177417
42	0x3e84441e	0.2583322
43	0x3ea902b7	0.33009884
44	0x3e5b23ed	0.21400423
45	0xbe014b69	-0.12626423
46	0x3e26ba67	0.16282044
47	0x3e21f017	0.15814243
48	0x3e6d5d8d	0.23180218
49	0xbc8c1de0	-0.01710409
50	0xbe1995c4	-0.14998537
51	0xbd26c11a	-0.0407115
52	0xbe0c19b8	-0.13681686
53	0x3e205116	0.15655932
54	0x3ceb7855	0.028743902
55	0x3e17ac0e	0.14811727
56	0x3dee1001	0.11624146
57	0x3cbb0195	0.022827903
58	0x3e1ac69a	0.15114823
59	0xbe2fd3d2	-0.17170647
60	0x3db6f0cc	0.08932647
61	0xbd952493	-0.072823666
62	0x3dbb1ae3	0.091359876
63	0xbd9f4708	-0.0777722
64	0x3ce630f3	0.028099513
65	0x3d15a9b1	0.036538783
66	0x3e6a3ce0	0.22874784
67	0xbdc48a95	-0.09596745
68	0xbe0d8dd0	-0.13823628
69	0xbe228e82	-0.15874675
70	0x3e7cfdf9	0.24706258
71	0x3df32f34	0.11874238
72	0x3e4cfe13	0.20018797
73	0xbe4d04cd	-0.20021363
74	0xbe8105ec	-0.2519983
75	0xbe278892	-0.16360691
76	0xbdf78df3	-0.120876215
77	0x3dfc3053	0.123139046
78	0x3e09bd8c	0.13451213
79	0x3e6ef48c	0.23335475
80	0xbdccf54e	-0.10007726
81	0xbdd7024f	-0.10498487
82	0x3e2afcd7	0.16698013
83	0xbb65dfb1	-0.0035075957
84	0x3e49565d	0.19661851
85	0xbd0d9c48	-0.03457287
86	0x3e1edf69	0.15514912
87	0xbdb4adad	-0.088221885
88	0xbcb4c2cd	-0.022065545
89	0x3e051095	0.12994607
90	0x3d655b85	0.055995483
91	0xbc64c910	-0.013963953
92	0x3e334c9e	0.17509696
93	0x3e49b7bd	0.19698997
94	0xbdc75fe6	-0.09735088
95	0xbdc5e71a	-0.0966322
96	0x3e53f0c9	0.20697321
97	0xbd0c0a39	-0.034189437
98	0xbd20801a	-0.039184667
99	0xbe32a0bb	-0.17444126
100	0xbdfc70f8	-0.123262346
101	0xbdd829dc	-0.10554859
102	0xbe3fe6c6	-0.18740377
103	0xbeb4a451	-0.35281613
104	0xbe77b4b2	-0.24190024
105	0xbe27c79d	-0.1638474
106	0xbeca75b5	-0.39542928
107	0xbeb85383	-0.36001214
108	0xbeeeac26	-0.46615714
109	0xbeeab9ab	-0.45844778
110	0x3e19f45a	0.15034619
111	0xbe81b4dc	-0.25333297
112	0xbe9b7888	-0.30365396
113	0xbf14b148	-0.5808301
114	0xbf0a8298	-0.5410552
115	0xbda4aac4	-0.080403835
116	0xbe81432b	-0.25246558
117	0xbf128a6c	-0.57242465
118	0xbf03bbaa	-0.5145823
119	0xbf0ddd55	-0.5541585
120	0xbc629785	-0.01383007
121	0xbec94599	-0.3931091
122	0xbee08719	-0.4385307
123	0xbf15328f	-0.5828027
124	0xbf0e0809	-0.5548101
125	0xbdeef61d	-0.11668036
126	0xbd8c347c	-0.06845948
127	0xbe21a50d	-0.15785618
128	0x3e2bb7f9	0.16769399
129	0xbd2294ec	-0.039692804
130	0x3e303591	0.17207934
131	0x3d7f3f84	0.062316433
132	0xbe2d6c8d	-0.1693594
133	0x3e0dba93	0.13840704
134	0xbd61660c	-0.05502896
135	0xbd9d02a7	-0.076665215
136	0xbe29ff9a	-0.1660141
137	0xbe4b9aa7	-0.19883214
138	0x3d6a61c4	0.057222143
139	0xbd32f300	-0.043688774
140	0x3d9f777e	0.07786463
141	0xbe281266	-0.16413268
142	0x3e180cab	0.14848582
143	0xbe16558e	-0.14681074
144	0xbd0d7438	-0.034534663
145	0x3d2b1b28	0.041773945
146	0x3dd374ee	0.10325037
147	0x3e255651	0.16146208
148	0x3e3a9081	0.18219186
149	0xbe2263f5	-0.15858443

conv1.bias f4 [6]
0	0xbe287169	-0.16449513
1	0xbda888ce	-0.082292184
2	0xbd07a1e0	-0.03311336
3	0xbe171ba4	-0.14756638
4	0x3ead2fb6	0.33825463
5	0xbe165025	-0.1467901

conv2.weight f4 [16, 6, 5, 5]
0	0x3bb81c3a	0.0056185992
1	0xbda683b0	-0.08130586
2	0xbe1606aa	-0.1465098
3	0xbe5bf097	-0.21478496
4	0xbd333b5f	-0.043757793
5	0x3d0df4d9	0.034657333
6	0xbd0c1213	-0.034196924
7	0xbe4867ce	-0.19570848
8	0xbdf5f6cf	-0.12009966
9	0xbe0ca085	-0.13733108
10	0x3d80279b	0.06257554
11	0x3e0adede	0.1356158
12	0xbc8867e6	-0.016651105
13	0xbe22f3df	-0.15913342
14	0xbe2a166d	-0.16610117
15	0x3e101857	0.14071785
16	0x3e53efa6	0.20696887
17	0x3d859173	0.06521883
18	0xbd670005	-0.056396503
19	0xbdd51b2d	-0.10405574
20	0x3d1bbd01	0.038022045
21	0x3e56310e	0.2091715
22	0x3e6aa7e5	0.22915609
23	0x3d000888	0.031258136
24	0x3d4e9e9c	0.05044423
25	0x3ca8b3e8	0.020593598
26	0xbdb31ce6	-0.08745746
27	0xbe55b57d	-0.20870014
28	0xbe144bde	-0.14482066
29	0xbdcc131a	-0.09964581
30	0x3dd62d35	0.10457841
31	0xbc30465e	-0.010758964
32	0xbe021e3b	-0.12706845
33	0xbe1e50c5	-0.15460499
34	0xbe259237	-0.16169058
35	0x3e1368df	0.14395474
36	0x3e419ebd	0.1890821
37	0x3db6ef5a	0.089323714
38	0xbdc2663e	-0.094921574
39	0xbe125bad	-0.14292784
40	0x3e33a84e	0.17544672
41	0x3e573c6e	0.21019146
42	0x3e358d4a	0.17729679
43	0x3da4ec62	0.08052899
44	0xbdd55f8d	-0.104186155
45	0x3cab3fa8	0.020904377
46	0x3e825e79	0.25462702
47	0x3e7de4f0	0.24794364
48	0x3e2db345	0.16962917
49	0x3d28a486	0.041172527
50	0x3e30a1c4	0.17249209
51	0x3e26b2dc	0.16279167
52	0xbe460095	-0.1933616
53	0xbf245614	-0.64193845
54	0xbeaa01ac	-0.332044
55	0x3e652af2	0.22379664
56	0x3f0ec0a5	0.557627
57	0x3e7c338f	0.24629043
58	0xbe4a20f8	-0.19739139
59	0xbe126f91	-0.14300372
60	0xbe0e3d65	-0.13890608
61	0x3f2fd277	0.6868052
62	0x3f532ae9	0.8248735
63	0x3ee19de4	0.44065773
64	0x3d5bf50c	0.05370049
65	0xbf316ce6	-0.6930679
66	0x3daa058d	0.0830184
67	0x3f302ad8	0.68815374
68	0x3f17134d	0.59013826
69	0x3ecaa264	0.3957702
70	0xbf925d5e	-1.1434743
71	0xbf0ba85f	-0.5455379
72	0x3e35b1f3	0.17743663
73	0x3ef79fbd	0.48364058
74	0x3f03308e	0.51245964
75	0xbdabcee9	-0.08389074
76	0xbe4b97c0	-0.19882107
77	0xbe2900ec	-0.16504258
78	0xbd2d5477	-0.04231688
79	0x3d3da5cd	0.046300698
80	0xbd894e59	-0.06704397
81	0xbe42cf23	-0.19024329
82	0xbe62c342	-0.22144797
83	0xbe17a80d	-0.148102
84	0x3d4c4bdc	0.049877033
85	0x3c8648bd	0.016392106
86	0xbd6803d9	-0.056644294
87	0xbe1c1d02	-0.1524544
88	0xbda684d7	-0.08130806
89	0xbdfd097c	-0.123553246
90	0x3e04e56c	0.12978142
91	0x3cc10673	0.023562646
92	0xbde518dc	-0.11186382
93	0xbc38d15c	-0.011280384
94	0xbdcabaea	-0.09898932
95	0x3dfbbfd4	0.12292448
96	0x3d78a902	0.060708053
97	0xbd84a1e6	-0.06476192
98	0xbd0e48d3	-0.03473742
99	0xbd7443bd	-0.059634913
100	0x3d1bbde8	0.038022906
101	0x3d875f85	0.06610016
102	0x3e2d4e0e	0.16924307
103	0x3dc328f1	0.09529293
104	0x3db5421e	0.088505015
105	0xbd8b4d88	-0.06801897
106	0x3e10486c	0.14090127
107	0x3ddd8671	0.10816658
108	0x3e3cbec0	0.1843214
109	0x3e4695d7	0.19393097
110	0xbde2bb6a	-0.11070903
111	0xbcb962ab	-0.022630056
112	0x3d9f24e5	0.07770709
113	0x3d812679	0.06306166
114	0x3e358c32	0.17729262
115	0xbe5ca6fb	-0.21548073
116	0xbd9a01bf	-0.07519864
117	0x3d0907d1	0.03345472
118	0x3d8cb0d8	0.06869668
119	0x3cc3ff1f	0.023925362
120	0xbdfda41f	-0.12384819
121	0xbdff1a78	-0.124562204
122	0xbdead7bd	-0.1146693
123	0xbe509c3a	-0.20372096
124	0xbe03d60a	-0.12874618
125	0xbd487ae8	-0.048945338
126	0xbbea0240	-0.0071413815
127	0xbd249d4a	-0.040189065
128	0xbd08b4fe	-0.033375733
129	0xbcd4570a	-0.02592041
130	0xbd9ee88e	-0.077592
131	0x3d89343c	0.06699416
132	0x3d8c2f3c	0.06844947
133	0xbc51d9f0	-0.012808308
134	0xbc185870	-0.009298429
135	0xbd087d8b	-0.033322852
136	0xbd970242	-0.073734775
137	0xbda2ba4e	-0.07945691
138	0x3cf897b8	0.030345783
139	0xbd379f11	-0.044829432
140	0xbd57007a	-0.05249069
141	0xbbd0c030	-0.006370567
142	0xbcdebe16	-0.02719025
143	0xbcd86508	-0.026415363
144	0x3b2bef00	0.0026234984
145	0xbc8de060	-0.017318904
146	0xbce64d38	-0.028112993
147	0xbd202163	-0.03909434
148	0xbd881646	-0.06644873
149	0x3d8c36c4	0.06846383
150	0x3cab85c6	0.020937812
151	0x3dea13e5	0.11429576
152	0x3d9d8f6f	0.076933734
153	0x3dc93bf4	0.09825888
154	0x3e11fc39	0.14256372
155	0x3de2f485	0.11081795
156	0x3cf828ee	0.030292954
157	0x3e10b6fb	0.14132302
158	0x3e303eab	0.17211406
159	0x3da03562	0.07822682
160	0x3dd8c0fe	0.10583685
161	0x3e0287b7	0.12747084
162	0x3caaf970	0.020870894
163	0x3d0b61a7	0.034028675
164	0xbd8621b9	-0.06549401
165	0xbce8205f	-0.028335748
166	0x3c4b9a26	0.012426889
167	0xbcd6fb84	-0.026242979
168	0xbdfdd4cf	-0.12394106
169	0xbe0ef603	-0.13961034
170	0xbe00ee96	-0.12591013
171	0xbe40e86f	-0.18838666
172	0xbe296116	-0.16540942
173	0xbdd55c3d	-0.10417984
174	0xbd07b4a3	-0.033131253
175	0x3ddbb900	0.10728645
176	0x3d891d44	0.06695035
177	0x3d8b362b	0.06797441
178	0x3e205a85	0.1565953
179	0x3ca3b21a	0.019982386
180	0x3d90a01c	0.070617884
181	0x3dfaeea2	0.12252547
182	0x3d2586c6	0.040411733
183	0x3d411f67	0.04714909
184	0x3cc27203	0.023736006
185	0xbc8e82a5	-0.01739628
186	0xbd867374	-0.0656499
187	0xbdebe856	-0.11518924
188	0xbdf14257	-0.117802314
189	0xbdc5c821	-0.09657312
190	0xb9a36d96	-0.0003117143
191	0xbe18df9d	-0.14929052
192	0xbe225425	-0.15852411
193	0xbd9c6c20	-0.07637811
194	0xbd9754e4	-0.073892385
195	0xbd7b0007	-0.061279323
196	0xbd5646b4	-0.05231352
197	0xbd1229ac	-0.035684273
198	0xbe10218d	-0.14075299
199	0xbd9613e4	-0.073280126
200	0x3d8de5bd	0.06928585
201	0x3e394460	0.18092489
202	0x3eb6c277	0.3569524
203	0x3f0cb68e	0.54966056
204	0x3e9c8584	0.30570614
205	0x3ea87b08	0.32906365
206	0x3e95f7c4	0.29290593
207	0x3ea3c89a	0.31988984
208	0x3e198d4a	0.14995304
209	0xbe862cd8	-0.26206088
210	0x3ed36eca	0.41295463
211	0x3da2b8d3	0.07945409
212	0xbe89d0c0	-0.26917076
213	0xbf07d0f4	-0.5305321
214	0xbf22db8c	-0.6361625
215	0x3e3303dd	0.17481942
216	0xbed1c19a	-0.4096802
217	0xbf1d7aa3	-0.61515254
218	0xbf1d9aeb	-0.6156451
219	0xbf02ae75	-0.5104745
220	0xbea41a19	-0.3205116
221	0xbeca6508	-0.39530206
222	0xbe9292cf	-0.2862763
223	0xbdb7d9bb	-0.08977076
224	0x3db513f0	0.088416934
225	0x3e09e1ac	0.13464993
226	0x3e88ff31	0.26757196
227	0x3e93b10a	0.28846008
228	0x3e57d857	0.21078621
229	0x3df9290f	0.121660344
230	0x3e69fac2	0.22849563
231	0x3e84492a	0.2583707
232	0x3e8c258e	0.27372402
233	0x3d79a416	0.0609475
234	0xbd97bc56	-0.07408969
235	0x3e3c2e9a	0.18377152
236	0x3e4e5831	0.2015083
237	0x3d4b7b39	0.04967806
238	0xbd10f631	-0.035391036
239	0xbe17f700	-0.14840317
240	0xbdc60540	-0.0966897
241	0xbe0f344c	-0.13984793
242	0xbdede5c5	-0.11616091
243	0xbe17d37e	-0.14826772
244	0xbe0bf6b4	-0.13668329
245	0xbe307b55	-0.17234547
246	0xbe3e187c	-0.18564028
247	0xbdfba418	-0.12287158
248	0xbdf5ab0f	-0.119955175
249	0xbe4d677a	-0.20059004
250	0xbe82eeb1	-0.25572732
251	0xbe87bab8	-0.26509643
252	0xbeae24b0	-0.34012365
253	0xbe657936	-0.2240952
254	0xbe4d117a	-0.20026198
255	0xbe9adfb4	-0.30248797

conv2.bias f4 [16]
0	0xbe54c1a6	-0.20776996
1	0x3cccbc1a	0.024992038
2	0x3d20384c	0.03911619
3	0xbc058d8d	-0.008151424
4	0xbcb15ab9	-0.021649705
5	0xbc0ff204	-0.008785728
6	0x3d6aa335	0.057284553
7	0xbb601462	-0.0034191837
8	0xbd7c652b	-0.06161992
9	0x3d6d6251	0.05795509
10	0xbda8fc5a	-0.08251257
11	0x3d160633	0.036627006
12	0x3c529897	0.012853763
13	0x3ceca461	0.028886976
14	0x3d3247e0	0.043525577
15	0x3df69cce	0.12041627

fc1.weight f4 [120, 400]
0	0xbeadd7be	-0.3395366
1	0xbe0527ee	-0.13003513
2	0xbd9a4790	-0.07533181
3	0x3cd5d76a	0.026103694
4	0x3e10f8a4	0.14157349
5	0xbe1982c5	-0.14991291
6	0xbdfff651	-0.12498153
7	0x3c64a78e	0.013955964
8	0x3d93fd8c	0.072260946
9	0x3c846200	0.016160011
10	0xbd2cf6e5	-0.042227644
11	0xbcded6eb	-0.02720209
12	0x3db9ba4c	0.090687364
13	0x3e1b1a74	0.1514681
14	0x3d8642d9	0.06555719
15	0xbe07e0d2	-0.13269356
16	0x3e214640	0.15749454
17	0x3decddd8	0.11565751
18	0x3ded3079	0.11581511
19	0x3e3786a8	0.17922461
20	0x3d1476e4	0.036246195
21	0x3e2d4e3f	0.1692438
22	0x3e50140d	0.20320149
23	0x3e565264	0.20929867
24	0x3e898f6f	0.26867244
25	0x3e185557	0.14876305
26	0x3e9a263d	0.30107298
27	0x3e6d93db	0.23200934
28	0xbc96bf28	-0.018401697
29	0xbd99197e	-0.074755654
30	0x3eabc04c	0.33545148
31	0x3e02cef7	0.12774263
32	0x3d97a518	0.07404536
33	0x3dc334fb	0.095315896
34	0x3e40ef66	0.18841323
35	0x3e905fba	0.28198034
36	0x3e337a63	0.17527156
37	0xbd87e96e	-0.0663632
38	0x3dd56727	0.104200654
39	0x3dfd5940	0.12370539
40	0x3e78cc19	0.24296607
41	0xbd1b0de3	-0.03785504
42	0xbbe64aa1	-0.0070279394
43	0x3c8c8536	0.017153364
44	0x3d8a0128	0.06738502
45	0x3b81fea8	0.003967125
46	0xbd5069fb	-0.05088232
47	0xbd900c51	-0.07033599
48	0xbdbd320a	-0.0923806
49	0xbe89e1f1	-0.26930192
50	0xbdbf20bf	-0.09332418
51	0x3c31e434	0.0108576305
52	0xbc7eab1b	-0.015543724
53	0x3d7b7e98	0.061400026
54	0xbd3f7906	-0.046746276
55	0xbc3d93cd	-0.011570883
56	0x3c9c7e1b	0.0191031
57	0xbd3f6f61	-0.04673708
58	0x3c4f33e4	0.012646649
59	0xbd3cf8b4	-0.04613562
60	0x3d79b2fd	0.060961712
61	0x3d4c33bc	0.049854025
62	0xbd7e0a28	-0.062021405
63	0xbd494b36	-0.049143992
64	0x3c8512af	0.01624426
65	0x3c92c228	0.017914847
66	0xbc998626	-0.018740725
67	0x3d327e8b	0.043577712
68	0xbcc2f7e4	-0.023799844
69	0xbd71ec83	-0.059063446
70	0x3d1f576f	0.038901743
71	0x3c91da5c	0.017804317
72	0xbc0ed641	-0.008718074
73	0x3da39bae	0.07988678
74	0x3d19ced4	0.037550762
75	0xbdabcaed	-0.083883144
76	0x3e3f17da	0.18661442
77	0x3d9fe10a	0.07806595
78	0xbcc54a57	-0.0240833
79	0xbd490189	-0.04907373
80	0x3d940f6d	0.07229505
81	0x3d1d5e25	0.03841986
82	0xbaae99a6	-0.0013320937
83	0xbd925f22	-0.071470514
84	0xbdc540d4	-0.096315056
85	0x3da09b0d	0.078420736
86	0x3dc944a7	0.098275475
87	0xbd947523	-0.072489046
88	0xbe2484e4	-0.16066319
89	0xbe79a75c	-0.24380249
90	0x3d8ed91a	0.069750026
91	0xbd6d9daf	-0.058011707
92	0xbddc786b	-0.107651554
93	0xbe9640ef	-0.29346415
94	0xbeabc588	-0.33549142
95	0x3d80ae6f	0.062832706
96	0xbe3d0a49	-0.18460955
97	0xbe660425	-0.22462519
98	0xbe41ce43	-0.18926339
99	0xbde88c69	-0.11354906
100	0x3e0d9eb7	0.13830076
101	0xbd9cd1dc	-0.07657215
102	0xbe1974ea	-0.14986005
103	0xbd4730c2	-0.048630483
104	0xbc511bc2	-0.012762966
105	0x3d8b2c8e	0.067956075
106	0xbd15c365	-0.036563296
107	0xbca63594	-0.02028922
108	0x3dd1b338	0.102392614
109	0xbdf927fb	-0.12165829
110	0xbd726d9b	-0.05918656
111	0xbe288e6a	-0.16460577
112	0xbde5fdf3	-0.112300776
113	0x3dc56199	0.09637756
114	0xbc17187f	-0.009222149
115	0xbde7bd96	-0.113154575
116	0xbe125730	-0.14291072
117	0x3e86f931	0.26361993
118	0x3c811ae5	0.015759895
119	0x3d37e268	0.044893652
120	0xbd463242	-0.048387773
121	0x3d9ef7dd	0.0776212
122	0x3de2039e	0.11035846
123	0xbe0cc819	-0.13748206
124	0x3c5b6a3e	0.013392029
125	0xbe9d17d3	-0.3068224
126	0xbd297eb6	-0.041380607
127	0xbc0add4f	-0.008475616
128	0x3d5b29f8	0.05350682
129	0xbd1aa96a	-0.037759222
130	0xbe1df30f	-0.15424751
131	0xbd4f7fa8	-0.05065885
132	0xbd40baf5	-0.047053296
133	0x3d26e8ee	0.040749483
134	0xbc08e0e1	-0.008354397
135	0xbe7f367c	-0.24923128
136	0x3c4d73b6	0.012539795
137	0xbcb59fe6	-0.022170972
138	0x3da97178	0.082735956
139	0xbc94efca	-0.018180747
140	0xbd8a4155	-0.06750742
141	0x3d85c11c	0.06530973
142	0x3d767de5	0.060178656
143	0x3dd8285d	0.10554574
144	0x3e07d47e	0.13264653
145	0x3d9be10e	0.07611285
146	0xbcf1aea5	-0.029502222
147	0x3d06769a	0.03282795
148	0x3d88a0fb	0.066713296
149	0x3e833983	0.25629815
150	0x3c9aeeea	0.018912751
151	0xbd84b4af	-0.06479775
152	0xbbf07214	-0.007337818
153	0xbd21fd0f	-0.039547976
154	0x3cc1ba3f	0.02364838
155	0xbda8f661	-0.08250118
156	0xbc0486e5	-0.008088802
157	0xbd024fe0	-0.031814456
158	0x3acaa60e	0.0015460865
159	0xbcd9bf06	-0.026580345
160	0x3c90ab8b	0.017659923
161	0x3d533415	0.05156334
162	0x3ce5c4dd	0.028047973
163	0xbd35f5a7	-0.044423725
164	0x3d273d5e	0.04083001
165	0x3d9ea78c	0.07746801
166	0x3c930e05	0.017951021
167	0x3c614013	0.013748187
168	0x3d7ffc27	0.06249633
169	0xbbd8e06c	-0.00661855
170	0x3c277395	0.010220428
171	0x3db4499d	0.08803103
172	0x3d46e083	0.048553955
173	0x3d9e583d	0.07731674
174	0x3d19dbef	0.03756326
175	0x3b90656c	0.0044066217
176	0xbd16b13d	-0.03679012
177	0x3d86c1eb	0.06579956
178	0x3d342e18	0.04398927
179	0x3d13966a	0.036032118
180	0xbc99dc3d	-0.018781776
181	0x3d1cc61b	0.038274866
182	0x3d5c64e3	0.05380715
183	0xbb8ab18e	-0.004232592
184	0x3d4f0ae9	0.050547514
185	0xbb6d499e	-0.003620721
186	0x3c7b8808	0.015352257
187	0x3b42f701	0.0029749277
188	0x3c9de1ea	0.019272763
189	0x3d0d491d	0.034493554
190	0xbd42cf15	-0.04756077
191	0x3d5d5387	0.054034736
192	0xbd2a6f97	-0.041610327
193	0xbd414460	-0.047184348
194	0xbdc2e2ca	-0.09515913
195	0x3c6daa57	0.014505944
196	0xbcf07c86	-0.029356252
197	0xbbd32221	-0.0064432775
198	0xbca6ed2e	-0.020376768
199	0x3a672953	0.00088181085
200	0x3c14ac7d	0.009074328
201	0x3dfc5f91	0.12322915
202	0x3dbedacd	0.09319077
203	0x3dfb9466	0.12284164
204	0x3d796a15	0.060892183
205	0x3e306d9e	0.17229316
206	0x3d941e4d	0.07232342
207	0x3cfaa7af	0.030597536
208	0x3cb1a04a	0.021682877
209	0xbe365959	-0.17807521
210	0x3de5fac4	0.1122947
211	0xbcec45b1	-0.028841825
212	0xbc52bd97	-0.012862585
213	0xbb287b7d	-0.002570837
214	0xbe81e086	-0.2536661
215	0x3e22bcd1	0.1589234
216	0xbd9ca3ad	-0.07648406
217	0xbdd110e6	-0.10208301
218	0xbe506852	-0.20352295
219	0xbe97ca0a	-0.2964633
220	0xbb6e5c36	-0.003637088
221	0xbe9228b2	-0.28546673
222	0xbe62802c	-0.22119206
223	0xbe0458bb	-0.12924473
224	0xbd8e33f0	-0.069435
225	0xbb39f84d	-0.0028376759
226	0x3c4afd63	0.012389514
227	0x3cee8141	0.029114367
228	0x3d75193d	0.059838522
229	0x3d621666	0.055197142
230	0x3ccaa63e	0.024737474
231	0xbd5ac7de	-0.053413264
232	0xbc4f1357	-0.012638888
233	0xbd0b6edd	-0.034041274
234	0xbbd5093a	-0.006501344
235	0x3c2c14ea	0.010503033
236	0x3d770a6f	0.060312685
237	0x3cb4bcd6	0.0220627
238	0x3a493e5c	0.0007676834
239	0xbd27e4a8	-0.040989548
240	0xbc7de717	-0.015496991
241	0x3c8238f7	0.015896304
242	0xbc2ff7ef	-0.010740264
243	0xbc731b45	-0.0148380445
244	0x3d2e125d	0.04249798
245	0xbce17dc1	-0.027525784
246	0xbbba77c9	-0.005690549
247	0x3d27c0e9	0.040955458
248	0x3d0fc22c	0.035097286
249	0x3c82d40b	0.01597025
250	0x3dbcde3c	0.09222075
251	0x3d3141cf	0.04327565
252	0xb9a5db66	-0.00031634717
253	0x3d1d19af	0.038354572
254	0x3d526e5e	0.051374786
255	0x3b7851b8	0.0037890505

fc1.bias f4 [120]
0	0xbd14074a	-0.036139764
1	0xbd5892e9	-0.05287448
2	0x3dc78563	0.097422384
3	0x3d369bbe	0.04458212
4	0x3e39dc75	0.18150504
5	0xbd12c931	-0.035836402
6	0x3d01a2ab	0.031649273
7	0xbdbbeffc	-0.09176633
8	0xbc51fa7b	-0.012816067
9	0xbcda5aee	-0.026654687
10	0xbcf1a85d	-0.029499227
11	0xbc706577	-0.014672629
12	0xbd047a84	-0.032343403
13	0x3e47e3d1	0.19520499
14	0x3d15fd54	0.036618546
15	0x3e63c180	0.22241783
16	0xbcb2ff71	-0.02185032
17	0x3e0c3218	0.13690984
18	0x3eb8ed45	0.36118522
19	0x3c15b642	0.009137692
20	0x3cdc4d28	0.02689226
21	0x3c5aeb4f	0.013361766
22	0x3e011bfc	0.12608331
23	0xbda853ec	-0.08219132
24	0xbc21e34f	-0.009880855
25	0xbc77bd58	-0.015120827
26	0x3e75898f	0.23978256
27	0x3e1ad946	0.15121946
28	0x3db1684f	0.086624734
29	0x3da056d1	0.07829059
30	0x3e0000c2	0.12500289
31	0xbd4ee416	-0.05051049
32	0xbe212960	-0.1573844
33	0xbe12f9c3	-0.14353089
34	0x3d31c297	0.043398466
35	0x3e266361	0.16248848
36	0x3de4bf7d	0.11169336
37	0x3e0e9aaf	0.13926195
38	0x3e43481b	0.19070475
39	0xbd3517ef	-0.044212278
40	0xba13644f	-0.0005622552
41	0x3ea40bc9	0.3204024
42	0x3e1a411b	0.15063898
43	0x3db242ee	0.08704172
44	0x3d590c2e	0.05299013
45	0xbdd2483a	-0.102676824
46	0xbd9add19	-0.07561702
47	0xbd5659f5	-0.052331883
48	0xbdc5235d	-0.09625886
49	0x3e3dd7ab	0.18539302
50	0x3e0410bc	0.12897009
51	0x3e345b1a	0.17612877
52	0x3e609ad7	0.21934067
53	0xbc59369a	-0.013257647
54	0x3d624164	0.055238143
55	0x3e029ea2	0.12755826
56	0xbcbc1980	-0.022961378
57	0x3dbe8925	0.09303502
58	0xbcb214a9	-0.021738367
59	0xbd01e1cb	-0.031709474
60	0xbc03f042	-0.008052887
61	0x3d7033a6	0.058643006
62	0xbd75170c	-0.059836432
63	0xbc9d25d0	-0.01918307
64	0xbbf545e2	-0.0074851373
65	0xbd80bece	-0.06286393
66	0xbd7e7b5a	-0.062129356
67	0x3db5db55	0.08879725
68	0x3e1a4ccb	0.15068357
69	0xbd65962d	-0.056051422
70	0x3db14013	0.08654799
71	0x3e87caf4	0.26522028
72	0xbd04be44	-0.032408014
73	0xbd21ef23	-0.0395347
74	0xbd87c747	-0.06629806
75	0xbac55573	-0.0015055373
76	0x3d9a26da	0.075269416
77	0xbd77ea47	-0.06052616
78	0x3ea12007	0.31469747
79	0xbcb84f90	-0.022498876
80	0x3cf1813c	0.029480569
81	0x3e7f68c7	0.24942313
82	0x3c204f5c	0.009784546
83	0x3d9aafea	0.07553084
84	0x3e934843	0.2876607
85	0xbe1c003a	-0.15234461
86	0xbd27ba0e	-0.04094892
87	0x3d643f6b	0.055724543
88	0xbd27df1b	-0.040984254
89	0xbdfd9cf7	-0.12383454
90	0x3edc8a65	0.43074337
91	0xbcd41fb6	-0.025894027
92	0xbcc8fee8	-0.024535611
93	0x3e64b255	0.22333653
94	0x3cad500d	0.021156335
95	0xbcd4beef	-0.02596995
96	0xbe092f1d	-0.13396879
97	0xbe289dad	-0.16466399
98	0xbdfb2a08	-0.12263876
99	0x3e19ccfc	0.15019602
100	0xbcf8d174	-0.030373313
101	0xbd99b8a6	-0.07505922
102	0xbd414487	-0.047184493
103	0x3ea939dd	0.3305196
104	0xbd3829a8	-0.0449616
105	0xbd4310e2	-0.047623523
106	0x3e828621	0.25492957
107	0xbd2c6f30	-0.042098224
108	0xbda0bb79	-0.078482576
109	0x3e6d0df9	0.23149861
110	0x3e3877a2	0.18014386
111	0x3d569f52	0.052398033
112	0xbe2acb83	-0.16679196
113	0x3dcbb904	0.09947398
114	0xbdec70d9	-0.115449615
115	0x3e13ca6c	0.14432687
116	0xbc9b03b8	-0.018922672
117	0xbd9874d6	-0.0744416
118	0xbc1bf215	-0.009518166
119	0xbdb40ee8	-0.08791906

fc2.weight f4 [84, 120]
0	0x3d71b85e	0.059013717
1	0xbd8c0805	-0.06837467
2	0xbc67a3b5	-0.014138152
3	0x3c8e9ceb	0.017408809
4	0x3e0f02ed	0.1396596
5	0xbd8c09eb	-0.06837829
6	0x3d2a073d	0.04151081
7	0xbd2f6cef	-0.042828497
8	0x3d64a870	0.055824697
9	0xbdac80df	-0.08423018
10	0x3d3d778e	0.046256594
11	0xbd26e00b	-0.040741008
12	0x3d0d9358	0.034564346
13	0x3da04b3d	0.078268506
14	0x3dc55df5	0.096370615
15	0x3db9988d	0.090623
16	0xbc044f6a	-0.008075574
17	0x3c068a1e	0.008211641
18	0x3e89b6a9	0.2689717
19	0x3e840a50	0.25789118
20	0xbce27649	-0.027644293
21	0xbd47f053	-0.048813175
22	0x3e2edbfb	0.17076103
23	0xbe454b62	-0.19267038
24	0x3e15613d	0.14587875
25	0xbd06b621	-0.032888535
26	0x3d83f43a	0.06443067
27	0x3d3eec84	0.046612278
28	0x3d4922d0	0.049105465
29	0xbd704b1c	-0.05866538
30	0x3f1aa4a0	0.6040745
31	0x3e23527c	0.15949434
32	0x3d8869f7	0.06660836
33	0x3caa0f51	0.020759257
34	0x3e085dfe	0.13317105
35	0x3db350b0	0.08755624
36	0x3c0c7730	0.008573338
37	0x3e90e51a	0.2829979
38	0xbd0ec867	-0.034859087
39	0x3d3ca698	0.046057314
40	0x3e0b6c8b	0.13615625
41	0x3e9aa2ae	0.3020224
42	0x3df533ab	0.119727455
43	0x3e82f7ba	0.25579625
44	0xbcf61aa6	-0.030042004
45	0xbd91803d	-0.07104538
46	0x3d63ae67	0.055586245
47	0x3e042a05	0.12906654
48	0xbd9d9af7	-0.07695573
49	0xbdea45fe	-0.11439131
50	0xbdbe0750	-0.092787385
51	0xbb828c3c	-0.0039840024
52	0xbd8db86a	-0.0691994
53	0xbd843c48	-0.0645681
54	0x3e0d02c2	0.13770583
55	0xbce73f17	-0.028228326
56	0xbe1156b4	-0.14193231
57	0x3e3368fb	0.17520516
58	0x3ddf2642	0.10895969
59	0x3d592040	0.05300927
60	0x3dad05a2	0.0844834
61	0xbdf8da34	-0.12150994
62	0x3e3601fd	0.17774196
63	0xbe016879	-0.1263751
64	0x3c86c401	0.016450884
65	0xbca2f3b0	-0.01989159
66	0x3cc0a6ac	0.023516975
67	0x3c666b89	0.014063724
68	0x3dfb753b	0.12278219
69	0xbc152350	-0.009102657
70	0xbd73aa91	-0.059488837
71	0x3df08212	0.11743559
72	0xbd5a82c9	-0.053347383
73	0x3b990b4d	0.0046705366
74	0x3c13cc70	0.00902091
75	0x3e0d083f	0.13772677
76	0xbc838fcb	-0.016059777
77	0xbe1519b9	-0.14560594
78	0x3e001184	0.12506682
79	0x3d361d65	0.044461627
80	0x3da30816	0.07960527
81	0xbbb29578	-0.005449947
82	0x3e7ac383	0.24488644
83	0x3e606497	0.21913372
84	0xbda84da6	-0.08217935
85	0xbddedc30	-0.10881841
86	0x3bc980d7	0.006149392
87	0xbdaae2af	-0.08344018
88	0xbdcee945	-0.101030864
89	0xbcac1966	-0.021008205
90	0x3def8819	0.116958804
91	0xbd93d279	-0.07217879
92	0x3dd7d52a	0.10538705
93	0x3e88c476	0.26712388
94	0xbd9605c3	-0.07325318
95	0x3e56aa7a	0.20963469
96	0xbd64d3a6	-0.055865906
97	0x3ca2872b	0.019839844
98	0x3c59f127	0.013302124
99	0x3d08d9c8	0.033410817
100	0x3b8a2775	0.0042161294
101	0x3e1951e2	0.14972642
102	0xbd0a40dc	-0.03375326
103	0x3e644f7d	0.22295947
104	0xbde260cd	-0.110536195
105	0x3e12b1e8	0.14325678
106	0x3e5b4f4c	0.21416968
107	0xbd20662d	-0.039159942
108	0xbc497890	-0.012296811
109	0x3db2cdae	0.087306365
110	0x3f1dd121	0.6164723
111	0x3e8c4d8c	0.27402914
112	0x3e3a9d41	0.1822405
113	0x3e894c36	0.26815957
114	0xbdc8dcae	-0.09807716
115	0x3ea4f4c1	0.32217982
116	0xbdaab811	-0.08335889
117	0xbd1c8ed9	-0.038222168
118	0x3d882a2f	0.06648671
119	0x3e1415b8	0.1446141
120	0xbdb46cb9	-0.088098
121	0xbe052c7d	-0.13005252
122	0x3d30c27d	0.04315423
123	0x3d1101f2	0.035402246
124	0xbce06905	-0.027393827
125	0xbd8e7f5b	-0.06957885
126	0x3e7d6827	0.24746762
127	0x3ebc24eb	0.36746916
128	0xbbed5e1a	-0.007243884
129	0x3be190e0	0.0068837255
130	0xbdb0b237	-0.08627742
131	0xbce4b905	-0.027920255
132	0xbd67f4e8	-0.056630045
133	0x3defd727	0.11710959
134	0xbe81d33f	-0.2535648
135	0xbb89cb98	-0.0042051785
136	0x3d6853a0	0.056720376
137	0x3d7fd93f	0.06246304
138	0x3e2c092b	0.16800372
139	0x3ddd2436	0.10797922
140	0xbcb77f28	-0.0223995
141	0x3e245fec	0.16052216
142	0x3ddae419	0.106880374
143	0x3d75646c	0.059910223
144	0xbdf7eb26	-0.12105398
145	0x3dd2e14b	0.102968775
146	0xbac013ce	-0.001465434
147	0xbd91fcb7	-0.0712828
148	0x3cfaa901	0.030598165
149	0xbe4c6818	-0.19961584
150	0x3de00f67	0.10940438
151	0x3e0710f4	0.13190061
152	0xbe1ac603	-0.15114598
153	0xbd7f2312	-0.062289305
154	0x3d4f8b04	0.050669685
155	0x3d8ddcdb	0.069268905
156	0xbe5a239d	-0.21302648
157	0x3ddc0213	0.10742583
158	0xbe7cbc2c	-0.24681157
159	0xbdb8f9a7	-0.090319924
160	0xbe0b082d	-0.13577338
161	0x3d9ab585	0.07554153
162	0x3c0ba231	0.008522556
163	0x3df74383	0.12073424
164	0x3d56c7cb	0.05243663
165	0x3d92cd29	0.071680374
166	0xbd90548e	-0.070473775
167	0x3e50caea	0.20389906
168	0x3d4bc477	0.04974791
169	0x3e64c85b	0.22342055
170	0xbc487e2b	-0.012237112
171	0xbd7db8e6	-0.06194391
172	0x3e13899c	0.14407963
173	0xbdabede8	-0.083949864
174	0xbc322952	-0.010874109
175	0x3de9ce72	0.114163294
176	0x3e104819	0.14090003
177	0x3cb622cd	0.022233391
178	0xbc3ef4a6	-0.011655008
179	0xbd152c75	-0.03641935
180	0xbbf090aa	-0.007341464
181	0xbd11f35a	-0.03563247
182	0x3c09584d	0.008382869
183	0x3e1d0591	0.15334155
184	0xbd26159a	-0.040547945
185	0x3c4e3c93	0.012587684
186	0xbdb88bc3	-0.090110324
187	0xbd957697	-0.0729801
188	0x3d30840c	0.04309468
189	0x3deab5e2	0.11460473
190	0xbe32e31e	-0.17469451
191	0xbda79340	-0.081823826
192	0xbdca77ba	-0.09886117
193	0xbe41acdc	-0.18913597
194	0x3d685495	0.05672129
195	0x3cc3e4c6	0.023912799
196	0x3ddbd610	0.107341886
197	0x3cb8a7f2	0.02254102
198	0xbb96361c	-0.004584087
199	0xbd9f5044	-0.07778981
200	0xbe409aa3	-0.18808989
201	0x3e8dbabb	0.27681527
202	0xbdf3d249	-0.11905343
203	0x3d80af60	0.0628345
204	0x3d87de05	0.06634144
205	0xbd5fbdd1	-0.054624382
206	0xbc855668	-0.016276553
207	0xbd06bbe3	-0.032894026
208	0x3db5f57c	0.08884713
209	0xbc7ff978	-0.015623443
210	0x3e099cd6	0.13438734
211	0x3cd49760	0.025951087
212	0x3da1a663	0.07893064
213	0x3e623ebb	0.22094242
214	0xbe87d9b9	-0.26533297
215	0xbd01c11f	-0.031678315
216	0x3da27509	0.07932479
217	0xbe451cef	-0.19249319
218	0xbda557c4	-0.080733806
219	0xbd442b94	-0.04789312
220	0xbde48c94	-0.11159626
221	0x3c893bfd	0.016752237
222	0x3d5294a5	0.05141129
223	0x3e30cb28	0.17264998
224	0x3d7b2075	0.06131025
225	0xbcea5227	-0.028603626
226	0x3da62379	0.081122346
227	0xbdba5e5a	-0.091000274
228	0x3d9ba179	0.07599158
229	0x3e14a062	0.14514306
230	0x3e6a0ad7	0.22855698
231	0x3e763f44	0.24047571
232	0x3d859c19	0.06523914
233	0xbd3341c8	-0.043763906
234	0xbdc98181	-0.09839154
235	0x3e3c09cf	0.18363117
236	0x3bfd182b	0.0077238283
237	0x3cbab2a8	0.022790268
238	0x3e232b6f	0.15934537
239	0x3cc72ca0	0.024313271
240	0xbd8bedda	-0.06832476
241	0x3e1880a0	0.14892817
242	0xbdf8b581	-0.12143994
243	0x3cb46e59	0.022025274
244	0xbd4aa5de	-0.04947459
245	0x3cc73361	0.024316492
246	0xbe4f5814	-0.20248443
247	0x3e135e0e	0.14391348
248	0x3dbe4580	0.092906
249	0x3d26efdf	0.040756103
250	0xbbac6493	-0.005261013
251	0x3cba90ef	0.022774188
252	0xbc2d55f9	-0.0105795795
253	0x3cd6acd6	0.026205461
254	0x3ea5d0a5	0.32385746
255	0x3e2ad98f	0.16684555

fc2.bias f4 [84]
0	0xbd8c7fcb	-0.06860312
1	0x3e8e205e	0.2775907
2	0x3c26bd30	0.010176942
3	0x3e199c43	0.15001015
4	0x3d8837b5	0.0665125
5	0x3dd9f628	0.10642654
6	0x3dde4a68	0.108540356
7	0xbb509b30	-0.003183078
8	0x3d27964e	0.040914826
9	0x3e707a60	0.23484182
10	0x3e825c00	0.25460815
11	0x3d32403b	0.043518286
12	0xbc5d9dbc	-0.013526376
13	0x3e4be8cf	0.19913028
14	0x3ea49c26	0.32150382
15	0x3e9b5f8c	0.30346334
16	0x3cc73795	0.024318496
17	0x3e5e90ae	0.21734878
18	0x3d0ec0eb	0.03485195
19	0x3d6e5a3b	0.05819152
20	0x3dcd59ca	0.100268915
21	0xbd0dd29a	-0.034624673
22	0x3d996629	0.07490189
23	0x3e3aba6c	0.18235177
24	0x3e85c38b	0.2612575
25	0x3d64892d	0.055794884
26	0xbde9bd22	-0.11413027
27	0x3d4bc29f	0.049746152
28	0xbded8210	-0.11597073
29	0x3d241bde	0.04006564
30	0x3dba6b26	0.09102468
31	0x3e034f89	0.12823309
32	0x3d984371	0.074347384
33	0xbd693068	-0.05693093
34	0x3e06ae8e	0.13152525
35	0x3e23e6c1	0.16005994
36	0x3d50ec20	0.051006436
37	0xbc3799aa	-0.01120607
38	0x3d249b12	0.04018695
39	0xbc25805f	-0.010101407
40	0x3e06271d	0.13100858
41	0x3d827791	0.06370462
42	0xbe3c65ac	-0.1839816
43	0xbe056b87	-0.130293
44	0xbc90f57e	-0.017695185
45	0xbdef8d0b	-0.11696824
46	0x3d12876d	0.035773683
47	0x3d5d23a2	0.05398906
48	0xbd9e7e02	-0.07738878
49	0xbca571c8	-0.020195857
50	0xbda07865	-0.078354634
51	0x3da54882	0.080704704
52	0xba373997	-0.00069894776
53	0x3e620fc6	0.2207633
54	0xbd2a6b31	-0.041606132
55	0x3c11ec0d	0.008906377
56	0x3dfd0898	0.12355155
57	0xbd6f83c6	-0.05847528
58	0x3c27a563	0.010232302
59	0x3e7e96ba	0.24862185
60	0x3d65f8a3	0.05614532
61	0xbe050383	-0.12989621
62	0x3e91f450	0.28506708
63	0x3e005c95	0.12535317
64	0x3e51eca3	0.20500426
65	0x3d6881b2	0.056764312
66	0x3d6435fe	0.055715553
67	0x3eab79d5	0.33491388
68	0xbdc26a3d	-0.094929196
69	0xbe0d75d3	-0.13814478
70	0x3ea09919	0.31366804
71	0x3c1a2ea9	0.009410539
72	0x3eb13a94	0.34615004
73	0x3d87ba21	0.06627298
74	0xbc1cc39f	-0.009568124
75	0xbd533c0a	-0.05157093
76	0xbd0871df	-0.03331172
77	0xbdc8f4dc	-0.09812328
78	0xbdfd8b3d	-0.12380073
79	0xbd8c2aa5	-0.06844071
80	0x3e0ed59e	0.13948676
81	0xbdcbe088	-0.09954935
82	0x3dbebf97	0.093138866
83	0x3d492816	0.049110495

fc3.weight f4 [5, 84]
0	0xbe8b9c66	-0.2726776
1	0x3e41569f	0.188807
2	0xbd847179	-0.06466956
3	0xbe959f09	-0.29222897
4	0xbdf08407	-0.11743932
5	0xbe87d568	-0.26530004
6	0x3e7f5595	0.2493499
7	0xbe85122a	-0.2599042
8	0x3e08f22a	0.13373628
9	0xbe6530fe	-0.2238197
10	0xbe291788	-0.16512883
11	0x39ca6167	0.00038601013
12	0xbe57dbed	-0.21079989
13	0xbec63ea5	-0.3871967
14	0xbeac7184	-0.33680356
15	0xbee6d37e	-0.4508323
16	0x3e8ed0be	0.27893633
17	0xbe2397f7	-0.15975939
18	0x3d13e527	0.03610721
19	0x3c78d33b	0.01518708
20	0xbeb85725	-0.36003986
21	0xbd310301	-0.043215755
22	0x3e31c922	0.17361882
23	0xbed5d7e8	-0.41766286
24	0x3d6df293	0.058092665
25	0x3e590fe2	0.21197465
26	0x3e0af717	0.1357082
27	0x3d610fb6	0.054946624
28	0x3d7284be	0.059208624
29	0xbeafe696	-0.3435561
30	0x3eb93b77	0.3617818
31	0xbde2ddd9	-0.1107747
32	0x3e17ccc7	0.1482421
33	0xbd90d4e1	-0.070718534
34	0x3ce47d0f	0.027891664
35	0xbe5a5ea9	-0.21325172
36	0x3db426c8	0.087964594
37	0xbd2d5d39	-0.042325232
38	0x3d86f812	0.065902844
39	0xbe81470c	-0.25249517
40	0xbe403f5e	-0.18774173
41	0x3e0f553a	0.13997355
42	0xbec52b87	-0.3850977
43	0x3e1772c1	0.14789869
44	0x3c6ed01d	0.014575985
45	0x3c404bc0	0.01173681
46	0x3ea18f13	0.3155447
47	0xbe84fd72	-0.25974613
48	0x3dbba260	0.0916183
49	0xbd4ecab7	-0.050486293
50	0x3d0823c1	0.033237223
51	0xbd4d2e8d	-0.050093222
52	0x3d5059ad	0.05086677
53	0xbdadef37	-0.08492892
54	0x3bd14cf8	0.006387349
55	0x3e905377	0.2818868
56	0xbe5f2b1f	-0.21793793
57	0x3d3ceeec	0.04612629
58	0xbea25f73	-0.31713447
59	0x3edfe740	0.43731117
60	0x3e6f76d1	0.23385169
61	0xbe57917f	-0.21051596
62	0xbe561d2c	-0.20909566
63	0xbc5f22e4	-0.013619158
64	0x3e3220fa	0.17395392
65	0xbd8e529d	-0.06949351
66	0x3e483a18	0.19553411
67	0xbde23cbb	-0.1104674
68	0xbde5bb12	-0.112173215
69	0x3bceda38	0.006312635
70	0xbe00132b	-0.12507312
71	0x3dfb68a7	0.1227582
72	0xbe85206f	-0.26001307
73	0xbe40f77e	-0.18844411
74	0xbe698aca	-0.2280685
75	0xbe9d1918	-0.30683208
76	0x3d837172	0.06418122
77	0xbc03ed02	-0.008052113
78	0xbc91bfd7	-0.017791672
79	0xbda2df88	-0.079527915
80	0xbddc095d	-0.107439734
81	0x3d75a6ae	0.05997341
82	0xbebb6c45	-0.3660604
83	0xbc5e0a58	-0.013552271
84	0xbd3ef968	-0.04662457
85	0xbd1d33f2	-0.038379617
86	0x3c5abc94	0.013350625
87	0x3e26c6ef	0.16286825
88	0x3e2e5310	0.17023873
89	0xbe42c46d	-0.19020243
90	0x3dda41e3	0.10657098
91	0xbc932773	-0.017963147
92	0xbe2f8253	-0.17139558
93	0xbe928dfe	-0.28623956
94	0x3d439c91	0.047756735
95	0x3c806518	0.015673205
96	0x3eb23f73	0.34814033
97	0xbde20256	-0.11035602
98	0xbe43c0c6	-0.19116506
99	0xbe42cc1a	-0.19023171
100	0x3e8b13d2	0.2716356
101	0xbbe412bc	-0.006960241
102	0x3d87db8a	0.06633671
103	0xbc82140f	-0.015878705
104	0xbcd193d4	-0.025583185
105	0x3d8f1206	0.069858596
106	0xbde6ef08	-0.1127606
107	0xbe872023	-0.26391706
108	0x3c99ddd4	0.018782534
109	0x3e067d3a	0.13133708
110	0xbda0c803	-0.07850649
111	0x3e1ff7ff	0.15621947
112	0x3e240dca	0.16020885
113	0x3dfc5651	0.12321151
114	0xbd79c74c	-0.06098108
115	0xbe8f849b	-0.28030857
116	0x3da8e438	0.08246654
117	0x3c3d32f2	0.011547791
118	0xbe332276	-0.17493615
119	0xbe0b7277	-0.13617884
120	0xbdc4ad81	-0.09603406
121	0xbd171a08	-0.03689006
122	0xbd8f110f	-0.069856755
123	0xbe5b235c	-0.21400207
124	0xbdb4ddb7	-0.08831351
125	0xbd8b3c25	-0.06798581
126	0x3ef604cb	0.48050532
127	0xbcac20f2	-0.021011803
128	0x3e44d94b	0.19223516
129	0xbd80e10c	-0.06292924
130	0x3e2e7003	0.17034917
131	0x3e69ddc5	0.22838505
132	0x3ce815ec	0.028330766
133	0x3ea5ec26	0.3240673
134	0xbddc6806	-0.107620284
135	0xbea05e16	-0.31321782
136	0x3dafbb84	0.08580688
137	0xbe88465b	-0.26616177
138	0xbd88e694	-0.06684604
139	0xbd7ad89a	-0.061241724
140	0x3e006b41	0.12540914
141	0xbc4ba22b	-0.012428801
142	0xbe79483a	-0.24343958
143	0xbef17042	-0.47155958
144	0xbe83f31e	-0.2577142
145	0x3e833883	0.25629053
146	0x3e12da03	0.14340977
147	0xbeb1390f	-0.34613845
148	0xbde54277	-0.11194318
149	0xbdc99da0	-0.09844518
150	0xbe892564	-0.2678634
151	0xbe5b5ada	-0.21421376
152	0xbd4edd3c	-0.050503954
153	0xbaab7e84	-0.0013083969
154	0xbe45ac3e	-0.19303986
155	0x3de8520c	0.11343774
156	0xbe7fc26d	-0.24976511
157	0xbd5408ca	-0.051766194
158	0x3e2c848a	0.16847435
159	0x3d97a28d	0.07404051
160	0x3831be19	4.237713e-05
161	0xbc991397	-0.018686099
162	0x3d36c907	0.04462531
163	0xbbb9a814	-0.0056657884
164	0x3da917e9	0.082565136
165	0x3e454af6	0.19266877
166	0xbe89e997	-0.26936027
167	0x3e863d4a	0.26218635
168	0xbe1f2083	-0.15539746
169	0xbececa97	-0.4038894
170	0x3ef34f00	0.4752121
171	0xbe6b099e	-0.22952887
172	0xbd9d9d9b	-0.076960765
173	0x3e45b5dc	0.19307655
174	0x3d34568d	0.044027854
175	0x3e9d8ec0	0.30772972
176	0x3e6c3b2c	0.23069447
177	0xbe71d241	-0.23615362
178	0xbe861525	-0.26188007
179	0xbb8d6ecc	-0.0043161865
180	0xbe017981	-0.12644006
181	0x3daa10de	0.083039984
182	0xbd8b682f	-0.06806981
183	0x3cbddbee	0.02317616
184	0xbdfd7491	-0.12375749
185	0xbd82f98b	-0.06395253
186	0xbca5676b	-0.020190915
187	0x3d39c670	0.04535526
188	0x3e547852	0.20749024
189	0x3dac7756	0.08421199
190	0x3ddd3ebb	0.108029805
191	0x3e043e81	0.12914468
192	0xbde24fe0	-0.11050391
193	0xbe874a50	-0.26423883
194	0x3e8c6f99	0.27428892
195	0xbe8560c7	-0.26050398
196	0xbd5080ff	-0.05090427
197	0xbd2a59e0	-0.041589618
198	0xbe64a5f4	-0.22328931
199	0xbe003aa4	-0.1252237
200	0xbd81c859	-0.063370414
201	0xbc7eb105	-0.015545134
202	0x3e7a1538	0.24422157
203	0xbd34a0e0	-0.044098735
204	0xbd1720c0	-0.036896467
205	0x3d1f5a2d	0.038904358
206	0xbcc6f440	-0.02428639
207	0x3e9a3243	0.30116472
208	0x3e58b5de	0.21163127
209	0x3dcc8481	0.099862106
210	0xbd1bfa12	-0.038080283
211	0x3dbd075f	0.092299215
212	0xbd076722	-0.03305734
213	0xbd96f60c	-0.073711485
214	0xbe290d85	-0.16509064
215	0xbea224f2	-0.31668812
216	0xbdae5305	-0.085119285
217	0x3dcb67d9	0.09931917
218	0xbd5558ec	-0.052086756
219	0xbe2af1cc	-0.166938
220	0xbc57795f	-0.013151496
221	0xbe7376e0	-0.23775816
222	0x3b23aeb8	0.0024975967
223	0x3e8226c6	0.25420207
224	0xbe2c838f	-0.1684706
225	0xbd8e83a4	-0.06958702
226	0xbeca6132	-0.3952728
227	0xbea28fee	-0.31750435
228	0x3d534b2e	0.05158537
229	0x3d5fc84b	0.054634374
230	0xbe8986a2	-0.2686053
231	0x3d547812	0.05187232
232	0xbe2e057d	-0.16994281
233	0x3d9fa1dd	0.07794545
234	0x3e4bebe1	0.199142
235	0xbe2bbe0c	-0.16771716
236	0x3e10c2b8	0.1413678
237	0x3d53fa03	0.0517521
238	0xbe0263fc	-0.12733454
239	0xbdad5bd4	-0.084647804
240	0xbee06ca3	-0.43832883
241	0xbd739ff7	-0.059478726
242	0xbd676885	-0.056496162
243	0x3e013ca7	0.12620793
244	0x3c7e6991	0.015528099
245	0xbc253e80	-0.010085702
246	0xbd2f95bc	-0.042867407
247	0xbb748bdb	-0.0037314806
248	0xbea078d2	-0.3134218
249	0xbd6bac93	-0.057537626
250	0x3e92c420	0.28665257
251	0xbe228ba1	-0.15873577
252	0xbd694c16	-0.056957327
253	0xbdedf0ea	-0.11618216
254	0xbec26a5c	-0.3797177
255	0x3e559c06	0.208603

fc3.bias f4 [5]
0	0x3dce585f	0.10075449
1	0xbc05b909	-0.008161792
2	0xbdb98cfd	-0.090600945
3	0xbcc03ea1	-0.023467364
4	0x3e213043	0.15741067
