output_visualizations/base_tsk[+1]_agm[geo_ac]_spl[S3]_mdl[lenet]_ls[SM]_tu[none]/model.pt (torch, 249415 bytes, 10 tensors)

conv1.weight f4 [6, 1, 5, 5]
000000 5a 98 8b 3e 64 98 96 3e 48 bb 10 3e fb 27 8a 3e
       0.27264673 0.2941314 0.14133942 0.26983628
000010 df 05 69 3d 0a 2e 04 3e 81 a9 16 3e 77 1e eb 3e
       0.056890365 0.12908188 0.14713098 0.4592168
000020 e4 35 ec 3e 37 0b 8f 3d 81 e7 86 3e 08 49 16 3e
       0.46134865 0.06984561 0.26348498 0.14676297
000030 c1 59 43 3e 45 2c a1 3c 1d ed 6d 3e 97 e8 a1 bd
       0.19077207 0.01967443 0.23234983 -0.07905691
000040 b6 82 50 3c 83 fb 3a be 0b 95 c5 be 11 d9 b9 3c
       0.012726476 -0.18260007 -0.38590273 0.022686513
000050 d7 93 b2 be d7 63 c3 be 3c cd c5 be 06 a5 93 be
       -0.34878418 -0.3816211 -0.38633144 -0.2883684
000060 20 34 bb be 0a d8 7c bc 4e fe 25 3e e2 2b 0c 3e
       -0.36563206 -0.015432367 0.16210291 0.13688615
000070 64 dc df bd 8d 3f 1a bf 32 1e eb 3d 37 82 00 bc
       -0.10930708 -0.6025322 0.11480369 -0.007843546
000080 25 a6 ad 3e b3 29 14 be d1 ef e2 be d3 1f a0 3d
       0.3391582 -0.14469032 -0.4432359 0.0781857
000090 f8 f3 3b 3e 5d ee a7 3e e5 e6 ae bd be 04 bc be
       0.18354785 0.32799044 -0.085401334 -0.36722368
0000a0 ed 04 60 3d 3b e8 be 3d 31 15 76 3e 29 9f 1a 3e
       0.054692198 0.09321638 0.24031521 0.15099777
0000b0 0a 73 eb bd 3e 9e 22 bd 1b 0a 69 3e b1 2c 17 3e
       -0.11496551 -0.039701693 0.22757761 0.14763142
0000c0 88 7c 1c 3e 7f 06 85 be 75 d2 37 be 91 bb cd be
       0.1528188 -0.2598152 -0.17951377 -0.40182164
0000d0 63 d5 a1 be 7a 35 a3 3e c3 a7 a3 3d 50 af 8e bd
       -0.31608114 0.31876737 0.079909824 -0.06967032
0000e0 c7 81 17 be be 71 13 3e 87 b2 b5 3e 90 9b 75 be
       -0.147956 0.14398858 0.35487768 -0.23985124
0000f0 00 9d ae bd 09 4e 5f bd e7 1d af 3e ad 5b c5 3c
       -0.08526039 -0.05451778 0.342025 0.024091566
000100 1a f5 0f be 51 64 8e bd 0d dd cd 3e 4d 3b 0f 3d
       -0.14058343 -0.069527276 0.4020771 0.034968663
000110 1c 7f 49 be 62 f1 e5 bd 20 92 99 3e 4a 4b 86 3e
       -0.19677395 -0.11227681 0.29994297 0.26229316
000120 3d ef da bd 07 b0 eb be 4d 82 89 bc 33 07 a2 be
       -0.10690162 -0.46032736 -0.016785765 -0.31646118
000130 f4 13 91 be 95 9a 1b 3d f6 0d 42 3e 44 2c a1 3e
       -0.28335536 0.037989218 0.18950638 0.31479084
000140 2b df 39 be 96 87 c2 be cc f0 4d 3d 70 11 4f 3d
       -0.18151538 -0.3799407 0.05027847 0.05055374
000150 5e 15 9e 3e ad 2a 15 3d d4 fd 16 bb da a7 3f be
       0.30875677 0.036417652 -0.0023039477 -0.18716374
000160 d9 76 9e bd c8 1b c5 3c 85 38 6e 3e 2d ec ce 3d
       -0.07737512 0.024061099 0.23263748 0.10103641
000170 53 55 c1 3d 41 01 ca 3a 43 f8 b6 be c3 0f 70 3e
       0.094401024 0.0015411751 -0.35736284 0.23443513
000180 b6 43 0a 3f 08 fc 8d bc 9d c0 2d be b2 07 9b be
       0.5400957 -0.017332092 -0.16968007 -0.3027931
000190 89 8c 58 be f0 d6 87 bc 55 74 9e bd 20 95 3d 3c
       -0.2114736 -0.016581982 -0.07737032 0.011571199
0001a0 94 f4 4a 3e f0 8d 80 be be 1f f7 be 40 bd 01 bf
       0.19819862 -0.2510829 -0.48266405 -0.506794
0001b0 73 1f a3 be 74 a0 02 be d5 c4 af 3e 63 71 56 bb
       -0.3185993 -0.1275652 0.34329858 -0.0032721392
0001c0 38 b8 18 be 8c 5f 93 be f4 e0 58 be 07 b4 5a 3d
       -0.14914024 -0.28783834 -0.21179563 0.053394344
0001d0 4a 6a 67 3e 36 ac 04 be e8 d2 48 be b4 62 9e be
       0.2259914 -0.12956318 -0.19611704 -0.3093468
0001e0 06 bc 6d 3d c0 10 6b 3e c4 1f 9e 3e 85 44 1c bc
       0.05804064 0.22955608 0.3088361 -0.009537821
0001f0 d2 bb 12 be 7c 98 bb bd 27 1d 4c be ec 32 37 be
       -0.1432946 -0.091599435 -0.19932996 -0.17890519
000200 6d e9 73 3e 3d 7a 3b be 7d 10 02 be 99 1f 95 bd
       0.23819514 -0.18308349 -0.12701602 -0.072814174
000210 bc 95 08 be a5 a6 08 3e e1 01 7c be 1c 0a fd be
       -0.13338369 0.1334482 -0.24610092 -0.49421775
000220 15 71 94 be 62 b4 49 be 9d 37 00 3e 38 37 12 be
       -0.28992525 -0.19697717 0.12521215 -0.14278877
000230 25 2d 68 3d 59 4c f9 bc 72 65 5b 3e c5 68 6d 3d
       0.05668368 -0.030431913 0.21425417 0.057961244
000240 18 b9 9a 3d 7d 3b 42 3e 39 41 c5 3e 2f 51 88 3e
       0.07554835 0.18968005 0.38526323 0.26624438
000250 22 5a e1 3e 97 da 49 bd
       0.44014078 -0.04928073

conv1.bias f4 [6]
000000 d6 d8 a4 bd 47 f9 6f bd fb 1b 46 3a 59 4b a8 bb
       -0.08049171 -0.05858734 0.000755727 -0.0051359353
000010 11 97 7c 3e cd 7e 15 be
       0.24667002 -0.14599152

conv2.weight f4 [16, 6, 5, 5]
000000 68 06 4b 3e ce bb 4a 3c e0 83 0c bc bc 7a ef bd
       0.19826663 0.012373878 -0.008576363 -0.116933316
000010 41 be b8 bc ee 8a 1a 3e 91 30 51 bd 79 96 f4 bd
       -0.022551658 0.1509206 -0.051071707 -0.11942763
000020 47 5d c6 bd 14 a3 91 bd 91 fc c4 3d 2c 7c 27 3c
       -0.0968576 -0.07111183 0.09618486 0.010222476
000030 8a 82 02 bc f1 0e 9b be c0 ad 6f be c8 8e b0 bc
       -0.007965693 -0.30284837 -0.23406124 -0.021552458
000040 e9 eb 03 be 50 0a c7 bd e3 0c 8e be d5 8f 6b be
       -0.12882961 -0.09718764 -0.27744207 -0.23004086
000050 a7 48 80 3d 13 ee ca 3d ff 9b 82 3e c7 df a9 be
       0.06263857 0.0990869 0.2550964 -0.3317854
000060 f2 a0 9c be 5b 0a aa bd a2 86 07 3d 4d 3f 85 3e
       -0.30591542 -0.083027564 0.03308738 0.26024857
000070 f7 82 7e 3d aa 7b f0 3b 44 de 14 bb f1 7a b5 3d
       0.062136617 0.0073389607 -0.0022715488 0.0886134
000080 a6 4b 6f 3e 10 d5 e0 bd 40 87 8b bc ed 6f 27 bc
       0.23368701 -0.109781384 -0.017032266 -0.010219556
000090 b1 17 34 3e 08 e6 3e 3e 0e a0 fb bd a0 17 67 3d
       0.17587163 0.18642437 -0.122863874 0.056419015
0000a0 aa 23 16 3d 95 c9 ae 3d f8 a0 01 3b 4a 6d 9b bd
       0.036655106 0.085345425 0.0019779783 -0.075892046
0000b0 94 0e bb bb eb d5 92 ba 04 b4 53 3d a0 88 ef bd
       -0.005708525 -0.0011202669 0.05168535 -0.11695981
0000c0 ca a0 80 be 3f 58 6f bd a5 1d d7 b9 1a ef e4 3b
       -0.25122672 -0.058433767 -0.00041030083 0.006986511
0000d0 ad 8c b0 bc d7 e5 f9 bd ea e1 2f 3e a0 8b 85 3e
       -0.021551454 -0.122020416 0.17176023 0.26083088
0000e0 f6 d6 b9 3e 6c 44 b8 3d 67 b2 c9 be e3 12 35 3e
       0.36296815 0.089974254 -0.39393923 0.17682986
0000f0 f0 3d bb 3e 71 1b 03 3f df 99 03 be ea 71 97 3d
       0.36570692 0.5121375 -0.12851666 0.07394774
000100 75 0e 2e 3e e3 9b d4 3e 2a 0b aa 3e b4 e4 07 be
       0.16997702 0.41525182 0.33211643 -0.13270837
000110 7f 73 ab 3e f7 aa 83 3e 10 ad b8 3e 82 41 53 3d
       0.33486554 0.25716373 0.36069536 0.051576145
000120 86 ef 6b 3e 7c 77 8f 3e 4f df 1e 3e 09 b9 98 3d
       0.2304059 0.28020847 0.15514873 0.07457168
000130 e6 76 55 bd c8 4e a0 bc f4 f0 44 be c2 d9 b9 bd
       -0.052115344 -0.019568816 -0.19232541 -0.09074737
000140 80 ac af 3d 7a 36 bb 3d 94 52 58 be 35 b6 28 bf
       0.08577824 0.0914125 -0.21125251 -0.65903026
000150 35 30 ec bd f0 82 6e 3e 2a 48 35 3e ee 8f 10 bf
       -0.11532632 0.23292136 0.1770331 -0.5646962
000160 b3 f6 7a be 8f 1e a0 bd f7 97 5b 3e c4 83 3e 3d
       -0.24508171 -0.078183286 0.21444689 0.04651238
000170 2a 8a 9e be 7b 51 7b 3d 90 2f 40 3c 3b 8a 5b 3e
       -0.30964786 0.061357003 0.01173009 0.2143945
000180 04 bc 2b be d3 d1 13 be d7 d6 9b bd 54 98 7d 3c
       -0.16770941 -0.1443551 -0.07609337 0.015478212
000190 04 db 0d 3d 5b 24 bd bc fa 15 d6 3d 36 79 52 3d
       0.034632698 -0.023088625 0.104534104 0.051385127
0001a0 49 b4 5a bd f2 28 00 be ac 17 81 3d bb d1 df 3c
       -0.05339459 -0.1251562 0.06303343 0.027321687
0001b0 20 4c 8e 3d b8 59 11 bb 16 d9 88 be 91 74 65 bd
       0.069481134 -0.002217872 -0.26728123 -0.05601937
0001c0 ca 6a 13 3d 3f dc 93 3d d2 de e4 3b 08 0f d8 be
       0.035990514 0.07219743 0.00698457 -0.42198968
0001d0 a1 9c 62 bd 96 9a 1f 3e 28 c2 87 3e 2d 7f 42 bd
       -0.055325154 0.15586314 0.26515317 -0.047484566
0001e0 9a 77 9c be 06 b6 50 3d a6 f8 62 3e 63 8d a4 3d
       -0.3056 0.05095484 0.22165164 0.0803478
0001f0 73 72 d8 bd a4 1c 34 be 2d 4f cb bd ff 31 c7 be
       -0.105687045 -0.1758905 -0.09927211 -0.38905331
000200 7c 00 af 3d 1b 1d 84 3e 82 0d 0e bf fb fc ca be
       0.08545014 0.25803456 -0.5548936 -0.39646134
000210 1d 50 1e bf 7d 14 46 3d 87 a1 94 3d 35 5f d3 be
       -0.61840993 0.048359383 0.072573714 -0.41283575
000220 8a 4b 0f bf 4b 97 f3 be 69 7f 98 3e d2 33 45 3d
       -0.5597464 -0.47576365 0.29784706 0.048145123
000230 dd e2 21 3c 01 07 67 be ad f7 1f be 14 e3 af 3c
       0.009880749 -0.22561266 -0.15621825 0.021470584
000240 91 3b 07 be ed 7b 2a 3e e9 38 4f be 4f 0a aa 3d
       -0.13206317 0.16648836 -0.20236553 0.083027475
000250 b3 33 61 bd 42 14 3d 3c 7a ad 46 3e b1 1d 85 3d
       -0.054980945 0.011540474 0.19402114 0.06499804
000260 0b 32 01 be 8a a8 df bc aa 09 1f bc ea 83 8c 3e
       -0.12616746 -0.027302045 -0.009706894 0.27444392
000270 2f d5 6c be 61 0e 3b 3c c1 69 2b 3d cf a0 0b be
       -0.23128198 0.011417002 0.0418489 -0.13635562
000280 88 51 9d be 0d cb 88 be d6 f1 57 be b3 d2 b3 bd
       -0.30726266 -0.26717415 -0.21088347 -0.08780422
000290 8d 96 c4 bd 41 97 ba be ae 93 10 be b8 a5 d7 bd
       -0.09599028 -0.36443523 -0.14118835 -0.10529655
0002a0 5e 3f 6c bd d9 3a 23 3e cd 22 69 be 30 b4 4c be
       -0.05767762 0.15940417 -0.22767182 -0.19990611
0002b0 39 a8 45 bc 62 99 1e 3e 0f 71 71 3e 82 94 ae 3e
       -0.012064033 0.15488198 0.23578285 0.34097677
0002c0 1a 8f 28 bf b4 f1 15 bf 5b bf be bd 16 9d 47 be
       -0.65843356 -0.58571935 -0.09313842 -0.19493517
0002d0 83 37 d8 3d f1 8d 64 bf bc b9 19 be 54 5b 5d bd
       0.10557463 -0.89279085 -0.15012258 -0.054042175
0002e0 03 24 86 bc 21 56 c7 bd 60 6f 87 be 29 3a 23 3c
       -0.016374594 -0.09733225 -0.2645216 0.009962597
0002f0 12 32 b6 bd 0b 0c 07 bd 74 02 e9 bd 8f ea 0f bd
       -0.08896269 -0.03297047 -0.11377421 -0.035135802
000300 d3 f7 fc 3b 19 f3 87 3c d9 f5 9d bc 36 e3 bf bd
       0.0077199726 0.01659541 -0.019282268 -0.09369509
000310 c6 6b 3b 3d 04 8e e0 3d 0e 3c d9 3d ad 7e 32 3d
       0.045757078 0.10964587 0.10607158 0.04357784
000320 15 9f c1 be 15 09 12 bf d9 e1 d5 3e a0 c9 05 3f
       -0.37816682 -0.5704511 0.4177387 0.5226078
000330 c7 fe 85 3e 3e de 72 be 4a a0 6f 3d 55 ce 31 3f
       0.26170942 -0.23717591 0.058502473 0.6945546
000340 59 e8 cc 3e e7 b7 82 3e 0c 72 43 bd 7b b4 1a 3f
       0.40021017 0.2553093 -0.047716185 0.6043164
000350 c5 eb fa 3e 6d af ee 3d 5e f5 94 3d 7f bf b8 3e
       0.49008003 0.116545536 0.072733626 0.360836
000360 41 a6 0d 3f da ef 5f 3e 21 c1 bd bd e8 50 49 be
       0.5533181 0.2186884 -0.09265352 -0.1965977
000370 7e a2 0b 3f ec da 00 3f fc 95 5f be a6 86 bd be
       0.5454482 0.5033405 -0.21834558 -0.3701679
000380 f8 ca bf bd af fc 91 be 8f 8f 63 bf c4 f3 d2 bd
       -0.09364885 -0.28513095 -0.8889093 -0.10300401
000390 e1 1b 01 3e 91 25 97 3e 7b 9c bf be f1 72 a8 be
       0.12608291 0.29520848 -0.37424073 -0.32900193
0003a0 e9 c1 8e 3e 95 9e fe 3d e3 2b 09 3e 15 7a 89 be
       0.27882317 0.12432591 0.13395648 -0.26850954
0003b0 58 af 0f 3e 6a 80 41 3e fd d3 bf 3d 1b 12 12 3e
       0.14031732 0.18896642 0.093666054 0.14264719
0003c0 36 e5 f1 bc a1 e9 0f 3e 6a 20 e4 3c d6 02 e2 bc
       -0.029528242 0.14053966 0.027847487 -0.027589243
0003d0 f4 84 6f bd 7a a2 3a 3e bb 72 59 3e 4c cb 52 be
       -0.058476403 0.18226042 0.21235172 -0.20585364
0003e0 5e 06 83 be 3f a2 f4 bd 3d 48 52 3e dc 92 43 3e
       -0.25590795 -0.119450085 0.20535369 0.19098991
0003f0 ca 49 35 be 4e ca 11 be 9c cd 7e 3c ac 78 e2 3d
       -0.1770393 -0.1423733 0.015551951 0.110581726

conv2.bias f4 [16]
000000 a1 fd 6f 3c 6e 6a 72 3d 31 5c 03 3e 10 3a 9f bc
       0.014647872 0.05918353 0.12828137 -0.019436866
000010 dd a2 18 3e 50 13 4a bc d0 21 c8 3c 33 24 9a bd
       0.14905877 -0.012333706 0.024430186 -0.07526436
000020 51 b3 d4 bd df 2b 6d be 45 2f bf bb f3 14 a0 bb
       -0.103857644 -0.23161267 -0.0058344924 -0.00488531
000030 24 b6 54 3e d1 55 1f 3e 4b 68 15 bd 2c fa bf bc
       0.20772606 0.1556008 -0.036476415 -0.023434721

fc1.weight f4 [120, 400]
000000 76 5d 72 3d 75 84 90 3e 95 fb 98 3e 99 62 eb 3d
       0.059171163 0.28226057 0.29879442 0.114934154
000010 a7 b4 83 bd 40 c4 53 bd 86 4b 64 3d d2 3c 11 3e
       -0.06430941 -0.05170083 0.055736087 0.14183357
000020 77 dd 2a 3e 46 e9 11 3e 50 db a7 bd d8 d2 c8 bd
       0.16686045 0.14249143 -0.081961274 -0.0980584
000030 d0 16 d7 bd dc e0 90 bd e7 d7 a7 3c 2d ec be bc
       -0.10502398 -0.070741385 0.020488692 -0.023305977
000040 57 df ea 3c cb 4b 6a be 79 df 1e be 8d 09 ff bd
       0.02867095 -0.22880475 -0.15514936 -0.124529935
000050 43 44 1c 3e 0d d0 9e 3d f4 e9 00 bf a5 74 7d be
       0.15260415 0.07754526 -0.50356984 -0.24751528
000060 ce d9 86 be 47 f0 9e be bc db 49 3c b9 8a 73 bd
       -0.26338047 -0.31042692 0.012320455 -0.059458468
000070 b9 06 dd bd 32 8d 44 be a5 2f 10 be af 55 94 3d
       -0.10792298 -0.19194487 -0.14080675 0.07242905
000080 29 a7 0c 3e dc 1e 66 bc d8 28 eb bd 5d 6a 06 be
       0.13735642 -0.014045443 -0.114824 -0.13126512
000090 0f 39 4d 3b 1d c3 9c 3d 07 40 ce 3c 6b 9c 1f be
       0.0031314527 0.076544024 0.025177015 -0.15587012
0000a0 4e 6f 74 3d 78 df 34 bb 09 5c 60 3d 88 0a e4 3d
       0.05967646 -0.0027599018 0.05477527 0.11134821
0000b0 b5 de 04 bd a5 95 34 3e 6d 21 88 3d 5e dd dc 3d
       -0.032438952 0.1763521 0.066470005 0.1078441
0000c0 b0 94 42 3e ae b5 41 3e 27 ec 40 be 1d b4 07 be
       0.19002032 0.18916962 -0.18840085 -0.13252302
0000d0 bb d7 0e be 1a ee ba 3d ce f5 3e 3e 8b fa 49 bc
       -0.13949482 0.091274455 0.18648455 -0.0123278005
0000e0 c8 d1 27 be 53 bc 8e be f0 c2 94 bd 10 e4 8f 3d
       -0.16388619 -0.27878055 -0.07263744 0.07025921
0000f0 a4 91 e7 3d fa 48 8f bc ed 82 22 be b9 48 99 bd
       0.113070756 -0.017490853 -0.15870257 -0.07484574
000100 4d d1 23 3e 39 5d 9d bc 41 48 33 bd 11 8c 8a bd
       0.1599781 -0.019209491 -0.04377008 -0.06764997
000110 2e 2d 08 be a3 36 8f 3d 65 44 28 3d 6f 66 01 3e
       -0.13298485 0.06992843 0.04108085 0.12636732
000120 d5 66 b7 bd 5f 87 97 be a2 cc 90 3d 35 72 0e be
       -0.089551605 -0.29595467 0.070702806 -0.13910754
000130 f5 e5 c4 be 94 5b b1 be 46 4b a5 be b0 39 1e be
       -0.38456693 -0.3464018 -0.32283992 -0.15451694
000140 70 58 73 3d ac df d8 3c 83 68 21 be 9c c6 97 be
       0.059410512 0.026473843 -0.15762524 -0.29643714
000150 4e f0 4a be 0d de 3a bd 29 b5 1f 3e 9d be fe 3d
       -0.19818231 -0.04562192 0.15596451 0.124387
000160 87 f6 1a bc 19 ab 2d be ad 00 19 bd b7 ee 45 3e
       -0.009458191 -0.169598 -0.03735416 0.19329344
000170 1f f4 a7 3e 1b e7 20 3e 76 f3 22 3e d2 9b 83 3d
       0.32803437 0.1571316 0.15913185 0.06426205
000180 92 25 2f 3e 09 48 1b 3e 53 77 d5 3d 08 64 39 3e
       0.17104176 0.15164198 0.1042315 0.18104565
000190 3a ba bc bd 58 6b 5f be 06 5d da be 40 a5 c7 be
       -0.092152074 -0.21818292 -0.42649096 -0.38993263
0001a0 14 9b 10 bf a9 d3 24 bd 22 84 08 bd eb 6b c6 bd
       -0.5648663 -0.040240917 -0.033329137 -0.096885525
0001b0 93 d3 60 be bd 01 af be 43 4d 54 3e 12 fb d1 3d
       -0.21955709 -0.34181014 0.20732598 0.10252966
0001c0 79 fc 2f 3d f3 c9 c5 bd 88 c0 7c be aa 11 d4 3d
       0.042965386 -0.096576594 -0.2468282 0.10354932
0001d0 d1 28 43 3e 95 f8 e3 3d ef 25 b2 bb 3a 5e 6c bd
       0.19058539 0.11131398 -0.005436651 -0.05770705
0001e0 b8 2a 3a 3e d6 89 4e 3e c5 d1 58 3e ca d5 c7 3d
       0.18180358 0.20169768 0.2117377 0.09757574
0001f0 85 a6 6b be 5b fe e2 3e 4c ea d3 3e 85 75 d6 3e
       -0.23012741 0.44334683 0.41389692 0.41886535
000200 d8 22 cc 3e 36 06 4f 3e 63 c6 82 3c 65 ec 82 3d
       0.39870334 0.20217213 0.015963739 0.06392745
000210 26 67 3d 3e d8 60 6e 3e f0 4d 2d 3e e1 68 c3 be
       0.1849638 0.2327913 0.16924262 -0.38165954
000220 33 7c e6 bc e7 6d f9 3d 96 57 33 3e 5d 34 06 3e
       -0.028135395 0.12179165 0.1751388 0.13105913
000230 12 52 f7 be f5 c1 72 be 38 73 2d bc 5f 75 ad bb
       -0.48304802 -0.23706801 -0.010586552 -0.0052935327
000240 41 fd 82 bc 71 64 da be af 06 d1 be f4 f0 36 bd
       -0.015989901 -0.42654756 -0.40825412 -0.044663385
000250 80 14 ae 3e 4b 05 a2 bb 31 fd 38 3d 5c e3 4f 3d
       0.34000015 -0.0049444786 0.045163337 0.050753936
000260 dd 01 bc 3d b9 ba 0f be b7 ba 69 be 94 52 ef bc
       0.09180043 -0.14036073 -0.22825132 -0.029214181
000270 89 d0 4f bc 96 fe 82 bd bb 13 8b 3c 18 b5 bf bd
       -0.012683996 -0.06396215 0.016977182 -0.09360713
000280 87 74 00 3e 86 19 a0 3d 2c 18 17 3c 3f 92 9f bd
       0.12544452 0.07817368 0.009222072 -0.07791566
000290 d6 9e c4 bc d0 93 7e 3e 4c 3f 6b 3e bc 27 20 bc
       -0.02400152 0.24861073 0.22973365 -0.009775098
0002a0 98 9a 7c 3c 3d 32 89 be d5 30 51 3e ac 50 57 3d
       0.015417717 -0.2679614 0.20428784 0.05256717
0002b0 06 ea f6 3c 68 5c 90 3d b3 a2 a3 be 68 7c cf be
       0.030140888 0.07048875 -0.31960067 -0.40524602
0002c0 f8 1d 13 be b6 1d 4c bd 84 0c ec bd c5 98 c3 bb
       -0.14366901 -0.049833022 -0.11525825 -0.0059691393
0002d0 48 bd bf be 42 e8 b3 bc b1 ba b1 3d 96 0e b3 bd
       -0.37449098 -0.021961335 0.08678187 -0.087430164
0002e0 92 3e ec 3d a7 3e 07 be ac 36 f8 3d 95 b6 39 3e
       0.11535372 -0.13207494 0.12119803 0.18136056
0002f0 f3 dd d3 3c ec 19 be 3d ab 39 a6 bb f9 4f 4f 3e
       0.02586267 0.09282288 -0.0050727925 0.20245351
000300 08 4f 31 3e 82 19 fe bd f8 7d 52 3b 91 eb 3c bd
       0.17315304 -0.12407209 0.003211854 -0.04612309
000310 af dc ef bd 5c d4 60 bc 3c 2e a0 bb 87 3c 12 bd
       -0.11712014 -0.013722505 -0.004888324 -0.035702255
000320 60 a9 c0 bd f8 6f b9 3d 39 05 ec 3d 69 7b 17 3e
       -0.09407306 0.090545595 0.11524434 0.14793171
000330 0c d6 a3 3e df 17 c9 3d 1f d9 72 3d 39 b3 bc 3d
       0.31999242 0.09819006 0.059289094 0.092138715
000340 bc b7 d7 3b a8 2e ac 3d f0 e0 e5 3c 64 ed ca ba
       0.006583182 0.084073365 0.02806136 -0.0015482125
000350 8d 17 84 bc 15 16 99 bd 64 bd f0 bc 80 c4 c6 bd
       -0.016124511 -0.07474915 -0.029387183 -0.09705448
000360 58 d5 63 bd f1 fd 39 bd c4 e9 fa bd cd 20 c0 bb
       -0.055623382 -0.045408193 -0.122516185 -0.005863285
000370 0b 2d 5a bd 3e ef 58 ba d4 4f 0d 3e 3e bf 15 3c
       -0.053265613 -0.0008275396 0.13799983 0.009139834
000380 5a 4a 90 3d 02 23 4f 3e 3c 06 7e 3d 4a 69 9f bc
       0.070454314 0.20228198 0.062017664 -0.019459385
000390 e6 1f f1 ba 24 70 24 3e 78 ec 05 3e a5 74 e6 3d
       -0.0018396347 0.16058403 0.13078487 0.11252717
0003a0 df 14 d5 3d b4 56 80 3c 34 c4 66 3d cd 52 a2 3d
       0.104043715 0.015666343 0.056339458 0.07925949
0003b0 7b 6e 40 3e 85 39 eb 3d 0a ee 0c 3d 57 08 c8 bd
       0.18792145 0.1148558 0.0344067 -0.09767216
0003c0 ae f7 32 be 7a b7 81 3d b5 2a 26 bd da 18 cd bd
       -0.17477295 0.063338235 -0.040568072 -0.10014506
0003d0 d1 31 22 3c ed ac 9c be e1 22 d9 bd 66 2a a9 bd
       0.0098995725 -0.30600682 -0.10602356 -0.0826004
0003e0 a3 0f d1 bd e7 cd f5 bd a6 b8 92 bd bc c2 89 3d
       -0.102080606 -0.120021634 -0.07164125 0.06726596
0003f0 f2 e2 e8 3d 12 3c 11 3e 6e 34 80 3e ad f2 9e be
       0.113714114 0.14183071 0.2504 -0.31044522

fc1.bias f4 [120]
000000 dd 00 5a bc ea c0 94 bc e4 99 e7 bc 48 e7 8b 3d
       -0.01330587 -0.018158395 -0.028271623 0.06831223
000010 8d 2a b5 bc 9e 10 83 3b e8 e5 b5 bc 45 e7 95 3d
       -0.022115016 0.0039997837 -0.022204354 0.07319502
000020 52 1f c8 bc bd 9f 92 3e f6 d7 ac bc 1a 47 91 ba
       -0.024428997 0.28637496 -0.021099072 -0.0011083812
000030 fc ba 03 be 0d 30 63 3d 4a 39 70 bd 08 d5 2c be
       -0.12864298 0.055465747 -0.058648385 -0.1687814
000040 ed 9d 53 3e 65 49 2a bd 47 7d ea 39 d7 6b 9c 3e
       0.20665713 -0.0415739 0.00044725297 0.30551025
000050 c1 e7 9e bd 3c 78 d9 bc de c1 14 3e 9c 35 58 bc
       -0.07759047 -0.02654659 0.1452708 -0.013196375
000060 46 ea 30 bd 08 2e 61 3d 23 55 76 bd f6 61 05 3d
       -0.04319217 0.05497554 -0.060139786 0.032564126
000070 72 c0 a1 be 98 38 88 3e 02 3c 73 3e b8 6a 9c bd
       -0.31592137 0.26605678 0.2375336 -0.076375425
000080 35 19 c2 bc 88 2e bd bd 22 82 bc 3e 8d da 63 3e
       -0.02369366 -0.09237391 0.36818033 0.2225134
000090 fc 85 92 3d eb c9 13 3e bf 40 22 bc 2d 95 9b bc
       0.07154462 0.14432494 -0.009903132 -0.018992031
0000a0 84 ca a8 3a d0 31 9f 3c a1 b7 98 3c e9 c2 67 3e
       0.0012877737 0.019432932 0.018642249 0.22632946
0000b0 e5 96 95 bd b9 0e 12 be a8 66 88 be 3f 18 78 3e
       -0.073041715 -0.14263429 -0.2664082 0.24227999
0000c0 25 32 c0 bd b6 59 ac 3c 92 1c 7e bd d1 5e 9f 3d
       -0.09384564 0.021038871 -0.062038966 0.07781757
0000d0 6a 4a 84 3e 31 46 9e 3e e4 8a 09 3e 57 7b 84 3d
       0.25838023 0.30912927 0.13431889 0.06468838
0000e0 9a 8f 05 bc 5c dc 80 bd 8f 30 c7 3d 7b 56 1b bd
       -0.008151913 -0.0629203 0.09726059 -0.03792427
0000f0 e3 98 08 3e 6e 81 d3 bd 1b f1 12 3e 85 55 65 3e
       0.13339572 -0.10327421 0.14349787 0.22395904
000100 40 e3 bb bb c4 2f 78 bd 55 5f ff bc 90 87 d3 bc
       -0.0057338774 -0.060592428 -0.031173388 -0.025821477
000110 0a 9f 20 3d 65 d9 be 3c 88 1a 96 3e ce 92 db 3d
       0.03921417 0.023297021 0.29317117 0.1072136
000120 a6 00 26 bd cd 1d 19 be c0 63 12 bd e1 cf 26 be
       -0.040527962 -0.14952774 -0.03573966 -0.16290237
000130 66 e6 4f bc 09 43 97 bd db ff 50 be 26 93 97 3b
       -0.012689209 -0.07385833 -0.20410101 0.0046256958
000140 e8 10 ce bd 2a 30 23 be bb 2f c6 bc b2 b4 cc 3d
       -0.10061818 -0.15936342 -0.024192682 0.099954024
000150 b8 89 5f 3e 81 96 d8 3d 8d 6d 49 be 5d a6 c8 bd
       0.2182988 0.10575581 -0.19670697 -0.09797356
000160 92 cb 01 be 4c a5 6b bd fb ec 10 be b6 a8 95 bd
       -0.12675312 -0.057530686 -0.14152901 -0.0730757
000170 11 b4 4a bd 17 12 f9 bd 70 fa e2 3e 5f e1 e5 bc
       -0.04948813 -0.121616535 0.44331694 -0.028061567
000180 a5 13 f5 3d a1 bb 63 3d ed 0a 91 bd a2 aa 24 3e
       0.119666375 0.05559886 -0.07082162 0.16080716
000190 c3 64 16 3c c9 90 ca 3e 9e 33 dd 3d 98 d2 24 be
       0.009179297 0.39563587 0.10800861 -0.1609596
0001a0 8c bc b6 bd 84 3a 5b 3e c8 b3 d0 3d 0c 60 94 3d
       -0.08922681 0.2140904 0.101905406 0.07244882
0001b0 21 dd 9a bd b1 64 d3 3e 26 a9 7e 3e c1 55 ca be
       -0.07561708 0.4128776 0.24869213 -0.3951855
0001c0 86 09 2e bd 34 f4 82 3d f0 84 df bc a7 b4 85 3e
       -0.04248955 0.06394234 -0.02728507 0.2611439
0001d0 58 fc 3f 3e fd 1f eb 3c bc 1b 1c 3e a0 ec a6 3d
       0.18748605 0.028701777 0.15244955 0.081506014

fc2.weight f4 [84, 120]
000000 81 45 e5 3d 60 d6 84 bb 58 cb 07 bc 9a a9 5e 3e
       0.111948974 -0.004053876 -0.008288227 0.21744385
000010 95 50 5b be eb 09 8c bd 53 4b ad 3d 17 cc 0a 3e
       -0.21417458 -0.06837829 0.084616326 0.13554417
000020 56 04 b7 3c 59 d4 78 3d 7e 1d 09 3d 27 3f fa 3c
       0.022340935 0.060749386 0.03347539 0.030547692
000030 74 7d 0a be 73 22 5f be e0 35 9d 3d 2d 0e 3a bd
       -0.13524419 -0.21790485 0.076762915 -0.045423675
000040 12 a4 be bd d6 59 a5 bd fc e3 d7 3c 2c 82 ab bc
       -0.09308638 -0.080737755 0.026353829 -0.020936094
000050 10 09 24 3d 53 2c fe bd 35 ef d6 3c 70 3f 8e be
       0.040047705 -0.12410798 0.02623711 -0.27782774
000060 5e 94 47 3d 66 b3 8c 3c 70 d6 ce bb 97 10 e6 3a
       0.04872548 0.017175388 -0.006312184 0.0017552552
000070 2a 97 11 be 5a 72 8f 3d 9d 0e e0 be 1e 27 9f bd
       -0.14217821 0.07004233 -0.4376115 -0.07771133
000080 a0 4f 2d 3c 5e cc 10 3e 90 e4 73 be 9d 98 45 bd
       0.010578066 0.1414046 -0.23817658 -0.048241246
000090 99 39 60 bc d5 fb ab 3d 2a 47 87 bd 98 a6 3c 3d
       -0.013685607 0.083976425 -0.0660537 0.046057314
0000a0 31 f2 59 bd 24 fb be bd b0 ef 6b 3c 38 f7 31 3d
       -0.053209487 -0.09325245 0.014400408 0.043448657
0000b0 99 1e e9 bd 3e 74 af 3e d9 2b 5b be b8 b8 45 3d
       -0.11382789 0.34268373 -0.21403445 0.048271865
0000c0 b0 00 d4 bc b0 a1 84 bd f7 a4 07 3e 6f 97 d2 3d
       -0.025879234 -0.06476152 0.13246523 0.1028279
0000d0 bb 25 ae be b6 46 99 bd bd dd 39 be 84 b7 6f be
       -0.3401316 -0.0748419 -0.18150993 -0.2340985
0000e0 72 82 3a bd f0 ea db 3c a3 68 93 bd 40 20 59 3d
       -0.04553456 0.026845425 -0.07197692 0.05300927
0000f0 2a 42 94 3e bb 88 c0 be 53 21 f4 3c f4 e0 48 be
       0.2895673 -0.37604317 0.029801046 -0.19617063
000100 40 f9 b3 be b0 f3 a2 bc ef d4 83 bc 1c 61 f6 3c
       -0.351511 -0.01989159 -0.016092746 0.030075602
000110 bb 30 36 3e 50 23 15 bc 19 bd 33 be b3 0a 45 bd
       0.17792027 -0.009102657 -0.17552604 -0.048105907
000120 40 21 ff bd dd 93 41 3e 70 cc 13 3c 0a 6b 2c be
       -0.12457514 0.18904062 0.00902091 -0.16837707
000130 90 94 57 3d 80 96 9a bd 5b 3c ef bd b4 15 36 3d
       0.052631915 -0.07548237 -0.11681434 0.04445429
000140 0c 29 74 3d 17 36 69 be b6 44 83 3d ea 9a 43 3e
       0.059609458 -0.2277454 0.0640959 0.19102064
000150 98 5d c2 bd 71 eb 8d bd 2c 9c ef b9 40 de 5e 3e
       -0.09490508 -0.069296725 -0.0004570199 0.21764469
000160 64 fc 67 be a0 50 b9 bb dc 90 b9 bc a5 e5 c1 be
       -0.22654873 -0.005655363 -0.022652082 -0.37870517
000170 a8 e2 72 3d d8 4c be 3c 59 b7 25 bd 38 ac a9 3d
       0.059298187 0.023230001 -0.040458057 0.08284801
000180 ce 7c e5 bd a2 75 6f be c8 ad 01 3c 2d da 11 bc
       -0.11205445 -0.23384717 0.007914968 -0.008902115
000190 e5 d0 1d bd 96 df 4d bd 5d 6f 3a be b8 7c 9b bd
       -0.038529295 -0.050262056 -0.18206544 -0.075921476
0001a0 6b 2a 12 be df 5c 1f bd 97 b2 27 3e 82 ae 82 3d
       -0.14273994 -0.03890693 0.1637672 0.06380941
0001b0 90 78 49 bc 45 52 86 be a8 28 f4 39 d3 2e 06 3e
       -0.012296811 -0.26234642 0.00046569598 0.131038
0001c0 0a 0c 85 3d b6 80 2f 3d 1a f1 92 bd fd 93 06 be
       0.06496437 0.042847358 -0.07174893 -0.1314239
0001d0 5a 6a 9d be 4e d0 c6 bc af 89 96 bd 1a 35 eb bd
       -0.30745202 -0.02426925 -0.0735048 -0.11484738
0001e0 0e 79 90 be 11 f1 02 bd 85 cf ef bc eb 3f ac 3e
       -0.28217357 -0.03196818 -0.029273758 0.33642516
0001f0 b9 59 74 bc c7 45 c9 bd 3e 90 bf bd ca 3c b0 bd
       -0.01491397 -0.09827762 -0.09353684 -0.086053446
000200 37 fa c4 3e af d6 a5 3e 27 6f ab bd f6 aa b2 3d
       0.3847215 0.32390353 -0.0837081 0.087240145
000210 57 d7 6f bd 0b cc 07 bf 63 1e 68 bd 43 f7 28 3b
       -0.058554973 -0.5304572 -0.056669604 0.0025782145
000220 01 00 ff 3c 65 15 9d bd 08 1c 20 3d 7c a4 b9 be
       0.031127932 -0.07670096 0.039089233 -0.36258304
000230 0b 61 f4 3c fd 88 46 bd c8 17 c0 3d a4 c1 74 3d
       0.02983143 -0.048470486 0.09379536 0.059754983
000240 99 0f f3 3e 9c 2f 99 3d 97 23 99 3d 87 db 07 3d
       0.47472838 0.07479784 0.07477491 0.033168342
000250 21 60 29 3e 13 29 c6 bd 1e ee d6 3c ff b7 2b 3c
       0.16540577 -0.09675803 0.02623659 0.01048088
000260 7e 2a 1d bd b4 2c a0 3e 22 75 bc 3d 6e ef ed bd
       -0.0383706 0.31284106 0.09202029 -0.11617933
000270 c4 cc 26 be 32 35 d3 3e 05 d3 a2 bc 8f be 39 bd
       -0.1628905 0.41251522 -0.019876013 -0.045347746
000280 01 7d 36 bd cc 8b 86 bd 8c 76 51 bd cd f5 54 3e
       -0.044552807 -0.06569633 -0.051138446 0.2079689
000290 f1 45 5d 3c e5 74 af be 84 6c 04 3e 60 1b 86 3d
       0.013505445 -0.3426887 0.1293202 0.0654819
0002a0 df e2 ce 3d 14 0c b1 3d c2 75 db 3d e3 26 2b 3e
       0.10101866 0.08644882 0.1071582 0.16714053
0002b0 66 2c f9 3d 93 c5 22 be f1 4d 70 bd aa 9c 8a bc
       0.121666715 -0.15895681 -0.05866808 -0.016920406
0002c0 8d 9a ca 3c 18 5e 92 3d aa da 99 3d 88 3b 57 bc
       0.024731899 0.07146853 0.0751241 -0.013136752
0002d0 cf b4 9f 3e ce 46 cd bd 62 56 81 bd ca 04 4d 3e
       0.31192634 -0.100232705 -0.06315304 0.20021358
0002e0 e8 0e 1c bd 31 47 01 3c a5 f3 aa bc ea 98 50 bd
       -0.038100153 0.0078905085 -0.020868132 -0.05092708
0002f0 20 25 ac 3e fb 44 a3 3d 55 db 01 be 01 09 45 3e
       0.33622074 0.07972141 -0.12681325 0.19241716
000300 b2 43 31 3e 3f d9 52 be 37 8a 88 3d e8 ff 99 3e
       0.1731098 -0.20590685 0.066669874 0.30078053
000310 08 1b 73 3d e7 61 1c 3d d6 83 97 3d 15 a4 98 bd
       0.05935195 0.038179304 0.073981926 -0.07453171
000320 15 d1 fe 3c 9a c8 47 3e a6 eb 14 3d ac 63 83 3e
       0.031105557 0.19510117 0.036357544 0.2566198
000330 27 3c 2c 3c 41 78 0c be 86 97 17 be 39 f8 80 bd
       0.010512388 -0.13717748 -0.14803895 -0.06297345
000340 0c b8 19 3e 9c 0d eb bc 8a 2f c9 3c 81 33 22 be
       0.15011615 -0.028693013 0.024558801 -0.1583996
000350 0b 17 78 3d 9f 88 a9 3e 53 7e c3 be 16 01 22 bd
       0.06056885 0.33112046 -0.38182315 -0.039551817
000360 7b 03 82 3c f7 a5 f9 3d 21 68 8e bd ba ef 90 3d
       0.0158708 0.121898584 -0.06953455 0.07076974
000370 8b bd a4 bd f6 8d a1 bd c4 7f 41 be b8 34 d4 3e
       -0.08043965 -0.07888405 -0.18896395 0.4144647
000380 aa a6 be 3e f7 4f d8 bb 8c eb be 3b c6 f1 bc be
       0.3723653 -0.0066013294 0.005826419 -0.36903208
000390 99 b2 b0 3c 77 e9 14 bd 1c b0 8c 3e 78 05 38 3e
       0.021569537 -0.036355462 0.2747811 0.17970836
0003a0 04 36 89 3d ca 5c c8 bd bf 49 5b bc c7 e6 79 bd
       0.06699756 -0.09783323 -0.013384282 -0.061011102
0003b0 b4 84 58 3e 41 9a 18 be e5 95 50 be 89 57 32 3d
       0.21144372 -0.14902593 -0.2036968 0.04354051
0003c0 f6 f0 04 be 39 a8 86 3d 49 0a 8e bd bb 29 ad be
       -0.12982544 0.06575055 -0.069355555 -0.338209
0003d0 a5 24 09 be ae 25 00 3d 64 9a 32 bd da e2 1e 3e
       -0.13392885 0.031285934 -0.04360427 0.15516225
0003e0 83 ce 40 3d 7e 18 c8 3e 6e 66 e1 3c 95 84 44 3e
       0.047071945 0.39081186 0.027514663 0.19191201
0003f0 8e 5a 95 be 2a ca bb 3d ee 63 ee ba fe 3d 0b bd
       -0.2917065 0.09169419 -0.001818774 -0.033994667

fc2.bias f4 [84]
000000 33 9f b6 bd d6 22 96 3d a5 6f 63 3e 9a 28 1a 3d
       -0.089170836 0.07330863 0.22210558 0.037636377
000010 28 51 0d bd c6 7f 83 3d 6a d2 45 3e e8 c7 c7 3d
       -0.034501225 0.06420855 0.19318548 0.09754926
000020 d3 f6 b0 bd 7b 9c 23 bd 39 c5 da 3d a8 18 86 bd
       -0.08640828 -0.039944153 0.106821485 -0.065476716
000030 29 9e 2c 3d f5 4e 8b bd 0b fd 0e 3c af 9f c1 3d
       0.04214302 -0.06802169 0.008727322 0.09454285
000040 cb 19 4d 3e 43 50 bf 3e 89 e4 f1 3d a9 3c a6 3e
       0.2002937 0.37365922 0.11811168 0.32468155
000050 8f 7e f2 3e 3b 05 ab 3e d3 41 90 3d 8d 94 2b 3d
       0.47362182 0.33402428 0.07043805 0.041889716
000060 68 bf 7a 3e 22 88 8e bd c8 8d 87 be 43 ed 84 3e
       0.24487078 -0.06959559 -0.26475358 0.25962266
000070 6d 10 5d 3e cf a6 94 3e 0b 14 66 3e 1b aa 37 bd
       0.21588297 0.29033515 0.22468583 -0.04483996
000080 74 e6 d7 3d 3e 09 2b 3d 13 49 04 3e 76 1e ae 3e
       0.10542002 0.04175686 0.129185 0.34007615
000090 49 01 47 bc 70 79 80 3e c9 11 22 bc 30 49 f5 bc
       -0.0121463025 0.2509265 -0.009891936 -0.029942125
0000a0 7d 81 57 3e 91 dd 39 bd a7 92 09 be 69 b7 46 be
       0.2104549 -0.045377318 -0.1343485 -0.19405903
0000b0 b9 c6 87 bc bd b4 e0 3d 9e e1 9b 3e e6 38 62 bc
       -0.01657425 0.10971973 0.3044557 -0.013807511
0000c0 c0 2d 7b 3e 00 ba 49 3c 13 e6 d7 bc be 59 5b 3c
       0.24529171 0.012312412 -0.026354825 0.013388095
0000d0 de ac 5b 3e eb 30 30 3d 99 1c 14 be 00 9e 0d 3e
       0.21452662 0.0430154 -0.14464034 0.13829803
0000e0 d3 fd 20 bd c4 42 13 3e fa 49 ce bd b0 e8 d3 bd
       -0.039304566 0.14380938 -0.10072704 -0.10347116
0000f0 35 7b d2 3c fb 3d ac bd d1 4e f2 3d 15 5a 1d be
       0.025693515 -0.08410259 0.11831439 -0.15366395
000100 47 f2 67 be cb 41 63 bd 7d a4 5d be 44 97 33 3e
       -0.22651015 -0.055482667 -0.21644779 0.17538172
000110 45 89 d9 bc 21 6a 09 3f e3 98 a5 bd 37 1a 95 3e
       -0.026554713 0.53677565 -0.080858015 0.29121563
000120 32 09 62 3d 39 35 d1 3e 90 9a e7 3d e6 dd 2b 3e
       0.05518455 0.40860918 0.11308777 0.16783866
000130 eb 23 06 bd 0f af 6f 3e 57 ac a9 bd 7b 66 c2 3e
       -0.032749098 0.23406623 -0.08284824 0.3796881
000140 1a 8b 3f 3e 4d 91 75 be af 4e 88 3d b7 9e f3 bd
       0.18705407 -0.23981209 0.06655633 -0.11895507

fc3.weight f4 [9, 84]
000000 a6 a5 e5 bd eb bd 38 3d 8d 4e af be f6 14 43 be
       -0.112132356 0.045102995 -0.34239617 -0.19050965
000010 8b d3 84 3e 4b a8 3d bf 90 c2 91 3d 4e b8 1c bf
       0.25942644 -0.7408492 0.07117188 -0.61218727
000020 d1 37 f6 3d b9 02 5a 3e b8 28 d9 be ea 08 8d 3d
       0.12022365 0.21290101 -0.42413878 0.06886466
000030 2b b6 e0 be 4b ae 22 be 2c a7 be bd 9a dc cd bc
       -0.43888983 -0.158868 -0.09309229 -0.025129605
000040 5a 4f 8c 3e 54 b8 b6 be a9 b7 50 3e 78 71 96 3d
       0.2740429 -0.35687506 0.20382561 0.07345861
000050 87 09 5a bf 00 c2 ab be 80 62 39 3e f1 3c c1 bd
       -0.8517079 -0.33546448 0.18103981 -0.09435452
000060 c8 a6 f0 bb b4 a5 6e bd 2e 33 24 bd 85 33 78 3e
       -0.0073441006 -0.058263496 -0.04008787 0.24238403
000070 26 3b aa 3d d0 fd 0d bf 29 8f 4e 3e db 99 a2 bc
       0.08312063 -0.5546541 0.20171799 -0.019848755
000080 09 90 63 3e 53 26 08 bf 72 99 4c 3e df 9f f4 be
       0.22222914 -0.5318348 0.1998041 -0.47778222
000090 44 25 f7 3d a9 20 49 be c8 19 25 3d 5f ba 8f bd
       0.12067655 -0.19641365 0.04030779 -0.07017969
0000a0 e8 ec 4b bf 0b 5b 81 3e 80 5c b6 be 95 0e 17 bd
       -0.79658365 0.25264773 -0.35617447 -0.03687914
0000b0 92 f8 c4 be 47 d4 f7 bd 03 39 41 3c 11 85 ef be
       -0.38470894 -0.121010356 0.011793378 -0.4678121
0000c0 e6 8c 20 bf 17 35 e7 bc aa c5 a0 3e 79 a6 70 3e
       -0.62714994 -0.028223557 0.31400806 0.23501004
0000d0 a9 4d 71 3d b5 7e 4d bf 32 4e ae 3d 60 19 f5 3e
       0.058911953 -0.80271465 0.08511008 0.47870922
0000e0 b4 ba e3 be a0 fc cc 3e 5c a3 8a be a4 d1 ff 3d
       -0.4447838 0.40036488 -0.27077758 0.12491158
0000f0 00 e1 b4 3d 0d de 52 bd 6b f0 00 bf ed 29 21 be
       0.08831978 -0.051481295 -0.5036685 -0.1573865
000100 2e 6c 69 bd ec 70 21 bf 09 f4 3e be a7 26 1f 3e
       -0.056987934 -0.6306293 -0.1864778 0.15542088
000110 28 35 ee be 81 2e f9 be 6f 63 12 be e3 04 02 3e
       -0.4652493 -0.48668292 -0.14295743 0.12697177
000120 2f 36 2b bf dc da 0c 3e 16 02 29 bf 3c 84 e3 be
       -0.6687955 0.13755363 -0.6601881 -0.44436824
000130 c2 2d ea bc 56 c3 55 3e 20 7a 3c be 4d a7 14 bf
       -0.028586272 0.20875296 -0.18405962 -0.5806778
000140 52 3b cf bc e1 95 a0 be e1 51 2c bf 4b 65 60 be
       -0.02529684 -0.3136435 -0.6731244 -0.2191364
000150 26 71 21 be 3d f3 16 be 89 fa bc 3e 78 74 87 bd
       -0.15765819 -0.14741226 0.36909893 -0.066140115
000160 13 95 1e be 92 d3 16 be 2e f4 6b 3d 95 4c a2 be
       -0.15486555 -0.14729145 0.057605915 -0.31699052
000170 20 7d 75 be 38 0b 36 bf 35 9a e5 bd 29 75 50 3d
       -0.23973513 -0.7111087 -0.11211053 0.050892983
000180 39 8d 28 3e 88 5c d1 bb 02 30 61 bd 64 8d 71 be
       0.16460122 -0.0063892044 -0.054977424 -0.23589092
000190 27 7b 9a 3e 58 3e 31 3d 6d ab d4 3d f3 66 20 3d
       0.30172083 0.043272346 0.103842594 0.03916068
0001a0 11 6c 2a bc fb c2 2d 3d ae dd 19 3e 61 1d a7 bd
       -0.010401742 0.042422276 0.1502597 -0.081599005
0001b0 67 14 e5 bc 16 44 e9 3d 20 2a 44 be 93 64 82 3e
       -0.02796383 0.113899395 -0.19156694 0.25467357
0001c0 c5 8e 57 3e b1 95 4c 3e b4 5a 2d 3d 97 ce 3f be
       0.21050556 0.19978978 0.04232283 -0.18731152
0001d0 2b c0 8a 3e 33 5d 36 bd bd 1a 9c be b7 4c 35 3e
       0.27099738 -0.044522475 -0.3048915 0.17705046
0001e0 84 f7 79 be fe 5c c6 be 28 ff c2 bd c5 b0 bd bd
       -0.24410826 -0.38742822 -0.095213234 -0.09262232
0001f0 00 65 a6 bd 73 70 cc 3e 12 07 94 be 68 94 04 3e
       -0.08124733 0.39929542 -0.28911644 0.12947237
000200 0c e9 8b be 52 00 ad 3e ee 30 06 3e 91 bd 20 3e
       -0.27326238 0.33789307 0.13104603 0.15697314
000210 e1 cd b8 bc f0 1b 6a 3d 43 f6 22 bf 99 37 ca be
       -0.022559108 0.05715555 -0.63657016 -0.39495543
000220 85 50 b3 3e 8b 36 33 be c5 01 eb bd 07 b9 aa be
       0.3502237 -0.17501275 -0.11474947 -0.3334429
000230 70 73 a9 3e a4 40 6e be 47 f0 f2 be 68 c6 05 3e
       0.33095884 -0.23266846 -0.47448942 0.13063967
000240 3d cd 23 bf ad 6e 81 3d a6 74 26 be eb 09 4a be
       -0.63985044 0.06319938 -0.16255435 -0.19730346
000250 8e b9 0b be 43 84 82 be 35 a3 fe be 91 8d 06 3e
       -0.13645002 -0.25491533 -0.49733892 0.13139941
000260 af 98 e8 be b4 5f 4a bd 07 85 b5 be cd 30 1c 3e
       -0.45428988 -0.049407676 -0.35453054 0.15252991
000270 4c 09 f8 3d 8f 8e cf 3e cb 96 49 3d 63 32 98 bc
       0.12111148 0.4053845 0.049216073 -0.018578714
000280 9b 36 02 bd 69 7c 70 be 01 91 a5 3e f6 e2 1f 3e
       -0.031790357 -0.23484959 0.32337192 0.15613922
000290 5d e7 80 bd d8 31 5f 3e dd 8a da be 04 17 7f 3e
       -0.06294129 0.21796358 -0.4268407 0.24911124
0002a0 d4 c5 3b be 16 15 98 be b5 e6 99 3e e7 3f 6b bd
       -0.18337184 -0.29703587 0.30058828 -0.05743399
0002b0 da 08 88 bc 27 de 14 3e a1 3a 34 3e 90 1b a1 3e
       -0.016605783 0.1453787 0.1760049 0.3146634
0002c0 25 7e f8 3e ea 23 a5 3e d4 92 10 bf 48 fd 11 3c
       0.4853374 0.32253963 -0.5647404 0.008910485
0002d0 df 28 3e bd 86 e9 ce bd dd 15 f7 bc 91 26 eb be
       -0.046425696 -0.10103135 -0.030161792 -0.4592786
0002e0 11 18 c4 3d 29 74 6c 3e d6 91 3d 3e 52 72 81 3d
       0.09574903 0.23091187 0.18512663 0.06320633
0002f0 82 3e 3f 3e 81 9c 23 3e 54 71 42 be c1 5a 6f 3c
       0.18676189 0.1597767 -0.18988544 0.01460904
000300 12 62 54 3e e4 dc 98 be 58 d3 49 3e 48 bc 20 be
       0.20740536 -0.29856026 0.19709527 -0.15696824
000310 88 2d 11 bf d2 f1 48 3e 4b c3 d0 be 09 73 e7 be
       -0.567101 0.19623497 -0.40773997 -0.45204952
000320 9a 11 b3 be e7 9f 2e 3c 0a 88 6c 3e 12 3a e3 be
       -0.34974366 0.010658241 0.2309877 -0.44380242
000330 ea 78 97 be 8c 73 9e 3e dd c8 8d be 2d 5c 72 3d
       -0.29584438 0.3094753 -0.2769231 0.059169937
000340 03 b0 3b 3e 45 d4 16 be 2c 53 9f be 9a 06 3e 3c
       0.18328862 -0.14729412 -0.31118143 0.011598254
000350 be 96 f9 3c 2f 54 06 bf 09 86 44 3e 05 29 6c 3d
       0.030467387 -0.52472204 0.19191755 0.057656307
000360 3f 6a 10 be 15 2f 8a 3d 18 f3 60 3d 66 31 12 be
       -0.1410303 0.067472614 0.054919332 -0.14276657
000370 1d 0e d8 3d 06 a4 e5 be 42 e0 b7 be 57 96 ab be
       0.10549567 -0.44851702 -0.35913283 -0.33513138
000380 3e 89 2a 3e 92 fc f2 bd 31 7f 60 3e 86 c2 8b be
       0.16653916 -0.1186458 0.2192352 -0.27296847
000390 a3 ec 0c 3e 3d 2a 9a 3d 6b 25 9f be 1d b3 88 be
       0.13762145 0.075275876 -0.31083235 -0.26699153
0003a0 a4 09 c9 be 81 4b 89 3e 12 d7 96 bd d6 6b 10 be
       -0.39265168 0.26815417 -0.0736524 -0.14103636
0003b0 12 94 14 3e 8d 00 a6 3e a8 7a 3f be b0 d7 55 3d
       0.1450961 0.32422295 -0.18699133 0.05220765
0003c0 1e 9a e8 bc 1c 5a 8e be 99 9b 28 bd 6d 78 1f 3e
       -0.028393801 -0.27803123 -0.041164014 0.15573283
0003d0 ce 05 b0 bd 9a a7 c5 3d 59 6c 53 be f6 72 90 bc
       -0.08594857 0.09651108 -0.206468 -0.017632943
0003e0 62 0d bf be aa 59 02 be 84 af b7 3c 21 9b d4 3d
       -0.37314898 -0.12729517 0.02242256 0.10381151
0003f0 b7 c9 61 be 2b e0 c7 be ca 47 26 bf e7 44 7d 3e
       -0.22049604 -0.39038214 -0.6495329 0.24733315

fc3.bias f4 [9]
000000 28 0e d7 3d 68 4e 00 3e f3 58 d2 bd eb 25 34 3e
       0.10500747 0.1252991 -0.10270872 0.1759259
000010 c8 97 12 bd 97 7c 57 3d 33 ce 0c 3e cf a5 7b be
       -0.03578928 0.052609053 0.13750534 -0.2457497
000020 ad 84 c8 be
       -0.39163724
