output_visualizations/base_tsk[+1]_agm[none]_spl[S2]_mdl[lenet]_ls[SM]_tu[none]/model.pt (torch, 249415 bytes, 10 tensors)

conv1.weight f4 [6, 1, 5, 5]
000000 ad f5 8c 3e b4 21 ae 3e fd dc b0 3d 6b d1 88 3e
       0.27531186 0.34010088 0.086359 0.26722273
000010 38 5f 5c bd 17 8c 5c 3e 1b 07 08 3e 2a 06 a2 3e
       -0.053801745 0.21537815 0.1328396 0.31645328
000020 1f 2a b1 3e 3f 20 9f bd a4 1c 88 3e 82 8f 48 3e
       0.34602448 -0.07769822 0.2658435 0.19585994
000030 37 21 91 3e c9 f6 11 3e a2 1f 10 3e ca de 1e bd
       0.28345653 0.14254297 0.14074567 -0.038786687
000040 b4 5b 59 3e 5a 39 b2 3d f3 7b 31 bd ac c3 45 3d
       0.21226388 0.08702345 -0.043331098 0.04828231
000050 15 57 56 be c1 8d 92 bd eb 46 e1 bd c0 10 c8 3d
       -0.20931657 -0.07155944 -0.10999855 0.0976882
000060 0e 7d 57 be 38 64 91 be 3d 3d 2f bd ad 40 12 3d
       -0.21043798 -0.28396773 -0.04278301 0.03570621
000070 00 ee 94 bd 2f 81 07 bf 74 26 1f 3d 81 b3 f7 bd
       -0.072719574 -0.52931494 0.03885503 -0.120947845
000080 59 0b b4 3e ef 93 be ba 49 a1 a3 be d1 08 a8 3d
       0.35164908 -0.0014539937 -0.31958988 0.082048066
000090 b8 9c 16 3e 0b 24 d9 3e f0 59 ab 3d 07 ff 51 be
       0.14708221 0.4241031 0.083667636 -0.20507441
0000a0 be 24 8c 3d 83 a4 01 3e 94 27 d3 3e 55 99 b1 3e
       0.068429455 0.12660412 0.41241133 0.34687296
0000b0 9f a3 dd 3d 2a 9e 1d be 9c d7 5e 3e 88 b4 8b 3e
       0.10822224 -0.15392366 0.21761936 0.27286172
0000c0 4d 10 63 3e f6 04 13 be 16 c6 85 be a9 35 3a be
       0.22174187 -0.14357361 -0.2612769 -0.18184532
0000d0 28 ce f4 bd 7d 9c a2 3e b4 3e c3 3d 7c 5d dd bc
       -0.11953384 0.31760016 0.09533444 -0.027022116
0000e0 c3 fe 21 bb c0 20 ba 3d ec 94 89 3e 4f 3c 4b be
       -0.00247185 0.09088278 0.2687143 -0.19847225
0000f0 33 12 d5 bc 42 e9 87 bd bb 92 61 3e 65 19 f7 bc
       -0.026009655 -0.06636287 0.2202863 -0.030163476
000100 65 c8 21 bd 2a 3c a0 3c ae f9 a3 3e 55 af 18 3c
       -0.03949775 0.019559938 0.32026428 0.009319146
000110 bc 1c 22 be dc 31 60 be 44 d7 8a 3e 9b 79 2d 3e
       -0.15831274 -0.2189402 0.2711736 0.1694092
000120 78 f6 37 3e 19 3c 97 be f6 23 9c be eb a7 74 be
       0.17965114 -0.29538038 -0.30496186 -0.2389218
000130 32 15 54 be 1e 85 dd 3d e2 b1 46 3e e0 f2 90 3e
       -0.2071121 0.10816406 0.19403794 0.283103
000140 29 6a 45 be aa bf 25 be d1 a2 56 3e 2e b1 b5 3d
       -0.19278778 -0.16186395 0.20960547 0.08871685
000150 3c c6 7a 3e 0d cd eb bd 75 eb 25 3e 85 fb e1 3b
       0.24489683 -0.1151372 0.16203101 0.0068964385
000160 8d 65 56 3d 88 36 13 3e 55 0e ab 3c 3c c4 59 3d
       0.05234294 0.14376271 0.020880857 0.05316566
000170 10 65 74 3e f2 84 3f 3e 2c 9f 11 be bf 10 9c bc
       0.23866677 0.18703058 -0.14220876 -0.019050954
000180 f0 ee ab 3e 35 8a 19 3c b1 f8 6a bd 5e a4 41 be
       0.33580732 0.00937133 -0.057366077 -0.18910357
000190 ba 79 3e 3e 6d 77 b8 3d aa 9a c7 bd 80 ee ff bd
       0.18601122 0.09007154 -0.09746297 -0.12496662
0001a0 15 14 80 be f1 85 00 3e 4a b8 bd be 80 4f 49 bf
       -0.2501532 0.12551095 -0.37054664 -0.7863693
0001b0 d5 cb 45 bf da 98 67 bf be b2 f7 3e bf c0 43 be
       -0.7726415 -0.9046761 0.48378557 -0.19116496
0001c0 4e 73 15 bf e9 58 31 bf 95 1f 33 bf 7b 64 4d 3e
       -0.58379066 -0.6927629 -0.69970065 0.20057862
0001d0 d6 7d 96 be 40 cf 73 bf ac 7d 23 bf df 5d ec be
       -0.2939288 -0.95238113 -0.63863635 -0.46165368
0001e0 25 46 a1 3e 77 67 8c be 35 6c 18 bf 68 29 fb be
       0.3149883 -0.27422687 -0.5954011 -0.49055028
0001f0 2e b3 0c be 0d a2 c2 be 5f de b8 be cf 7d 99 be
       -0.13740227 -0.3801426 -0.36107156 -0.29978797
000200 96 17 bc 3e 13 84 ae bd eb ed 12 be 87 5a 70 be
       0.36736745 -0.08521285 -0.14348571 -0.23472033
000210 66 e2 87 be 9d c9 c0 3e 8b 11 ce bd 67 be b5 be
       -0.26539916 0.3765382 -0.1006194 -0.35496828
000220 e0 ef cb be 84 56 45 be 9f 66 af 3e 15 72 4a bd
       -0.39831448 -0.19271284 0.3425798 -0.049425203
000230 7a 25 0c 3d aa 47 0c be e0 7c c2 3e ed 09 7f 3e
       0.034215428 -0.13699213 0.37985897 0.2490613
000240 0e 01 ad 3d e8 12 8d 3e 07 65 dd 3e 7e a3 10 3f
       0.08447467 0.27553487 0.4324114 0.5649947
000250 03 11 22 3f d7 72 66 3d
       0.6330721 0.056261864

conv1.bias f4 [6]
000000 e6 d6 17 bd 07 6f 0b be 2d 69 8f 3b 8a fe 46 be
       -0.037070177 -0.13616572 0.0043765516 -0.19433036
000010 6d ce e4 3e 20 2f c7 bd
       0.4468874 -0.09725785

conv2.weight f4 [16, 6, 5, 5]
000000 c1 c9 8d 3d 2f 79 83 3d 34 e2 53 bc ec 65 2d be
       0.06923247 0.06419598 -0.012932349 -0.16933411
000010 4b 4f 64 bd 97 d3 8f 3d 2d 4c af 3d c0 5c b5 bd
       -0.055739682 0.070227794 0.08559451 -0.08855581
000020 02 de 87 bd fe ec f5 bd 77 e8 0e 3d 33 fc 23 3e
       -0.066341415 -0.12008093 0.034889665 0.16014175
000030 f0 fd 9f 3c d2 f3 0e be 1b 76 1c be f2 f3 c3 3d
       0.019530267 -0.13960198 -0.15279429 0.09568013
000040 04 60 28 3e 3f e9 d3 3b 24 24 07 be e0 66 14 be
       0.16442877 0.006467014 -0.1319738 -0.14492369
000050 cf 31 47 3d 42 71 26 3e 38 e9 f0 3d 9b ba 16 be
       0.048631486 0.16254142 0.11763233 -0.14719622
000060 2f f7 ce bd d9 54 80 3e ca 22 4e 3e b0 89 b4 bd
       -0.1010574 0.25064734 0.20130458 -0.08815324
000070 07 44 cd bd 46 a7 b0 bd 90 48 80 3e c3 f2 3d 3e
       -0.10022741 -0.08625655 0.2505536 0.18549637
000080 cf 55 4f bd 1e cc e9 bd b1 2a 08 be 3c 44 55 3e
       -0.050618943 -0.114158854 -0.13297535 0.2082681
000090 9a 99 88 3e 73 8c 50 3d dc 06 26 be 49 73 27 be
       0.2667969 0.050915193 -0.16213554 -0.16352572
0000a0 65 17 4c 3e 67 68 6d 3e b9 24 11 3d 9c 6a f3 bd
       0.199308 0.23184358 0.035435412 -0.118855685
0000b0 28 8f 71 be 00 0d d1 3d e9 ee 97 3e b3 ac b7 3d
       -0.23589766 0.10207558 0.2967446 0.08968487
0000c0 9f d9 eb bd 8a 61 68 be 77 43 89 3c 2a 59 ca 3e
       -0.11516117 -0.22693458 0.016755803 0.39521152
0000d0 8a d8 7d 3e bf 67 e9 3d 02 fd 8f 3d eb 35 5c 3c
       0.24789634 0.11396741 0.07030679 0.013440589
0000e0 6d 03 aa 3e ae 2c 85 3d fc 77 16 3d 81 b8 a0 3e
       0.3320574 0.065026626 0.03673552 0.31390765
0000f0 47 21 b3 bd c1 b1 84 3e 97 f7 62 3e ea a9 54 3e
       -0.087465815 0.25916865 0.2216476 0.20767942
000100 fc 49 86 3e 18 96 1d bc 71 1f 43 3e e3 30 8f 3e
       0.2622832 -0.009618305 0.19054963 0.27966985
000110 3c 00 a5 3e 8d 5d 92 3e 86 f9 22 3d 80 14 57 3e
       0.3222674 0.28587 0.039788745 0.21003914
000120 fd 17 97 3e a1 1f d9 3e 79 16 70 3e 3b c3 76 3e
       0.2951049 0.42406943 0.23446073 0.24097912
000130 90 dd d9 3d 05 ee ed bc 60 44 fb bd de c7 bf bd
       0.10637963 -0.02904416 -0.12268901 -0.093642935
000140 fb 3a 63 3e 74 00 43 3d bf 47 61 be f2 27 54 be
       0.22190468 0.047607854 -0.22000025 -0.20718363
000150 6f b0 7e bc eb 56 80 3e c4 f7 f8 3d 92 5d 1f be
       -0.015544995 0.25066313 0.121566325 -0.15563038
000160 cb 9a 92 bd 75 44 c7 bd 42 cd 75 3e db cb 35 3e
       -0.07158431 -0.09729854 0.24004081 0.17753546
000170 09 18 32 be 8b 02 94 bd 92 61 f6 bd cc 73 96 3e
       -0.17391981 -0.072270475 -0.12030329 0.2938522
000180 b8 2f 56 3e c7 6c ee bd 4a 93 29 be 86 6c 2e be
       0.20916641 -0.116418414 -0.16560093 -0.17033586
000190 67 4d ca be fb 46 a1 be 69 3d 17 3e 92 a0 b7 3d
       -0.39512178 -0.31499466 0.1476952 0.08966173
0001a0 ff 4d 1b 3d 56 8b 91 be eb 7d 5e bd 60 9d cc 3d
       0.03791618 -0.28426617 -0.054319303 0.099909544
0001b0 0d 21 e4 3d d2 86 09 3e b4 43 c0 bd 13 1d df bd
       0.111391164 0.13430336 -0.09387913 -0.10894217
0001c0 57 83 61 3d bc 50 be 3c f4 e1 13 3e c7 7e c9 bd
       0.055056896 0.023231857 0.14441663 -0.09838634
0001d0 c7 6d 0a bd 50 14 3f 3e 8d 75 53 3e 56 ef 01 3e
       -0.033796098 0.18660092 0.20650311 0.12688956
0001e0 5d 57 88 bd 6e eb 92 bd 7e e2 f5 3d 1d f5 c9 bc
       -0.06657288 -0.07173811 0.120060906 -0.024653012
0001f0 96 34 f5 3c 23 2e 27 3e e5 41 ae 3d ee aa 3d be
       0.029932301 0.16326194 0.08508662 -0.18522236
000200 31 51 5c bd 00 4b a8 3c b8 98 34 3e 04 04 05 3e
       -0.053788368 0.020543575 0.17636383 0.12989813
000210 f4 a0 50 be 0c 93 19 be 2a 27 c6 bd a5 70 49 3e
       -0.20373899 -0.149975 -0.09675439 0.19671877
000220 1a 46 d9 bb c9 91 a4 be 42 0f 74 bd 26 73 c2 bd
       -0.006630671 -0.32142475 -0.059584863 -0.09494619
000230 bd 24 07 3e b3 4c 9b 3d ac 9a 67 be a7 47 34 be
       0.13197608 0.075829886 -0.22617596 -0.17605458
000240 70 3f 12 be a2 c7 1f 3e 06 ee ac 3d 4e f6 16 be
       -0.14282012 0.15603498 0.08443837 -0.14742395
000250 b4 df bf bd c0 d5 60 3c 43 49 8f 3d f3 1c 31 3e
       -0.0936884 0.013722837 0.069963954 0.172962
000260 8b 60 20 3e 09 5c 41 3e 10 e0 4b 3e e4 8f e1 3d
       0.15661828 0.18882765 0.19909692 0.11013773
000270 d2 10 e5 3c 1a 48 24 3e be 5c 4d 3e d7 61 bd 3d
       0.027962122 0.1604313 0.2005491 0.09247177
000280 2c 90 c4 3d 7c b3 f5 3d 15 16 22 3d 79 6d 64 3d
       0.09597811 0.119971246 0.03957184 0.055768464
000290 33 ea f6 bc 48 a3 8a 3b 3c 0d 52 3d 1a 6f 09 3c
       -0.030140972 0.0042308904 0.051282153 0.008388305
0002a0 1e f7 b6 bd a9 11 a6 bd 5b 33 06 bd 58 25 cc bd
       -0.089338526 -0.08108837 -0.03276382 -0.0996806
0002b0 0a 1b 00 be 81 47 9a bd 5b 61 e4 3c 97 28 82 3d
       -0.12510315 -0.075331695 0.027878454 0.06355398
0002c0 84 a5 40 3d 40 10 98 3d 77 35 3b 3e fa 3e a9 3c
       0.047032848 0.074249744 0.18282114 0.020659912
0002d0 61 95 ac bc fb f5 e0 3c ac b0 10 bd ed 75 a2 bc
       -0.021067323 0.027461043 -0.035324737 -0.019831622
0002e0 92 3e b0 bc 08 ea b6 bd bf 18 4c be 63 2b 8a be
       -0.02151421 -0.08931357 -0.19931315 -0.26986226
0002f0 2e 1b 8e be b6 f8 fd bd de 71 95 3d 20 90 45 be
       -0.2775511 -0.124009535 0.07297109 -0.1929326
000300 71 09 7b be 55 88 43 be 7e e5 77 bd ee 8b 1f 3d
       -0.2451532 -0.19094975 -0.060521595 0.038951807
000310 a5 bb f6 bd 13 47 12 be 9d 9b 8b be 39 f7 4e bd
       -0.12047509 -0.14284925 -0.2726716 -0.05052874
000320 a7 62 9c 3e 4f c9 5f 3e b3 8a a0 3e ec e1 a9 3e
       0.30544016 0.21854137 0.3135582 0.33180177
000330 f6 15 37 3e c4 d7 43 3e d9 15 07 3e 4e a4 ec 3d
       0.17879471 0.19125277 0.13191928 0.11554776
000340 e2 64 b0 bc 58 56 a8 be 43 46 a6 3e d7 96 c5 3d
       -0.02153248 -0.32878375 0.3247548 0.09647911
000350 08 c5 6c be a2 3b 24 bf e6 c1 34 bf 76 4b 52 3e
       -0.23122036 -0.6415349 -0.70608366 0.20536599
000360 14 5a d8 bd 67 68 1a bf 31 cc 80 bf 70 c5 c1 be
       -0.10564056 -0.60315555 -1.0062314 -0.37845945
000370 8d 07 c1 3d 13 f3 6d bd 4f 48 22 bf 19 24 24 bf
       0.09425268 -0.05809314 -0.63391584 -0.6411758
000380 a9 a7 a6 3b 06 f8 3e 3e 57 12 a8 3e b6 cf 9a 3e
       0.0050859046 0.18649301 0.32826492 0.30236596
000390 40 0c f0 3d 21 a3 be 3c 82 94 16 3e a6 9b 2a 3e
       0.117210865 0.023271145 0.14705089 0.16660938
0003a0 2d ee 2c 3e 50 d6 01 bd 44 d7 15 be 77 4a b0 3d
       0.16887732 -0.031698525 -0.14632899 0.08607953
0003b0 ec 0a d6 3d 46 ad d1 bc f9 48 08 be 97 ca 3d be
       0.10451302 -0.025595319 -0.13309087 -0.18534313
0003c0 22 eb de bd bc 22 d3 bd 19 09 59 be 68 f7 66 be
       -0.10884692 -0.103093594 -0.21194877 -0.22555315
0003d0 d2 03 4d bd e6 66 1d bd 0d 90 88 be 6d 2e 9f be
       -0.05005247 -0.03842821 -0.26672402 -0.31090108
0003e0 c7 d3 65 be 07 73 0d be 7d 14 01 be 1b d8 9e be
       -0.22444068 -0.1381341 -0.12605472 -0.3102425
0003f0 d4 24 f2 be 88 47 51 be d5 78 cf bd d5 5a 5e 3d
       -0.47293723 -0.20437443 -0.10130469 0.054285843

conv2.bias f4 [16]
000000 8c 53 59 bd a7 3d 15 3e 7f f0 46 3d 18 d6 84 bc
       -0.053058192 0.145743 0.0485692 -0.01621537
000010 8a 84 10 be c4 74 7c 3d 85 0e 95 bc 90 63 92 bd
       -0.1411306 0.061634794 -0.0181954 -0.07147896
000020 35 64 60 bc cc 3e b4 bd 36 2c 14 bd e7 2f cd 3d
       -0.013695766 -0.0880104 -0.036174975 0.10018902
000030 a4 5d ad 3d fe 2a 9b 3c 96 39 8b bd 91 a1 7b 3d
       0.08465126 0.018941399 -0.06798093 0.06143338

fc1.weight f4 [120, 400]
000000 a1 8a d0 3d 7d c1 d1 3d 23 1e 5f 3d e7 91 9d bd
       0.10182691 0.10241983 0.0544721 -0.07693844
000010 4a ed 40 3e 00 be ae 3d 43 1a c6 bd b6 a1 f0 bc
       0.18840519 0.085323334 -0.09672978 -0.029373985
000020 50 60 25 3e 89 9e f1 3d 1b 30 14 3e 9e 3c 4d bd
       0.16150022 0.11797816 0.14471476 -0.050106637
000030 af 50 9b bd 5d e2 5d 3d 14 ed 00 3e 14 b1 03 3e
       -0.075837485 0.054170955 0.12590438 0.12860519
000040 ec aa a7 bd c4 73 d3 bd 16 35 d5 3d 82 33 5d 3e
       -0.08186898 -0.10324815 0.10410516 0.2160168
000050 a9 5f 80 3e 14 59 94 be 15 24 d7 bd f8 17 3a 3e
       0.25072983 -0.2897421 -0.10504929 0.18173206
000060 ab 47 96 3d e5 90 0c 3d 23 10 b3 3d b3 55 a2 3d
       0.07337888 0.03431787 0.08743312 0.07926502
000070 6e c6 53 3d c1 66 17 bd 8c 68 fa 3d 41 8f 46 3d
       0.05170291 -0.036963228 0.12226972 0.04847646
000080 c2 b5 20 3e 9d 45 d2 3e a6 85 b3 bd 91 9f e6 bd
       0.15694335 0.41068736 -0.08765726 -0.112609036
000090 99 fa 0f 3e f4 ba 25 3e e2 56 18 3e 4a cc 98 be
       0.14060439 0.16184598 0.14876893 -0.2984336
0000a0 be c4 5f 3e c8 36 d1 3d 54 94 a7 bd ad 98 92 3d
       0.21852395 0.10215527 -0.08182588 0.07158027
0000b0 a5 50 a3 3d 37 dc 37 3e e2 88 99 bd 45 2c 80 be
       0.07974366 0.17955099 -0.074968114 -0.25033775
0000c0 4a 39 52 bd aa cd 4e be 94 bb f2 3d ea 07 89 3e
       -0.051324166 -0.20195642 0.11852184 0.2676385
0000d0 8f 3f 86 bd 31 fe 9e ba 3a c0 7e bd 82 6b 78 3d
       -0.065550916 -0.0012130198 -0.06219504 0.060649402
0000e0 bf b1 aa 3c c2 3b c1 bd 82 d7 0f bc ec ea ac 3d
       0.020836709 -0.09435226 -0.008779408 0.08443245
0000f0 af 80 ad 3d 91 2f a8 bb 38 06 9a bd 52 93 b7 3c
       0.0847181 -0.0051326235 -0.075207174 0.022409115
000100 0a 75 9b ba 1a 06 04 be 4d 67 28 be 50 b4 ac bc
       -0.0011860442 -0.12892953 -0.16445656 -0.021082073
000110 22 a6 9a bd b4 be db 3c 63 30 43 be 33 69 5e be
       -0.075512186 0.026824333 -0.19061427 -0.21719818
000120 8b 56 7b 3d f1 bc b3 3b e1 fe 94 3e c7 1a 02 be
       0.06136183 0.00548517 0.29100707 -0.12705527
000130 de 1d 52 3d 31 a3 16 be f4 7d b9 bc ad 7e 18 be
       0.051298015 -0.1471069 -0.022643067 -0.14892073
000140 31 08 09 3d 4a 65 7a 3e 7a a8 f0 bc fc cd 41 bc
       0.033455078 0.24452701 -0.02937721 -0.011828896
000150 46 69 b6 bd c5 7e c5 bc 7e b3 2d 3e 04 0a 62 3c
       -0.08906798 -0.0241083 0.16963002 0.013796333
000160 fe 5a 36 3b 24 67 7d be 8c e7 94 3c 04 07 52 3e
       0.0027825232 -0.24746376 0.018176816 0.20510489
000170 7a 45 45 3c 6f f7 7e 3d de 9c 11 be 7b b1 b4 3e
       0.01204049 0.06224769 -0.14219996 0.35291657
000180 17 30 11 3f 7f 62 3d 3e 5b f5 ff 3d fe 1d e8 3d
       0.56714004 0.18494605 0.1249797 0.113338456
000190 9c d9 97 bd 58 9a b7 3b ab 42 21 be ef 1d 8e be
       -0.074145526 0.005603116 -0.15748088 -0.27757213
0001a0 1e f5 ec be bd 65 bd 3b 67 54 2f 3e ef 02 09 3e
       -0.4628076 0.0057799504 0.1712204 0.13380025
0001b0 d0 7b c7 bd 19 5e 99 be 0e 3f 6f bd ff 17 80 bd
       -0.09740412 -0.29954603 -0.058409743 -0.06254577
0001c0 92 30 a4 bd ca 38 a8 bd 20 14 e6 bd e0 54 1e be
       -0.080170766 -0.08213957 -0.11234307 -0.15462065
0001d0 01 39 ce bd 4f 79 14 be b4 85 3a be 56 4f 0b be
       -0.100694664 -0.144994 -0.18215066 -0.13604483
0001e0 43 d6 2e 3d 11 4d 9d bd a1 9a 3b be bf 56 12 be
       0.042684805 -0.07680715 -0.18320705 -0.14290904
0001f0 ad 1d a7 bd e2 30 12 be c4 39 17 be bf 7a 5a be
       -0.08159957 -0.1427646 -0.1476813 -0.21335886
000200 0a e3 d4 bd 4d d2 22 3e fe 7e 73 bd 8b 79 e1 bd
       -0.10394867 0.15900536 -0.05944728 -0.110095106
000210 e6 8e 6c bd a0 e3 f9 bc ac fc 8e 3d 19 bb 70 be
       -0.057753466 -0.030504048 0.06981787 -0.23508872
000220 a1 f5 5f be 05 36 4f be aa 49 8b bd 8e 76 5e bd
       -0.21871044 -0.2023545 -0.0680116 -0.05431228
000230 9c 3b 3b 3d 5f 3d 87 3d 36 4a 30 3e 2f dd 98 3d
       0.045711145 0.066035025 0.17215809 0.074640624
000240 c8 cc 56 3e 9d 58 a5 3e 65 de 76 3e 65 05 bc 3e
       0.20976555 0.3229417 0.24108274 0.36722866
000250 4c 4f 3c 3e 7b 8e b4 3e 9c f2 6c 3d 82 df 46 bd
       0.18389624 0.35264954 0.057848558 -0.048552997
000260 ec 14 d2 3d be 40 e5 bd 45 55 fb 3d ed e8 fb bd
       0.10257897 -0.11193989 0.12272123 -0.123002864
000270 c5 9c 99 3d 8e 71 67 3e 38 ef 97 3d d0 9c 07 3c
       0.075006045 0.22601911 0.07418674 0.008277133
000280 e0 1f 92 be ca c1 de bd 2e 36 6c 3e c1 21 07 be
       -0.28539944 -0.10876806 0.23067543 -0.1319647
000290 1d 84 a1 3b 16 46 ed 3d ea 59 63 3d 95 5d c8 3d
       0.004929079 0.115856335 0.05550567 0.09783474
0002a0 31 44 14 bc 65 31 c8 3c f2 ae b8 3d 8b c2 dc bc
       -0.009049461 0.024437616 0.09017743 -0.026948234
0002b0 a3 9d c5 3c 0e 66 96 3d df b8 42 3e 24 34 ed 3c
       0.024123019 0.07343684 0.19015835 0.028955527
0002c0 90 9b 1b 3d b2 1a 40 3e 37 4c ee 3c 4b 88 46 3c
       0.037990153 0.18760183 0.029089076 0.012117456
0002d0 0d f8 fc bd 2d 38 cd 3c 2c aa 40 ba d5 ed 9c bd
       -0.123519994 0.0250512 -0.00073495763 -0.0766255
0002e0 81 88 6b bc 12 31 3a be d0 89 44 3e 0f 07 ce bd
       -0.014375807 -0.18182781 0.19193196 -0.1005994
0002f0 c2 fb 96 bd da fb 59 3d 5f ee c6 bd ca b8 bf 3d
       -0.07372238 0.0532187 -0.097134344 0.093614176
000300 10 36 bf bc cc 44 04 bc ee 1d 65 3d 00 25 04 3e
       -0.023341209 -0.008073043 0.055936746 0.1290474
000310 12 94 59 3e 25 77 8e bc 5d 64 4b bd f4 88 7b bd
       0.2124789 -0.017390797 -0.04965626 -0.061409906
000320 56 95 cc 3c d8 3b 0a bd b1 97 50 3c b9 1f 7b bd
       0.024973553 -0.033748478 0.012731479 -0.06130955
000330 5f 13 7f bd c2 56 c7 3d d7 fe 0a 3d ae b2 4a bb
       -0.062274333 0.097333446 0.03393444 -0.0030929255
000340 df f8 22 bd 36 a0 09 3e 89 f1 01 3e 7d 89 55 3b
       -0.039788123 0.13440022 0.12689795 0.003258317
000350 bb c6 f6 3c 88 74 85 3d 98 bc d9 3d 26 5a 05 3d
       0.030124059 0.06516367 0.106316745 0.032556675
000360 b3 53 a9 bd 7f 65 47 bd 02 70 d7 3c f5 71 51 3e
       -0.082679175 -0.04868078 0.026298527 0.20453627
000370 6b e7 04 be 1c d7 f2 bd e4 43 dd bd de d1 a9 3d
       -0.12978904 -0.11857435 -0.10803965 0.08291982
000380 46 8b 64 3e f0 e5 37 bc 48 e6 cf 3c 2a 9b b2 bd
       0.22318754 -0.011224255 0.025378361 -0.087210014
000390 93 12 5b bc 66 ce 30 3d 91 85 69 3d 31 4f 1d 3c
       -0.013371128 0.043165587 0.057012144 0.0096014
0003a0 8f 13 3c ba 73 2f b0 3c a8 6c b8 3b e6 ba 80 bc
       -0.00071745453 0.021507 0.005628187 -0.01571412
0003b0 05 cb ea 3d 1c 53 a7 3d a0 d3 f3 3c e2 f5 8b bc
       0.11464504 0.08170149 0.029763997 -0.01708502
0003c0 05 5a c5 bc 91 58 d8 3d bc ff 1f 3d 93 9b fe ba
       -0.024090776 0.10563768 0.039062247 -0.0019425027
0003d0 99 75 c8 3d 44 be c6 bd fc af af bd 79 29 94 3d
       0.09788055 -0.09704259 -0.08578488 0.07234473
0003e0 b3 35 8d 3c e7 0c 26 3d 3f a5 85 bd 84 8a 87 bd
       0.01723752 0.04053965 -0.06525659 -0.06618217
0003f0 a1 ae 35 be e6 d9 1d be bc e6 06 3e e9 bb 12 be
       -0.17742397 -0.15415153 0.13173956 -0.14329495

fc1.bias f4 [120]
000000 7b 69 d6 bd fe 50 cf bc 22 5a bf bc d8 49 d2 3d
       -0.104693376 -0.025307175 -0.023358408 0.10267991
000010 3d 02 66 3c c9 3e 7c 3e ce 89 91 bc 52 c7 00 3d
       0.01403862 0.24633326 -0.017765906 0.031440087
000020 c0 2e 6d bb d3 10 ad 3c eb f9 b4 bc d6 5e ab bc
       -0.0036191195 0.021126186 -0.022091826 -0.020919245
000030 96 23 cf bb e7 34 30 3d e6 15 1d 3e 04 fa 34 bd
       -0.006321381 0.0430192 0.15340385 -0.044183746
000040 53 17 af 3d 6d f8 1c bd d2 65 90 3d 37 be 5e bd
       0.085493706 -0.038322855 0.07050671 -0.05438062
000050 3e 4b ba bd 32 87 7d 3e 93 59 8c bd 86 06 57 bd
       -0.090963826 0.24758604 -0.068530224 -0.052496456
000060 af cf 2e 3c 18 26 28 bc 37 33 80 bd 3e 0b 92 3c
       0.010669633 -0.0102629885 -0.062597685 0.017827626
000070 3e 00 97 bb 1c 97 80 3d f0 70 f7 3d c5 5a 00 bd
       -0.004608183 0.06278822 0.12082088 -0.031336565
000080 e2 bb f7 b9 ba 84 58 bd dc 74 02 bc 8c 8b aa bd
       -0.00047251495 -0.052860953 -0.007962432 -0.08327398
000090 f1 20 f5 3c 8f 3c 40 3e cd c9 97 3d 45 f9 ad bc
       0.029922934 0.18773101 0.07411537 -0.021237025
0000a0 ea 41 ca bc 09 aa cb bd 10 53 0a 3d b0 b8 33 3b
       -0.024689633 -0.09944541 0.03377062 0.0027423315
0000b0 d6 75 af bd aa ef 2c 3d c3 44 58 bc 70 35 49 bd
       -0.08567397 0.04222075 -0.013199988 -0.049123228
0000c0 e4 1e 14 be a5 33 6a ba 06 76 e4 bd 47 d1 26 be
       -0.14464909 -0.0008934087 -0.11155324 -0.1629077
0000d0 bb 17 9e 3d 16 74 1d 3d 78 cb 78 3d fa 1a e2 3b
       0.0771937 0.038440786 0.060740918 0.0069001885
0000e0 79 f0 fb bc 86 55 47 3e b5 a0 91 bb b3 e2 17 3e
       -0.030754315 0.19466218 -0.0044442066 0.14832573
0000f0 1f 2c 86 3d c2 d0 f2 3c 73 4b 4f bd 4f 07 cb 3d
       0.06551384 0.02964056 -0.050609063 0.099135034
000100 04 c3 8a bc 27 62 aa bd ef 30 10 be 2b 61 64 bd
       -0.016938694 -0.08319502 -0.14081167 -0.05575673
000110 24 34 77 bc 17 1c b0 3d d8 ea 5e bd 7d 1f 2c 3c
       -0.015088115 0.08599108 -0.054423183 0.010505554
000120 e1 7d 66 3c dd 66 90 bd 98 49 25 bd 10 63 51 3d
       0.014068098 -0.070508696 -0.040353388 0.051119864
000130 03 80 d4 bd 7a eb ec bc 52 93 83 3b d2 b4 8a 3e
       -0.10375979 -0.028920878 0.0040153647 0.2709108
000140 f0 d2 55 bd a5 cf a0 3d 90 76 92 bb 7b 75 da bc
       -0.05220312 0.07852105 -0.0044697 -0.026667347
000150 da 0d a7 bc 39 51 1c 3b c5 2d 13 3d b4 49 1e bb
       -0.020392347 0.0023852123 0.03593232 -0.0024152817
000160 9d fa 03 be 56 01 84 bc fa 70 0e 3e 44 08 03 be
       -0.1288857 -0.016113918 0.13910285 -0.12796122
000170 4f 13 7f bc 6c 56 1f 3b 5c f8 07 3e 3a ee 90 3d
       -0.015568568 0.0024312986 0.13278335 0.07076688
000180 63 f8 4f bd d9 ba f5 bc 76 e2 08 bd 57 75 1f 3e
       -0.05077399 -0.029996322 -0.033419095 0.15572105
000190 cc b3 8d 3d 60 20 07 3e a6 71 c4 bb c3 da 2e bd
       0.06919059 0.13195944 -0.0059949933 -0.042689096
0001a0 91 11 48 bc c2 89 88 3d 2c df 97 bc b8 31 31 3e
       -0.012211219 0.066669 -0.018539034 0.17304122
0001b0 a3 89 66 bd d6 1f 50 3d 87 14 a2 3e 05 29 81 bc
       -0.056283604 0.05081161 0.31656286 -0.01576663
0001c0 85 b4 f7 bc 7e 6c 6d bd 5e 91 43 bc b8 58 df 3d
       -0.030237446 -0.057964794 -0.011936514 0.10905594
0001d0 36 68 81 3e 3a 54 07 bd 86 99 d8 bc 2f 1c 3e bd
       0.2527482 -0.03303931 -0.026440393 -0.046413597

fc2.weight f4 [84, 120]
000000 1b cf 4c bd fd db 20 3b 58 cb 07 bc b8 55 42 3e
       -0.0500022 0.0024545186 -0.008288227 0.18978012
000010 c4 d4 bf 3d 15 33 20 3d 12 e5 c3 bd 38 53 91 bc
       0.09366754 0.039111216 -0.09565176 -0.017739877
000020 29 f5 5e 3d 3b fc b2 be 7e 1d 09 3d 4a 2d bd bb
       0.05443302 -0.34958062 0.03347539 -0.005773221
000030 ac 93 0d 3d 7c 6e 8f bd d9 e3 ca 3d 68 b3 3d 3e
       0.03456466 -0.07003495 0.0990674 0.1852547
000040 1a 1f a8 3d fa 2e a6 bd b1 2c b9 bd e5 7a 94 3d
       0.08209057 -0.08114429 -0.09041727 0.07250003
000050 dd 3b 25 3d fd d9 44 bd dd 09 9e bc 4e 09 b9 bd
       0.040340293 -0.048059452 -0.019291813 -0.09034978
000060 b4 84 e1 3e 3e c8 e5 bd a1 f4 1b bd 00 46 2a b9
       0.44046557 -0.11219834 -0.038075093 -0.0001623854
000070 6b 2d 4f bd 61 6d 68 bd 2f 43 7e 3e 2e c2 47 3d
       -0.050580423 -0.056744937 0.24830316 0.04876917
000080 39 86 33 bb 49 6b 00 be f0 72 7d 3d 63 f0 0a 3e
       -0.0027393235 -0.12540926 0.06187719 0.13568263
000090 35 12 d3 bd a7 38 e5 3e c1 7f c7 bb 98 a6 3c 3d
       -0.10306207 0.44769785 -0.0060882275 0.046057314
0000a0 d0 09 a4 bd 37 f4 96 be 07 95 6b bc b0 0f 8e 3d
       -0.08009684 -0.29483196 -0.014378793 0.06936586
0000b0 a2 c0 36 be 45 8d 16 3e ba 09 ba bd fe bb 57 3c
       -0.17846921 0.14702328 -0.090838864 0.013167379
0000c0 fe 22 27 3e b0 a1 84 bd e6 e8 16 be 54 e3 ab 3d
       0.16321942 -0.06476152 -0.14737281 0.08392969
0000d0 05 4f 1d 3d e6 db d9 39 44 ce ae 3d 0e 38 e7 3b
       0.038405437 0.00041553302 0.08535436 0.007056243
0000e0 72 82 3a bd cb 42 81 3d 4c 9d d6 bc a2 1a cb bd
       -0.04553456 0.06311568 -0.026198052 -0.09917189
0000f0 b5 ba 7f be e9 45 26 bf a0 13 a0 ba 92 6b b2 be
       -0.24973567 -0.64950424 -0.001221288 -0.34847695
000100 85 66 e7 bd c3 f3 a2 bc d7 87 35 3c 1c 61 f6 3c
       -0.11298851 -0.019891625 0.01107975 0.030075602
000110 47 2d 4e 3e 0f 9a 40 3d 44 04 d4 3c 7e 6c b0 3d
       0.2013446 0.04702192 0.02588094 0.08614443
000120 03 bb 98 bc 1d dc 88 3c 38 7c 2e bc cf 59 3c 3e
       -0.018643862 0.01670652 -0.010649733 0.18393634
000130 e5 0d f6 3c 80 96 9a bd 4a 61 8a 3d 26 2a 5c 3e
       0.030035922 -0.07548237 0.06756838 0.21500453
000140 0c 29 74 3d f4 a6 b1 be b6 44 83 3d 87 06 33 3e
       0.059609458 -0.34697688 0.0640959 0.17482959
000150 b2 2f f3 bb 65 6a eb bd b8 c8 56 bc b2 dc 2b bb
       -0.007421457 -0.114949025 -0.0131093785 -0.0026224074
000160 b7 19 d2 be a0 50 b9 bb a4 74 d9 bd cb d4 b2 be
       -0.41035244 -0.005655363 -0.106179506 -0.34927973
000170 cb 59 ed 3d 02 ec 47 3e 75 ab 20 be b4 0d ed 3c
       0.11589392 0.19523624 -0.15690406 0.028937198
000180 eb 6d ea bd 80 37 a5 3b f0 24 38 3c 75 70 cb bd
       -0.114467464 0.0050420165 0.011239275 -0.09933559
000190 3d 18 5b bb a4 32 eb 3c dc 40 0a bd 34 ae 10 3e
       -0.0033431195 0.02871067 -0.03375326 0.14128953
0001a0 c0 e1 1e 3b 02 3f 10 bc bb a4 84 3e ab ad 8c 3c
       0.0024243444 -0.008804085 0.2590693 0.017172655
0001b0 90 78 49 bc 1a c5 d9 bd e4 19 6c bd ca 28 48 bc
       -0.012296811 -0.10633297 -0.05764188 -0.012216756
0001c0 0a 0c 85 3d 41 89 0b bc f6 eb d2 bd ab 0e a9 3d
       0.06496437 -0.008516611 -0.10298912 0.08254751
0001d0 5a 55 97 3e 41 46 0a be 94 3b 02 3e d1 9d 2b bd
       0.29557306 -0.13503362 0.1271804 -0.041898552
0001e0 cc 1e 19 be bf 35 87 bd 81 6c 33 bd 4e d8 34 3e
       -0.14953154 -0.06602048 -0.04380465 0.17660639
0001f0 76 c0 2f bc 8b 2f 95 be d3 64 a0 3d 2d 04 65 bd
       -0.010727039 -0.29137835 0.07831731 -0.055912185
000200 d8 f2 3f 3c 66 38 8e bd 89 c5 eb bd 6d e0 aa 3c
       0.011715613 -0.06944351 -0.11512286 0.020858968
000210 e4 fc 36 bd e2 b5 69 bd 97 75 f0 3b a8 b3 56 3d
       -0.04467477 -0.057058223 0.0073382366 0.052417427
000220 78 4e e1 3c ec 60 9f bd 80 c8 3c 3e a6 89 40 3d
       0.027503237 -0.07782158 0.1843586 0.04700627
000230 d7 e0 5d 3d 72 21 98 3d 25 52 b7 3d c0 a5 8f 3c
       0.054169502 0.07428254 0.08951215 0.01753509
000240 7b 13 c6 3c 1a 56 60 3d fc 5c e0 3d 72 5c b4 bc
       0.02417921 0.054769613 0.10955235 -0.022016738
000250 3f 8e f3 3d 46 08 33 3d 01 44 f2 3d 85 23 d0 bc
       0.11892366 0.043709062 0.11829377 -0.025407562
000260 d7 96 65 bc ff e5 46 bd 55 5b 19 3e 83 25 e8 3d
       -0.014013014 -0.048559185 0.14976247 0.1133528
000270 0e c8 ef bc 81 2b df 3e 1b a8 fc bc 88 23 6b bd
       -0.029270198 0.43587878 -0.030841878 -0.057406932
000280 12 77 3a bc d7 99 0c 3d 47 61 86 bd 89 bd e1 3b
       -0.011380928 0.0343264 -0.06561523 0.0068890494
000290 ad 42 98 bd af c1 87 bd ce 53 9b 3d a0 7e 77 3d
       -0.074345924 -0.06628739 0.07584344 0.060423493
0002a0 8a 5e d1 3e d1 79 bc 3d 50 f2 66 bd 72 12 32 3e
       0.4089244 0.09202922 -0.05638343 0.17389849
0002b0 49 d2 a3 3e d3 66 74 bd c7 82 74 be b3 8a 74 3d
       0.31996372 -0.059668373 -0.23878013 0.059702586
0002c0 e0 58 8d 3d 6f 73 c4 3d 83 06 b2 bb c7 be 80 bd
       0.06901717 0.0959233 -0.005432905 -0.06286388
0002d0 7e f6 ec 3e 2d d8 be bd e7 de 36 bd fb 04 01 3e
       0.4628181 -0.09318576 -0.04464617 0.12599556
0002e0 3b 55 f6 3d 97 4f cd 3c bb 28 eb 3c 50 05 a1 bd
       0.12027975 0.025062365 0.028705945 -0.078623414
0002f0 67 ce 42 3c 65 fe 47 3e 09 79 91 3c 4c e4 53 bd
       0.0118900305 0.19530638 0.01775791 -0.051731393
000300 a9 59 73 3d e7 c7 98 bd 80 4b 45 3d f2 16 29 3e
       0.05941168 -0.07460003 0.048167706 0.16512659
000310 18 50 59 3e 02 c3 a8 bb cc 25 51 3d 97 c9 1f 3d
       0.2122196 -0.0051502 0.051061437 0.03901061
000320 0b bf 55 3c 2b 28 8a bd a4 3a 58 bd 53 1a 16 3e
       0.0130460365 -0.06745943 -0.0527903 0.1465848
000330 56 af dc 3c 4e b2 e1 bd 08 4e 1c 3e 4b 89 70 bd
       0.026939075 -0.11020337 0.15264142 -0.058724683
000340 b8 8f d4 3d 1f b8 6d bd 3c 56 cc 3d fa 02 84 3d
       0.10378975 -0.05803692 0.099773854 0.0644588
000350 8f 15 04 3e f7 76 3b 3e eb 8f 94 bd e3 eb e5 be
       0.12898849 0.183071 -0.07254013 -0.4490653
000360 16 47 8c 3e aa 17 20 bd c4 92 88 bd ef 57 0a be
       0.27397984 -0.039085068 -0.06668618 -0.13510107
000370 16 c0 bf bd ff 62 9c bd c1 eb 6e bb 7d 9e f4 3e
       -0.09362809 -0.076360695 -0.0036456438 0.47777167
000380 bf b8 bb 3c 41 11 4f bc 24 ef 1d 3e 56 5e 89 be
       0.022915242 -0.012638391 0.15423256 -0.26829785
000390 08 cd 2f 3d 9f 51 24 3e cb c1 67 bd 10 9c a8 3d
       0.042920142 0.16046761 -0.0565813 0.082328916
0003a0 1e 56 9c 3d 30 93 97 3d d5 ef 2d bd 1a c5 e7 3d
       0.07633613 0.07401121 -0.04246505 0.11316891
0003b0 c1 06 a7 3e 95 fb 39 bd bf cf d6 bd d7 e7 6d 3b
       0.3262234 -0.045405943 -0.10488843 0.0036301517
0003c0 c9 b0 99 bd a3 c7 48 3d 49 0a 8e bd 17 ad e9 bc
       -0.07504422 0.049018513 -0.069355555 -0.028524918
0003d0 da d2 c2 bd e2 e4 c6 3c a8 2e 71 bd c1 b1 fa bc
       -0.09512873 0.024279062 -0.058882385 -0.030602338
0003e0 79 2e 84 3d 6c ca de 3b f5 a3 6b ba 08 52 15 3d
       0.064541765 0.006799033 -0.000898897 0.036455184
0003f0 92 db cc bb 26 26 e6 3c 4f 11 9e bc 12 62 8e 3c
       -0.0062517608 0.028094362 -0.019295363 0.017380748

fc2.bias f4 [84]
000000 e1 14 d9 bd 3b 88 f4 3c e7 b8 62 3d 94 39 f7 3c
       -0.105996855 0.029850116 0.055352118 0.030178823
000010 ba 8a 9f bc f1 86 0e 3e ee ca a8 3c 89 80 df 3c
       -0.01947533 0.13918664 0.020604577 0.02728297
000020 ad cc 97 3d f8 d1 af 3c ac d4 68 3c 76 6f e1 3d
       0.07412086 0.021462426 0.014210861 0.110075876
000030 7a 74 3f bd cd 2d 53 3e 50 a7 a2 3d 23 3b d4 3d
       -0.04674194 0.2062294 0.079420686 0.10362842
000040 4a f3 6e 3e 72 8e 25 3e 11 4a e1 3d 25 88 3c 3e
       0.23334995 0.1616762 0.11000455 0.1841131
000050 22 cc 82 3e 74 a8 3a 3e 60 78 7a 3e d5 a1 7b 3e
       0.25546366 0.18228322 0.24459982 0.24573453
000060 cd ad ee 3d 0f ba 23 be cb 57 0d be ca 2d b7 3d
       0.116542436 -0.15988944 -0.13803022 0.089442804
000070 f4 22 b6 bd 66 4f 2f 3e c9 6f 5f bc 5f 87 cb bc
       -0.088933855 0.17120132 -0.0136374915 -0.024844823
000080 31 0a a6 3d cb ca ab bd 99 8b 97 3d 25 80 e3 3c
       0.081074126 -0.08388289 0.07399673 0.027771065
000090 57 cd 05 3e 92 37 e1 3d 45 64 b5 bd 4d 9b 85 bc
       0.13066612 0.10996927 -0.088570155 -0.016309405
0000a0 cd 33 96 3b 04 f1 82 3e 1f bb 99 3d 9b b6 55 be
       0.004583812 0.25574505 0.07506394 -0.2087044
0000b0 c8 72 40 bd 64 85 c1 bc 1e c1 0d 3e 6a 41 d1 bb
       -0.046984464 -0.023623176 0.138432 -0.006385972
0000c0 bc 7f fb bd 36 7e 12 3d df 3c f1 bd fd d1 a6 bd
       -0.12280223 0.035764895 -0.11779188 -0.08145521
0000d0 4d 3f 66 3e a9 4d 1c bd 8e 24 14 bd d5 24 26 3e
       0.22485085 -0.03816 -0.036167674 0.16224988
0000e0 83 7d 63 3d f1 48 d9 bc a3 4f c8 bd ce 69 9d bd
       0.05553962 -0.026524039 -0.097808145 -0.07686196
0000f0 d4 9b 13 3e 71 e1 99 bd e9 9d 86 3d 64 58 63 bd
       0.14414912 -0.07513703 0.06573088 -0.055504218
000100 92 bd 33 be 58 c9 e3 bb 3e 83 8e 3e 16 6e d3 3e
       -0.17552784 -0.0069514923 0.27834505 0.41294926
000110 0d f3 05 3d 77 37 fc 3c 45 ff c4 bd 87 ca 8a 3e
       0.032702494 0.030788166 -0.09619001 0.2710764
000120 f8 9f 22 3e 73 19 fb 3d e0 52 c2 3d ff c7 11 3d
       0.15881336 0.122607134 0.094884634 0.03559112
000130 ac be d1 3a 0e da df bd 20 de 4f bd 3f c5 99 bd
       0.0016002259 -0.109302625 -0.050748944 -0.07508325
000140 66 c3 91 bd 2a 2a 19 be 74 42 5e 3e e0 6c bc bd
       -0.071173474 -0.1495749 0.21705037 -0.09200454

fc3.weight f4 [9, 84]
000000 8d f7 8b be 3b 31 a8 3c cc de d9 bc 48 dc a8 bd
       -0.27337304 0.020531287 -0.026595496 -0.0824514
000010 16 d7 41 3d ca de 12 bf 09 a1 4e 3e d7 9b a4 be
       0.047324263 -0.573712 0.20178618 -0.32150146
000020 76 37 38 3e 92 65 e7 3e ce d5 34 be 93 0b 63 3f
       0.17989907 0.4519468 -0.17659685 0.88689536
000030 6a ae a4 be 4b c2 c7 bd 1d 97 1b be 80 75 8e bd
       -0.32164317 -0.09753855 -0.15194364 -0.06956005
000040 4f 56 98 3e 38 23 9c be 0b cb 30 3e 3b 10 82 3d
       0.29753348 -0.3049562 0.17264955 0.06350752
000050 97 f2 c9 be a3 ba 93 be 7c 81 2f 3e 11 40 0d bf
       -0.39442894 -0.2885333 0.17139238 -0.5517588
000060 f8 75 45 be 89 19 dc bd 36 bf ee 3d 38 a0 14 3d
       -0.19283283 -0.10747058 0.11657564 0.03628561
000070 17 c8 ad be 9b 20 fa be a9 fa 49 3d 0d 4c 99 b9
       -0.3394172 -0.48853 0.049311314 -0.00029239096
000080 2d 6b 8e 3e 50 a0 7b bd e2 ab 1f 3d 5c 43 21 3c
       0.27816144 -0.061432183 0.03898228 0.00984272
000090 0a dc 03 3e 4d 79 33 be 84 f1 da 3b b4 98 25 bd
       0.12876907 -0.17526741 0.006681623 -0.040428832
0000a0 e1 bd e6 bd af 9a f8 3e 7c 7e 83 be 04 8b b1 3d
       -0.11266685 0.48555514 -0.25682437 0.08669093
0000b0 6e 37 6e bd 5d 55 84 3d 17 10 7f 3e 1a aa bd be
       -0.05815833 0.06461594 0.24908482 -0.3704384
0000c0 2e 04 83 bd 72 33 29 bd d1 fd 72 bd 09 ec 80 3b
       -0.063972816 -0.041308828 -0.05932409 0.0039343876
0000d0 77 87 41 3d 46 08 8e bd 75 c3 b8 3e fd 72 af 3c
       0.04724833 -0.06935172 0.36086622 0.021417135
0000e0 1d db ac be 35 0b 25 3e f6 f6 08 be b1 42 df 3d
       -0.3376092 0.16117556 -0.13375458 0.10901392
0000f0 cf e0 14 3f a7 fd 9d bc a2 82 38 39 41 8a c5 bd
       0.5815553 -0.01928599 0.00017596272 -0.096455105
000100 f1 8f 92 bd 58 95 cb bd 26 d1 8b 3e 62 b6 60 bd
       -0.07156361 -0.099405944 0.27308005 -0.054861434
000110 cc 96 d2 be 34 df 2a be b5 46 35 be c3 0b a8 3d
       -0.41130674 -0.16686708 -0.17702754 0.08205368
000120 29 88 20 3f 16 a1 3e 3e 07 33 e2 be d9 23 e0 be
       0.62707764 0.18616137 -0.44179556 -0.4377735
000130 a8 be 83 3e fc 28 51 3e fc 6a 78 be f1 87 96 bd
       0.25731397 0.2042579 -0.24259561 -0.073501475
000140 d2 53 57 be 4d 08 93 3e f9 da 61 be b6 e5 81 be
       -0.21028069 0.2871727 -0.22056188 -0.25370568
000150 c2 2d b0 be 61 4a 3f be bd 5e ab 3d 7e 8a ce 3d
       -0.3440991 -0.18680717 0.08367679 0.10085009
000160 69 76 43 3d ab 9b 35 be 45 8f 34 3d db e9 80 be
       0.047720347 -0.17735164 0.044081945 -0.25178418
000170 89 2b de 3c 1f 22 c4 be 7c 6c 08 3e 80 da 95 be
       0.027120369 -0.38307282 0.13322634 -0.29268265
000180 a0 7e 6d 3e 39 12 59 3e 56 71 34 bd 30 f8 a6 be
       0.23192835 0.21198358 -0.044053398 -0.32611227
000190 3b 53 80 3e ef 73 a8 bc 6a fc cd 3e c3 95 a9 bd
       0.250635 -0.020563094 0.4023164 -0.08280518
0001a0 97 05 c3 bd ac 3d 96 bd 9b 66 ce be 6d c3 b7 be
       -0.095225506 -0.07335982 -0.40312657 -0.35891286
0001b0 64 6b 84 be d2 e6 21 3e 3f 6a f8 3c 1e 3a 91 3e
       -0.25863183 0.15810707 0.0303241 0.28364652
0001c0 50 d1 19 3e 55 3d dd 3d 9d a2 ba bd d2 e5 8f bd
       0.15021253 0.10802714 -0.09113047 -0.070262566
0001d0 0d fa 30 3e 29 8a 2a 3d cd 25 da be 5e c0 6f bd
       0.17282887 0.041635666 -0.42606965 -0.058533065
0001e0 31 08 f7 be 2e 19 bc be 96 88 b8 bd 6c d0 b7 bd
       -0.48248437 -0.3673796 -0.09010427 -0.089753
0001f0 5c c4 c7 3b ab c1 4f 3c a7 02 08 be 82 38 01 3e
       0.006096406 0.012680451 -0.13282262 0.12619212
000200 4b 51 cb 3c 1d 87 f3 be a3 e5 ce 3e e9 d4 19 3e
       0.024819037 -0.4756402 0.40409574 0.15022625
000210 7f 49 0e 3e 31 50 ae 3d ef 74 8b bd b0 87 f7 bd
       0.13895224 0.08511389 -0.06809413 -0.12086427
000220 01 dc 49 3e b0 76 4b be 66 06 0d 3e 0b af 3f 3d
       0.19712831 -0.19869494 0.13771972 0.046797793
000230 92 ac ad bd d4 ec 0a 3e da 98 39 bb d4 78 3e 3e
       -0.08480181 0.13566905 -0.0028319866 0.1860078
000240 1c 90 53 be 57 3b f0 3d 57 d2 a1 3e ca 8f a7 be
       -0.20660442 0.11730068 0.3160579 -0.3272689
000250 1c 7b 3d be ea 4d 28 be d5 74 da be cc 37 b9 be
       -0.18503994 -0.16435972 -0.4266726 -0.36175382
000260 a4 21 0d bb 79 f2 ce 3e 94 08 0b bf 06 0a 75 3c
       -0.0021534944 0.40419367 -0.54309964 0.014956003
000270 ce 9f a2 be c5 7f 84 3e d4 46 2e 3e 7b c9 09 3d
       -0.31762546 0.2587873 0.17019206 0.033639412
000280 31 69 75 3e 64 86 a1 bd af 4f 1c be 26 81 91 3d
       0.23965909 -0.07886961 -0.15264772 0.07104711
000290 d0 76 f5 3c 91 c2 17 be ab 8c a7 be b7 f1 69 3e
       0.02996388 -0.14820315 -0.3272451 0.22846113
0002a0 a4 ca 94 be ae e6 48 be fc 5d bc 3d a4 54 41 bd
       -0.29060853 -0.19619247 0.091976136 -0.04719986
0002b0 36 0b 0b bd da 48 db 3d 13 0c 1a 3e 59 3f df 3e
       -0.03394624 0.10707255 0.15043668 0.43603018
0002c0 ba 77 24 3e 91 29 81 bd ce 8c 31 bd 8d 37 66 be
       0.16061297 -0.06306756 -0.043347172 -0.22482128
0002d0 e9 cd 78 3d 3b c0 85 bd 5b ef 07 3e 07 f0 ef bd
       0.060743246 -0.06530806 0.132749 -0.117157035
0002e0 85 c3 7e be 3a b0 da 3d 07 64 23 be a5 ba 82 3e
       -0.24879272 0.10678144 -0.15956126 0.25533023
0002f0 85 8d 6e 3e e8 e4 3d 3e 03 eb 9e bd 81 4d d0 3d
       0.23296173 0.18544352 -0.07759669 0.10171033
000300 26 a7 58 3e 2d 8d ad be 59 28 16 bc d1 5c 3f be
       0.21157512 -0.3389677 -0.009164893 -0.1868775
000310 91 64 59 bc 27 2f 82 3d fb d1 ea 3d 00 68 33 bd
       -0.013268606 0.0635665 0.11465832 -0.043800354
000320 c8 25 1d be 08 c5 67 bc 46 c5 a3 3e 7f c4 0c 3d
       -0.15346444 -0.014146097 0.31986445 0.03436708
000330 ff 04 d2 be 1d 07 95 3e 02 30 7b be 60 6c b6 3d
       -0.41019437 0.2910699 -0.24530032 0.0890739
000340 1d 23 93 3d 0a 17 07 bd 92 7b be be 7b 89 86 be
       0.07184432 -0.032980956 -0.37203652 -0.26276764
000350 25 3c 41 3e af d8 32 bf 3b 48 ea bc 7b a5 56 be
       0.188706 -0.6986188 -0.028598895 -0.20961563
000360 f8 be 98 be a7 12 8a 3d cb 40 88 3c 94 53 d6 bc
       -0.29833198 0.06741839 0.016632458 -0.0261629
000370 4a b8 8d 3c 1c 55 f6 be 1c ef 8d be 04 56 b7 be
       0.01729979 -0.48111808 -0.27721488 -0.35807812
000380 44 54 9f 3d e7 4b a2 be 36 44 81 bd 16 ce d7 bd
       0.07779744 -0.31698534 -0.06311838 -0.10537355
000390 c6 8e 01 bf f8 cc ff bb 7d 08 5e be ba 11 c3 bd
       -0.5060848 -0.0078064166 -0.21682926 -0.095248654
0003a0 66 7b a3 be 31 f9 8e 3e 1f 6b d4 be 93 91 45 3d
       -0.31930083 0.27924493 -0.41487977 0.048234534
0003b0 72 1b d8 3d 82 1c cb be d9 2d 1f be 25 9c 7f 3d
       0.1055211 -0.39670187 -0.15544833 0.06240477
0003c0 34 da 82 be 52 5c 1e bf 4b 6f 93 bd a0 e0 d5 3d
       -0.255571 -0.6185962 -0.07198962 0.104432344
0003d0 f4 97 a2 3e 66 00 b1 bc 81 2e 13 3e 4c 78 86 bd
       0.31756556 -0.021606635 0.14373209 -0.065659136
0003e0 4f d8 b5 be b5 40 69 be 86 63 25 3e bb 52 4e be
       -0.35516593 -0.2277859 0.16151246 -0.20148747
0003f0 98 5a cc be 10 ab aa be 70 15 ae bd 20 60 a4 3d
       -0.39912868 -0.33333635 -0.08500183 0.08026147

fc3.bias f4 [9]
000000 d7 a3 27 3e 6f bd 9e bc b2 21 11 bd 0f f5 3d 3e
       0.16371094 -0.019377438 -0.035432525 0.18550514
000010 c6 75 82 bd 8e 4a 3c bd 87 a0 fd bb 6c ce 5f be
       -0.0637012 -0.04596954 -0.0077400836 -0.21856087
000020 a5 8b 35 be
       -0.17729051
