output_visualizations/base_tsk[x]_agm[none]_spl[S1]_mdl[lenet]_ls[BCE]_tu[none]/model.pt (torch, 246727 bytes, 9 tensors)

conv1.weight f4 [6, 1, 5, 5]
000000 c1 8c 52 3e 20 74 61 3e 76 38 89 ba e7 68 63 3e
       0.20561506 0.22016954 -0.0010469097 0.22207986
000010 b4 31 d6 bc 05 25 be 3d 3e 63 14 bd 7a a9 33 3e
       -0.026146747 0.09284405 -0.036227457 0.17545119
000020 6b cf 63 3e c8 dd 02 be 3c c5 61 3e 2c 30 c8 3d
       0.22247092 -0.12779915 0.22047895 0.09774813
000030 b3 6b 53 3e a4 b3 94 3d 5a cf f7 3d 6e 0c f4 3b
       0.20646553 0.07260826 0.12100096 0.007447771
000040 9c 2c 52 3e c8 64 a2 3d ac 47 5f bd 25 17 9d 3d
       0.2052483 0.07929379 -0.05451171 0.0767043
000050 a1 9c 8b bd ee e6 23 3c 3a c9 3e bd 19 6b 2a 3e
       -0.06816984 0.010003788 -0.046578623 0.16642417
000060 41 92 08 be a1 c2 a2 bd c3 93 58 bd da 5f fe bd
       -0.13337041 -0.07947279 -0.05287529 -0.12420626
000070 e8 e2 6c 3c 0c ce 52 be ed ed 51 3e c6 b1 17 be
       0.014458396 -0.20586413 0.20500918 -0.14813909
000080 54 a7 30 3e 0c de 20 3d d3 00 96 bd b4 e4 13 3e
       0.1725133 0.03927426 -0.07324376 0.14442712
000090 00 78 85 3d e2 2b 49 3e 09 58 23 3d 32 d2 90 bd
       0.06517029 0.19645646 0.03987888 -0.070713416
0000a0 a3 e0 73 3d 76 59 b2 bc b1 64 fa 3d 3c 57 50 3e
       0.059540402 -0.021771174 0.122262366 0.20345777
0000b0 f3 b1 e1 3d aa 09 c0 bd c5 29 0d 3e 8a 1d 82 3d
       0.11020269 -0.09376843 0.13785465 0.063532904
0000c0 8b cd f9 3d 18 c5 fe bd d8 38 4e be 45 aa 9b bd
       0.12197407 -0.124399364 -0.20138872 -0.07600836
0000d0 e0 2d 10 be 34 55 43 3e 22 60 a5 3d 3c bc b4 3d
       -0.1408 0.19075471 0.080749765 0.08824965
0000e0 fd 76 93 3d 02 20 40 3c 4e 93 35 3e 12 6d 01 be
       0.072004296 0.011726381 0.17731974 -0.12639263
0000f0 cc da f3 3c 31 e6 ef bd c5 41 9f 3d 3c 30 7b bd
       0.029767416 -0.117138274 0.077762164 -0.061325297
000100 fb 82 80 3d ad ae 69 bc 76 53 47 3e 7c 0c d7 bd
       0.062749825 -0.014262837 0.19465432 -0.10500428
000110 b9 a9 fe bd 29 f0 04 be 6a 71 55 3e 59 08 c3 3d
       -0.12434716 -0.12982239 0.20844045 0.095230766
000120 72 3a 4f 3e 06 a5 33 be 64 e9 5a be a1 f9 14 be
       0.20237139 -0.1754342 -0.21378094 -0.14548351
000130 d1 fb f9 bd c5 15 d1 3d 15 6b ca 3d 5e 2f 49 3e
       -0.12206233 0.1020923 0.098837055 0.19646975
000140 a0 41 a2 bd cd 87 e3 bd 04 04 08 3e a3 e4 52 bd
       -0.07922673 -0.11109886 0.13282782 -0.051487576
000150 81 17 18 3e 59 36 98 bc 4c 59 11 3e 0e 55 03 be
       0.14852716 -0.018580602 0.1419422 -0.12825415
000160 d3 20 97 bd 87 08 ab 3d 3c 52 98 3d ef d1 9f bc
       -0.073793076 0.08351236 0.0743756 -0.019509284
000170 dc 73 17 3e fe 19 25 3e 07 8c 01 be 6b 31 9d bd
       0.1479029 0.16123196 -0.12651072 -0.07675441
000180 12 1e 5e 3e af 18 20 bd 92 6e 44 bd 1b 9d 34 be
       0.21691158 -0.03908604 -0.04795701 -0.17638056
000190 a1 27 19 be 4b 86 ad 3b b3 25 9b bd bc 1a 4a be
       -0.14956523 0.00529555 -0.0757555 -0.19736761
0001a0 55 f0 47 bd 77 02 33 be 90 75 5c be 08 7e 26 be
       -0.048813183 -0.17481409 -0.21529222 -0.16259015
0001b0 f5 e3 6b be 82 2c 3c be d0 c3 23 3e cb 50 fc bb
       -0.23036177 -0.18376353 0.15992665 -0.007700061
0001c0 7f bb 3d 3c e8 53 75 be a8 6f 3e be 80 83 d7 bd
       0.011580347 -0.23957789 -0.18597281 -0.105231285
0001d0 48 e8 50 bc a2 ca 64 be b9 94 0d be f0 5d 2f be
       -0.012750693 -0.22342923 -0.13826264 -0.17125678
0001e0 83 8a 08 bd ed 0a eb bd b7 d5 73 bd 93 f0 3d be
       -0.03333522 -0.11476693 -0.059529986 -0.18548803
0001f0 2d 3a 40 be c8 1d c2 bd 52 7e 59 bd f3 7d 08 be
       -0.18772192 -0.094783366 -0.053098984 -0.13329296
000200 72 7c 50 3e e6 d1 83 bc 70 52 42 3e 84 4a 9e 3d
       0.20359972 -0.016091298 0.1897676 0.077290565
000210 c0 db 14 be 19 f6 31 3e a0 b0 f0 bc 3d 1c 71 bd
       -0.14536953 0.17379035 -0.029381096 -0.05886482
000220 b7 09 18 be f2 b1 35 be 3a ce c0 3d e7 78 84 bc
       -0.14847456 -0.17743662 0.094143346 -0.016170932
000230 0b 13 c6 3d 68 cc 11 be 03 7a 31 3e 2f ba dc bd
       0.09671601 -0.14238131 0.173317 -0.10777699
000240 37 32 cd bb 90 25 78 3d 31 f9 fd 3d 9d 29 40 3e
       -0.0062620896 0.060582697 0.12401045 0.18765874
000250 bd 1a 5f 3e 70 95 0b be
       0.21787544 -0.13631225

conv1.bias f4 [6]
000000 e1 49 1a 3d 80 50 8c bd cc 07 04 bb 58 7c 06 be
       0.037668113 -0.06851292 -0.002014625 -0.13133371
000010 75 23 63 3e 65 38 f3 bd
       0.22181495 -0.11875991

conv2.weight f4 [16, 6, 5, 5]
000000 eb 01 3a 3d df fe cd 3c 53 5b a3 3c 17 a6 64 bd
       0.045411985 0.025145946 0.019941008 -0.055822458
000010 30 9c 5d 3d 25 30 ef 3c 6c 7b 9e 3c f8 ce 93 bd
       0.05410403 0.029197762 0.019345962 -0.072172105
000020 a5 ba c1 3c 11 91 12 bd 84 c1 b5 bc 80 a0 b6 3d
       0.02364857 -0.035782877 -0.022187002 0.08917332
000030 61 19 d7 3c 8a db 6e bd 94 e9 8e bd 3a db 37 3c
       0.026257219 -0.058314838 -0.06978145 0.011221701
000040 46 d5 86 3d f4 27 39 bc 8d b2 7b bd dd 00 75 bd
       0.065836474 -0.0113010295 -0.061449576 -0.059815276
000050 65 6e 57 bd 3c ea 28 3d 0a f2 89 3d 40 d3 bd bd
       -0.052595515 0.04123901 0.067356184 -0.09268808
000060 c8 e6 37 bc cd 00 9f 3d a1 95 10 3d 0f 78 bf bc
       -0.011224456 0.077638246 0.035298947 -0.023372678
000070 6a 9e 22 3d 13 55 c9 3c 11 5e 95 3d 6b 85 ec 3c
       0.039701857 0.0245767 0.07293332 0.028872212
000080 d5 60 84 bb 08 a8 68 bb 78 93 23 bd fa f8 4c 3c
       -0.0040398636 -0.0035500545 -0.03993556 0.0125105325
000090 bd d1 cb 3d 56 0b ca 3d 5e 79 cf bc 58 1f 4e bd
       0.09952114 0.098654434 -0.025326427 -0.05032286
0000a0 a0 1e ac 3c dd 68 f3 3c 19 06 3f 3d c6 be 9a 3c
       0.021010697 0.029713089 0.046636675 0.018889796
0000b0 24 00 d6 bd 05 c2 00 bd 2d 20 a3 3d f9 8e 32 3d
       -0.104492456 -0.03143503 0.079651214 0.04359338
0000c0 83 43 70 bb 57 04 8b bd 6d 43 aa 3d 66 71 5f 3d
       -0.0036661334 -0.06787937 0.08313642 0.054551505
0000d0 58 08 c3 3d 3e 98 13 3e 36 50 1d 3e 58 7d 2a 3e
       0.09523076 0.14413545 0.1536263 0.16649377
0000e0 ab 6f 69 3d 47 e7 9e 3d ee 1a cc 3d 71 a4 2d 3e
       0.05699126 0.077589564 0.09966074 0.1695726
0000f0 2f 36 10 3e ff 52 d8 3d bb 4d 1d 3e f8 06 96 3d
       0.1408317 0.10562705 0.15361683 0.07325548
000100 1d 5a f1 3c 0a b3 3f 3e 7d 27 ab 3d e4 46 c8 3d
       0.029461915 0.18720642 0.08357141 0.09779146
000110 44 c7 9d 3c 10 94 0f 3e 52 46 3c 3e 44 54 0b 3e
       0.019260056 0.14021325 0.183862 0.13606364
000120 43 f2 21 3d 93 f9 de 3b 0f 84 5e 3c df 4c 09 3e
       0.03953768 0.006804654 0.01358129 0.1340823
000130 df eb f5 3d 43 e7 17 3e 28 09 da 3d b5 79 18 3d
       0.120078795 0.14834313 0.10646278 0.037225444
000140 c2 3b ac 3d ea 52 8d 3c 2b 2c a0 3c 61 b7 ff bc
       0.084098354 0.01725145 0.01955231 -0.031215372
000150 6f 7b 03 3d b1 99 4b 3d 17 ac 91 3d 35 1e db 3c
       0.032100137 0.04970712 0.07112902 0.026747802
000160 c1 c5 2e 3c a6 b1 9d bd e4 a7 37 3d d2 d6 e5 3d
       0.010667265 -0.076998994 0.044837847 0.11222614
000170 c4 3f d4 3c f6 9f 66 3d 1e a7 22 bd 59 8e 23 3d
       0.025909312 0.056304894 -0.039710157 0.039930675
000180 8c 91 7f 3d a0 3f 3f bc db 2a d9 bc 72 cf af bd
       0.062394664 -0.011672884 -0.026509693 -0.08584489
000190 31 36 24 3d 57 b7 7d bd 13 50 3b 3d 11 27 6d 3d
       0.040090743 -0.061942425 0.04573066 0.057898585
0001a0 83 5b bf 3d 15 67 b6 bd 87 40 15 3d 63 75 2d bd
       0.09343626 -0.0890638 0.03643849 -0.042348277
0001b0 97 c6 6a 3d 84 17 f2 3d ad c3 42 bd ed 55 05 bd
       0.057318296 0.118208915 -0.047549892 -0.03255265
0001c0 ea b0 a1 bc ce 26 19 bd e0 32 a9 3d 93 4b e8 bd
       -0.01973768 -0.037390523 0.08261657 -0.1134254
0001d0 fc 8b d4 3c a2 a7 89 3d d4 d2 e5 3d ba 09 c4 3c
       0.025945656 0.067214265 0.11221853 0.02393042
0001e0 af 7a a2 bd 94 5a 5f 3c a4 cc 73 3d cc 6c 48 bd
       -0.07933556 0.013632435 0.059521332 -0.04893188
0001f0 46 86 b8 3c 84 15 05 3b 5d 37 8f 3d 54 4e b6 3c
       0.022524964 0.0020307014 0.069929816 0.022254147
000200 33 66 b0 bb 7d ac b9 bc 20 ee 3f bd 39 02 1f 3e
       -0.005383277 -0.022665257 -0.046857953 0.15528192
000210 ea 2f 03 3e f5 5c 90 bc c3 28 c5 bb ee 52 86 ba
       0.12811247 -0.01762245 -0.006016822 -0.0010248104
000220 93 a5 a7 ba 86 4c fb bc 92 34 07 3d 2a 0a 4d bd
       -0.0012790434 -0.030676138 0.03300912 -0.05005852
000230 5a ed 14 bd 9d 94 4b 3d 11 aa 5d 39 db d0 31 bd
       -0.03635917 0.049702276 0.00021139557 -0.04341207
000240 9e 2d 57 3b 9b 4d a2 bc e4 a2 c7 bc 9e 98 44 bd
       0.0032833586 -0.019812396 -0.024369664 -0.04799711
000250 a0 e1 a4 bd 0d ea 91 3d c9 e2 3f bc 0e 63 36 3d
       -0.08050847 0.0712472 -0.011711785 0.04452806
000260 c8 f1 eb 39 1c 10 27 3d d6 a9 c1 3d a5 91 87 3d
       0.00045002834 0.040786847 0.09456222 0.06619576
000270 d0 80 23 bd 14 75 8b 3d 0f 67 d8 3d a6 09 eb 3c
       -0.039917767 0.0680944 0.10566532 0.028691124
000280 85 88 9f 3d 97 e5 e8 3d 23 92 97 3c 30 00 09 3d
       0.07789711 0.11371916 0.0185023 0.033447444
000290 ce 25 8a bd f0 cf a5 bb 66 76 ae 3d 1c 6b 7d 3d
       -0.06745492 -0.0050601885 0.085186765 0.061869726
0002a0 85 64 4d bd 66 b2 b5 bd 23 44 68 bd d5 9f 97 bd
       -0.05014469 -0.088719174 -0.056705605 -0.074035324
0002b0 d1 de 77 bd 26 84 04 bd ec 5d c9 3c 76 42 89 3d
       -0.06051523 -0.03235259 0.024580918 0.067021295
0002c0 d5 b1 2e bc 93 69 6d bc f9 39 b1 3d d4 ec 4e bd
       -0.010662516 -0.014490503 0.086536355 -0.050518826
0002d0 16 11 0b 3d 76 c1 be 3d 10 3e df 3b 08 8c b2 3b
       0.03395184 0.093142435 0.0068128183 0.005448822
0002e0 2f 1c c7 bc 6e c9 64 ba bd 7f 32 b9 59 70 16 bd
       -0.024305431 -0.0008727525 -0.00017022989 -0.036728237
0002f0 84 22 74 bd 64 07 9d bd b1 49 9b 3d 5e e4 b3 bc
       -0.05960323 -0.07667425 0.07582415 -0.02195948
000300 b7 cb 28 bd a0 d5 9e 3c e6 ea 1a bc c3 f6 4e 3c
       -0.041209903 0.019388974 -0.009455418 0.012632075
000310 0c 81 41 3d 85 e2 fb 3c fe 5b d5 bd 59 60 04 bd
       0.04724221 0.030747661 -0.10417937 -0.032318447
000320 92 60 43 3e 3d 3e f4 3d 6f 34 b3 3d c5 6f 55 3e
       0.19079807 0.119259335 0.08750235 0.20843418
000330 40 5a b0 3d fb c0 bb 3d 53 f8 63 3d 30 1b 03 3e
       0.08610964 0.091676675 0.055656742 0.1280334
000340 64 32 1b 3e 5c 32 e4 3d 39 e4 14 3e f0 f7 85 3d
       0.15155941 0.11142418 0.14540185 0.06541431
000350 ef fe 10 3d 23 e1 bc 3d 3e a1 20 3e ac 82 2a 3e
       0.035399374 0.09222629 0.15686509 0.1665141
000360 43 4c 80 3d 3e 61 a8 3d 09 18 87 3c 94 ea 18 3d
       0.06264546 0.082216725 0.016490953 0.037333086
000370 46 ab 0b 3e 49 53 02 3e 20 80 f6 3d bf a8 11 bc
       0.13639554 0.12727083 0.12036157 -0.00889033
000380 15 43 c0 3d 29 15 ab 3d a4 68 27 3e 4b c9 4a 3e
       0.09387795 0.08353645 0.16348511 0.1980335
000390 8d 61 06 3e 32 f8 25 3e aa 5f 85 3d 8e 32 d1 3d
       0.1312315 0.1620796 0.06512387 0.10214721
0003a0 1a 53 38 3e 4d 7c ad 3d 70 d9 bd 3b da b2 ad 3d
       0.1800045 0.08470974 0.005793743 0.08481379
0003b0 19 f2 2e 3e 96 be 0c 3e 16 db 92 3d fa 90 57 bd
       0.1708454 0.13744578 0.071706936 -0.052628495
0003c0 9b 4e 49 3d 33 2d e8 3d 8b de ac 3d 7a 23 39 bd
       0.04914723 0.11336746 0.08440884 -0.04519985
0003d0 d2 7c 7d bd 21 bd 20 3e d2 af 96 3d d0 7b d0 3c
       -0.061886616 0.15697147 0.07357754 0.025449663
0003e0 1a 73 07 bd 74 99 11 be 47 46 ac bd 2b 3a 4f bd
       -0.033068754 -0.14218694 -0.08411842 -0.050592583
0003f0 3e 85 89 bd 1d 02 13 ba 3c b2 c4 bc cc 69 55 bd
       -0.06714867 -0.000560792 -0.02401077 -0.05210285

conv2.bias f4 [16]
000000 e6 d5 90 ba ed ea 14 3d 4b 4a 2d 3d 1c 4c 10 3d
       -0.0011050075 0.036356855 0.04230718 0.035228834
000010 0b 6e a8 bc e3 11 8c 3d bd 04 ae 3d 4d 71 cc 3c
       -0.020560285 0.06839349 0.084969975 0.02495637
000020 83 e6 09 bd e0 3c 2b 3d 88 aa cb 3b b7 bb 9d 3d
       -0.0336671 0.0418061 0.0062153973 0.077018194
000030 9e b8 2a 3d e2 c2 92 3c f5 b0 02 3d 07 4f 92 3d
       0.04167997 0.017915193 0.03190704 0.071439795

fc1.weight f4 [120, 400]
000000 91 48 b5 bc d2 60 ea 3c dd cb f9 3c 1c ff 13 bd
       -0.022129329 0.02861062 0.030492717 -0.036131963
000010 57 6f db 3b b9 86 80 bd 61 46 0d bd 14 b1 8c 3d
       0.0066966224 -0.06275696 -0.034490947 0.068697125
000020 48 2d a1 3d 80 f8 48 3d f4 1c f6 3c c0 39 bb bc
       0.07869965 0.049065113 0.030043103 -0.022854686
000030 67 b8 76 3d 48 45 95 3d 68 b8 80 3d 31 18 98 bc
       0.060234454 0.07288605 0.06285173 -0.018566223
000040 0a c8 5d 3d c2 6a 63 3d b2 d9 48 3d 74 15 73 3d
       0.05414585 0.055521734 0.049035735 0.05934663
000050 f4 43 c7 3c 71 72 d9 3c 98 44 a1 3d 7c 34 85 3d
       0.024324395 0.026543828 0.07874411 0.06504151
000060 62 13 a3 3d d6 1d 9e 3b c9 ac d0 3b 85 c1 f1 bc
       0.07962681 0.004825334 0.006368254 -0.029511223
000070 4b 2b 7e bd 4d 81 28 bd 63 24 9c bb 82 25 89 3c
       -0.062053006 -0.041138936 -0.00476508 0.016741518
000080 8b 86 2a bc e9 5e 92 3d fa 0c b5 3c b8 5a 00 bc
       -0.010408054 0.07147009 0.022100914 -0.007834129
000090 63 0c b1 3c 62 51 2a 3d b4 3b c5 3d 4b 02 cd 3c
       0.021612352 0.04158152 0.09630528 0.025025507
0000a0 9e 40 b2 3c 4f c2 2b bc 88 b1 e6 3c 2f 10 4d 3d
       0.021759328 -0.0104833385 0.028160825 0.050064262
0000b0 4d 81 5d 3d a8 78 84 3c 76 3b 36 3d 39 d2 d4 bb
       0.05407839 0.016170815 0.0444903 -0.006494787
0000c0 a2 58 f1 3c b9 d7 f3 bc 66 2f 61 bd b3 52 83 3c
       0.029461209 -0.02976595 -0.054976843 0.016030645
0000d0 52 6c a3 bc 28 f8 56 3d f6 da 41 bd da e2 eb 3c
       -0.019949112 0.052482754 -0.047327958 0.028794695
0000e0 16 26 99 3d 30 1a 32 3c cf 89 7c 3d 0e 8d 41 bc
       0.074779674 0.010870501 0.061654862 -0.011813415
0000f0 d5 11 e7 3c 75 03 d1 3d 2a 59 11 3d 7e 19 7d 3c
       0.028206745 0.102057375 0.035485424 0.015447972
000100 c2 b0 dc 3c c7 72 91 3b 8e 54 32 3d 0a cc b4 3d
       0.026939753 0.0044387314 0.04353767 0.0882798
000110 9a 1c a3 3b 6d 42 88 bc b3 ec ea 3c d1 1b 3a 3d
       0.004977775 -0.016633237 0.02867732 0.045436684
000120 60 e6 08 bc 83 f3 be 3c 9c 0f 62 bd 17 37 06 bd
       -0.008355707 0.023309475 -0.055190668 -0.03276738
000130 60 18 0b 3d e4 a3 8a bc 57 46 04 bd 87 a5 3a bc
       0.033958793 -0.016923852 -0.032293644 -0.011392004
000140 ed 5a 9e 3d d7 df 27 3d 67 56 9f 3b a0 51 95 bc
       0.077321865 0.040984955 0.004862595 -0.018227398
000150 bc 35 58 3c c3 d5 82 3d 5d fd d9 3d ac c5 93 3d
       0.013196405 0.06388428 0.10644028 0.07215437
000160 9f d1 07 3c a6 97 a7 bc 32 66 71 3d 8c 65 a2 3d
       0.008289724 -0.020458054 0.05893535 0.07929525
000170 7b 46 bb 3d 07 13 c3 3b aa 90 54 bd 3d b3 00 3e
       0.091443025 0.005953196 -0.051895775 0.12568374
000180 d1 50 d0 3d dc ab 81 3d 37 e7 56 3d 5a fd 73 3d
       0.101716645 0.06331608 0.052466597 0.059567787
000190 91 e5 fb bc a5 4b cc bc 4e d8 55 bd 11 5f 70 bc
       -0.030749114 -0.024938414 -0.052208237 -0.014671103
0001a0 ff ba 4d 3b 87 24 33 bd 6c a4 b3 3c c8 3f 99 bd
       0.0031391976 -0.043736007 0.021928988 -0.074828684
0001b0 97 29 72 3c e0 17 37 bd ae a5 e5 bb 53 66 5e bb
       0.014780424 -0.044700503 -0.007008276 -0.0033935502
0001c0 f0 6d 8b bd d1 1c a2 ba e6 9a 44 bd 90 65 6c 3b
       -0.06808078 -0.0012368207 -0.047999285 0.0036071278
0001d0 e0 4a 30 bd ee f0 d3 bc 11 9d 50 3b 5e fc 13 3d
       -0.043040156 -0.02587172 0.00318319 0.036129348
0001e0 ea 43 1f 3c 1e d2 ef bc ca 4c b4 3c f0 db 97 bc
       0.009720782 -0.029274996 0.022009272 -0.018537492
0001f0 fc cc de 3c d9 ad 7a 3a 30 04 2e 3d 2a 39 ee 3c
       0.027197354 0.00095626485 0.042484462 0.029079992
000200 79 90 d4 3d c0 2c 25 3d 34 fb f5 bb d0 9c cc 3d
       0.103791185 0.04032588 -0.0075067524 0.09990847
000210 8a d4 a0 3d 37 d2 bb 3d 3d d7 97 3d bb f2 41 bc
       0.078530386 0.09170955 0.074141 -0.011837657
000220 25 c4 d6 3d aa cb 86 3d 17 d2 be 3d 1c a8 1c 3c
       0.1048663 0.065818146 0.09317415 0.009561565
000230 83 04 7b 3c 67 44 ff 3d 0a e4 08 3e 06 8d b3 3d
       0.0153209 0.124642186 0.1336824 0.087671325
000240 31 d1 af 3d 71 a5 3f 3d 9c 8d 5a 3d 5c 33 a0 3d
       0.08584822 0.046788637 0.053357705 0.07822296
000250 7e 40 5e 3d eb a7 96 3d 6d 03 28 3d 33 55 cd bc
       0.054260723 0.073562466 0.041018892 -0.02506504
000260 c4 7b 9f ba 4a 07 69 bc 53 90 01 3d 9a 3b 61 bd
       -0.0012167622 -0.014222929 0.03163178 -0.05498848
000270 7c f9 93 3c 2b 93 76 ba 0f 1d 34 3d 26 a9 29 3d
       0.0180633 -0.0009406085 0.043973025 0.04142108
000280 a8 68 1c bd d4 51 80 3c 0d 9f 0e 3d 58 20 3f bc
       -0.038185745 0.015664019 0.03481965 -0.011665426
000290 5b d1 9f 3d 4c 43 e0 3c a0 d0 96 3c c3 5d 2a 3c
       0.07803603 0.02737584 0.018410027 0.010398331
0002a0 58 d8 4b 3d c5 ea 0e 3a f5 86 e8 bc 5f 3e 99 3c
       0.04976687 0.00054518535 -0.028384665 0.018706499
0002b0 da 5a 15 3d bd 9e 3f 3d 92 ba cb bc 22 e0 86 3c
       0.036463596 0.046782244 -0.024869237 0.016464297
0002c0 8b a6 37 bd 41 0c bf 3c cf 97 a8 3c dd e9 a9 bb
       -0.044836562 0.023321273 0.0205802 -0.0051853494
0002d0 a6 3c db 3c 3e 0e 02 3d 80 d0 2f 3d 8d af fc ba
       0.026762318 0.031751864 0.04292345 -0.0019278392
0002e0 58 06 1d 3d 54 b4 0e bc 78 90 3a 3d 93 22 cc 3c
       0.038336128 -0.008709986 0.045547932 0.02491883
0002f0 2b 00 8a 3d 22 f4 2d 3d bc 56 80 bd e7 61 69 3d
       0.06738313 0.04246915 -0.06266543 0.056978133
000300 b6 54 65 3b b1 59 a7 bb 7d c8 41 bd 6a 5a 49 bc
       0.0034993119 -0.0051071276 -0.04731034 -0.012289623
000310 6b 55 f1 bc 98 80 4e 3b 08 e5 48 bc 24 7c c3 ba
       -0.029459676 0.0031509753 -0.012261637 -0.0014914316
000320 17 1f 4d bd 11 59 02 bb e3 dd 06 3d 8b a7 f5 3c
       -0.050078478 -0.0019889513 0.03292645 0.029987117
000330 17 0b 08 bd 22 b0 29 3d f8 e6 c5 3c 2b a5 92 3c
       -0.0332137 0.04142774 0.024157986 0.017901024
000340 61 62 16 3d 43 88 05 bd c8 91 54 3d ab 36 f8 3c
       0.036714915 -0.032600652 0.05189684 0.030299505
000350 6e 84 73 3d 5d 0f 64 3d ba 0b 8d bd 19 6b 62 3d
       0.059452467 0.055678714 -0.06887002 0.055277918
000360 b7 6d 14 3d 24 cf 2a 3d b2 7f 30 bc 13 be 53 bd
       0.036237445 0.04170145 -0.010772632 -0.05169494
000370 e5 20 70 bc 55 62 79 bc 2f ce 0f 3d 92 a6 3b bc
       -0.01465628 -0.015221198 0.03510874 -0.011453288
000380 fa 1f 2e 3c 0c 56 2a 3c 4c b8 b3 3c 17 e9 8f bb
       0.010627741 0.010396492 0.021938466 -0.0043918
000390 c6 24 91 3b 22 f1 b5 3c 79 d3 96 3c b5 88 34 bd
       0.0044294326 0.022209708 0.018411385 -0.044075686
0003a0 22 f6 84 ba 3a c6 27 bd 9f 89 f7 bb 8a 01 2d bd
       -0.0010144154 -0.040960528 -0.0075542475 -0.042237796
0003b0 36 13 28 3d 5d 77 0a 3d 2f dc ce 3c 83 41 10 bd
       0.041033946 0.03380524 0.025251476 -0.035218727
0003c0 84 70 85 bd 46 e2 33 3b 9e 22 ee ba 7e 0e 97 39
       -0.06515601 0.0027448102 -0.0018168276 0.00028811762
0003d0 b9 27 16 3d 70 1b 52 bd 87 e7 05 bd f1 80 38 3d
       0.036658976 -0.051295698 -0.032691505 0.045044843
0003e0 4e f1 d3 3c a8 ab 10 bd dc 72 15 3c 98 d8 36 3d
       0.025871899 -0.035319954 0.009121623 0.044640154
0003f0 6d 7a 85 bc b1 9d 26 3d cb 72 d9 3c 44 0b c1 bb
       -0.016293729 0.04067773 0.026543995 -0.0058912355

fc1.bias f4 [120]
000000 aa 9f cd bc 8d 94 d8 3c 4c ab 5a bc 3c 85 85 3d
       -0.025100548 0.026438022 -0.013346504 0.06519553
000010 4e f9 93 3c c3 79 5a 3d da a9 e6 3b fb 18 dc bc
       0.018063214 0.053338777 0.007039291 -0.02686738
000020 65 a6 11 3a 50 58 69 3b cc c7 0f 3d 87 62 8e bb
       0.0005556106 0.0035605617 0.03510265 -0.0043452415
000030 66 f0 02 bc d8 f0 1e 3d 66 9e 01 bd a9 4d f0 3c
       -0.007991886 0.038803905 -0.0316452 0.029333906
000040 6d 8c 39 3d a7 a3 dc bc 24 d0 7c 3d c8 07 c0 bc
       0.045299936 -0.026933504 0.061721936 -0.02344121
000050 15 30 19 bb 46 49 2a bc de b6 05 3d d8 f1 45 bd
       -0.0023374606 -0.010393446 0.0326451 -0.048326343
000060 9c c3 26 3c bc 2e 49 3d 28 c2 47 bd 7e ed 93 3c
       0.010178473 0.049116835 -0.048769146 0.018057581
000070 82 38 0b 3d 2c 8a 0f 3d 6f 31 8f 3d 11 19 12 bb
       0.033989437 0.03504388 0.069918506 -0.0022292773
000080 cf 0b 28 3c 41 7d 2f bd c9 50 a8 bc 0f 7d ff 3c
       0.010256722 -0.04284406 -0.020546334 0.031187562
000090 a6 11 ba 3c 8f 10 6e 3d 4d da 45 3c 57 b2 b1 bb
       0.022713494 0.05812126 0.012075973 -0.005422871
0000a0 93 59 95 3b 3e 6d 9f 3c 48 e6 02 3d fe c9 e0 3c
       0.004557797 0.01946127 0.031957895 0.027440067
0000b0 c4 df 8d bc e4 b9 ed bc 45 5a 83 ba d5 0e 33 bc
       -0.017318614 -0.029019304 -0.0010021409 -0.010928829
0000c0 8c 4d 61 bd 53 98 32 3d bf 17 9c 3c db 41 60 3d
       -0.055005595 0.0436023 0.019054292 0.054750305
0000d0 15 7d 3e 3d 99 d7 a1 3d 45 9b 22 bc 36 d4 c7 3b
       0.046506006 0.0790245 -0.009924714 0.0060982956
0000e0 01 35 f0 3c a2 26 54 3b 65 90 b9 3c 89 95 40 3b
       0.02932215 0.003237166 0.02265186 0.0029386005
0000f0 ee cd 95 3c d6 c9 16 ba 00 50 4b ba 49 5f 93 3c
       0.018286671 -0.0005752122 -0.00077557564 0.017989771
000100 58 64 16 3c 45 ab 40 bd ad 21 fe bb 57 14 23 bc
       0.009179197 -0.047038335 -0.0077554793 -0.00995358
000110 89 74 da 3c 3c 64 db 3c 65 4d 45 bc 51 1d da 3c
       0.026666896 0.026781194 -0.012042378 0.026625307
000120 d7 9d 92 3c ec ff e9 bc 58 50 70 3b b9 c2 40 3d
       0.01789753 -0.028564416 0.0036668982 0.047060702
000130 e4 0f 95 3c ea 30 ca bc a0 5f d2 3c 45 59 10 3c
       0.018196054 -0.024681527 0.025680363 0.008810346
000140 df 5c f9 bc 1e 88 f7 3b 04 4a 01 3c ab d6 07 3d
       -0.030439792 0.007554068 0.007891182 0.033163708
000150 2e db f5 3c fa 81 88 3a d3 0e da bb f7 18 66 3c
       0.03001174 0.0010414713 -0.006654599 0.014044038
000160 9a dc c6 3c 57 95 46 bc 73 f3 4e 3d e1 ff cb 3c
       0.024275113 -0.012120566 0.05052514 0.024902286
000170 75 bc 28 bd 42 06 9f 3c 75 ea 38 bb 21 6d a6 bb
       -0.04119535 0.019412164 -0.002821592 -0.005078927
000180 dc 8d 36 3d 87 00 0c 3c a0 37 09 bd 19 50 ec 3c
       0.04456888 0.008545048 -0.033500314 0.028846787
000190 71 02 13 3d 49 8e e2 bc 18 ec dc 3b 25 26 fd 3b
       0.035891 -0.027655737 0.0067420118 0.0077254944
0001a0 f6 cf 3f bc ba 65 75 3b ac 40 28 3c 43 7b 1e bc
       -0.011707297 0.0037444667 0.010269325 -0.009672943
0001b0 f6 81 24 bd da 2c 8e 3d 17 f3 8a 3d de 34 b1 3c
       -0.040163003 0.069421485 0.06784647 0.021631654
0001c0 27 27 d5 bb 64 27 01 3b c5 72 25 3c 70 9c 4c 3d
       -0.0065049115 0.0019707317 0.010098164 0.049953878
0001d0 98 fa ed 3b fb 26 99 3c cf f0 4f bd 25 42 04 bd
       0.007262539 0.018695345 -0.050766762 -0.032289643

fc2.weight f4 [84, 120]
000000 00 01 cf 3b 60 d6 84 bb 58 cb 07 bc 26 20 a4 3d
       0.006317258 -0.004053876 -0.008288227 0.08013944
000010 dc 7e f4 3c eb 09 8c bd 5e ec 83 bd ac 4c b1 3c
       0.029845648 -0.06837829 -0.06441568 0.021643005
000020 70 a8 64 3d df 80 ac bd 7e 1d 09 3d 0b e0 26 bd
       0.055824697 -0.08423018 0.03347539 -0.040741008
000030 ac 93 0d 3d ac c2 42 bd e0 35 9d 3d 4a e7 ae 3d
       0.03456466 -0.047548935 0.076762915 0.08540209
000040 d2 4d 82 bd d6 59 a5 bd fc e3 d7 3c a6 2b 95 3d
       -0.06362499 -0.080737755 0.026353829 0.07283716
000050 10 09 24 3d 00 4b 36 bd 12 ab 9e 3d 4e 09 b9 bd
       0.040047705 -0.04450512 0.07747473 -0.09034978
000060 7a f0 9b 3d 21 b6 06 bd 70 d6 ce bb 00 46 2a b9
       0.07614227 -0.032888535 -0.006312184 -0.0001623854
000070 fc bc ce bc 08 08 ab bc 58 36 b8 3c 9c 4f 90 3c
       -0.0252366 -0.020877853 0.02248685 0.017616086
000080 a0 4f 2d 3c 94 86 b7 3d d0 1d 13 bc c3 7f 67 bd
       0.010578066 0.089612156 -0.008979276 -0.056518327
000090 a2 ca a3 bd 5e ba 8d 3d 2a 47 87 bd 98 a6 3c 3d
       -0.079976335 0.06920312 -0.0660537 0.046057314
0000a0 31 f2 59 bd dd a2 79 bd b0 ef 6b 3c b0 0f 8e 3d
       -0.053209487 -0.060946334 0.014400408 0.06936586
0000b0 a4 5a a8 bd ac b3 75 3d ba 09 ba bd 9c a2 96 bc
       -0.08220413 0.0599858 -0.090838864 -0.018388085
0000c0 b0 00 d4 bc b0 a1 84 bd 7d de 90 bd b5 e1 1b bd
       -0.025879234 -0.06476152 -0.07073686 -0.038057048
0000d0 9b a7 95 bd 00 28 74 3a 51 ef 79 bd 49 fc 2d bd
       -0.07307359 0.0009313822 -0.061019246 -0.042476926
0000e0 72 82 3a bd f0 ea db 3c 4c 9d d6 bc 40 20 59 3d
       -0.04553456 0.026845425 -0.026198052 0.05300927
0000f0 54 e2 63 3d a6 7e 89 bd 90 e5 7d bc b8 5d ba bd
       0.055635765 -0.067136094 -0.0154966265 -0.09099907
000100 10 fb 32 3d b0 f3 a2 bc ac a6 c0 3c 1c 61 f6 3c
       0.043696463 -0.01989159 0.023516975 0.030075602
000110 ae bf a5 3d 50 23 15 bc 3c 38 dd bc 7e 6c b0 3d
       0.080932006 -0.009102657 -0.027004354 0.08614443
000120 80 6e eb bb 54 fd 88 3c 70 cc 13 3c bb 1f 45 bd
       -0.0071848035 0.016722359 0.00902091 -0.048125964
000130 90 94 57 3d 80 96 9a bd cc f8 3a 3d b4 15 36 3d
       0.052631915 -0.07548237 0.045647427 0.04445429
000140 0c 29 74 3d 94 1c 84 bd b6 44 83 3d 78 b9 ac 3d
       0.059609458 -0.06450763 0.0640959 0.08433813
000150 80 0c c7 ba f2 f8 b0 bd f0 72 8d bb 00 ef 00 ba
       -0.001518622 -0.086412326 -0.00431668 -0.0004918426
000160 0c 8d a3 bd a0 50 b9 bb 3a 0e f7 bc 97 7c a9 bd
       -0.07985887 -0.005655363 -0.030158151 -0.08275717
000170 a8 e2 72 3d bc d7 c4 3c 3b 50 1f bd 38 ac a9 3d
       0.059298187 0.024028651 -0.038894873 0.08284801
000180 20 fd 97 3b 80 37 a5 3b f0 24 38 3c f4 75 9a bd
       0.004638329 0.0050420165 0.011239275 -0.07542029
000190 e5 d0 1d bd 38 9b 49 3c dc 40 0a bd d4 8d 42 3d
       -0.038529295 0.012305073 -0.03375326 0.04749854
0001a0 c0 e1 1e 3b 6c 44 9e 3c 58 f9 b4 3d 2d 66 20 bd
       0.0024243444 0.019319735 0.08836621 -0.039159942
0001b0 90 78 49 bc 00 47 5b bd 11 9a a3 bd 50 ac aa 3c
       -0.012296811 -0.053534508 -0.0798837 0.020834118
0001c0 0a 0c 85 3d e0 1d fd 3c 1a f1 92 bd 10 10 72 3d
       0.06496437 0.030898035 -0.07174893 0.05909735
0001d0 11 b8 aa bd 97 e2 82 bd 22 23 aa 3d d1 9d 2b bd
       -0.08335889 -0.06390875 0.08307482 -0.041898552
0001e0 c8 e8 6b bd 46 c5 02 3d 81 6c 33 bd a3 32 a1 3d
       -0.057595044 0.031926416 -0.04380465 0.07870986
0001f0 b9 d6 30 bd 04 e8 de bc db c7 05 3d ea b9 43 3d
       -0.043173525 -0.027210243 0.0326613 0.047784723
000200 4b 8a 42 3c 96 c3 80 3d 0f 0b 81 bd d8 3a 57 bd
       0.011873792 0.06287305 -0.063009374 -0.052546352
000210 3e 47 6b bd 1a 66 6d bc 3a c6 90 bd 86 49 77 3a
       -0.05744099 -0.014489675 -0.07069059 0.0009433258
000220 23 28 c0 3c 91 86 d7 bd ce 05 bc 3d cf 0c 0a 3d
       0.023456639 -0.105237134 0.09180795 0.03370362
000230 e3 74 5b 3d 56 e7 2b 3d bc 4e 6b 3d c0 a5 8f 3c
       0.05357827 0.041968666 0.057448134 0.01753509
000240 db af 05 be c5 6b f3 3d 65 ca 98 3d 23 67 f1 bc
       -0.13055365 0.1188579 0.07460479 -0.029468125
000250 42 3b 0d 3e 5e bf bd bc 0c 2d d7 3d 8b 59 b7 bd
       0.13792136 -0.02316254 0.10506639 -0.08952626
000260 0f 98 8d bc 5a 1d 91 bd f7 92 43 3d 39 dd 0d 3d
       -0.017284421 -0.070856765 0.04774758 0.034634802
000270 6e aa c0 bd 83 ec 95 3d 46 38 41 bd 88 23 6b bd
       -0.09407507 0.07320502 -0.047172807 -0.057406932
000280 75 40 2f bd 8a 9d 4b bd d0 30 57 bd aa 30 22 3d
       -0.04278608 -0.049710788 -0.052536786 0.03959719
000290 7b f7 27 3d f0 e6 b3 3c a1 00 7c 3d 0e 16 f3 3c
       0.0410075 0.021960706 0.061524037 0.029673602
0002a0 2d 92 a6 3d e1 63 10 3e 4a 0d 56 3b 85 54 62 3c
       0.081333496 0.14100601 0.003266173 0.013814096
0002b0 9e 68 1b 3e 4f 34 91 ba 78 0d 9f bd a9 47 95 3d
       0.15176627 -0.0011078211 -0.07766241 0.07289059
0002c0 af 55 e0 3d d1 7e 1e 3d 01 66 30 bd 8b 62 bd bd
       0.10953843 0.03869516 -0.04306603 -0.09247311
0002d0 1f b1 c3 3d 16 01 5c 3d 80 c3 73 3b dd 0a b8 3d
       0.095552675 0.053711973 0.0037195385 0.08986447
0002e0 4a f5 e1 3d 00 f4 4d 3a dc 55 53 bd af ce b6 bd
       0.11033113 0.0007856488 -0.051595554 -0.089261405
0002f0 94 6f 1d 3d b5 5a a6 3d 7d d0 a8 3b c5 00 b6 bd
       0.038436487 0.0812277 0.005151807 -0.088868655
000300 7f 8b c3 3c 2c 96 fd bd 04 83 05 3e b1 6a 91 3d
       0.023870228 -0.12382159 0.1303826 0.07100428
000310 7a d4 96 3d 1d d5 7c 3a 70 a7 fa 3b 03 af bd bd
       0.073647454 0.00096447935 0.0076493546 -0.092618965
000320 f9 43 a2 bc 54 17 05 3e 82 4d f7 bc b9 c1 d8 3c
       -0.019807803 0.1299718 -0.030188326 0.026459562
000330 70 78 45 3d 28 2a 05 bc 7e 27 57 3c 3f 9d 58 bd
       0.04821056 -0.008127727 0.013131974 -0.052884337
000340 f8 54 43 3c f5 6d 89 bd 12 82 16 bb e1 3e 26 3d
       0.011922114 -0.06710426 -0.0022965712 0.04058731
000350 70 c5 44 3d cd ff 05 3e 52 43 d0 bd d5 19 b8 bd
       0.048039854 0.13085862 -0.1016909 -0.08989302
000360 17 26 cd 3d 73 ba 2d bc 3b c9 99 bd 20 23 4d bd
       0.10017031 -0.010603535 -0.07509085 -0.050082326
000370 4b de e2 bd 75 01 db bd 00 c0 b7 36 01 e6 93 3d
       -0.11077555 -0.10693637 5.4761767e-06 0.07221604
000380 72 2d 0a 3c a8 76 f3 bc 89 22 6f 3d f5 27 61 bd
       0.008433687 -0.029719666 0.058382545 -0.054969747
000390 08 cd 2f 3d 53 99 fd 3d 5b 8f ba 3d db 9c a7 3d
       0.042920142 0.1238276 0.09109374 0.08184215
0003a0 3c 67 80 3d a8 0d 9e 3d f1 0c 50 bd fc 80 03 3e
       0.062696904 0.077174485 -0.050793592 0.12842172
0003b0 9f e7 98 3d e6 ad bc 3c 53 f8 88 bc 08 dd 57 bc
       0.07466053 0.02303214 -0.016719973 -0.013175257
0003c0 a2 21 9a bc ca 83 ff ba 49 0a 8e bd a6 2e 1a bc
       -0.018814865 -0.0019494232 -0.069355555 -0.009410536
0003d0 96 45 c1 bd 45 ec 9b bc a6 a0 b2 bd 9c 56 10 bd
       -0.094371006 -0.01903356 -0.087220475 -0.035238847
0003e0 b5 2f 84 3d 80 fa fe bc 8b 85 cf 3c a4 2a b2 3d
       0.06454412 -0.031125307 0.025332233 0.08699539
0003f0 6b 07 4b 3c b8 55 53 3d 90 fd 2d 3d 22 8e 60 3d
       0.012391905 0.05159542 0.042478144 0.05482305

fc2.bias f4 [84]
000000 e4 f2 b8 bd 0a 9c e2 3d 03 b8 89 3d 31 5d fe 3c
       -0.09030703 0.11064918 0.067245506 0.031050297
000010 c8 d8 2a 3c 0e e8 98 3c ae c6 2d 3d 0a 95 a3 3d
       0.010427661 0.01866534 0.042425804 0.07987411
000020 8c 84 d4 3d 50 3d 43 bd 56 4c 21 3d 44 75 ac bc
       0.10376844 -0.047665894 0.03937944 -0.02105201
000030 fe 58 7a 3d 0e b6 a1 bc 22 02 47 3d 0c bc cc 3c
       0.061120026 -0.01974013 0.04858602 0.024992011
000040 81 8d 27 3d f5 05 dd 3c 0e 0e b4 3d e4 48 e5 3d
       0.040906433 0.02698038 0.08791743 0.111955434
000050 00 8b c5 3d 43 ae c4 bc 55 65 e7 3d 6a 79 bf 3d
       0.09645653 -0.024008876 0.112986244 0.0934933
000060 a2 52 d0 3d 3f f3 02 3d 0a 50 ad bd dc 0c 79 bd
       0.10172011 0.03197026 -0.08462532 -0.06080328
000070 db d2 a9 bd 79 4a 67 bd 7f 07 a9 bd 11 9f 59 3d
       -0.082921706 -0.056467507 -0.08253383 0.053130213
000080 f4 0c e9 3d 7e 89 31 bd 54 ad 8e 3d 28 f5 91 3c
       0.11379424 -0.043344013 0.069666535 0.017817095
000090 73 d3 80 3d a9 78 d3 ba ac f1 81 3d 60 25 aa 3c
       0.06290331 -0.0016133982 0.063449234 0.020769775
0000a0 af 03 3e 3d 62 4d a8 3d ea ea b1 bd 54 22 8c bd
       0.04639023 0.082178846 -0.086873844 -0.06842485
0000b0 6c 34 1d 3d 0d a1 b5 bd 1a 73 86 3c dd c4 d1 3c
       0.03838007 -0.088686086 0.016412307 0.025606567
0000c0 e4 6b b0 bd 36 7f 8c 3d 34 6d 83 bd 83 09 81 bd
       -0.086143285 0.06860201 -0.06417313 -0.06300642
0000d0 63 d0 84 3d 79 a5 bb 3d 74 60 68 bc f8 b7 d6 bc
       0.06485059 0.09162421 -0.0141831525 -0.02621077
0000e0 a6 71 69 3c f0 b7 4f bd d4 bb 97 bd ee 76 af bc
       0.014248287 -0.050712526 -0.07408872 -0.021419015
0000f0 32 fb 2f 3c 95 f3 e1 bc c9 ee b4 3d cc d4 20 3d
       0.010741042 -0.02758197 0.08834607 0.03926544
000100 d5 39 2d 3d 63 ba 62 3d 43 44 43 bd 2e 96 99 3d
       0.04229148 0.055353533 -0.04767252 0.074993476
000110 15 ca 4e bd fe 27 cf bd 52 ae 84 3d ba a2 42 3d
       -0.05048569 -0.1011505 0.064785615 0.04751847
000120 a5 f6 cd 3c ba 8a 84 3d 5f 2c cc 3c fb 4d 1c 3d
       0.025142023 0.064717725 0.024923502 0.038160305
000130 00 82 fb 39 fe 13 92 bd a7 c6 b9 bd 3c cb 6b bc
       0.00047971308 -0.071327195 -0.09071093 -0.014391717
000140 24 c6 cc 3a 50 8e 7a bd a9 c1 49 3d ab 7a 53 bd
       0.0015623015 -0.061170876 0.049256954 -0.051630657

fc3.weight f4 [1, 84]
000000 2c ef ad bc 8e 9c f5 3d 3a fa 86 bd ed e2 9a bd
       -0.02123221 0.11992751 -0.06590696 -0.07562814
000010 04 9c 92 3c b2 eb 1e be d7 e2 2d 3e f6 d4 0d be
       0.01789666 -0.15519598 0.16981064 -0.1385077
000020 24 c3 07 3e 08 23 50 bc 38 19 91 bd 96 af 99 3d
       0.13258034 -0.012703665 -0.07084888 0.075041935
000030 8c 41 03 be ed 4f 0c be 2d e8 b9 bd 02 ba 8d bd
       -0.12817973 -0.13702364 -0.09077487 -0.06920244
000040 16 59 2b 3e 5e 1b e6 bd d5 b8 f7 3d d8 3a a4 3d
       0.16733202 -0.112356886 0.12095801 0.08019036
000050 b1 82 cb bd b5 70 5c bd a7 f7 30 3e 12 6c 12 be
       -0.09937037 -0.053818423 0.17281972 -0.14299038
000060 b9 7c d0 3d 87 92 50 3b 2b 78 bf bd d2 b4 19 3e
       0.10180039 0.0031825618 -0.09349092 0.15010384
000070 76 f8 10 3d a0 18 20 be c0 7b 06 3b 03 ad 90 3d
       0.0353932 -0.15634394 0.0020520538 0.07064249
000080 7e a4 1a 3e 90 3c a5 bd ea c6 f3 3d 27 53 95 3c
       0.15101811 -0.08068192 0.11903174 0.018228127
000090 b0 97 07 3e 39 00 aa bd 0f 7f 1b 3e 69 2a a9 bd
       0.13241458 -0.08300824 0.15185188 -0.08260042
0000a0 15 e5 c3 bd 48 79 2f 3e 3d b9 cc bd 33 4f a3 3d
       -0.09565178 0.17136109 -0.09996269 0.079740904
0000b0 30 6e e8 bd 96 25 48 3d c1 ec d4 3d ae 1a a4 bd
       -0.113491416 0.04886397 0.1039672 -0.08012901
0000c0 ef b5 91 3d c9 fb da bd a6 65 63 bd 56 af 2e bd
       0.07114779 -0.106925555 -0.05551686 -0.042647682
0000d0 01 61 a0 3d 2c f1 a6 3d b8 48 47 3c 26 e6 59 3d
       0.07831002 0.08151469 0.012163334 0.053198002
0000e0 1f 1e cd bd 52 19 48 3d 6c 2f d9 bd 53 19 9b 3d
       -0.10015511 0.048852272 -0.10604748 0.075731896
0000f0 43 ec 08 3e 26 e3 8f bd 64 1b ec bd 65 3a ee ba
       0.13371377 -0.07025747 -0.11528662 -0.0018175362
000100 ed 48 ec 3d 06 42 32 bd 62 67 20 3d d0 bf b0 3d
       0.11537347 -0.043519996 0.039161094 0.08630335
000110 a7 f6 d9 bd 59 c2 4f 3c c2 af c2 3d c4 c6 12 3e
       -0.10642748 0.012680613 0.095061794 0.14333636
000120 63 ef a1 3d 27 05 b4 3d fc 97 cd bd 89 2a 10 be
       0.079069875 0.08790045 -0.10038754 -0.14078726
000130 19 4e 95 3d 99 56 d9 3d 04 4e e0 3c 61 93 01 be
       0.072902866 0.1061222 0.02738095 -0.12653877
000140 72 79 83 bd 6e 27 88 bd d4 15 27 be 28 a1 d8 3a
       -0.06419648 -0.066481456 -0.1631692 0.001652752
