output_visualizations/base_tsk[x]_agm[crop]_spl[S1]_mdl[lenet]_ls[BCE]_tu[none]/model.pt (torch, 246727 bytes, 9 tensors)

conv1.weight f4 [6, 1, 5, 5]
0.23158747 0.2299001 -0.051308967 0.07891423 -0.24217363 0.13357899 1.412557e-05 0.1483155
0.09143662 -0.34104997 0.24140427 0.12175394 0.18694475 -0.033502527 -0.07485342 -0.012799786
0.19433048 0.050627086 -0.14134084 -0.094327815 -0.14110875 -0.047031477 -0.09865557 0.077707395
-0.28511578 -0.08562696 -0.06291584 -0.15181954 -0.032987244 -0.2711122 0.21311438 -0.1356744
0.16407469 0.0064990455 -0.13029963 0.16712649 0.09018232 0.20561624 0.019128647 -0.11635409
0.07603928 -0.0015189814 0.13366014 0.18446057 0.0692392 -0.09274413 0.1450598 0.07104063
0.10703143 -0.15804753 -0.22581664 -0.09679387 -0.16258691 0.16109163 0.052319378 0.067951396
0.053360317 -0.009850868 0.14877304 -0.15627016 0.013360742 -0.13550232 0.05657884 -0.084513254
0.035619177 -0.028335676 0.17540693 -0.12363663 -0.14247382 -0.15475067 0.1973038 0.07824522
0.18591195 -0.19246802 -0.23865797 -0.17534493 -0.14097016 0.09645334 0.105650224 0.20537533
-0.1159428 -0.13585602 0.12575461 -0.047049284 0.15622777 -0.04900091 0.12523203 -0.13316594
-0.07381271 0.08413086 0.051909376 -0.031362966 0.14073119 0.15237397 -0.13686563 -0.08969563
0.20599659 -0.05018838 -0.06514151 -0.19804241 -0.25153527 -0.075657316 -0.14822929 -0.26941466
-0.12281899 -0.2698524 -0.28809515 -0.22156008 -0.28886122 -0.25118637 0.06923925 -0.077069744
-0.045568097 -0.29618254 -0.24924615 -0.19453108 -0.08541796 -0.29056937 -0.20428991 -0.24200706
-0.12474282 -0.19517486 -0.13538615 -0.2641208 -0.2661544 -0.11668036 -0.06845948 -0.15785618
0.16769399 -0.039692804 0.17207934 0.062316433 -0.1693594 0.13840704 -0.05502896 -0.076665215
-0.1660141 -0.19883214 0.057222143 -0.043688774 0.07786463 -0.16413268 0.14848582 -0.14681074
-0.034534663 0.041773945 0.10325037 0.16146208 0.18219186 -0.15858443
00000000: 4425 6d3e ef6a 6b3e 5a29 52bd c99d a13d
00000010: 5dfc 77be eec8 083e dcfc 6c37 05e0 173e
00000020: 1f43 bb3d 1a9e aebe ae32 773e 215a f93d
00000030: 726e 3f3e f239 09bd c04c 99bd 32b6 51bc
00000040: 92fe 463e 595e 4f3d a7bb 10be f12e c1bd
00000050: d07e 10be 14a4 40bd ee0b cabd 0e25 9f3d
00000060: b2fa 91be 305d afbd 05da 80bd 9576 1bbe
00000070: a21d 07bd 38cf 8abe a83a 5a3e 3bee 0abe
00000080: 3203 283e f2f5 d43b 446d 05be 3523 2b3e
00000090: 82b1 b83d 108d 523e aeb3 9c3c 0e4b eebd
000000a0: 7bba 9b3d 8f18 c7ba 34de 083e 3be3 3c3e
000000b0: 48cd 8d3d a2f0 bdbd 8e8a 143e c07d 913d
000000c0: 4b33 db3d 36d7 21be 7a3c 67be dd3b c6bd
000000d0: 2f7d 26be 34f5 243e d84c 563d 1a2a 8b3d
000000e0: 5990 5a3d 8965 21bc f657 183e 4905 20be
000000f0: 03e7 5a3c 1fc1 0abe 37bf 673d 4915 adbd
00000100: 6ae5 113d 3820 e8bc e09d 333e 3435 fdbd
00000110: a8e4 11be f676 1ebe 020a 4a3e 083f a03d
00000120: b45f 3e3e 5616 45be c162 74be 9f8d 33be
00000130: 7b5a 10be 5489 c53d 255f d83d e94d 523e
00000140: 6b73 edbd d71d 0bbe d1c5 003e c0b6 40bd
00000150: 2cfa 1f3e 2eb5 48bd d33c 003e a75c 08be
00000160: 1e2b 97bd cd4c ac3d ed9e 543d 7476 00bd
00000170: d61b 103e ec07 1c3e 8126 0cbe 58b2 b7bd
00000180: c5f0 523e 5592 4dbd e968 85bd a1cb 4abe
00000190: 3bc9 80be 39f2 9abd 6bc9 17be b8f0 89be
000001a0: 8688 fbbd 182a 8abe 3581 93be a5e0 62be
000001b0: 9ee5 93be 809b 80be 4fcd 8d3d bed6 9dbd
000001c0: 9da5 3abd 3da5 97be 623a 7fbe 2833 47be
000001d0: 9def aebd 82c5 94be 6031 51be b3d0 77be
000001e0: 2a79 ffbd ebdb 47be aba2 0abe d73a 87be
000001f0: 6445 88be 1df6 eebd 7c34 8cbd 0da5 21be
00000200: f9b7 2b3e ec94 22bd 9135 303e 843f 7f3d
00000210: 8d6c 2dbe 93ba 0d3e 0c66 61bd a702 9dbd
00000220: 9aff 29be a79a 4bbe c461 6a3d 00f3 32bd
00000230: 7e77 9f3d 6612 28be ab0c 183e 8e55 16be
00000240: 3874 0dbd 281b 2b3d ee74 d33d 5156 253e
00000250: 8190 3a3e f563 22be

conv1.bias f4 [6]
-0.03554801 -0.08888524 -0.01838789 -0.13272832 0.15945256 -0.1467901
00000000: ca9a 11bd 7709 b6bd 33a2 96bc efe9 07be
00000010: 8847 233e 2550 16be

conv2.weight f4 [16, 6, 5, 5]
0.055313982 0.06712707 0.09398434 0.041758224 0.122863136 0.074401565 0.075770065 0.02004604
0.13071123 -0.016229065 0.043166384 0.15481386 0.11257417 0.031427022 -0.07424304 0.10494066
0.14519332 0.050133992 -0.008503678 -0.047016703 0.06076833 0.15399997 0.11237124 -0.09591
-0.027793908 0.14092158 0.08791418 -0.014211907 0.015955197 -0.04118522 0.13072355 0.06775012
0.004471983 -0.028436136 -0.12717904 0.07030526 0.09743787 0.055272203 -0.07290399 -0.15130697
0.08796623 0.022311447 -0.041525666 -0.090105005 -0.22105774 0.04853947 0.07556977 -0.057350013
-0.14953206 -0.1903196 0.14686048 0.106495194 0.12349822 0.17128049 0.17276381 0.2198481
0.08293961 0.09727316 0.112053126 0.16536562 0.20469406 0.14526787 0.17096211 0.08719031
0.031206144 0.2554084 0.12804534 0.10872266 0.016637981 0.11461025 0.22842188 0.18993056
0.08365636 0.011958648 0.0048094965 0.2585188 0.16129428 0.12813495 0.053197425 -0.07213683
0.13868076 -0.0028758969 -0.046677016 -0.10758803 -0.08628916 0.07293312 -0.0026651819 -0.040907472
-0.0780303 -0.1895691 0.045966715 -0.004604199 -0.06753668 -0.026926508 -0.1272383 0.009127677
-0.06203909 -0.11616124 -0.10773917 -0.15451944 0.020646434 -0.07475679 0.03131914 0.034624342
0.06402725 -0.119304284 0.010804621 -0.06744576 0.021925159 0.08201841 -0.08227551 -0.06776211
-0.05275461 -0.07667197 0.043598607 -0.15111579 -0.01227039 0.03256894 0.068464205 -0.020398214
-0.116503194 -0.021043107 0.023415377 -0.09554538 -0.02439499 -0.048945338 -0.0071413815 -0.040189065
-0.033375733 -0.02592041 -0.077592 0.06699416 0.06844947 -0.012808308 -0.009298429 -0.033322852
-0.073734775 -0.07945691 0.030345783 -0.044829432 -0.05249069 -0.006370567 -0.02719025 -0.026415363
0.0026234984 -0.017318904 -0.028112993 -0.03909434 -0.06644873 0.06846383 -0.09917004 -0.03436299
-0.021658093 0.04451668 0.105178185 0.00082508806 -0.086870454 0.055023443 0.105717026 0.03342176
0.061645273 0.108675465 0.013040087 0.014015746 -0.0867785 0.028180562 0.11449378 0.06233154
-0.08415267 -0.12192114 0.009971793 -0.023984145 -0.05291381 -0.06329855 0.002402972 0.012425276
-0.061934084 -0.04397228 0.078528576 -0.033727184 0.025849925 0.06662292 -0.028834213 -0.013749724
-0.00940275 0.04141184 0.006488145 -0.06832291 -0.10193975 -0.07924528 0.14402618 0.010584185
-0.050076786 -0.017151035 -0.019409206 0.08195113 0.09307737 0.04504611 -0.11570341 -0.036762495
0.22492093 0.15466821 0.12856711 0.29181823 0.17454587 0.13546813 0.1332456 0.23726068
0.25060517 0.19578274 0.18843636 0.16323783 0.16563287 0.21172814 0.2142356 0.22666171
0.16679539 0.21865016 0.14028884 0.08955761 0.2017815 0.2263737 0.26255274 0.101331286
0.18507038 -0.0023512545 0.14898862 0.2582008 0.18077761 0.16651638 0.016383102 0.14613508
0.26180187 0.14648038 0.026361775 0.10467511 0.25018635 0.21684395 0.13239717 -0.03969577
0.122499384 0.1804104 0.13784994 -0.005075438 -0.0098562995 0.25474384 0.13793299 0.046252042
-0.020837972 -0.044176325 -0.0650361 -0.03741534 -0.057912618 -0.00069555454 -0.043086894 -0.04173758
00000000: ea90 623d eb79 893d dd7a c03d ac0a 2b3d
00000010: ab9f fb3d d95f 983d 562d 9b3d 9837 a43c
00000020: 2ad9 053e d1f2 84bc 3ccf 303d 8687 1e3e
00000030: 498d e63d 9fb9 003d bc0c 98bd 21eb d63d
00000040: 8fad 143e 4d59 4d3d 0353 0bbc 9694 40bd
00000050: 36e8 783d 2bb2 1d3e e522 e63d 766c c4bd
00000060: 0db0 e3bc bf4d 103e 590c b43d 0fd9 68bc
00000070: 79b4 823c d5b1 28bd 65dc 053e 93c0 8a3d
00000080: b689 923b e6f2 e8bc 393b 02be 34fc 8f3d
00000090: 828d c73d 1b65 623d b04e 95bd 37f0 1abe
000000a0: a427 b43d 7fc6 b63c d116 2abd f988 b8bd
000000b0: f65c 62be 53d1 463d 53c4 9a3d d9e7 6abd
000000c0: ef1e 19be 24e3 42be 9862 163e 271a da3d
000000d0: a3ec fc3d 2764 2f3e ffe8 303e dc1f 613e
000000e0: 3edc a93d 2737 c73d 1c7c e53d 9b55 293e
000000f0: 529b 513e 1ac1 143e b110 2f3e d590 b23d
00000100: 07a4 ff3c e4c4 823e 511e 033e fca9 de3d
00000110: 604c 883c c7b8 ea3d 6de7 693e 287d 423e
00000120: 0754 ab3d 35ee 433c fb98 9d3b 935c 843e
00000130: 542a 253e cf35 033e 8be5 593d 79bc 93bd
00000140: 5402 0e3e 8b79 3cbb 6630 3fbd 1d57 dcbd
00000150: 5fb8 b0bd f65d 953d 55aa 2ebb 988e 27bd
00000160: 5ace 9fbd 671e 42be 9847 3c3d d2de 96bb
00000170: ac50 8abd fb94 dcbc c24a 02be 418c 153c
00000180: b31c 7ebd f2e5 edbd 5ba6 dcbd 583a 1ebe
00000190: b622 a93c 171a 99bd 8048 003d 41d2 0d3d
000001a0: b820 833d ce55 f4bd dd05 313c 0121 8abd
000001b0: 649c b33c 45f9 a73d 1080 a8bd dcc6 8abd
000001c0: 3815 58bd 3206 9dbd 7494 323d 19be 1abe
000001d0: bf09 49bc 0267 053d f636 8c3d 281a a7bc
000001e0: 3a99 eebd 9862 acbc 9bd1 bf3c 4cad c3bd
000001f0: 01d8 c7bc e87a 48bd 4002 eabb 4a9d 24bd
00000200: feb4 08bd 0a57 d4bc 8ee8 9ebd 3c34 893d
00000210: 3c2f 8c3d f0d9 51bc 7058 18bc 8b7d 08bd
00000220: 4202 97bd 4eba a2bd b897 f83c 119f 37bd
00000230: 7a00 57bd 30c0 d0bb 16be debc 0865 d8bc
00000240: 00ef 2b3b 60e0 8dbc 384d e6bc 6321 20bd
00000250: 4616 88bd c436 8c3d a919 cbbd 35c0 0cbd
00000260: 506c b1bc 1f57 363d a967 d73d b94a 583a
00000270: 23e9 b1bd 4360 613d 2b82 d83d 41e5 083d
00000280: c17f 7c3d 3e91 de3d 17a6 553c 4da2 653c
00000290: edb8 b1bd ecda e63c b77b ea3d 5b4f 7f3d
000002a0: 3c58 acbd cab1 f9bd bb60 233c 667a c4bc
000002b0: 27bc 58bd aca2 81bd 2e7b 1d3b 6393 4b3c
000002c0: 98ae 7dbd 471c 34bd 97d3 a03d 8425 0abd
000002d0: 39c3 d33c 9971 883d ba35 ecbc 8646 61bc
000002e0: fe0d 1abc 769f 293d 819a d43b e2ec 8bbd
000002f0: cac5 d0bd 594b a2bd 997b 133e 4a69 2d3c
00000300: 511d 4dbd 5480 8cbc 0e00 9fbc fed5 a73d
00000310: 599f be3d 4582 383d e9f5 ecbd 4594 16bd
00000320: ac51 663e 5861 1e3e 19a7 033e 3369 953e
00000330: 27bc 323e 28b8 0a3e 8971 083e 77f4 723e
00000340: 524f 803e 457b 483e 76f5 403e d127 273e
00000350: aa9b 293e 43cf 583e 9460 5b3e 021a 683e
00000360: 69cc 2a3e d4e5 5f3e e1a7 0f3e fb69 b73d
00000370: cf9f 4e3e 82ce 673e 506d 863e c786 cf3d
00000380: 1783 3d3e 8117 1abb 7990 183e e532 843e
00000390: c41d 393e 4583 2a3e db35 863c 6fa4 153e
000003a0: e50a 863e f4fe 153e a6f4 d73c e75f d63d
000003b0: 6d18 803e 570c 5e3e 2093 073e 0898 22bd
000003c0: f5e0 fa3d 81bd 383e 8928 0d3e dc4f a6bb
000003d0: 517c 21bc c96d 823e 4e3e 0d3e c872 3d3d
000003e0: 65b4 aabc 3cf2 34bd a631 85bd d440 19bd
000003f0: c835 6dbd e055 36ba e27b 30bd 06f5 2abd

conv2.bias f4 [16]
0.05829913 -0.0065345494 0.055731054 -0.008313139 -0.03297187 -0.0039881356 0.011517945 0.115615085
-0.014607082 -0.014839238 -0.023875529 0.045705754 0.015555918 0.09644109 0.02279927 -0.0070892703
00000000: 12cb 6e3d c61f d6bb 3f46 643d d533 08bc
00000010: 830d 07bd e8ae 82bb c3b5 3c3c 9ac7 ec3d
00000020: 8b52 6fbc 4620 73bc 9d96 c3bc f535 3b3d
00000030: 40de 7e3c e882 c53d 89c5 ba3c 1c4d e8bb

fc1.weight f4 [120, 400]
-0.048873156 0.021254981 0.008874384 -0.07280259 -0.0011868763 -0.07825181 -0.055939317 0.053000286
0.014376355 0.027038187 0.015448632 -0.039057635 0.024264626 0.029376272 0.039443165 -0.058690976
0.029332587 0.025284132 0.041387428 0.047091525 -0.05218725 -0.002224415 0.06116081 0.074791245
0.053572968 0.07563233 0.0022967313 0.1327186 0.0045331656 0.07104823 0.2128035 0.10780109
0.12620832 0.08004662 0.07197739 0.15467095 0.15032816 0.19111006 0.31516683 0.15448344
0.052343294 0.06942395 0.12165383 0.27852583 0.20841265 0.037171006 0.1404295 0.10452921
0.1326289 0.09637842 -0.058806848 0.008021441 -0.027944112 0.045050506 -0.040143497 0.0068619885
0.0528825 -0.0067006066 0.054831214 0.005193027 0.019509546 0.0741409 0.028813025 0.015220027
0.034522526 -0.011125189 0.025647525 0.08822762 0.0023349994 -0.04482842 -0.0025192478 0.04192425
-0.010474732 0.00549937 -0.09348216 0.16923863 0.090352155 -0.024816493 0.06999716 -0.06611194
0.18617806 0.16663934 0.037166342 0.1763881 0.00095186324 0.12101396 0.28279716 0.03168798
-0.0011606786 0.050245225 0.20797585 0.17092869 0.08497627 -0.12499124 0.07480782 0.34425253
0.20345448 0.24378404 0.008646046 0.08088822 -0.07204231 -0.059240777 -0.06637534 -0.033120185
-0.033573166 -0.080056936 -0.0256953 -0.09421545 -0.015351934 -0.114911675 -0.04437186 -0.057549633
-0.09427887 -0.02737036 -0.13979094 -0.027817303 -0.10591948 -0.06642794 -0.038213387 -0.031357463
-0.01542283 -0.083793 -0.0338117 -0.06536395 -0.01832131 0.04171173 0.057535574 0.027765745
0.12018018 0.0691039 0.053036828 0.077160165 0.061792117 0.08158073 0.08813991 0.06632296
0.113423586 0.05683257 0.07163024 0.012158903 0.08332591 0.15780407 0.13723007 0.06798609
0.09422642 0.106944956 0.106051415 0.09478402 0.06938831 0.10065004 0.023543963 0.0561641
0.022802135 -0.0040349704 0.042787265 -0.025093522 -0.026007036 0.02840967 -0.001397293 0.034451693
-0.011441057 -0.011301336 0.01758986 -0.10091271 -0.0020049026 0.016158381 -0.004987188 -0.05529423
-0.02220635 -0.071174175 -0.10514095 -0.026175838 -0.05921007 -0.0072072754 -0.085432865 0.0017887306
-0.061179917 0.011123065 0.0038501113 -0.016428169 0.033744164 0.032375086 0.038250532 -0.009832916
0.04137269 -0.00070114754 0.044137873 0.014551692 0.06428759 0.050864592 -0.06289902 0.0548612
-8.8945824e-05 -0.0058239573 -0.04291528 -0.017841006 -0.026832996 0.011883261 -0.003285937 -0.0082445275
0.23502623 0.08630766 0.052987076 0.25294107 0.016911836 0.11044529 0.26027438 0.005586094
0.29965356 0.13366671 0.19412588 0.13042662 0.03005566 0.10228003 0.10177494 0.2639976
0.13130464 0.18508123 -0.028645964 0.091963015 0.23167868 0.08728017 0.29545423 -0.059012923
0.03894831 0.03714719 0.032612678 0.10931429 0.018592475 0.12258947 0.11918311 -0.029984724
0.07699107 -0.10023314 0.074622944 0.07888529 0.09556352 0.058250636 0.022014588 -0.043902103
-0.01836288 0.06260383 0.06409376 0.14700344 0.07968833 -0.11916351 -0.010371457 0.12264317
0.16614248 -0.024340294 0.02608397 0.08784558 0.03451409 0.12209106 0.06942087 0.04373585
00000000: 382f 48bd ed1e ae3c dd65 113c 8619 95bd
00000010: f690 9bba 7c42 a0bd a020 65bd d416 593d
00000020: ce8a 6b3c 307f dd3c 421c 7d3c e6fa 1fbd
00000030: 9cc6 c63c 82a6 f03c 288f 213d f365 70bd
00000040: e54a f03c ab20 cf3c dd85 293d 0be3 403d
00000050: 4cc2 55bd 7ec7 11bb c283 7a3d 272c 993d
00000060: 546f 5b3d 1fe5 9a3d c284 163b 62e7 073e
00000070: f38a 943b bc81 913d 29e9 593e d1c6 dc3d
00000080: c13c 013e 7bef a33d e268 933d 1062 1e3e
00000090: a0ef 193e 5bb2 433e 8c5d a13e e830 1e3e
000000a0: ec65 563d 252e 8e3d a525 f93d f09a 8e3e
000000b0: 206a 553e a040 183d c0cc 0f3e 6913 d63d
000000c0: dfcf 073e 0d62 c53d 73df 70bd 5d6c 033c
000000d0: 0deb e4bc e186 383d 826d 24bd 88da e03b
000000e0: 529b 583d c390 dbbb b296 603d 452a aa3b
000000f0: 7cd2 9f3c 2fd7 973d 4b09 ec3c 6c5d 793c
00000100: 7e67 0d3d 6d46 36bc c21a d23c afb0 b43d
00000110: ca06 193b 019e 37bd f719 25bb c3b8 2b3d
00000120: 369e 2bbc 0f34 b43b 9373 bfbd e44c 2d3e
00000130: 8d0a b93d f54b cbbc ac5a 8f3d b265 87bd
00000140: 76a5 3e3e 81a3 2a3e bc3b 183d 159f 343e
00000150: 7686 793a 2bd6 f73d caca 903e 41cb 013d
00000160: e921 98ba f0cd 4d3d 9ff7 543e ee07 2f3e
00000170: 0a08 ae3d 68fb ffbd d834 993d de41 b03e
00000180: 5f56 503e 86a2 793e 25a8 0d3c b9a8 a53d
00000190: eb8a 93bd 75a6 72bd cbef 87bd 08a9 07bd
000001a0: 0484 09bd e4f4 a3bd f37e d2bc 08f4 c0bd
000001b0: ae86 7bbc d056 ebbd 44bf 35bd 2ab9 6bbd
000001c0: 4815 c1bd ce37 e0bc 5b25 0fbe 1de1 e3bc
000001d0: 50ec d8bd 5f0b 88bd a485 1cbd af70 00bd
000001e0: 0ab0 7cbc aa9b abbd 237e 0abd 89dd 85bd
000001f0: 9216 96bc ebd9 2a3d 6caa 6b3d fd74 e33c
00000200: 0721 f63d 5886 8d3d 253d 593d 2606 9e3d
00000210: bb19 7d3d cc13 a73d b282 b43d 55d4 873d
00000220: a04a e83d 45c9 683d e0b2 923d 2336 473c
00000230: c6a6 aa3d 6497 213e 0a86 0c3e 4b3c 8b3d
00000240: c8f9 c03d f505 db3d 7c31 d93d 201e c23d
00000250: 751b 8e3d 9c21 ce3d 45df c03c 540c 663d
00000260: 8bcb ba3c c937 84bb b341 2f3d ee90 cdbc
00000270: b50c d5bc 65bb e83c 5f25 b7ba 381d 0d3d
00000280: 4573 3bbc 3d29 39bc 9c18 903c 53ab cebd
00000290: af64 03bb 955e 843c 916b a3bb 347c 62bd
000002a0: 17ea b5bc c4c3 91bd 2354 d7bd b66e d6bc
000002b0: 4286 72bd 022b ecbb 6df7 aebd d773 ea3a
000002c0: cb97 7abd 843d 363c 2652 7c3b 5e94 86bc
000002d0: 5237 0a3d bd9b 043d 97ac 1c3d 3d1a 21bc
000002e0: 6976 293d 37cd 37ba eac9 343d 386a 6e3c
000002f0: 36a9 833d 6457 503d 34d1 80bd 23b6 603d
00000300: 6d88 bab8 e5d6 bebb efc7 2fbd 4d27 92bc
00000310: dfd0 dbbc 02b2 423c e058 57bb 0e14 07bc
00000320: b7aa 703e 12c2 b03d fa08 593d 7e81 813e
00000330: b18a 8a3c 2431 e23d af42 853e 8e0b b73b
00000340: 316c 993e eddf 083e efc8 463e 8e8e 053e
00000350: 4a37 f63c 3178 d13d 616f d03d b22a 873e
00000360: b974 063e ef85 3d3e f1aa eabc 1b57 bc3d
00000370: 2d3d 6d3e f2bf b23d c745 973e 89b7 71bd
00000380: 4388 1f3d a727 183d df94 053d 2ce0 df3d
00000390: 3f4f 983c 3010 fb3d 4616 f43d 86a2 f5bc
000003a0: 7ead 9d3d 0847 cdbd ead3 983d 9c8e a13d
000003b0: cfb6 c33d 3898 6e3d f057 b43c b1d2 33bd
000003c0: c06d 96bc 7036 803d 9743 833d 1288 163e
000003d0: a333 a33d 000c f4bd 0bed 29bc 582c fb3d
000003e0: 4121 2a3e 4c65 c7bc 0dae d53c 62e8 b33d
000003f0: a55e 0d3d e10a fa3d 872c 8e3d 5d24 333d

fc1.bias f4 [120]
-0.1069785 -0.0679571 -0.025008844 -0.024500148 0.018086867 0.024817087 -0.009774222 -0.026885461
0.0005556778 -0.021093762 -0.050328203 0.2113053 -0.008655016 0.30733708 -0.11021621 0.3525522
-0.03999258 -0.03610513 -0.014798319 -0.08944645 -0.045214638 -0.08021884 -0.0066086226 -0.048254427
-0.0014124807 0.025341999 -0.107684694 0.011727199 0.007288922 0.03758922 0.046774834 0.26536974
-0.08029538 -0.05486498 -0.10439648 0.00023096582 0.01968831 0.04529158 -0.05983943 -0.012137492
0.0043145865 -0.047673535 -0.04536459 0.024560837 -0.033430994 -0.028643664 -0.08527001 -0.011121286
-0.10656533 0.017677756 -0.046649657 -0.04883361 0.02821923 0.06510082 0.34877858 -0.07603633
0.0021524068 0.21768993 -0.06781945 -0.0852169 0.0030845192 -0.049989313 -0.019961001 0.018315114
-0.0108554335 -0.047038335 -0.027390024 -0.09340885 0.029093659 0.026781596 -0.039935105 -0.05733569
-0.07548252 0.29743162 -0.023786603 0.009272797 -0.047428332 -0.023150044 -0.0668798 0.008081981
-0.08842616 -0.011992601 -0.05335535 0.015543011 0.014719481 -0.025080295 -0.02452998 0.0130368965
-0.054030493 -0.013947676 -0.05170091 0.007265898 -0.04119535 -0.006724085 -0.09249511 -0.08626775
-0.0013763652 -0.06905026 -0.091603026 -0.03814689 0.31830752 -0.10469017 0.0064043337 0.22889665
0.0040096487 -0.08457673 -0.007746376 -0.011974762 -0.040163003 0.048294995 0.041639175 0.06649499
-0.10156988 -0.023984028 -0.06079726 0.030578757 -0.06728121 -0.014712801 -0.050767355 -0.04289579
00000000: 8b17 dbbd 182d 8bbd 59df ccbc 89b4 c8bc
00000010: e92a 943c 344d cb3c 0f24 20bc e63e dcbc
00000020: e8aa 113a d3cc acbc f224 4ebd 6b60 583e
00000030: c5cd 0dbc 495b 9d3e 09b9 e1bd b981 b43e
00000040: 42cf 23bd f9e2 13bd a674 72bc b32f b7bd
00000050: fc32 39bd c649 a4bd 258d d8bb 6fa6 45bd
00000060: fd22 b9ba 069a cf3c cb89 dcbd 7023 403c
00000070: e9d7 ee3b 27f7 193d f896 3f3d 8bde 873e
00000080: e771 a4bd 1aba 60bd d2cd d5bd 6a2f 7239
00000090: 6149 a13c aa83 393d 311a 75bd 55dc 46bc
000000a0: 6061 8d3b 5345 43bd 38d0 39bd cf33 c93c
000000b0: f0ee 08bd 1ea6 eabc 0ba2 aebd 0e36 36bc
000000c0: ec3e dabd f1d0 903c b613 3fbd c005 48bd
000000d0: 042c e73c 9453 853d 1b93 b23e efb8 9bbd
000000e0: 650f 0d3b 1cea 5e3e ece4 8abd 3386 aebd
000000f0: a525 4a3b 98c1 4cbd 4185 a3bc 9409 963c
00000100: fdda 31bc 45ab 40bd 0b61 e0bc 244d bfbd
00000110: d355 ee3c 1465 db3c fe92 23bd d4d8 6abd
00000120: 9496 9abd f548 983e 1fdc c2bc eeec 173c
00000130: 3644 42bd 29a5 bdbc 47f8 88bd 496a 043c
00000140: c618 b5bd 9d7c 44bc 248b 5abd 1da8 7e3c
00000150: fa29 713c 3175 cdbc 19f3 c8bc b598 553c
00000160: 144f 5dbd cb84 64bc 55c4 53bd c516 ee3b
00000170: 75bc 28bd b755 dcbb 146e bdbd 25ad b0bd
00000180: 2767 b4ba 396a 8dbd 5e9a bbbd ea3f 1cbd
00000190: 34f9 a23e cd67 d6bd 72db d13b e263 6a3e
000001a0: 5f63 833b 9136 adbd 50d5 fdbb cb31 44bc
000001b0: f681 24bd f9d0 453d d78d 2a3d 862e 883d
000001c0: df03 d0bd 277a c4bc 8c06 79bd 4d80 fa3c
000001d0: bbca 89bd f60d 71bc 6ef1 4fbd 7fb3 2fbd

fc2.weight f4 [84, 120]
0.006317258 -0.004053876 -0.008288227 0.08013944 0.029845648 -0.06837829 -0.06441568 0.021643005
0.055824697 -0.08423018 0.03347539 -0.040741008 0.03456466 -0.047548935 0.076762915 0.08540209
-0.06362499 -0.080737755 0.026353829 0.07283716 0.040047705 -0.04450512 0.07747473 -0.09034978
0.07614227 -0.032888535 -0.006312184 -0.0001623854 -0.0252366 -0.020877853 0.02248685 0.017616086
0.010578066 0.089612156 -0.008979276 -0.056518327 -0.079976335 0.06920312 -0.0660537 0.046057314
-0.053209487 -0.060946334 0.014400408 0.06936586 -0.08220413 0.0599858 -0.090838864 -0.018388085
-0.025879234 -0.06476152 -0.07073686 -0.038057048 -0.07307359 0.0009313822 -0.061019246 -0.042476926
-0.04553456 0.026845425 -0.026198052 0.05300927 0.055635765 -0.067136094 -0.0154966265 -0.09099907
0.043696463 -0.01989159 0.023516975 0.030075602 0.080932006 -0.009102657 -0.027004354 0.08614443
-0.0071848035 0.016722359 0.00902091 -0.048125964 0.052631915 -0.07548237 0.045647427 0.04445429
0.059609458 -0.06450763 0.0640959 0.08433813 -0.001518622 -0.086412326 -0.00431668 -0.0004918426
-0.07985887 -0.005655363 -0.030158151 -0.08275717 0.059298187 0.024028651 -0.038894873 0.08284801
0.004638329 0.0050420165 0.011239275 -0.07542029 -0.038529295 0.012305073 -0.03375326 0.04749854
0.0024243444 0.019319735 0.08836621 -0.039159942 -0.012296811 -0.053534508 -0.0798837 0.020834118
0.06496437 0.030898035 -0.07174893 0.05909735 -0.08335889 -0.06390875 0.08307482 -0.041898552
-0.060022607 0.023894992 -0.043797214 0.08384517 -0.043329936 -0.0066141617 0.040179536 0.018039025
-0.00011853983 0.0805086 -0.02883483 -0.09118894 -0.057522666 -0.12125366 0.013519347 -0.090748034
0.04506254 -0.07754188 0.095399864 0.010448708 0.018610872 0.082255274 0.07827222 0.01753509
-0.08916044 0.13374524 0.08401555 -0.033381343 0.16025482 -0.023786815 0.113383204 -0.1264229
-0.00091056153 -0.04207876 0.07126399 0.055650804 -0.08183069 0.091596596 -0.0025254502 -0.057406932
-0.042891774 -0.022779275 -0.00987454 0.042678557 -0.028185414 0.021960706 0.10165604 0.029658906
0.12391733 0.1499405 0.058366597 0.0483937 0.16299365 -0.00930093 -0.15124458 0.10696886
0.12916788 -0.037776142 0.023753183 -0.035465844 0.109820105 0.08317359 0.0037195385 0.09012189
0.1477021 0.0007856488 0.018117756 -0.06000911 0.03463789 0.08121367 0.041576304 -0.023327695
0.068087995 -0.18943979 0.077490404 0.09218181 0.12737052 0.000107001426 0.060411796 -0.08554063
-0.051048085 0.1499669 0.02076152 0.08079806 0.068351746 -0.052086152 -0.031467956 -0.0518343
0.021000916 -0.05587237 0.045997713 0.05669165 0.048039854 0.1450556 -0.074601226 -0.019938849
0.13474096 0.030971777 -0.020955378 -0.070790716 -0.18334398 -0.056938503 0.022063093 -0.020495376
0.08924585 0.009512133 0.072151236 -0.054969747 0.042920142 0.14138415 0.10637497 0.080555566
0.11485416 0.09159659 -0.056320556 0.14488822 0.06597157 0.067392536 -0.016726008 0.012262762
0.030175608 0.24665314 -0.069355555 0.13037457 -0.09398474 -0.06777482 -0.12079641 -0.01322933
0.07650942 -0.07622339 0.19487618 -0.04887358 0.012467529 0.03200008 0.2309105 0.054394055
00000000: 0001 cf3b 60d6 84bb 58cb 07bc 2620 a43d
00000010: dc7e f43c eb09 8cbd 5eec 83bd ac4c b13c
00000020: 70a8 643d df80 acbd 7e1d 093d 0be0 26bd
00000030: ac93 0d3d acc2 42bd e035 9d3d 4ae7 ae3d
00000040: d24d 82bd d659 a5bd fce3 d73c a62b 953d
00000050: 1009 243d 004b 36bd 12ab 9e3d 4e09 b9bd
00000060: 7af0 9b3d 21b6 06bd 70d6 cebb 0046 2ab9
00000070: fcbc cebc 0808 abbc 5836 b83c 9c4f 903c
00000080: a04f 2d3c 9486 b73d d01d 13bc c37f 67bd
00000090: a2ca a3bd 5eba 8d3d 2a47 87bd 98a6 3c3d
000000a0: 31f2 59bd dda2 79bd b0ef 6b3c b00f 8e3d
000000b0: a45a a8bd acb3 753d ba09 babd 9ca2 96bc
000000c0: b000 d4bc b0a1 84bd 7dde 90bd b5e1 1bbd
000000d0: 9ba7 95bd 0028 743a 51ef 79bd 49fc 2dbd
000000e0: 7282 3abd f0ea db3c 4c9d d6bc 4020 593d
000000f0: 54e2 633d a67e 89bd 90e5 7dbc b85d babd
00000100: 10fb 323d b0f3 a2bc aca6 c03c 1c61 f63c
00000110: aebf a53d 5023 15bc 3c38 ddbc 7e6c b03d
00000120: 806e ebbb 54fd 883c 70cc 133c bb1f 45bd
00000130: 9094 573d 8096 9abd ccf8 3a3d b415 363d
00000140: 0c29 743d 941c 84bd b644 833d 78b9 ac3d
00000150: 800c c7ba f2f8 b0bd f072 8dbb 00ef 00ba
00000160: 0c8d a3bd a050 b9bb 3a0e f7bc 977c a9bd
00000170: a8e2 723d bcd7 c43c 3b50 1fbd 38ac a93d
00000180: 20fd 973b 8037 a53b f024 383c f475 9abd
00000190: e5d0 1dbd 389b 493c dc40 0abd d48d 423d
000001a0: c0e1 1e3b 6c44 9e3c 58f9 b43d 2d66 20bd
000001b0: 9078 49bc 0047 5bbd 119a a3bd 50ac aa3c
000001c0: 0a0c 853d e01d fd3c 1af1 92bd 1010 723d
000001d0: 11b8 aabd 97e2 82bd 2223 aa3d d19d 2bbd
000001e0: 44da 75bd 6ebf c33c b564 33bd 04b7 ab3d
000001f0: bb7a 31bd 9cbb d8bb 4c93 243d 94c6 933c
00000200: 9698 f8b8 b1e1 a43d 0537 ecbc 44c1 babd
00000210: e39c 6bbd d753 f8bd 4080 5d3c 1bda b9bd
00000220: 7f93 383d 47ce 9ebd 0161 c33d 0f31 2b3c
00000230: d475 983c 7475 a83d 304d a03d c0a5 8f3c
00000240: c099 b6bd 83f4 083e 5810 ac3d e0ba 08bd
00000250: d719 243e 91dc c2bc 7435 e83d 0175 01be
00000260: c0b2 6eba c75a 2cbd dbf2 913d 19f2 633d
00000270: d996 a7bd ff96 bb3d 0682 25bb 8823 6bbd
00000280: 49af 2fbd 9a9b babc d3c8 21bc b6cf 2e3d
00000290: 19e5 e6bc f0e6 b33c 0b31 d03d 3cf7 f23c
000002a0: 5ec8 fd3d 018a 193e d011 6f3d 7938 463d
000002b0: cfe7 263e ee62 18bc dcdf 1abe 7d12 db3d
000002c0: 9644 043e 28bb 1abd 0996 c23c a244 11bd
000002d0: 5de9 e03d ea56 aa3d 80c3 733b d391 b83d
000002e0: 383f 173e 00f4 4d3a b06b 943c 1dcc 75bd
000002f0: 76e0 0d3d 5a53 a63d ea4b 2a3d b919 bfbc
00000300: b871 8b3d 81fc 41be 4ab3 9e3d d1c9 bc3d
00000310: 6b6d 023e f465 e038 5c72 773d ed2f afbd
00000320: cc17 51bd ec90 193e 1014 aa3c 7479 a53d
00000330: 00fc 8b3d 4a58 55bd 8be4 00bd 3450 54bd
00000340: 1d0a ac3c 6dda 64bd 1968 3c3d 8135 683d
00000350: 70c5 443d 7589 143e 87c8 98bd cc56 a3bc
00000360: 89f9 093e 86b8 fd3c 9daa abbc b9fa 90bd
00000370: 86be 3bbe 5938 69bd a9bd b43c ebe5 a7bc
00000380: 87c6 b63d c7d8 1b3c 07c4 933d f527 61bd
00000390: 08cd 2f3d 02c7 103e 1fdb d93d 51fa a43d
000003a0: a838 eb3d fe96 bb3d 62b0 66bd 945d 143e
000003b0: 1a1c 873d 1905 8a3d fb04 89bc c0e9 483c
000003c0: d632 f73c a492 7c3e 490a 8ebd e980 053e
000003d0: 127b c0bd 86cd 8abd 1c64 f7bd d5bf 58bc
000003e0: f9b0 9c3d 021b 9cbd 9f8d 473e aa2f 48bd
000003f0: 9b44 4c3c 8412 033d cd73 6c3e 4dcc 5e3d

fc2.bias f4 [84]
-0.09030703 0.08254952 -0.07226768 -0.044268005 0.010447454 -0.08924625 0.02597488 -0.03532056
0.08103289 0.19891676 -0.052875828 -0.0154596735 -0.041514646 -0.04077904 -0.018033028 -0.0035344006
0.23579931 -0.08651931 0.065753 0.07410179 -0.03105023 -0.03213866 0.10311418 -0.0056028403
0.08697473 0.028626222 -0.10410039 0.12286606 -0.075406455 -0.123045355 -0.09468767 0.008516981
0.101264775 -0.13287744 0.28360343 0.023591632 0.042859852 -0.1138543 0.051273756 -0.04485841
-0.08347848 0.057145193 -0.093555495 -0.086185426 -0.05499658 -0.088686086 0.24448709 0.025890645
0.14424755 -0.052936118 -0.07286412 -0.16434743 0.052820697 0.33085433 0.21369849 0.2137552
-0.07063944 0.17712912 -0.092640266 -0.038370654 -0.01398949 -0.04917472 -0.020997675 0.29840818
0.2542862 -0.045644186 -0.04767252 0.066062205 -0.13991848 -0.0905842 0.041167483 0.036532972
0.0048647574 0.051340852 0.0026605935 -0.062267594 0.00047971308 -0.090157636 -0.09071093 -0.024287611
-0.09091266 -0.16442925 -0.06301553 -0.12443317
00000000: e4f2 b8bd b90f a93d 1401 94bd 5e52 35bd
00000010: cc2b 2b3c bdc6 b6bd 46c9 d43c 4bac 10bd
00000020: 92f4 a53d d6b0 4b3e 5394 58bd 924a 7dbc
00000030: 430b 2abd ec07 27bd 00ba 93bc 67a1 67bb
00000040: 6075 713e 0931 b1bd 82a9 863d aec2 973d
00000050: 0d5d febc d4a3 03bd 872d d33d 0898 b7bb
00000060: cf1f b23d 8a81 ea3c 9632 d5bd 33a1 fb3d
00000070: b36e 9abd 34ff fbbd 9ceb c1bd cf8a 0b3c
00000080: e863 cf3d 0611 08be 7834 913e 3d43 c13c
00000090: d08d 2f3d 712c e9bd 6e04 523d 74bd 37bd
000000a0: c4f6 aabd 1411 6a3d 069a bfbd fc81 b0bd
000000b0: 1844 61bd 0da1 b5bd d35a 7a3e 9e18 d43c
000000c0: a1b5 133e 8bd3 58bd c939 95bd b14a 28be
000000d0: 845a 583d bd65 a93e c7d3 5a3e a5e2 5a3e
000000e0: 69ab 90bd 5661 353e 2eba bdbd 8c2a 1dbd
000000f0: 2d34 65bc 6e6b 49bd 5103 acbc f5c8 983e
00000100: cd31 823e 66f5 3abd 4344 43bd 9f4b 873d
00000110: ca46 0fbe 3684 b9bd 3c9f 283d 99a3 153d
00000120: 8b68 9f3b c94a 523d 5a5d 2e3b 4e0c 7fbd
00000130: 0082 fb39 91a4 b8bd a7c6 b9bd d0f6 c6bc
00000140: 6b30 babd 2460 28be 490e 81bd d1d6 febd

fc3.weight f4 [1, 84]
-0.02123221 0.13272034 -0.1695826 -0.25221494 0.017902857 -0.27898037 0.17530388 -0.23894085
0.14556438 0.35262617 -0.209105 0.16518603 -0.23787512 -0.08161777 -0.28114384 -0.04401153
0.30585977 -0.21766183 0.13308701 0.08836647 -0.20147566 -0.061201233 0.18808019 -0.25617525
0.123016275 0.09969336 -0.026739577 0.28920433 0.21691896 -0.30375975 0.09147998 0.088321276
0.16586262 -0.30034682 0.2593435 0.014973358 0.1534175 -0.1936233 0.17105816 -0.22854468
-0.20566976 0.18399121 -0.04658781 0.11752158 -0.23119815 0.04886397 0.3515144 -0.08007516
0.27025896 -0.20933095 -0.04703117 -0.25300473 0.10154478 0.23104633 0.26264384 0.33651876
-0.24720378 0.2693791 -0.0916165 0.1190815 0.14749411 -0.021459775 -0.24228927 0.22461484
0.280504 -0.2341494 0.039161094 0.10861181 -0.25025782 0.022894628 0.11025531 0.16065066
0.104142636 0.10920112 -0.04711929 -0.26418468 0.072902866 0.1092731 0.02738095 -0.06636482
-0.20473158 -0.20266668 -0.26436102 -0.20538501
00000000: 2cef adbc d7e7 073e 10a7 2dbe 5122 81be
00000010: 03a9 923c 84d6 8ebe dc82 333e e9ac 74be
00000020: d40e 153e 6b8b b43e 9f1f 56be 8726 293e
00000030: 8995 73be 3827 a7bd 16f2 8fbe 6f45 34bd
00000040: a799 9c3e bee2 5ebe f647 083e 7bf9 b43d
00000050: a34f 4ebe 25ae 7abd 1898 403e 6729 83be
00000060: f5ef fb3d 082c cc3d f50c dbbc 9712 943e
00000070: 0120 5e3e 6686 9bbe db59 bb3d c9e1 b43d
00000080: e4d7 293e 0fc7 99be acc8 843e d152 753c
00000090: 7a19 1d3e 3045 46be df29 2f3e 9e07 6abe
000000a0: 189b 52be 3168 3c3e dcd2 3ebd 27af f03d
000000b0: 35bf 6cbe 9625 483d b2f9 b33e 72fe a3bd
000000c0: 625f 8a3e da5a 56be c2a3 40bd d689 81be
000000d0: b6f6 cf3d 6997 6c3e 4179 863e 304c ac3e
000000e0: fd22 7dbe 0fec 893e 6ea1 bbbd 00e1 f33d
000000f0: b208 173e 69cc afbc ae1a 78be 6f01 663e
00000100: 389e 8f3e dcc4 6fbe 6267 203d de6f de3d
00000110: cb21 80be 848d bb3c 89cd e13d 9b81 243e
00000120: bc48 d53d d6a4 df3d 2800 41bd 3743 87be
00000130: 194e 953d 93ca df3d 044e e03c 47ea 87bd
00000140: 28a5 51be db87 4fbe 545a 87be 7350 52be
