output_visualizations/base_tsk[+1]_agm[geo_ac]_spl[S2]_mdl[lenet]_ls[SM]_tu[none]/model.pt (torch, 249415 bytes, 10 tensors)

conv1.weight f4 [6, 1, 5, 5]
00000000: 4657 7c3e 22e9 893e 5685 233d d163 913d
00000010: e9f4 65bd cf30 fe3d 40db 073e c668 c03e
00000020: 3f68 a43e ccc0 04bc 0def 403e 56f3 233e
00000030: 0ec9 8a3e bbd7 403e 4060 9d3e 427c 2ebe
00000040: 5965 2fbd 930d e7bd ca8d 2abe 531e f93d
00000050: 7f23 d8be 1f25 04bf 172b cfbe 26bf 2ebe
00000060: e7de 95be 06f3 d9bc a43a a73d 7195 053d
00000070: eb73 3bbe f7ff 38bf 91e3 d73d 46a8 bdbd
00000080: 987e 823e 34c3 1dbe b11e f5be 3ddf 8f3d
00000090: 778f 0a3e b6f8 9b3e 619e 0dbd 5448 b5be
000000a0: 5176 8d3c f3b4 423d 6257 733e b831 823e
000000b0: f57d e33c d222 cbbc 0177 443e be5f 3b3e
000000c0: cde8 9c3e 594e bc3c 426b babe db25 a8be
000000d0: b6cf 3cbe 4d5c b33e eedd 653e 8b2f 27be
000000e0: d14a 14be 38db 633d 043c 9e3e 6297 b5bd
000000f0: 1694 36bd 8940 f0bd f081 3c3e b21d 64bc
00000100: 4bd5 5a3c bd54 e93d 92a6 ae3e 65f7 3cbd
00000110: e16a 74be 87e9 10be 4d1f ce3e fe4e 793e
00000120: f795 0c3d 9c0e dbbe b615 13be 0ce9 85be
00000130: 3ce9 04bf a36a d13c 6e0c b23e 7017 853e
00000140: eefa c4be c75e bfbe a28a 8f3e 5ccd a23e
00000150: d169 313e 2d21 d2be cfe8 0d3d fba6 0b3e
00000160: 469a 6d3e 190b aa3c 8d56 78be 30eb ffbb
00000170: 03eb 4f3e b524 653e f602 30be 1116 20be
00000180: e96e 783e 733e a0bd ad5e 3e3d 438c 86bd
00000190: 094b 43bc 42c0 863e 9363 f8bd 1a17 5bbe
000001a0: c4dc 3fbb f715 313b 02c7 c7bd 00a3 97be
000001b0: 1514 78be 6a03 27be 6fa7 d33e bd83 f73d
000001c0: 42f7 95bd 6243 30be 9610 40bd 7f5f 703d
000001d0: 9ec8 343e 22d5 85be 5b49 d0bd 889e 3abe
000001e0: 2168 27bd 53f1 5d3a fb65 07bb 62e7 7ebe
000001f0: 6fd6 d0be 96cd b4be 21aa 8dbe 6242 a1be
00000200: c3c2 983e e8c7 0e3c 010a 58be c37c dfbd
00000210: 6238 71be ef65 903e 5490 3bbd 415e ebbe
00000220: b8cf 99be dbb4 5dbe fe15 583e 7955 9dbd
00000230: 3127 80bc 4168 dfbd 706a 473e 6910 e9bc
00000240: b439 7cbd 3704 413e 7b3f c73e ea12 953e
00000250: cca9 d13e 2000 04bd
0.24642667 0.2693568 0.03992208 0.070991166 -0.056141768 0.12411653 0.13267231 0.37579936
0.32110783 -0.008102607 0.1884119 0.16010794 0.27106518 0.18832295 0.30737495 -0.17039588
-0.042821262 -0.11281886 -0.1665565 0.12163987 -0.4221458 -0.5161914 -0.40462562 -0.17065105
-0.29271623 -0.02660514 0.08165482 0.03261322 -0.18305938 -0.7226557 0.10541452 -0.09260611
0.25487208 -0.15406495 -0.47874978 0.07025001 0.1353129 0.3046319 -0.03457487 -0.35406744
0.017268332 0.047535848 0.23763803 0.25428557 0.027770022 -0.024796877 0.19186021 0.18298241
0.30646363 0.022986578 -0.36409956 -0.3284138 -0.1843861 0.35031357 0.2244794 -0.1632673
-0.14481665 0.055628985 0.30905163 -0.088667646 -0.04457482 -0.11731059 0.18408942 -0.013923096
0.013356517 0.11393116 0.34111458 -0.04613437 -0.23868896 -0.14151584 0.40258256 0.2434654
0.034322705 -0.42784584 -0.14363751 -0.26154363 -0.5191839 0.025563544 0.34775108 0.25994444
-0.38472694 -0.37376997 0.28035456 0.31797302 0.17325522 -0.41040936 0.03464585 0.13637917
0.23203382 0.020757245 -0.24251767 -0.007810019 0.20304494 0.22377284 -0.1718863 -0.15633418
0.24261059 -0.07824411 0.04647701 -0.065697215 -0.011919745 0.26318556 -0.12128367 -0.21395531
-0.0029275874 0.0027021149 -0.097547546 -0.29616547 -0.2422641 -0.16309896 0.4133868 0.12085674
-0.07322551 -0.17213205 -0.046890818 0.058684822 0.17654654 -0.2613917 -0.101702414 -0.18224537
-0.04087079 0.0008466441 -0.002066015 -0.24892953 -0.407886 -0.353131 -0.2766886 -0.3149596
0.2983609 0.008714654 -0.21097566 -0.10912468 -0.23556665 0.2820277 -0.04579194 -0.45970348
-0.3004129 -0.21651022 0.2110214 -0.07682318 -0.015643688 -0.10908557 0.19474196 -0.028450208
-0.061578467 0.18849264 0.3891562 0.29115993 0.40949857 -0.03222668

conv1.bias f4 [6]
00000000: df37 3fbd cc37 5cbd 520f 333b bb3e 4cbc
00000010: 0915 403e ea5d 0bbe
-0.046684142 -0.05376415 0.0027322364 -0.012466128 0.18758024 -0.13610044

conv2.weight f4 [16, 6, 5, 5]
00000000: 975e 033d b5ea ddbd 3be3 4ebd 07aa 06be
00000010: e6bd 763b 296f f8bd f232 c0bd e331 19be
00000020: 2c3f 5ebd 9b22 c1bd e7ca 33be 5eb0 4d3d
00000030: 6278 4a3d 391b 1dbe 0d83 21be 6378 91bd
00000040: a70a 0e3d 2150 3bba da6f 40be dd2b 3abe
00000050: 07a0 943d 162d 393e 7217 153e 0aa7 35be
00000060: d4dd e4bd 3911 99bd da23 4a3e 6a04 2abe
00000070: e9f3 fdbd 0c5b ff3d 6a30 af3d 11ab 1d3e
00000080: 76f9 2cbd bb54 11bc 3919 9b3d 67b8 1d3e
00000090: 8958 a03d b427 9abd d5ae 02bd 34e6 7c3d
000000a0: 9641 5b3e 44ac 0cbd a99a 3ebe 897a 2dbd
000000b0: 86b1 86bb a925 153e c594 163d 9e82 1abe
000000c0: 0625 dcbd 47b0 f4bd e04f e93e 9ebb ac3e
000000d0: 7ff9 9ebd 2dd6 703e be79 a43d 66c0 df3e
000000e0: edaf 4f3d 5b87 66ba 5265 4a3e 0a29 2f3e
000000f0: 6922 073f 7461 20be 173f 4a3e f89a 553e
00000100: b5f2 803e 2a49 073f 0399 2f3d 7abd a63e
00000110: 7590 443e d8e5 683e 4757 323f 7d2b a23e
00000120: 7e72 793e f6e0 f53d 5ee5 023d 6d7f e83d
00000130: 0b3b 113e 4e05 efbd 6c55 e7bc 300c b43d
00000140: 3445 003e 4587 14bc 2c54 b3bd 8ab0 0dbe
00000150: 3a32 b53d 8727 293e 969f 8f3d 2c6e 45be
00000160: 9ce9 07be b068 983d 5ebc 2fbd 97e6 50bd
00000170: bc34 5cbe 9db6 8e3b f5c6 703d 348b 97be
00000180: f24c 6dbe fc74 c2be d51c 95bd 4fc4 80ba
00000190: ab67 dbbe 342d b3bd a0c8 393e ffcb cc3d
000001a0: 9db0 a03d 8846 a2be 7fab 483d f617 b63c
000001b0: 6df7 903d 649d dd3d 1a0c c6bc 0ec8 b4bd
000001c0: 6160 e4ba e133 f2bc 4bb3 9a3d 4688 40bc
000001d0: ddac 01be fbf6 703d b97d 123d 57a7 883c
000001e0: 5f39 24ba 96ea 4ebe 9f88 013c e138 49be
000001f0: c912 1fbd ada4 973c abea 13bf 11dc e1bd
00000200: 255e 593e d13f 59bc 59e1 683d 71ea 6dbf
00000210: cd35 203e 4043 503d bae6 d4bd de7a 89be
00000220: 457e a2bf abe0 6d3d 9db6 e63c 546f 03be
00000230: 83c8 2cbf 5ea7 1bbf 13bc 3e3d 1cda 11be
00000240: 40b4 ebbd 0c6f 05bf 5988 823d 21a3 753d
00000250: 3f60 d8bd 4afd 303d 8079 333e e894 e33d
00000260: 390a bebd 3295 72bd 860e 4f3d 3733 573d
00000270: 3828 75be 4881 c9bd e04a 923c c91e 8cbc
00000280: 3a0a cebd 7637 babd bb20 d3bd 681b 0ebd
00000290: df89 69bd 7586 91be 3e7c f5bd 3ea5 71bd
000002a0: e5df e2bc 0673 013d 508f fabd 4eae 00bd
000002b0: b451 5dbd a99e 2c3d 5f9d d93d 349e 973d
000002c0: a3d2 d3bd e196 edbd ab72 dfbd 4d8b a0bd
000002d0: a430 bbbd f2df 15be f980 24be 8c5e d6bd
000002e0: e547 a23b c2b2 2cbe d41b 47be cd35 d6bd
000002f0: fdfc e1bc ecb7 3ebd 9348 e9bd 9c44 d5bd
00000300: 12a1 3ebd 1f7f 813d 5973 fbbb 5e26 f8bc
00000310: 7203 b73d 9a10 a03d a00c 5bbc eed8 12bc
00000320: 9fcb cb3e 187e ee3d 157b 823e d2e0 d33e
00000330: 6fb2 813e ade1 ad3e 49c0 d73e 60bc f23e
00000340: b601 813e bbc7 1e3d 3ffa 173f 707e 2c3f
00000350: 74a3 463e 04ec 253e 619e 483e 5b5a 4c3f
00000360: 3d91 d23e 5fac 3c3e 9d6b 5a3e 3f43 293d
00000370: 3861 823f 5124 8d3e e094 b93e 0f43 49bd
00000380: d793 1c3e 2d0b 9bbe 3acc b8be 0390 51bd
00000390: 8f18 ae3c e1de af3d f3fe aebe 4f12 cdbd
000003a0: 36d6 103e f51e aa3c 4240 b0bd a23a 3dbd
000003b0: 4c63 483e 91ff b93d fe84 6cbc 13a1 0cbd
000003c0: efca f63d 50dd 6a3d 4d91 02bd a59e 7b3c
000003d0: 8a52 7e3c 800f 8d3e 3cdc cbbd 7432 2ebc
000003e0: 00e7 8d3d 60bb b13d be0b 003e 9f16 69bd
000003f0: e8c4 80bd 2622 ab3d d83d 20bb 76d3 803d
0.03207263 -0.108357824 -0.050509673 -0.13150798 0.003764981 -0.12130577 -0.09384717 -0.14960437
-0.054259464 -0.094304286 -0.1755787 0.050217025 0.049431212 -0.15342416 -0.15772648 -0.0710304
0.034678128 -0.0007145424 -0.18792668 -0.18180795 0.07257085 0.18083605 0.14559725 -0.17739502
-0.11175123 -0.07473988 0.19740239 -0.16603246 -0.12400038 0.12468538 0.08554156 0.15397288
-0.042230092 -0.008870299 0.0757317 0.15402375 0.07829387 -0.07527104 -0.031905014 0.061742976
0.21411738 -0.034343973 -0.18613686 -0.042353187 -0.004110518 0.14565147 0.03676297 -0.15088889
-0.10749249 -0.11947685 0.45568752 0.3373689 -0.07762431 0.23519202 0.08031033 0.43701476
0.050704885 -0.0008793973 0.19765213 0.17105499 0.5278688 -0.15662175 0.1975063 0.20859897
0.2518517 0.52846014 0.042870533 0.32566434 0.19195731 0.22743928 0.69664425 0.31673804
0.24360082 0.120057985 0.031957023 0.113524295 0.1418268 -0.11670934 -0.028238975 0.08791387
0.12526399 -0.009065454 -0.08756289 -0.13836876 0.088474706 0.16518985 0.070128605 -0.19280308
-0.13272709 0.074418426 -0.04290425 -0.051001158 -0.21504492 0.0043552653 0.05878349 -0.2959839
-0.23173884 -0.37979877 -0.0728089 -0.000982413 -0.4285253 -0.08748856 0.18142939 0.09999847
0.07846186 -0.31694436 0.048991676 0.022228222 0.07078443 0.108210355 -0.024175692 -0.0882722
-0.0017423743 -0.029565753 0.07553729 -0.01175124 -0.12663598 0.05882929 0.03576443 0.016681356
-0.00062646525 -0.20206675 0.007906108 -0.19650604 -0.038836274 0.01851114 -0.5777995 -0.110283025
0.2122732 -0.013259844 0.056855533 -0.92935854 0.15645523 0.050845385 -0.1039557 -0.26851553
-1.2694784 0.05807559 0.028163249 -0.12835437 -0.67493457 -0.6080226 0.04656608 -0.14243358
-0.11508989 -0.5212257 0.063736625 0.059970025 -0.105652325 0.043210305 0.17526817 0.11112386
-0.092792936 -0.059224315 0.05055096 0.052539077 -0.23941123 -0.098391116 0.017857969 -0.017104523
-0.10060544 -0.090926096 -0.10308977 -0.034694105 -0.05701625 -0.28422895 -0.11986588 -0.058995478
-0.027694652 0.031603836 -0.12234366 -0.03141623 -0.054032996 0.042143498 0.10625719 0.07403222
-0.1034291 -0.116010435 -0.10910543 -0.078390695 -0.09140137 -0.1463621 -0.16064824 -0.10467252
0.004952418 -0.16865066 -0.1944421 -0.104594804 -0.027586455 -0.04656212 -0.113907956 -0.10413477
-0.046540327 0.063230745 -0.0076736626 -0.030291732 0.08936204 0.078156665 -0.013369709 -0.008962853
0.39803788 0.11645144 0.2548453 0.41382462 0.25331447 0.3396124 0.4213889 0.47409344
0.25196618 0.038764697 0.5936622 0.6738043 0.1939829 0.16203314 0.19591667 0.7982537
0.41126433 0.1842513 0.21330114 0.041323896 1.0185919 0.2756677 0.36246395 -0.049136218
0.15290771 -0.30281964 -0.36093313 -0.05116273 0.021251945 0.08587433 -0.34178886 -0.10013258
0.14144215 0.020766715 -0.08606006 -0.046198495 0.19569129 0.090819485 -0.014436005 -0.0343333
0.12050425 0.057339966 -0.03187685 0.015357648 0.0155226085 0.27550888 -0.09954116 -0.010632146
0.069288254 0.08678317 0.1250448 -0.05690634 -0.06287557 0.08356123 -0.0024450924 0.06290333

conv2.bias f4 [16]
00000000: 6402 0fbd ec67 f3bc 4789 153d f7ea 26bd
00000010: a70e 223d c96d 4ebc 40df 483e 4086 2cbd
00000020: ad29 543c 41e3 2bbe 13d3 a6bc 2ed3 d83c
00000030: 636e e23d 3474 60bd 967c 033e 9af0 703c
-0.03491439 -0.02971264 0.03650787 -0.040751424 0.039564755 -0.012599417 0.19616413 -0.04212022
0.012949389 -0.16785909 -0.02036432 0.026467886 0.11056211 -0.05479832 0.12840495 0.014705801

fc1.weight f4 [120, 400]
00000000: 4399 20be de03 233e c80d 10bc 24c5 44be
00000010: 73f3 31be 3577 debd 4186 713d 47ea 17bc
00000020: 9264 893c dd46 1bbd c647 b9bd 465f a9bd
00000030: 6f26 01be 6b5c 283d 5c47 783d ef25 9abe
00000040: 4db7 bbbd ff59 febd e8c5 36bc 122d 653d
00000050: dd10 81be 1524 93be 2715 debd e207 83bd
00000060: 8bee 32bb 572a aabd f05c 6d3c 408e d0bd
00000070: a513 6fbd 3f1b acbc 5b94 61bd 1256 d23d
00000080: 32eb 0bbd 9e96 803d 6565 ce3d 8d5a a63c
00000090: f599 5a3e 38df 9e3d facc e73d 9001 aa3d
000000a0: b9c1 813d 6260 133e 5666 133e b399 753d
000000b0: b1a2 ae3d 658c 0bbd feff 933e 229a a53e
000000c0: 3c25 823e 182a 973d b299 0fbe a147 0c3d
000000d0: 9def 453d c404 163e c9ce 0e3e a8db e7bd
000000e0: 1bb2 893d 12b3 efbc adee a33d 8054 833d
000000f0: a166 a6bc 8045 183e f263 27bd 1cf1 7a3d
00000100: dcc1 1a3e 8efe aa3d 83b3 adbc 411d 9cbc
00000110: ec2c 103d cf3e d53d 8981 023e 079a 843d
00000120: b368 16be 023e 573d 9255 9a3d bcf9 efbd
00000130: bcd4 893d 467f a33c 788b afbd 4f73 a63d
00000140: 9ccd 983d 8972 163d f7cb ce3d ee80 9d3c
00000150: 26ab 153e 08cd 263e ed2f c73d d5f1 1a3d
00000160: 624d 58bd 5552 b5bd 4e1e 993d a8a9 693d
00000170: 4fd3 1f3d 181c d4bd 3bba 51be d05d 553e
00000180: 3828 17bd 700b 84bd 2c54 48be c356 72be
00000190: d10e 983c 1822 64be 9ccc 40be 766c bd3c
000001a0: 1af8 b33c b20e 543d 126e 28be 1c1d 13be
000001b0: d735 043d 13d4 ba3d 9275 ab3b e53d ccbd
000001c0: 7cf8 4dbe 8da3 013b 8229 1c3d 25f0 c1bd
000001d0: 78d8 b2bd b24f d4bd 8cff 7f3d 004a 073e
000001e0: bb0b 76be 686b 04be 1dba 9a3d 1ae1 923d
000001f0: 953a e63d 5be3 883d 1957 8a3e 05d8 f53d
00000200: a24c 193e d732 a73d 79df 2a3d 99f9 573e
00000210: 9d79 a23d 1904 053b 3883 cb3d 0d23 f23c
00000220: 34d1 783e 8d92 f73d ebc5 3b3d 3ec9 35bc
00000230: 1992 adbb 38ad 693e da7f 293e 08cd 183d
00000240: 5a9d 5c3c 3cb0 a83d ab83 ab3e 164d a83e
00000250: bc6a 143e a49c edbc 24b6 db3c 6a3f 033e
00000260: 6aa6 5bbe 1b67 55be 47d2 e2bd 3cf0 f53c
00000270: 03a3 343e 8e53 0fbe f84a cebd 5ef4 c7bd
00000280: b0d2 a93d 2fd9 0e3e ae3a 38bd c51d 9bbd
00000290: dc79 853c d129 c23d 4561 063e 6804 f2bd
000002a0: 7e1d 16bd 99df 85bd f63f d33d 1f7b 743d
000002b0: 54c7 b5bd 7f4f 47bd 0b3e e7bd 43ac 113e
000002c0: d9e2 073e 49e0 903d 27b8 213e 7f2f a23d
000002d0: c9e9 a13e c366 cc3d eb4a 153e 1cad 0d3c
000002e0: f5d9 123e ff43 8b3e ec44 3f3e d2b0 2b3e
000002f0: 0f3e d43d dda6 983d 4000 20bd 4956 b73d
00000300: 0d9f 2c3c 6fd8 4cbd 7f70 ac3d 4031 8c3d
00000310: f130 6b3c 2d8f 0cbd 0c24 0dbd 6839 ffbd
00000320: e614 1c3d 8226 1d3d 6957 c9bd e296 bdbd
00000330: 9163 6fbe afb5 ce3d 4562 c9bc 3d4c 4cbc
00000340: d796 8a3c f00e ea39 3a58 5d3c 2dcf 8abd
00000350: ffe0 d1bc 5ee8 803d 08a9 553d 923c 85bd
00000360: bb93 b4bd 7b03 8fbd abc0 f23c a5c7 843d
00000370: 6928 76be c6b6 4ebe bac3 7bbd 5533 373d
00000380: eb61 cc3d b81a c23c 7aff 0aba dd95 53bd
00000390: 18aa 473d af73 e53d 3f3f 713c a950 b7bd
000003a0: 2b4b 74bd 0d5e 17bd fe5e a73d 3fb1 b2bc
000003b0: b3b7 d23c 5900 20bd ec36 1dbb 9494 2e3d
000003c0: 571c 9cbd 34e0 28bd add2 a9bc 72c2 143d
000003d0: 76b0 693e 915a b4bd 86cf 633d 3281 6e3d
000003e0: 28f6 cb3d a21e 3a3e ab9e 2fbd fb38 ee3c
000003f0: 7e69 fa3c 596a 9a3d 8b6e e63c 7ff0 2fbd
-0.15683465 0.15919444 -0.008792348 -0.19215828 -0.17378025 -0.10862581 0.058965925 -0.009272165
0.016771588 -0.037909377 -0.09046893 -0.08270125 -0.12612318 0.04110376 0.06061493 -0.30107066
-0.09165821 -0.12419509 -0.011155583 0.055951186 -0.25208178 -0.28738466 -0.10843878 -0.06397988
-0.0027302827 -0.08308857 0.01448749 -0.10183382 -0.058368344 -0.021009086 -0.055073123 0.10270323
-0.034159847 0.06278728 0.10077933 0.02030685 0.21347792 0.07757419 0.11318393 0.08301079
0.06335778 0.14392236 0.14394507 0.059961032 0.08527125 -0.034069438 0.28906244 0.32344157
0.25419033 0.073810756 -0.14023474 0.034248 0.048324216 0.14650255 0.1394607 -0.11321193
0.06723424 -0.029260192 0.08004508 0.064126015 -0.02031261 0.14870262 -0.0408668 0.061265096
0.15113014 0.08349334 -0.021203762 -0.019056918 0.03519909 0.104123704 0.12744726 0.06474691
-0.14688377 0.05254937 0.075358525 -0.11717555 0.06730029 0.01995815 -0.085715234 0.08127462
0.07461092 0.036730323 0.10097497 0.019226518 0.14616069 0.1628915 0.09725938 0.037828285
-0.052808173 -0.08853594 0.07476483 0.057046562 0.03901988 -0.10356921 -0.20481198 0.20836568
-0.03690359 -0.06447494 -0.19563359 -0.2366591 0.018561753 -0.2227863 -0.18828052 0.023123007
0.02196889 0.051771827 -0.16448238 -0.14366573 0.03227791 0.09122481 0.0052325213 -0.09972743
-0.2011432 0.0019781322 0.038125522 -0.09469632 -0.087326944 -0.10366763 0.062499568 0.13211823
-0.24027912 -0.12931597 0.075550295 0.07171841 0.112416424 0.066839896 0.27019575 0.12004093
0.1497064 0.08163994 0.041717026 0.21091308 0.07933352 0.0020296632 0.09937137 0.02955773
0.24298555 0.12088499 0.045843046 -0.011095343 -0.005296957 0.22819984 0.16552678 0.037304908
0.01346525 0.08236739 0.33498892 0.32871312 0.14493841 -0.029005356 0.02682025 0.1281716
-0.214502 -0.20840113 -0.110752635 0.03002178 0.17640309 -0.13996717 -0.10072893 -0.09763406
0.082921386 0.13950036 -0.044977836 -0.075740375 0.016293459 0.09480632 0.13123043 -0.11817247
-0.03664922 -0.065367885 0.10314934 0.05968773 -0.088759094 -0.048659798 -0.11291131 0.14225869
0.1327013 0.07074029 0.15792905 0.079192154 0.31623676 0.09980538 0.1457936 0.0086472295
0.14340957 0.27200314 0.18678635 0.1676667 0.10363399 0.07453702 -0.03906274 0.089520045
0.010535968 -0.050011095 0.084198944 0.06845331 0.01435493 -0.03431623 -0.034458205 -0.12462121
0.038105868 0.038366802 -0.09831125 -0.09257294 -0.23377825 0.10093247 -0.024582991 -0.0124693485
0.01691763 0.00044643087 0.013509804 -0.06777797 -0.025619982 0.062943205 0.052163154 -0.065056935
-0.0881724 -0.06983086 0.029632887 0.06483392 -0.24038853 -0.2018691 -0.061465956 0.04472669
0.09979614 0.023694381 -0.0005302351 -0.051656593 0.0487462 0.112037055 0.014724552 -0.089509316
-0.059642 -0.03695493 0.08172415 -0.021813033 0.02572236 -0.03906283 -0.0023989035 0.042622164
-0.07622593 -0.04122944 -0.02073034 0.03631825 0.22821221 -0.08806337 0.05561783 0.05822868
0.0995906 0.18175748 -0.042875927 0.029079905 0.03056788 0.075398155 0.028128883 -0.042953964

fc1.bias f4 [120]
00000000: 9287 e1bd c06a f93b ef43 6ebd 2859 933e
00000010: 1722 d4ba 5c43 f53d 7e59 57bd 5de2 85bd
00000020: a944 0ebc a9a3 833e e052 d53b 2e8c 38bd
00000030: 6096 a03d 13f0 813e 7417 9c3e ebe6 f3bd
00000040: b24d ed3d 7736 77bd bf35 013c 8178 15bd
00000050: 97dd 55bd 23fc 903e 40b2 863c f523 19bb
00000060: 9b18 adbb 963c 703e 9f20 60bd 79a6 4f3d
00000070: 992c 66be ba2c 5c3e b00a c23e d40e 91bc
00000080: d8a4 a1bd a12a 73bd 4d80 103e bfce 863e
00000090: 8344 a7bd 1b26 143d 7084 edbc e647 aabc
000000a0: 8753 273a c944 25bd e786 0f3c c4e4 073e
000000b0: 83ac 82bd dd7e f43d 619c 61bc 91c0 70bd
000000c0: bf72 65bc 46b6 243d 678c 8e3d 9974 7f3d
000000d0: 1366 9b3e 0e48 5abd ed40 333e 7311 12be
000000e0: 0127 e4bc 4814 963e a3c3 ffbd f76c e63d
000000f0: 08dd bf3d 790c 29bd 928d fa3d 5a95 c1bd
00000100: dd58 fa3c dc2e 8dbd b737 fe3c df60 3e3e
00000110: 6cb2 f13c 4688 b33b 9115 35bd e0e3 013d
00000120: 6f4d 0dbe 83fd 32bd 5421 e6bd 41a3 9bbd
00000130: 6ccb 293e 0d0f 383e 844a 4cbd 7edf b4bc
00000140: 3bd7 043e aab5 4e38 b34c 133b 3000 333c
00000150: 6e2e 203d c2dd 84bd 0bff 813e d988 d9bb
00000160: dede 86bd 8648 0cbe c0c6 d53c d0fc a1be
00000170: 74c9 58bd 803d edbb 955d 513e 60c9 f63c
00000180: faa3 d5bd 6067 663e 1a54 64bd fed2 213c
00000190: 69a4 1f3e 3862 933d 2bff abbc 6171 b53c
000001a0: 154b 1dbd 28cc 42bd 2417 943e e409 4bbd
000001b0: ae33 143e 2d4a 883e 0abe c23e 515c 76ba
000001c0: 22d1 57bd c381 d4bc 2070 663e 4fa5 353e
000001d0: f2e6 8f3d def4 0f3e 089d 203d cb90 40bd
-0.11012186 0.0076116025 -0.058170255 0.28778958 -0.0016184476 0.119757384 -0.05257558 -0.06537316
-0.008683362 0.257108 0.0065101236 -0.04505556 0.07841182 0.25378475 0.30486643 -0.119092785
0.11587085 -0.060354676 0.007886349 -0.036491875 -0.052213278 0.28317365 0.016442418 -0.002336738
-0.005282474 0.23460612 -0.05471861 0.05069587 -0.2247795 0.21501437 0.3789878 -0.017707266
-0.078927696 -0.059366826 0.14111443 0.2632961 -0.081673644 0.036169153 -0.028993815 -0.020786237
0.0006382991 -0.0403488 0.008760191 0.13270861 -0.0638056 0.1193826 -0.013770194 -0.058777396
-0.014004408 0.040212892 0.06960373 0.062367056 0.30351314 -0.053291373 0.17505236 -0.14264469
-0.02785063 0.29312348 -0.124884866 0.11251252 0.0936833 -0.04127166 0.12234034 -0.09452315
0.030559951 -0.06893703 0.031032426 0.18591641 0.029504023 0.0054788915 -0.04421002 0.03171146
-0.1379907 -0.0436988 -0.112368256 -0.075994976 0.16581506 0.17974491 -0.04987575 -0.022079226
0.12972729 4.9283415e-05 0.0022476136 0.010925338 0.03910678 -0.064876094 0.25389895 -0.006638628
-0.06585477 -0.1369954 0.026095748 -0.31638193 -0.052926496 -0.0072399974 0.20445855 0.03012532
-0.10431667 0.22500372 -0.055744268 0.009876965 0.15590061 0.07196468 -0.020995697 0.02214879
-0.038401682 -0.04755798 0.28923905 -0.04956998 0.14472839 0.26619092 0.38035613 -0.00093979115
-0.05268968 -0.025940781 0.2250371 0.17738841 0.07026471 0.14058253 0.039212257 -0.047013085

fc2.weight f4 [84, 120]
00000000: f691 e6bc 60d6 84bb 58cb 07bc 3ab7 2b3d
00000010: dc7e f43c 9b25 a0bd 5eec 83bd 4d02 ccbb
00000020: 70a8 643d c874 ccbd 7e1d 093d 0be0 26bd
00000030: 4bc4 02bd 2bcb d4bc aa0d 173d ecee 203d
00000040: 1779 debd d659 a5bd fce3 d73c a62b 953d
00000050: 1009 243d 038c abbd 987f 103c bdd7 d5bd
00000060: 7af0 9b3d 56ed 8ebd 70d6 cebb 0046 2ab9
00000070: a223 88bd 1ba7 f9bc 5836 b83c 9c4f 903c
00000080: a04f 2d3c 9486 b73d 9cdf 03bd c8f7 f5bd
00000090: dcb8 c9bd d73c 3d3b 2a47 87bd 98a6 3c3d
000000a0: 31f2 59bd 2347 90bd b0ef 6b3c b00f 8e3d
000000b0: a45a a8bd f00e 983c 1c2b 1abe 9ca2 96bc
000000c0: b000 d4bc fe2f d9bd ad73 e7bd bced 44bd
000000d0: baa1 e4bd 0028 743a 4c80 dfbd a609 57bd
000000e0: 7282 3abd dbfc 21bd d996 80bd 9918 8c3c
000000f0: 6f93 1ebc d097 9dbd 90e5 7dbc e1a4 cdbd
00000100: c73d bf3b b0f3 a2bc f749 26bd 0401 faba
00000110: ad0e 8d3c 5023 15bc 3c38 ddbc 7e6c b03d
00000120: 948b e9bc 54fd 883c a4c8 04bd 5ce4 dabd
00000130: 3beb 983c 8096 9abd 0323 2c3c b415 363d
00000140: f312 55ba 8aa2 98bd b644 833d aef2 5f3d
00000150: ead6 07bd f2f8 b0bd 52ac 10bd 00ef 00ba
00000160: 85c9 b7bd a050 b9bb 9828 88bd cc56 a7bd
00000170: a8e2 723d 937f 653c 63c2 b7bd 0ab1 563d
00000180: 686f b0bb cae4 36bd f024 383c f475 9abd
00000190: eaa1 9abd 1413 60bd dc40 0abd f5fa b2bc
000001a0: c0e1 1e3b 0773 f8bc d987 b03c e0f3 cebd
000001b0: 9078 49bc 8080 bdbd 938e 18be 50ac aa3c
000001c0: 0a0c 853d e01d fd3c 1af1 92bd 2374 5cbb
000001d0: 11b8 aabd 6451 9cbd 49ca 243d d19d 2bbd
000001e0: 9488 113a f108 f4bc e8a6 f4ba 77aa af3d
000001f0: fd05 51bd adc8 29be fab0 763e a26b 3d3c
00000200: 143d a33c d8a9 84be 30e0 abbd 97db 4cbd
00000210: b3e5 483d b6d8 e0be 058a c9bd ed9d 50be
00000220: e88f 82be fc42 65bd f1ca 253d 2cb6 053d
00000230: f6ac b73c fd56 3b3e 4e2a 363e f6d9 4f3e
00000240: 454e 90bd 5c8f e6bd 6e2e a63d 3f23 1ebd
00000250: e16b d63d a436 783d 6146 db3e 230c 0ebd
00000260: c144 bdbd 11a0 143c f252 953e 4049 633d
00000270: 51db 19bc 85d3 c73e 5f7c 65bc 073d a4bd
00000280: ef40 1dbd 0d6a 3bbe 4ce8 d1bd dd0c e7bd
00000290: 5082 8bbe 0743 4cbe 3062 1d3e 6cec bebc
000002a0: 12b9 993e 5cfa 903e 17fc 59be 93a3 273d
000002b0: 501e 7f3e 7dae b53d 5d84 ccbd 49ea 3e3e
000002c0: 40de 833d 03f8 9ebc 8a26 8e3d b231 2ebe
000002d0: eaa5 2e3e e218 16be a5fb ba3e e6ca bd3e
000002e0: 4134 983d caa6 ed3c 8e2a 243d 5ae9 6fbe
000002f0: 874b 043f b4d9 593d 5a90 40bd 6c57 9fbd
00000300: 9e98 223d 4faf 9fbd da97 ed3d 01c2 5b3e
00000310: f69d 513e 32a9 3f3e d48c 303d d014 99bd
00000320: 0746 f33c 6594 d33d 7897 eebc af8a 953d
00000330: eb78 63be 0c27 87bd 4705 a03e 4fb0 b3bd
00000340: 472c 2a3e d5c2 fa3d 7959 153e 0bdd 853d
00000350: bc15 153d d8b2 873e 8dee 95bd e7aa 53be
00000360: 602f d23e 0599 aa3b 018c ccbd 6d72 5dbd
00000370: ea58 e5bd 8933 133d e460 1b3d 9515 c83d
00000380: 8545 2c3d bcc5 643d 07ad f9bd 2e4b 213e
00000390: b975 8fbd 71b9 553d 2723 593d 238b da3d
000003a0: 6cae cf3d fbf7 8b3c abb9 333e 34b1 da3d
000003b0: 4e56 923d a297 92be 0de9 50be d7a6 6f3c
000003c0: 31a2 2f3c 10bc 4f3d 490a 8ebd b01f f1bd
000003d0: e41b b8bd bdb5 b33d 76d3 85be 86b1 89bd
000003e0: c145 843d 9799 82be 902e 7bba 8481 ba3c
000003f0: 6d4d ae3d 5d07 de3d 4467 1d3e b6d5 ad3e
-0.028145771 -0.004053876 -0.008288227 0.041922785 0.029845648 -0.07819673 -0.06441568 -0.00622586
0.055824697 -0.09983212 0.03347539 -0.040741008 -0.03192548 -0.025975784 0.036878265 0.039290354
-0.1086294 -0.080737755 0.026353829 0.07283716 0.040047705 -0.083763145 0.008819483 -0.104415394
0.07614227 -0.06978862 -0.006312184 -0.0001623854 -0.066474214 -0.03047519 0.02248685 0.017616086
0.010578066 0.089612156 -0.032195672 -0.12010151 -0.09849712 0.0028875375 -0.0660537 0.046057314
-0.053209487 -0.07044818 0.014400408 0.06936586 -0.08220413 0.01856181 -0.15055507 -0.018388085
-0.025879234 -0.10604857 -0.1130136 -0.048078284 -0.111636594 0.0009313822 -0.109131426 -0.052499436
-0.04553456 -0.039547782 -0.06278772 0.017101573 -0.009678706 -0.076949716 -0.0154966265 -0.10041214
0.005836222 -0.01989159 -0.040597882 -0.0019073789 0.017218912 -0.009102657 -0.027004354 0.08614443
-0.028508939 0.016722359 -0.03241791 -0.10688087 0.018666854 -0.07548237 0.010506394 0.04445429
-0.0008128129 -0.07452877 0.0640959 0.054674797 -0.033163942 -0.086412326 -0.035320587 -0.0004918426
-0.08973984 -0.005655363 -0.06648368 -0.08170852 0.059298187 0.014007467 -0.08972623 0.05241493
-0.0053843744 -0.044651784 0.011239275 -0.07542029 -0.07550414 -0.054705694 -0.03375326 -0.021848181
0.0024243444 -0.030328287 0.021549152 -0.10105109 -0.012296811 -0.09253025 -0.14898138 0.020834118
0.06496437 0.030898035 -0.07174893 -0.0033638559 -0.08335889 -0.076327115 0.040231977 -0.041898552
0.0005551663 -0.02978942 -0.0018665465 0.085774355 -0.0510311 -0.16580458 0.24090949 0.011561306
0.019926585 -0.2591083 -0.0839237 -0.050014105 0.049047183 -0.43915337 -0.09840778 -0.20372744
-0.25500417 -0.055972084 0.040476743 0.032644436 0.022421341 0.18294902 0.17789575 0.20297989
-0.07046179 -0.112578124 0.081143245 -0.038607832 0.10469795 0.060598984 0.42827132 -0.034679543
-0.092416294 0.009071366 0.29164845 0.05548978 -0.009390668 0.39028564 -0.014006703 -0.080194525
-0.038392004 -0.18302174 -0.10249385 -0.1128175 -0.27247858 -0.19947444 0.15369487 -0.023306094
0.3002401 0.2831601 -0.21287571 0.04092748 0.24913907 0.088711716 -0.09986184 0.1864406
0.06438875 -0.01940537 0.069409445 -0.17011145 0.17055479 -0.1465793 0.36520115 0.37068862
0.07431842 0.029010195 0.040079646 -0.2342886 0.51677746 0.053186134 -0.047012664 -0.07780346
0.03969633 -0.07797109 0.11601229 0.21460725 0.20470414 0.18716887 0.043103054 -0.07474673
0.029696478 0.103310384 -0.02912496 0.073018424 -0.22214095 -0.065992445 0.31254026 -0.087738626
0.16618453 0.122441925 0.14584912 0.06536301 0.03639768 0.26503634 -0.073208906 -0.20670663
0.4105177 0.0052062296 -0.09987641 -0.054064203 -0.111986 0.03593782 0.0379342 0.097697414
0.042058486 0.055852637 -0.121912055 0.15751335 -0.07004876 0.052178804 0.05301204 0.106710695
0.1014069 0.01708602 0.17551295 0.1067833 0.071453676 -0.28631312 -0.20401402 0.01462718
0.010719822 0.05071646 -0.069355555 -0.11773622 -0.08989695 0.08774898 -0.26137894 -0.06723313
0.06458617 -0.25507805 -0.00095818285 0.022766836 0.085108615 0.10841248 0.15371424 0.3395211

fc2.bias f4 [84]
00000000: 6917 23be 8a20 043e 6914 123e 128b 65bc
00000010: e324 31bd 2eb0 d93d 7867 4d3e aad1 ca3c
00000020: 9061 df3d 831a babd 240a 233d 1bea 3f3c
00000030: acdb a5bd 4aea 413e 8935 403d f5e5 95bc
00000040: 009a 883e 0bf9 593e 8292 5e3e 2d5c 973e
00000050: 6fad bb3e bad0 af3c 3bc1 013e 2249 8f3e
00000060: caff 043e 6972 21bd d05b 69be c241 af3d
00000070: b4cd a0bd a124 133e 7ccd 383e fc7e 0d3e
00000080: be36 6a3e a189 56bd df53 0a3e 41ce be3e
00000090: 82cd f83d 613d 283e 090f 1a3e f300 ae3e
000000a0: 3f7d 9a3c 18be 6e3e c4c9 80bd 1232 83bd
000000b0: 6f29 12bc cb1b d5bd 8410 8ebc 2984 8ebc
000000c0: cf2a 20be 74cf ab3e e29b 7fbd 1b00 cebd
000000d0: c9a4 8f3e 91d5 ab3d 4982 e5bb f097 4ebd
000000e0: d898 58bd 525b 793d e1ef edbd 790a 11be
000000f0: c4f3 6d3e f471 86bd 16bc 933d 75ba 4cbd
00000100: cec1 ebbd d226 85bc c573 553e 42d4 423e
00000110: ad91 663c 606a 1c3f 8e06 1f3d 76e4 853e
00000120: 9978 6c3d a45a b23e 0f5b 463d 25c4 da3d
00000130: c243 ffbc 6c32 a6bd a79a 06be bdbf aebd
00000140: c94a 003e 5567 fcbd a3b0 c03e fabd ebbd
-0.15926899 0.12903038 0.14265598 -0.014010208 -0.04324807 0.10629307 0.20059001 0.024758179
0.109072804 -0.09087088 0.039804593 0.01171353 -0.0809854 0.1893703 0.046926055 -0.018298129
0.26679993 0.21286409 0.21735576 0.29562512 0.36655757 0.021461833 0.12671368 0.27985483
0.12988201 -0.03941575 -0.2278893 0.08557464 -0.07851735 0.14369442 0.18047136 0.13817972
0.22872445 -0.052377347 0.13508557 0.37266734 0.121485725 0.16429664 0.15044798 0.339851
0.01885855 0.23314703 -0.06288484 -0.064060345 -0.008921011 -0.10405692 -0.01734186 -0.017397003
-0.1564133 0.33556712 -0.06240452 -0.10058614 0.2805541 0.08390344 -0.0070040566 -0.050437868
-0.05288014 0.060878105 -0.11618019 -0.14164151 0.2323752 -0.065647036 0.07213609 -0.049982507
-0.11511575 -0.016253863 0.20844944 0.19026282 0.014072818 0.61099815 0.03882461 0.26150864
0.0577322 0.34834778 0.048426684 0.10681943 -0.03116024 -0.08115086 -0.13144933 -0.08532665
0.12528528 -0.123243965 0.37634763 -0.115108445

fc3.weight f4 [9, 84]
00000000: cdfa bdbd d0fa ea3d 6f48 e6bd 59df 9cbd
00000010: a9a6 a93c 68e5 60bf 6b87 6a3d 3226 debe
00000020: 492c cf3d 3605 73bc 4382 57be 6415 623e
00000030: a494 0cbf eb47 52bf a160 bbbd a1a1 40bd
00000040: 3723 c83d 2885 eabe 82d2 a93d 8ee7 a23c
00000050: 5ee2 21bf 3a15 24bf 411f 1a3f dc03 17bf
00000060: 790a 41bd 15b1 ef3c abf2 d3bd e313 65bd
00000070: de0f 6cbe d8f1 eebe 50a7 c2bd b4e1 a83d
00000080: 6124 e13d c640 89be d116 343f 8492 253e
00000090: c650 943e fa71 14bf c050 bc3d 08dc 28bf
000000a0: 158d 17bd 4f45 1d3e 6713 b8be 6165 ad3d
000000b0: 77eb 20be 9087 1abe c495 37bc 4070 2fbf
000000c0: ec97 c2bd f189 36bf 7cf5 6bbf cf34 b6bd
000000d0: bee8 fbbd d9df 3e3d 28d4 c0bd 3a55 f93c
000000e0: 6e0a 30be b1ba a43e e8b2 cdbd c4da a1bd
000000f0: e86e 0c3f 50c7 2bbd 5959 c3be e122 7d3e
00000100: 2a3a af3d 373e 58bf 655e 0a3f 5b6e 253e
00000110: 67ab e2be bc14 c53e 81f6 b03d 5cf5 c63c
00000120: dfe4 f3be 2c93 783d cde5 0cbf 5429 34bf
00000130: f53b 7c3e 8b73 b23c 14bf fe3b 220a 50bd
00000140: 8cd5 a2bd 81e4 20be 71dc 8e3d fcf4 bbbe
00000150: bb7b c0bb 5784 58be 5806 be3c f70f 3c3d
00000160: bea5 d93c 0472 39be c271 113e 86ea 4abe
00000170: 56a0 96be 844b 333d 272e bd3d 6b39 d33e
00000180: 108e 253e 490d 383d a508 e9bc 1ff6 5abd
00000190: 0ab7 893e 80a5 53bd d5d9 273e 85bb dabd
000001a0: c70a 47bd 7466 82be 5c81 d4be f7cd 5dbe
000001b0: c4b6 93bd 1daa 543d f623 9c3d 8e18 5e3e
000001c0: efd5 863c c117 053e b76d a8be eb74 0cbf
000001d0: 8f32 c93d e8e9 ff3d 2bb7 1dbf 878e 6bbe
000001e0: 7e11 c9be d3eb acbe 111a e6bd d12f 3bbe
000001f0: e586 f53c a4d3 ed3e 2a02 df3e 6b90 973d
00000200: 1406 2dbe 1ceb 89be b864 143d ef28 2b3e
00000210: 7a71 633e de1e e93d a9d2 8cbe f837 acbc
00000220: ba21 d13d 983f 9c3b bf9a 803e d801 d33b
00000230: 12bd 8e3d d6b8 8d3e 30d7 6ebd 3b6e 853e
00000240: 00e7 5ebf bf92 bb3d b848 533c d6be dabe
00000250: 5b1c 28be f8c5 b2be 939d 3fbf 7aeb e3be
00000260: 7ff1 153d 3b1d cf3c 75f3 cfbe f02f 003e
00000270: 281a ac3e b2bf db3e 8cd2 173e d003 a538
00000280: 794f 123e cd52 963e bf1a a03d ad72 e93c
00000290: 1c6b abbd 8541 063d 5968 fabe bd18 163e
000002a0: 578e 4dbd f38e 86be 759b cc3e d296 42bd
000002b0: dc3e 6ebd b14a d33d fd7a 013e 610a bc3e
000002c0: d7b4 5e3e 8b18 7dbe 41d7 f6be 7af0 0fbe
000002d0: e97d f93d 20a6 083e a519 8abc 19cb 3d3d
000002e0: 4638 883d bf50 f33c 33ed 6e3e 2fe9 473e
000002f0: 758f 1f3e 9e71 083e 305b eb3d 7683 4b3b
00000300: f0d1 6a3d aa0d 35be 84d2 123e fa20 f2bd
00000310: 5846 3abe 969f 383a cb17 a73e c359 1ebf
00000320: 459b 97be 72fa 223b 5746 363e c5bc 2a3e
00000330: 51db c8bd e601 8d3e 337f e9be bbc4 4f3e
00000340: 76d3 8e3d cb91 153e 87ab 3f3e 0e0a dfbc
00000350: 78dc 383d 9368 2a3e a3d4 783e 9192 aabe
00000360: d615 50be 3da9 483e 0d18 9fbe 194b 63bd
00000370: 2d13 343d 0cc4 debe 0b90 4e3d 499d c83d
00000380: 4df4 74bd a69b 7dbd a64f 86bc c18c a7be
00000390: 57fa 12bd 9fbd 463d eb07 963e 280f edbd
000003a0: 7901 d6be 1118 9a3e c379 ec3d 6d82 023d
000003b0: 835f 913d 86a1 183e 38ce 0dbe e4c4 1bbd
000003c0: 3049 cb3c ab78 70be 5a6e 34be 20a1 9e3d
000003d0: 8a3d 83be bf08 c23d 87ea b2bd abf6 8dbd
000003e0: 805f acbe 04f4 47be f85d 3d3e e699 fbbc
000003f0: 81d8 433c 5424 8ebe 1a96 cbbe 5e3d 733d
-0.09276352 0.1147362 -0.11244284 -0.07659788 0.020709353 -0.87850046 0.05725805 -0.43388516
0.101158686 -0.014832785 -0.21045785 0.22078472 -0.5491431 -0.8214099 -0.0914929 -0.04702914
0.09772342 -0.45804715 0.08292104 0.019885805 -0.63236034 -0.6409489 0.6020394 -0.58990264
-0.047129128 0.029259244 -0.103490196 -0.05592717 -0.23052928 -0.46668887 -0.095045686 0.082461745
0.10993267 -0.2680723 0.70347315 0.16169173 0.28967875 -0.57986414 0.09195089 -0.6596074
-0.03699978 0.1535847 -0.35952303 0.08466602 -0.15714823 -0.15090775 -0.0112051405 -0.68530655
-0.09501633 -0.7130423 -0.92171454 -0.08896791 -0.123002514 0.046600197 -0.094154656 0.030436147
-0.17191479 0.32173684 -0.10043889 -0.07903054 0.5485673 -0.041938126 -0.38154104 0.24720336
0.08556016 -0.8446993 0.54050285 0.16155379 -0.44271395 0.38492382 0.08640767 0.024286918
-0.47635552 0.06068723 -0.5503815 -0.7037556 0.24632247 0.02178361 0.007774243 -0.050790913
-0.07950887 -0.15712167 0.069756396 -0.36710346 -0.005874125 -0.21144234 0.023196384 0.045913663
0.02656829 -0.181099 0.14203551 -0.19816026 -0.29419202 0.04377319 0.092373185 0.41254744
0.16167474 0.044934545 -0.028446505 -0.053457376 0.2689746 -0.051671505 0.1639169 -0.10680298
-0.048594262 -0.2546879 -0.41504943 -0.216606 -0.07212594 0.051920045 0.076240465 0.21689054
0.016459433 0.12997343 -0.32896206 -0.548659 0.098240964 0.12495786 -0.6160762 -0.23003589
-0.39271158 -0.3377367 -0.112354405 -0.1827996 0.02997155 0.4645053 0.4355634 0.074005924
-0.1689685 -0.26937187 0.036228865 0.16714834 0.22211257 0.113828406 -0.2750447 -0.021022782
0.10211511 0.004768323 0.25118062 0.006439429 0.06969656 0.2768008 -0.058310688 0.26060662
-0.8707123 0.09158849 0.0128957555 -0.4272372 -0.16417067 -0.34916663 -0.74849814 -0.44515592
0.03660726 0.025282493 -0.4061543 0.12518287 0.33613706 0.4291969 0.14826411 7.868523e-05
0.14288129 0.29360047 0.078176014 0.028497064 -0.08370039 0.032777328 -0.48907736 0.14657874
-0.050184574 -0.26280937 0.39962354 -0.047507115 -0.058165416 0.10316981 0.12644573 0.36726668
0.21748672 -0.24716394 -0.482111 -0.14056578 0.121822186 0.13344622 -0.016857931 0.046336267
0.06651358 0.029701589 0.23332672 0.19522546 0.15582068 0.13324592 0.11492002 0.0031053699
0.05732912 -0.17680994 0.14338118 -0.11822696 -0.18190897 0.0007042823 0.3263534 -0.61855716
-0.2961065 0.0024868515 0.1780027 0.16673572 -0.09807456 0.2754051 -0.45604858 0.2028989
0.06973927 0.14606397 0.18717776 -0.027226474 0.04513213 0.16641454 0.24299864 -0.33314946
-0.2032083 0.1959581 -0.31073037 -0.05549154 0.0439636 -0.43508947 0.05043034 0.09795625
-0.059803296 -0.061916016 -0.016395401 -0.32724574 -0.035883274 0.04852068 0.29302916 -0.115751565
-0.41798 0.30096486 0.11546662 0.031862665 0.070982955 0.14905366 -0.13848197 -0.038029566
0.024815172 -0.23483531 -0.17620221 0.07745576 -0.25632888 0.094743244 -0.08736139 -0.06931814
-0.3366661 -0.19526678 0.18492877 -0.030713033 0.011953474 -0.2776209 -0.39762956 0.059384696

fc3.bias f4 [9]
00000000: 2538 e63d 9b74 06be f1d9 d7bd 7ede 1a3e
00000010: e16f 1cbd 753d 8ebc 54da 3c3e cd8c 6fbe
00000020: 6331 45be
0.112411775 -0.13130419 -0.10539616 0.15123937 -0.038192634 -0.01736329 0.1844266 -0.23393555
-0.19257121
