output_visualizations/base_tsk[x]_agm[geo]_spl[S2]_mdl[lenet]_ls[BCE]_tu[none]/model.pt (torch, 246727 bytes, 9 tensors)

conv1.weight f4 [6, 1, 5, 5]
000000 50 a0 37 3e 6f b1 52 3e 82 cb 9a bd a6 aa b2 3d
       0.17932248 0.20575498 -0.07558347 0.08723955
000010 dc e8 4c be 72 5e 07 3d 80 5e 35 bd 40 f4 12 3e
       -0.20010704 0.033049054 -0.044279575 0.14350986
000020 2d ee ef 3d f0 50 95 be 64 59 c5 3d 42 0d 29 3d
       0.1171535 -0.29163313 0.096361905 0.04127241
000030 8a a9 2d 3e 34 18 6d bc fe 72 a3 bc e4 ac 0b be
       0.16959205 -0.0144711025 -0.019952293 -0.13640171
000040 e0 98 f0 3d 25 97 20 3d a5 5c dc bd 2d 66 82 bc
       0.117479086 0.039206643 -0.10759858 -0.015917862
000050 6c b0 5c be b1 0b d6 bd d5 52 d0 bd 49 7f 16 3e
       -0.21551675 -0.10451449 -0.10172049 0.14696993
000060 24 dc 39 be d1 11 ca bd 0c 80 a3 bd d2 fe 44 be
       -0.18150383 -0.098666795 -0.079834074 -0.19237831
000070 f5 f5 58 bd 11 6c 78 be 06 28 51 3e 0b dc 0b be
       -0.052968938 -0.24259974 0.20425424 -0.13658158
000080 5f 2f 0f 3e bb d3 96 bc fa 87 f1 bd cc ca 05 3e
       0.13982914 -0.018411508 -0.117935136 0.13065642
000090 dc 24 e4 3d f6 21 60 3e 28 1c d5 3b f6 8b f7 bd
       0.11139843 0.21887955 0.0065036006 -0.12087242
0000a0 6c c9 75 3c a0 b4 06 3d 6b 51 3d 3e 22 b8 50 3e
       0.015001636 0.0328871 0.1848809 0.20382741
0000b0 2d a7 88 3d 54 59 13 be 1d c0 40 3e 57 28 08 3e
       0.06672511 -0.14389545 0.18823285 0.13296638
0000c0 1d 7c 1b 3e 22 a5 0f be b3 e0 7f be f9 7a ef bd
       0.15184064 -0.14027837 -0.2498806 -0.11693377
0000d0 d0 10 21 be 64 44 46 3e e4 43 c1 3d d4 ec a2 3c
       -0.1572907 0.19362026 0.09436777 0.01988832
0000e0 03 3f 87 3c af 17 97 bc c9 a3 1e 3e 17 5b 17 be
       0.016509539 -0.01844391 0.15492167 -0.14780842
0000f0 aa 1d 3a bb cd 30 09 be c3 a5 8d 3d 42 3b 95 bd
       -0.0028399029 -0.13397522 0.06916382 -0.07286693
000100 2b 76 3e 3d 02 5d 55 bc 58 ad 51 3e ea b9 c6 bd
       0.046499413 -0.013022663 0.20476282 -0.09703429
000110 bf 4d 07 be 87 72 0d be f2 fc 48 3e 22 9c ba 3d
       -0.13213252 -0.1381322 0.19627741 0.09111811
000120 26 88 3c 3e 61 ad 53 be 9e 4d 78 be 11 6c 33 be
       0.18411312 -0.20671608 -0.24248359 -0.17521693
000130 e3 74 25 be c8 0f 98 3d a1 41 be 3d aa 60 46 3e
       -0.1615787 0.07424885 0.092898615 0.19372812
000140 89 a6 e5 bd 79 e1 17 be c4 4c e5 3d 51 f8 55 bd
       -0.11213405 -0.14832105 0.111962825 -0.052238766
000150 55 97 1c 3e b5 bf 36 bd 6f cc f7 3d 0b fa 10 be
       0.15292104 -0.04461642 0.120995395 -0.14157884
000160 e0 16 aa bd 54 b4 95 3d 0d dc 50 3d f8 d3 11 bd
       -0.08305144 0.073097855 0.050991107 -0.03560254
000170 80 f7 00 3e e8 a3 04 3e dd 87 24 be 6a d9 7c bd
       0.12594414 0.1295315 -0.16067453 -0.06173078
000180 20 cc 6c 3e 6d ee 0f bd f9 85 80 bd 02 84 47 be
       0.23124743 -0.03513949 -0.06275553 -0.1948395
000190 34 4c 81 be d6 a2 b8 bd 4b ea 15 be 66 fc 72 be
       -0.2525345 -0.090154335 -0.14640157 -0.23729095
0001a0 15 81 d6 bd cf 0a 7b be d0 7b 97 be 97 07 64 be
       -0.10473839 -0.24515842 -0.2958665 -0.2226852
0001b0 36 df 8c be 8d fb 58 be d3 8b fa 3d 75 35 5d bd
       -0.27514046 -0.21189709 0.122337006 -0.05400606
0001c0 29 ce 09 bd fa 6b 85 be 31 d0 2c be 46 12 12 be
       -0.033643875 -0.26058942 -0.16876294 -0.14264783
0001d0 2a 25 72 bd 6d 53 83 be 46 54 3c be 2e dc 40 be
       -0.059117474 -0.25649586 -0.18391523 -0.18833992
0001e0 f0 a7 b5 bd 79 a0 34 be df 42 ee bd 98 94 87 be
       -0.08869922 -0.1763934 -0.116338484 -0.26480556
0001f0 f1 d7 85 be 9b f3 24 be 88 2a 95 bd 05 9b 0f be
       -0.26141313 -0.16108553 -0.07283503 -0.14023979
000200 d6 30 33 3e e1 65 3a be 73 b8 3d 3e e5 94 ed 3d
       0.17499098 -0.18202926 0.18527393 0.11600665
000210 c9 b9 e5 bd 58 3e 37 3e 00 79 0a be 15 7e d5 bd
       -0.11217076 0.17894876 -0.1352272 -0.10424439
000220 59 aa 1e be 48 8f 42 be e9 59 8e 3d a5 7b 0c be
       -0.1549467 -0.1899997 0.06950743 -0.13719042
000230 bb 51 a2 3d 4a 54 1d be f9 c8 24 3e 91 62 d2 bd
       0.07925745 -0.15364185 0.1609229 -0.10272706
000240 f9 15 8e bd c7 fa 0a 3e 28 3a 2f 3e aa 17 68 3e
       -0.06937785 0.13572226 0.17112029 0.22665277
000250 09 ca 9d 3e 1b 2a b0 bd
       0.30818203 -0.08601781

conv1.bias f4 [6]
000000 29 f7 ae bb 0a 5e 18 be 05 c5 cb bc 05 a5 ff bd
       -0.0053395224 -0.14879623 -0.02487422 -0.12482647
000010 ba 96 16 3e 77 33 b3 bd
       0.14705935 -0.087500505

conv2.weight f4 [16, 6, 5, 5]
000000 7f ca 14 3d 38 f7 99 3a 8f 2d f8 ba 7f ba 89 bd
       0.036325928 0.001174665 -0.0018934476 -0.067250244
000010 b7 ef 93 3d 33 64 1c 3d ed c8 81 3c 68 11 a2 bd
       0.07223456 0.038181495 0.01584288 -0.07913476
000020 23 af fb 3c c8 7b e5 bb 29 bc 9d bb c3 27 df 3d
       0.03072316 -0.0070032813 -0.00481369 0.10896256
000030 2f 95 02 3d f3 15 52 bd f9 3a 4d bd 30 8c 34 3c
       0.031880554 -0.051290464 -0.05010507 0.011019751
000040 7c 73 af 3d 19 a5 a3 ba 9f a4 95 bd 3b bb 81 bd
       0.08566949 -0.0012485116 -0.073067896 -0.063345395
000050 e8 9b 8c bd f2 38 38 3d b3 cf 9b 3d 5d 54 d5 bd
       -0.06865674 0.044976182 0.07607975 -0.10416482
000060 b7 1d 88 bc 02 44 dd 3d f7 df fa bb 1c 8c 01 be
       -0.016615732 0.10803987 -0.007656093 -0.12651104
000070 ed 56 b4 bd df 1d 0d 3b 9d 49 4c 3e c3 f0 0e 3e
       -0.08805642 0.0021532697 0.19949956 0.13959031
000080 a8 f0 43 bc 5e c3 26 be 72 d2 1c be bf 6f 9f 3d
       -0.011959232 -0.16285464 -0.15314654 0.07784986
000090 c3 eb 7a 3e 45 6d 1c 3e 7b 27 44 be bc b0 70 be
       0.24503998 0.15276058 -0.19155686 -0.23504919
0000a0 1c a7 e9 bc 84 9b 17 3e 1c 34 2c 3e 6e ba 34 bd
       -0.028522067 0.14805418 0.16816753 -0.044123106
0000b0 d3 86 4c be 9d 89 21 be f4 97 97 3d c4 dd 10 3e
       -0.19973306 -0.15775152 0.0740203 0.14147097
0000c0 8a 1d 73 3c 17 a5 9f bd 2b 92 11 bd 61 81 ba 3c
       0.014838586 -0.0779516 -0.035539787 0.02276677
0000d0 17 8f 57 3a 07 76 3b 3d 3b 70 0f 3e be fd 0b 3e
       0.0008222921 0.045766857 0.14007656 0.13671014
0000e0 1e fd 02 3e b7 89 1e 3e 7d b2 18 3e 82 03 0e 3e
       0.12791869 0.15482222 0.14911838 0.13868526
0000f0 06 bd 1d 3e 1c 1c 47 3e dc 84 a9 3e a1 36 38 3e
       0.15404138 0.19444317 0.33109176 0.1798959
000100 87 b0 8c 3c 0c b0 76 3e ce 65 0b 3e 68 5e 65 3e
       0.017174019 0.24090594 0.13613054 0.22399294
000110 cf a8 cf 3d e7 3f 72 3e 90 94 60 3e fd f9 0b 3e
       0.101396196 0.2365719 0.21931672 0.13669582
000120 5c c7 2c 3d fd e9 ab 3d b5 5f 6e 3e 14 3e fe bc
       0.04218231 0.08394239 0.23278697 -0.03103546
000130 b9 98 48 3d ba 6d 82 3d 89 2b 08 3e a7 a8 88 3c
       0.048973773 0.06368585 0.13297857 0.016681982
000140 72 82 6b bd cb 08 e4 39 5d 05 1d 3d ad 24 ae 3d
       -0.05749745 0.000434941 0.038335193 0.08503089
000150 24 fb e7 3c 5f c2 af bc 64 fd e8 3d 1a c6 df 3d
       0.028317995 -0.021454988 0.113764554 0.10926457
000160 2b 99 0d 3e 30 d3 94 bd 23 b1 39 bc d4 da 08 3e
       0.1382796 -0.07266843 -0.011333737 0.13364726
000170 64 7f bb 3c 50 bf 0c 3d 6b 61 a6 bd b4 19 84 bb
       0.022887893 0.034362137 -0.0812405 -0.0040313844
000180 a2 df fc 3d 20 20 63 bd 82 3b c3 bd 4e b5 9b bd
       0.12347342 -0.05545056 -0.095328346 -0.076029405
000190 0c c5 82 bd e1 74 8c bd 4c 34 4c 3d 77 39 79 3c
       -0.0638524 -0.068582304 0.04985456 0.015211455
0001a0 39 db 12 3d b5 96 4a be b6 b2 83 3d 50 88 3b 3b
       0.0358536 -0.19784053 0.06430571 0.0028615184
0001b0 44 b1 89 3d 8c 37 f9 3d 9f 6d 2f be 8c 95 20 bc
       0.06723264 0.12168798 -0.17131661 -0.00980128
0001c0 37 80 3f 3d 49 2b ae ba 70 f3 cd 3d 85 be 84 be
       0.046753135 -0.0013288046 0.10056198 -0.25926605
0001d0 69 e2 0a 3d 38 a5 dc 3d 6f 45 f6 3d ce 8c 71 3b
       0.033907328 0.107737005 0.12024962 0.0036857608
0001e0 fe 3d 76 be 3f 87 80 3a 26 98 94 3d c6 28 b6 bd
       -0.24047086 0.0009805931 0.072555825 -0.08894496
0001f0 b5 41 32 bd c7 d7 6d be da b7 9f be 50 05 b9 be
       -0.043519694 -0.23226844 -0.31194955 -0.36136866
000200 e6 fd 9a be 20 ee 39 be fd 56 98 be c2 90 7f be
       -0.30271834 -0.18157244 -0.29753867 -0.24957564
000210 4b 72 90 be cd cf c5 be fe c5 bf be c9 80 14 be
       -0.282122 -0.38635102 -0.37455744 -0.14502253
000220 66 9d 76 be 2c 9a 81 be af 3e 34 be f0 f1 5b be
       -0.2408348 -0.25312936 -0.17602037 -0.2147901
000230 91 07 3d be de a8 2b be 29 ab 2c be 4c fe f5 bd
       -0.18459918 -0.16763636 -0.16862167 -0.12011394
000240 f6 b2 95 3c 31 4a bd bd 97 93 dc bd 3e b9 b3 bd
       0.018273812 -0.092426665 -0.10770338 -0.087755665
000250 7b 26 c1 bd ab df 40 3e f0 12 f0 bc 04 47 19 3d
       -0.09431168 0.18835323 -0.029305905 0.03742124
000260 43 9a b7 3b f7 42 1f 3d 74 34 c7 3d 47 14 2a 3d
       0.005603106 0.038882222 0.097268015 0.041523244
000270 71 bb 71 bd f5 c6 65 3d 09 d0 c9 3d 06 b4 23 3d
       -0.05901665 0.056097943 0.09854133 0.039966606
000280 20 9b 52 3d 36 ec ae 3d 08 77 82 3b df 69 05 3d
       0.05141747 0.085411474 0.003981475 0.03257167
000290 51 02 36 bd c4 aa 23 bd cb 35 24 3d a2 d4 0e 3d
       -0.044435803 -0.039957777 0.040090363 0.03487075
0002a0 fd ad 52 bd dc 72 98 bd c4 8f 69 bd 85 5d ab bd
       -0.05143546 -0.07443783 -0.05702187 -0.08367447
0002b0 43 b0 62 bd 00 d2 1d bb dd dc 6f 3d fe c0 57 3d
       -0.055343878 -0.0024081469 0.05856024 0.052674286
0002c0 bc ef 65 bd a7 d1 48 bd c5 cd c9 3c 3f dd ba bd
       -0.05613683 -0.049028065 0.024634251 -0.091242306
0002d0 ae e4 30 3d 35 83 65 3d 5e 6b 39 bc d2 f5 ca bc
       0.043186836 0.056033332 -0.011317102 -0.02477542
0002e0 af 00 e6 bc 7a d3 33 3d ac 8a 0f bd 6d 62 53 bd
       -0.028076498 0.04390285 -0.035044357 -0.051607538
0002f0 bf 79 b0 bd 2d 49 c5 bd 5e 03 2d 3e 47 1c 5a bd
       -0.08616971 -0.09633098 0.16895816 -0.053249624
000300 1c 81 68 bd 2c 9c 5b bc 1b 57 b6 bd dc 14 d2 3d
       -0.056763753 -0.0134039335 -0.08903333 0.10257885
000310 9d 51 33 3c e6 2b 34 bc 32 26 fe bd ad de 10 be
       0.010944751 -0.010996794 -0.12409629 -0.14147444
000320 9c f3 5a 3e 85 14 03 3d 05 d6 0b bb 96 84 db 3d
       0.21381992 0.03200199 -0.0021337282 0.10718648
000330 87 b0 f9 3c 6e 48 51 3d 16 b9 07 be 12 58 ca bc
       0.030479683 0.051094465 -0.13254198 -0.024700198
000340 80 24 25 3d 65 df 4c 3d 06 88 a8 3d c3 da 19 be
       0.040318012 0.050017733 0.082290694 -0.15024857
000350 a6 f3 d3 bd 96 8e 12 3d 25 d3 09 3e a2 e1 b7 3d
       -0.103492066 0.03578051 0.13459451 0.08978583
000360 44 d9 15 be 7c a5 b0 bd 61 25 14 3c b0 ad 33 3d
       -0.14633662 -0.08625314 0.009042115 0.043866813
000370 ca ef 35 3d 2c 4d 35 bd 56 40 4e bc 1b c1 7c bb
       0.044418134 -0.04426305 -0.012588581 -0.0038567248
000380 c7 f0 f7 3d 9c 37 18 3d 1c bb fe 3d 67 e2 11 3e
       0.121064715 0.03716241 0.12438032 0.14246522
000390 f8 32 3a 3d 30 eb 32 3e 34 23 18 3c ef d3 34 3d
       0.045458764 0.1747253 0.009285737 0.044147428
0003a0 70 5e d7 3d c4 66 5f 3d 5d 85 02 3e dd a7 13 3d
       0.105160594 0.054541364 0.12746187 0.03604876
0003b0 5b 1a c6 3d 51 e7 7a 3d f8 a2 b5 3d b1 94 a6 3d
       0.09672996 0.061255757 0.088689744 0.081338294
0003c0 05 6f 2a bd ad cf c1 3c 4f 75 e3 3c b0 3c 26 3d
       -0.041609783 0.023658598 0.027765898 0.04058522
0003d0 e4 d0 09 3d d9 97 24 3d b5 86 4b 3c e3 7c 08 3d
       0.03364648 0.040183876 0.012422253 0.033322226
0003e0 bb a4 42 3a 1d 07 da bd 30 ce a9 bd ee 6c 72 bd
       0.00074250594 -0.10645888 -0.0829128 -0.059185915
0003f0 64 ae a5 bd 73 50 97 bd 29 b5 0b be 5f 8d ae bc
       -0.08089903 -0.07388391 -0.13643326 -0.021307645

conv2.bias f4 [16]
000000 dd 87 0f bc b2 dc 4b 3c 67 a9 d5 bb b2 b4 95 bb
       -0.00876042 0.012442755 -0.0065204385 -0.0045686597
000010 d7 3a 8b bd 78 9f 6b 3d 61 07 7a 3d 06 58 a5 bb
       -0.06798332 0.057525128 0.061042193 -0.0050458936
000020 a9 c1 b5 bb 08 97 05 bd 02 2b 82 bb e7 03 18 bb
       -0.0055467677 -0.032614738 -0.003972412 -0.0023195685
000030 7b 6d 37 bd 5a 5c 9f bb ed 81 0e bd 59 2c 54 bc
       -0.044782143 -0.004863304 -0.034791876 -0.012950026

fc1.weight f4 [120, 400]
000000 70 18 d3 3d b3 a7 4c 3e d8 43 80 3e 93 6d 3e 3e
       0.103073955 0.19985847 0.2505176 0.18596487
000010 6d 49 90 3b c8 05 b1 3d 79 7d 11 3e ff 5a 50 3e
       0.0044032843 0.08643681 0.1420802 0.20347212
000020 45 b3 49 3e c7 b4 4c bb 24 19 45 3e 15 de 32 3e
       0.19697292 -0.0031235681 0.19247872 0.1746753
000030 ad 8b 6e 3e 25 0b 41 3e 22 11 c8 3b 6e 9d ab 3d
       0.2329547 0.18851908 0.006105558 0.08379637
000040 a4 a6 75 3e c2 8c 43 3e db 6e 10 3e a6 00 d0 3c
       0.2398935 0.19096664 0.14104788 0.025390934
000050 5b c8 05 3e ab 9d 48 3e ba 58 83 3e 9f fd 76 3e
       0.13064711 0.19591396 0.2565363 0.24120186
000060 90 85 97 3d d4 d7 ad 3c 41 cd f3 3c ac 2a 45 bc
       0.07398522 0.021221079 0.029760959 -0.0120341
000070 70 ad 40 bd 8e f4 f2 bc af a0 db 3b 1e 87 bf 3c
       -0.047040403 -0.029657628 0.0067025046 0.023379859
000080 6c 50 c1 bc 9c 96 12 3d ef 41 01 3a 63 83 ce bb
       -0.023597918 0.035788164 0.00049307843 -0.0063022836
000090 e0 a9 11 3c 09 38 10 3c 6a 4d 7f 3d f5 f4 35 3c
       0.008890599 0.008802422 0.062329687 0.011105766
0000a0 bc 94 04 3d ee 9a 49 bc a7 35 57 3c b9 7c 15 3d
       0.032368407 -0.0123050045 0.01313535 0.036495898
0000b0 a3 2e 81 3d dc 40 f6 3c 18 78 30 3d 8a 38 85 bc
       0.063077234 0.030060224 0.04308328 -0.016262311
0000c0 8c 4a c7 3c e3 a7 b7 bc ec 6e 1a 3c fd 1f 1c 3e
       0.024327539 -0.022418922 0.00942586 0.15246578
0000d0 17 5c ea 3d 34 91 e2 3d ea 87 fc 3c 4b 35 e1 3d
       0.11443346 0.110628515 0.030826528 0.10996493
0000e0 95 36 1a 3e db 73 ce 3d ab ff c0 3d 25 54 cb 3d
       0.15059884 0.100806914 0.09423765 0.09928159
0000f0 e8 57 ff 3d 33 d8 4a 3e 9b a3 22 3e 77 b2 f2 3d
       0.12467939 0.19809036 0.15882723 0.11850446
000100 b8 38 70 3e 84 5a 85 3d da cd ac 3d 28 17 32 3e
       0.23459136 0.06511405 0.084377006 0.17391646
000110 8f f6 8f 3d 9d 5c 1e 3e ea 0e 4c 3d 5e 56 e4 3c
       0.07029449 0.15465017 0.04981891 0.027873214
000120 56 18 11 3d 12 df 9a 3d 25 bf 8d 3d c3 a6 2d bc
       0.0354236 0.075620785 0.069212236 -0.010598841
000130 98 ba 16 3e 8d d5 38 3d 17 6d 1a bd 4f d0 26 bc
       0.14719617 0.045125533 -0.037701692 -0.010181501
000140 2a a5 8b 3d 56 75 dd 3d fe 84 67 bb 7d fa 8a bc
       0.06818612 0.10813396 -0.0035327072 -0.016965145
000150 10 37 7c 3c 12 a7 88 3c 8b 3e 04 3e 31 d3 55 3d
       0.015393987 0.016681228 0.12914483 0.05220336
000160 0b e4 8e bc 29 fa 51 bc b6 c7 81 bc ea 91 f6 3d
       -0.017442724 -0.0128159905 -0.0158423 0.1203955
000170 b8 af 94 3d d6 4c 67 bc 25 9f ab bc 90 0b ca 3d
       0.07260078 -0.01411744 -0.02094991 0.098654866
000180 6e 8f fb 3d 00 80 9a 3d 10 12 cb 3c 0c 8d 44 3d
       0.122832164 0.07543945 0.024788886 0.047986075
000190 92 08 af bd 7a bd 84 bd 26 34 89 bd e0 12 1c 3c
       -0.085465565 -0.06481452 -0.066994 0.0095259845
0001a0 01 04 50 3c 88 72 07 be 74 36 a8 bc cb 8b 7a bd
       0.012696267 -0.13227284 -0.020533778 -0.061168473
0001b0 b0 41 34 3d c8 31 57 bd a3 9b a1 bd 0d 88 0c bb
       0.044007957 -0.05253771 -0.078910135 -0.0021443397
0001c0 63 3d 00 3c 18 71 69 3d 07 b6 6b bd ac 45 8e bd
       0.007827136 0.05699262 -0.05754664 -0.069468826
0001d0 ec 41 b2 bd 9d 76 bf 3b 5f 6c c0 bc 62 f4 f0 bc
       -0.0870398 0.005842997 -0.023489175 -0.029413406
0001e0 e5 e4 ee bb 9e 8d 91 bc 48 f8 21 3d 28 76 65 bd
       -0.00729047 -0.017767724 0.03954342 -0.056020886
0001f0 b7 c0 89 3d e0 03 89 bc c3 75 fc bc 5e 96 27 bd
       0.067262106 -0.01672548 -0.030817872 -0.040914886
000200 4b 83 62 3d 28 3b 3f bb f7 36 f2 bc 2b 99 9f 3b
       0.055300992 -0.0029179547 -0.029567225 0.004870554
000210 63 82 14 bc c1 7b c7 3c 75 cf 85 3c ce 54 93 bc
       -0.00906429 0.024351003 0.016334275 -0.017984774
000220 5b ab 12 3c c6 cf 85 bb b7 f4 4a 3d 17 cf fc bc
       0.008951987 -0.0040836064 0.049549785 -0.030860467
000230 18 54 ab bb 4b 63 0e 3d f8 2d 91 3d fd 86 70 3d
       -0.0052285306 0.034762662 0.07088846 0.058722485
000240 bf 70 58 3d a8 77 10 3d 65 79 00 3c 92 b8 1f 3d
       0.052841898 0.035270363 0.007841443 0.03899438
000250 71 2d 3b 3d 2e 49 5c 3d 13 36 5f 3d ce b6 ac 3b
       0.045697633 0.053780727 0.05449493 0.0052708155
000260 3b ed 0d 3d 25 c3 bf 3c 3c 40 0c 3d 7f 50 94 bd
       0.03465007 0.023408482 0.034240946 -0.07241916
000270 35 82 56 3c 75 cf 11 3c 19 c3 39 3d 2e f1 b2 bc
       0.013092567 0.008899559 0.045352075 -0.021843519
000280 72 80 0b bd 46 1b 11 3d bf bc 5f 3d a4 08 5e bc
       -0.034058042 0.0354264 0.05462336 -0.013551865
000290 ef a9 4f 3c 39 01 25 3d 6e 33 6f 3d 32 eb 10 3d
       0.012674793 0.04028437 0.058398657 0.03538055
0002a0 fb e8 7c 3d d8 dd 54 bd e9 27 98 bc ef 1d 4d 3d
       0.061745625 -0.05196938 -0.018573718 0.050077375
0002b0 ca c3 32 3d dd 7a 2d 3d bf 8c 56 bd 7b 73 21 3d
       0.04364375 0.0423535 -0.05238032 0.03941677
0002c0 c6 cb fa bc 81 72 9a 3c 93 6a f7 39 32 80 af bc
       -0.030614745 0.018853428 0.00047190915 -0.021423433
0002d0 6d 31 73 3d 16 d5 26 3d 2c 15 bd 3c 9d e4 23 bd
       0.059373308 0.04073056 0.023081385 -0.040012944
0002e0 50 e1 2a 3d af d1 0b 3d f4 28 73 3d 5b 29 d7 3c
       0.04171878 0.034135517 0.059365228 0.026264837
0002f0 21 d2 87 3d 8f 83 65 3d 2a 9e c7 bc 73 ea 62 3d
       0.06631876 0.056033667 -0.02436741 0.05539937
000300 5e 62 61 bc 61 9b 30 bc 39 fd 07 bd 2e e0 06 3d
       -0.013756363 -0.010779233 -0.033200476 0.03292864
000310 ef cd 82 bc 99 ac 87 3b 30 67 03 bc 99 df ed 3c
       -0.015967337 0.0041404483 -0.008020207 0.029037284
000320 1a 61 56 bc 5c 24 4d 3e 9a b3 33 3e 4a 6e 98 3d
       -0.013084674 0.20033401 0.17548981 0.07442911
000330 00 71 4f bb a8 3f da 3d 2b 89 5c 3e c0 a2 07 3e
       -0.0031653047 0.10656673 0.215367 0.13245678
000340 92 07 80 3d 96 0f 19 3d e9 72 35 3e b3 3e 7d 3e
       0.06251444 0.03736838 0.17719616 0.24730949
000350 60 46 53 3e 4c 44 1e 3e df 46 89 3d 4f 30 f0 3d
       0.20632315 0.1545574 0.06702971 0.11727964
000360 c7 2d c6 3d 1e be b3 3d 67 a2 42 bc 43 74 26 3b
       0.096767 0.08776496 -0.01187954 0.0025398887
000370 20 a2 26 3a b0 94 f0 3c 52 34 96 3d 60 b9 ab bc
       0.0006356556 0.029367775 0.07334198 -0.020962417
000380 16 10 70 3c 15 31 5e 3d c2 b0 a6 3d c7 41 29 3d
       0.014652273 0.054246027 0.081391826 0.041322496
000390 03 80 19 3d 0d 1d 51 3d 19 5f 60 3d cb 30 32 bc
       0.037475597 0.051053096 0.054778192 -0.010875891
0003a0 06 0f 7b 3c 0e 0c ee bc 0e d0 c4 3b bf c1 e3 bb
       0.015323406 -0.029058482 0.0060062474 -0.0069505866
0003b0 39 70 a9 3d 7a bd 3c 3d d5 d1 dd 3c a7 7e ae bc
       0.08273358 0.046079136 0.027077595 -0.021300627
0003c0 17 65 d8 bc ce 53 67 3d d9 da 03 3c 9d dd 34 bb
       -0.02641539 0.056476407 0.008047783 -0.0027597912
0003d0 79 c1 4e 3d 20 8d ea bc ad c7 74 3c 73 09 75 3d
       0.05047748 -0.028631747 0.014940185 0.059823465
0003e0 90 e9 cd 3c 41 b8 c6 bc 21 97 9d 3d d9 78 07 3e
       0.025135785 -0.024257781 0.07694841 0.13229693
0003f0 67 e4 ed 3d 85 c3 ff 3d 87 e7 0e 3d 55 53 71 3d
       0.1161583 0.12488464 0.03488877 0.058917362

fc1.bias f4 [120]
000000 a1 09 56 bd d7 f5 0b bc c0 a6 0b bd 44 2e 1f 3e
       -0.052255277 -0.0085424995 -0.034094572 0.15544993
000010 23 52 fa bb 25 95 fc 3d 5a 23 8f 3d 2c 6e 8f 3d
       -0.007639186 0.123331346 0.06989165 0.070034355
000020 df 9f 20 bd b6 ce 2c bd 8e 0a 8e bb d2 d9 00 bd
       -0.039214965 -0.042189322 -0.0043347543 -0.03145773
000030 12 5f a5 3d 92 ac 8a 3d 88 27 74 bd 25 cf 40 bb
       0.08074774 0.067711964 -0.059608012 -0.0029420343
000040 0e f6 d1 3d 7b 69 51 bd 02 c8 26 3e 18 12 23 bd
       0.10252009 -0.051125985 0.16287234 -0.039812177
000050 db e3 3b bd 6d 47 c0 3d 70 14 8e 3c 56 4b 49 bd
       -0.045871597 0.093886234 0.01734373 -0.04914411
000060 ca 42 09 bc 32 39 b9 3d d9 04 a5 bd 14 5f 11 3d
       -0.00837774 0.09044112 -0.08057565 0.035491064
000070 40 25 f4 3d 28 f1 04 ba 54 d4 c2 3d 3c fb 08 bd
       0.119211674 -0.00050713355 0.095131546 -0.03344272
000080 0c 33 88 3e e6 c2 5e bd b8 18 44 bd 9f 57 4b 3d
       0.26601446 -0.05438509 -0.047875136 0.04964411
000090 9a 4b 8d bc cd 68 02 3e 52 9f c1 3d 55 9e fc bc
       -0.017247964 0.12735291 0.09454216 -0.030837217
0000a0 5f e3 92 bc ca 69 4c 3a bc 60 56 3c 2a 7f b8 3d
       -0.017930685 0.0007797746 0.013084587 0.090086296
0000b0 6d f8 28 3d dc 9f ec bc 18 5f 81 bc 65 70 12 bd
       0.041252542 -0.02888482 -0.015792415 -0.03575172
0000c0 5e 51 77 3c 01 2c da 3d c9 9c d8 3c 67 2e 8d 3b
       0.015095083 0.10652924 0.026441948 0.00430851
0000d0 4a f5 0b 3e e8 e5 2d 3e d0 96 27 bd 05 91 9c 3d
       0.13667789 0.16982234 -0.04091531 0.07644848
0000e0 bf 14 55 3b 97 39 d2 bc d9 26 94 bc 5f b6 e5 bc
       0.0032513586 -0.025662227 -0.01808493 -0.028041063
0000f0 98 cb 51 3a af 67 61 bd 90 86 e5 3c 5f e4 19 bb
       0.0008003055 -0.05503052 0.028018266 -0.0023482067
000100 07 6a df bc d6 46 55 bd be e5 81 bd c1 70 25 bd
       -0.027272237 -0.052069508 -0.06342648 -0.040390734
000110 18 3c 8f 3d e5 05 af 3d c7 9c d6 bc 64 f9 6e bc
       0.06993884 0.08546046 -0.026197804 -0.014585827
000120 d1 7a bb bc a7 da 46 bd b7 9a a0 3d 06 5d d5 3d
       -0.022885712 -0.048548367 0.078420095 0.104181334
000130 8b 8c 09 3e 92 e3 cf bc 5a af 92 bc 4f a1 a4 3d
       0.13432519 -0.025377069 -0.01790588 0.0803858
000140 be 43 5b bd 8f a7 dc 3a 1a 58 2f bc 81 a2 8f 3c
       -0.0535314 0.0016834604 -0.010702157 0.017533543
000150 8c fe be 3c 5b 2f 64 bd dd cb 52 bd 63 0d 1c bc
       0.023314737 -0.055709224 -0.05146395 -0.009524676
000160 04 29 82 bc bb 71 5d 3c 25 f4 38 3e 16 09 c9 3d
       -0.015888698 0.013515885 0.18061884 0.09816186
000170 3a 8d 98 bd 45 b9 28 bc 51 12 14 bd 2d bf 06 bd
       -0.07448812 -0.010298078 -0.03615028 -0.032897163
000180 63 34 d4 3d ce ed 3f bd a6 e8 f3 bc d0 2d 9d bb
       0.103615545 -0.046857648 -0.029774021 -0.004796721
000190 e0 71 62 bc bf 3e 7a bd 49 9e 8e bc 7b 2c 80 bc
       -0.013821095 -0.061094996 -0.01740946 -0.01564621
0001a0 ab 50 a1 3c 21 30 ed bc d3 67 37 bc c0 a7 a5 3d
       0.019691786 -0.028953614 -0.011194187 0.080886364
0001b0 ed 18 47 bd 4e ef 06 3e d9 4f 07 3e ff c0 a3 bc
       -0.048607755 0.13177225 0.13214053 -0.019989489
0001c0 43 6f 27 bd 8a 1f 89 3d cb 48 f2 ba 28 7f f6 3d
       -0.04087759 0.06695469 -0.0018484829 0.12035972
0001d0 84 94 fe bc b5 ee 4a bd 2a 6b 09 bd 5a 4c 2f bd
       -0.031076677 -0.049544055 -0.033549465 -0.042797424

fc2.weight f4 [84, 120]
000000 39 9c a4 3d a8 d9 94 bd 55 f8 24 bc 35 1e fd 3d
       0.080376096 -0.07268077 -0.010068973 0.12359277
000010 41 f0 fd 3c 50 be a3 bd c7 35 cf bd 5f da f0 3b
       0.030998351 -0.079952836 -0.10117679 0.0073502506
000020 27 23 41 3d 8c b3 5c be 73 e2 34 3d 14 ff 8c 3d
       0.047152665 -0.21552867 0.04416127 0.0688459
000030 1b c6 13 3d f9 44 85 bd 34 cc 34 3e 5c d4 46 3e
       0.0360776 -0.06507296 0.17656022 0.19416946
000040 60 5a bd bd 76 39 84 3d 99 51 83 3d 5a 12 36 3e
       -0.09245753 0.06456272 0.06412048 0.17780438
000050 10 09 24 3d c7 06 a6 bd 56 93 f7 bc 4e 09 b9 bd
       0.040047705 -0.081067614 -0.030221622 -0.09034978
000060 66 6f a3 3d a3 d8 ec bd 6a ca 44 bc 0d f5 ad 3b
       0.07980232 -0.11564758 -0.01201115 0.0053087533
000070 ea 6f 82 ba ca 1f b8 3d 04 35 cd bd 2b f5 08 3e
       -0.0009951566 0.08990438 -0.100198776 0.13374774
000080 7c 17 a2 3d 94 86 b7 3d e6 6b d0 3d 6b 7e 33 be
       0.079146355 0.089612156 0.1017683 -0.17528693
000090 2f 61 5a 3d 8d d7 0c 3d 31 36 1a be f3 fd 13 3e
       0.053315338 0.034385253 -0.15059735 0.14452343
0000a0 7d 55 be bc 77 4b 2d bd 77 ed d6 3c 2f b2 ab 3d
       -0.023234123 -0.042308297 0.026236279 0.08383595
0000b0 ff fb c3 be ba bb 75 3d 4a 6e ab bd 20 5c 16 3c
       -0.38278195 0.059993483 -0.08370645 0.009177238
0000c0 c7 6a 32 3d f2 1d 9b bd 9f 44 ba 3b f5 fe 1a 3d
       0.043558862 -0.07574071 0.00568445 0.037840802
0000d0 88 81 1c bd 7d 4f 15 3d 2e 38 2e 3d 94 4c f7 3c
       -0.038209468 0.03645276 0.042534046 0.030187882
0000e0 8f 65 4f be 2b b4 00 3d be 0c a0 3d 4b b0 28 3e
       -0.20253585 0.03142182 0.078149304 0.164735
0000f0 0c 56 67 bd dc fa 9d 3d 3e 82 f1 3c 25 9c a4 bd
       -0.056478545 0.07713863 0.02948105 -0.08037595
000100 f9 d3 dd 3c a6 11 a2 bc 4b 4d 04 3e 57 d7 1f 3e
       0.027078616 -0.019783806 0.1292011 0.1560949
000110 3c 9f ac bc e1 00 64 be 46 86 0f be a5 d4 2b 3e
       -0.021072023 -0.2226596 -0.14016065 0.16780336
000120 77 88 88 3d 54 53 01 3e 63 7f 2a 3d 2a 76 b7 bc
       0.066666536 0.12629443 0.04162539 -0.022395212
000130 bb cd 44 3d d3 51 94 bd ff 6b 07 3e 67 67 89 be
       0.048047762 -0.07242169 0.13224791 -0.26836702
000140 c6 48 3f 3e cc e3 46 be 9c 55 ba 3d 00 74 28 3e
       0.18680105 -0.19422835 0.0909836 0.164505
000150 1d d0 cc bd dd 8d a0 bd 3e 31 25 bc 6a e2 04 ba
       -0.10000632 -0.07839558 -0.010082541 -0.0005069139
000160 65 46 d2 3a bf e4 d8 bd b9 cf 92 be c5 83 81 bd
       0.0016042708 -0.10590505 -0.28674105 -0.06323961
000170 af a3 82 3d 8d c3 d1 bd 88 6d 55 3d c0 d0 33 3e
       0.063788764 -0.102423765 0.05210641 0.175601
000180 33 4a 06 3d d1 34 c0 3c f0 24 38 3c df e1 4e bd
       0.032785606 0.023462685 0.011239275 -0.050508376
000190 c9 1b 2d 3d d8 a4 13 bc 92 42 12 bd 2b 8d d0 3d
       0.042262826 -0.00901147 -0.035708018 0.10183176
0001a0 98 7e be bd 36 9e 04 3e 1f 5a 3d bd 34 c9 12 bd
       -0.093014896 0.12950978 -0.046228524 -0.035836414
0001b0 d9 f2 6f bc 7c a3 d5 bc 4a aa 60 bd 37 96 6c 3d
       -0.014645302 -0.026078932 -0.0548499 0.057760444
0001c0 8c 5c 18 3e 3f 41 d2 3b bb 6f c5 bd d1 15 a0 3d
       0.14879054 0.0064164693 -0.096404515 0.07816661
0001d0 a3 fc 6c bd 3a 4f fe 3c ba 11 28 bd d1 9d 2b bd
       -0.05785812 0.031043638 -0.04103253 -0.041898552
0001e0 73 b9 b3 bd 82 1e e4 bc 98 b3 26 bd 6c de c4 3d
       -0.08775606 -0.027846579 -0.040698618 0.09612736
0001f0 4a 2d 31 bd 3e cc 9e 3d 05 37 03 3e 47 55 14 3e
       -0.04325608 0.077538 0.12813957 0.14485656
000200 c2 06 9c 3c 33 48 c9 3d ef ce dd bd e3 b2 d0 bd
       0.019046191 0.09828224 -0.10830485 -0.1019037
000210 27 16 8c bc ed 86 f4 3c 25 a5 0f be da 17 dd bd
       -0.017100407 0.029849494 -0.14027841 -0.10795565
000220 cd 03 0f 3e 85 71 59 be 83 04 fd 3d 0d 64 8f bd
       0.13966294 -0.2123471 0.12354376 -0.07001505
000230 48 90 93 3c 25 e6 26 3e cb 6a ed 3d 10 82 3f 3c
       0.018013135 0.1629873 0.11592635 0.011688724
000240 c6 8e ae bd 66 bd 39 3e 92 dd a0 3d ae eb 55 3b
       -0.085233256 0.18138656 0.07854761 0.0032641697
000250 09 43 41 3e 6e bf f0 bd eb af 53 3e 13 f4 21 be
       0.18873228 -0.11755262 0.20672576 -0.15815763
000260 4c d2 cb bb 55 4a 3b bd 2a be 1b bd 9f 9a f3 3d
       -0.0062201377 -0.045725185 -0.03802315 0.11894726
000270 fa 64 30 be 97 55 4b 3e 3a 80 1c 3d 0b 90 09 be
       -0.1722602 0.19856869 0.038208224 -0.13433854
000280 ac 68 7e bd ee 98 b3 bd c9 3c 96 bd 97 a6 38 3d
       -0.06211154 -0.087694034 -0.073358126 0.045080747
000290 12 6e a1 3e 73 63 85 3c f2 1a ab 3d 64 03 a7 3c
       0.3152929 0.016282773 0.08354749 0.020387359
0002a0 4d 00 a3 3d 3b b6 6f 3e 6a 19 1e bc 0d 65 b2 bb
       0.07959042 0.23409359 -0.009649614 -0.005444175
0002b0 1b 29 49 3e d8 44 05 3d fb 14 0d be 22 93 81 3d
       0.19644587 0.032536358 -0.13777535 0.063268915
0002c0 ff a2 53 3e 0a 3d 3b 3c fa 85 c4 bd 75 60 1a be
       0.20667647 0.011428127 -0.095958665 -0.15075858
0002d0 f0 37 18 3e e2 6a 01 be f4 57 66 bc d6 e2 8b 3d
       0.14865088 -0.12638429 -0.014059056 0.06830375
0002e0 f2 b6 37 3d 00 f4 4d 3a 7e 80 5e bd 2a 92 3c be
       0.044852205 0.0007856488 -0.05432176 -0.18415132
0002f0 72 68 2a 3e 88 51 b4 3e 9d 7c 58 3d 85 a8 f3 bd
       0.16641405 0.35218453 0.052853215 -0.11897377
000300 d9 55 4f bb b3 e0 49 be ee 39 45 3e e4 f6 07 3e
       -0.0031636863 -0.19714622 0.1926038 0.13277775
000310 98 74 3a 3e 7b b3 7b 3a 19 8c ee bc 42 3c 92 3e
       0.1820854 0.0009601635 -0.029119538 0.28561598
000320 09 40 0c be 26 a3 57 3e 0a fb 60 bd 62 ad 2c 3d
       -0.13696302 0.2105833 -0.05492691 0.04215754
000330 11 3c a8 3d d4 7a 8a bd 42 5c 85 bd e7 64 86 bd
       0.08214582 -0.06761709 -0.065117374 -0.06562214
000340 86 ed d6 bc 23 d1 80 3d 80 07 bd 3e 83 95 c3 3d
       -0.026236307 0.0628989 0.36919785 0.095500015
000350 1d cd 36 3d 68 89 40 3e e1 5e 1d be 84 77 18 be
       0.044629205 0.18802416 -0.15368225 -0.14889342
000360 0c fa 23 3e 13 a0 0e bd ff 73 90 bd d2 60 3f bd
       0.16013354 -0.034820627 -0.070533745 -0.046723194
000370 9f 5a 16 be a0 66 ad bc 53 d3 89 3b cf 8c 78 3d
       -0.14683007 -0.0211671 0.0042061 0.06068116
000380 47 f4 e0 3d b3 ee b7 bd 37 c3 ea 3d b4 c5 a9 3d
       0.10984092 -0.08981075 0.114630155 0.08289662
000390 bf 71 41 3d d7 d8 45 3e ad 8e 2b 3e 4c 08 80 3d
       0.047227617 0.19320999 0.16753645 0.062515825
0003a0 27 5e d5 3c bf 10 25 3e d6 3c 28 bd 8e 3b 55 3e
       0.026045872 0.1611967 -0.041073643 0.208235
0003b0 21 5e f6 bc 4c 65 81 bd 8a 06 d8 3d 5b 4a f4 3b
       -0.030074181 -0.06318149 0.10548122 0.007455153
0003c0 98 45 b9 3c a6 d6 4f 3d 79 16 92 bd 21 e5 3a 3c
       0.022616193 0.050741814 -0.071331926 0.011407168
0003d0 3c db bf bd dc 8f 12 bd 50 78 01 be e8 06 a1 bd
       -0.093679875 -0.035781726 -0.12643552 -0.078626454
0003e0 2d ea 93 3d c8 27 d2 bd 89 bb 2c 3d fb 96 05 3e
       0.072224 -0.10261494 0.042171035 0.13045876
0003f0 ac 73 1a bc 70 ef 6d 3d 99 a9 f3 3d 1f bf 39 3e
       -0.009426992 0.058089674 0.118975826 0.18139313

fc2.bias f4 [84]
000000 33 05 1b bd 4d be 31 3e 8e 60 85 3d ba bb 5d 3d
       -0.037846755 0.1735775 0.06512557 0.054134108
000010 c8 d8 2a 3c c7 87 4d 3c 50 c3 f8 3d 2e 33 84 3d
       0.010427661 0.012544579 0.12146628 0.06455074
000020 88 6b 39 3e f2 0f ba bd e1 5b 2c 3d 53 fd c1 3d
       0.18107426 -0.090850726 0.04207981 0.09472146
000030 0e 42 8b 3d e9 62 3e 3b 92 4b 9b 3d 78 e3 e1 b9
       0.06799708 0.0029050654 0.07582773 -0.00043084822
000040 2d 71 01 3e 0d e2 8f 3c c0 b2 1f 3e e1 d2 52 3e
       0.1264083 0.017563844 0.15595531 0.20588256
000050 12 a1 ae 3d db b4 8e bc e4 f4 48 3e 2c 8d 9b 3d
       0.085268155 -0.017420223 0.19624668 0.07595286
000060 f9 d2 49 3e 57 9a 1d 3e 19 0b be bd 3b 1d af bd
       0.19709386 0.15390907 -0.092794605 -0.08550497
000070 db d2 a9 bd 76 1e 72 bd 7f 07 a9 bd b4 46 18 3d
       -0.082921706 -0.05911108 -0.08253383 0.037176803
000080 db 52 51 3e 66 fe 57 bd ca c2 20 3e 59 22 82 3c
       0.20441763 -0.052732848 0.15699306 0.015885519
000090 47 44 0f 3e 46 42 bb 3c 6e 5c 0f 3e b8 20 00 3d
       0.1399089 0.02285875 0.14000103 0.031281203
0000a0 58 c4 2b 3d a5 b5 1e 3e 09 7f b3 bd 2c 11 1a 3d
       0.041935295 0.1549898 -0.087644644 0.037614033
0000b0 10 2e 24 3d 0d a1 b5 bd 66 a6 84 3b e7 5a 60 3d
       0.04008299 -0.088686086 0.0040481566 0.05477419
0000c0 44 ac b1 bd 34 5d 8e 3d 34 6d 83 bd 83 09 81 bd
       -0.08675435 0.06951371 -0.06417313 -0.06300642
0000d0 d4 1d 2d 3e c2 b8 3f 3e 54 54 12 3e ed 09 66 bd
       0.1690591 0.18722823 0.14289981 -0.05616181
0000e0 02 e5 96 3c 14 2d 8e 3d 1c bb 97 bd 3c 58 cc 3d
       0.018419746 0.06942192 -0.07408735 0.09977767
0000f0 12 25 e4 3d cb f4 24 bd 4a 3b ac 3d 23 fc 4c 3d
       0.11139883 -0.040272515 0.08409746 0.050045144
000100 06 58 fd 3d f0 7e a0 3d 43 44 43 bd 36 15 36 3e
       0.12370305 0.078367114 -0.04767252 0.17781529
000110 c9 a5 ac bd 2a ab c4 bd 6a 18 0d 3e bc 4c 09 3e
       -0.084300585 -0.096029595 0.13778844 0.13408178
000120 99 72 fe 3d 5a 62 27 3e 25 82 1f 3d 7f b1 3e 3d
       0.124242015 0.16346112 0.038942475 0.046555992
000130 44 62 e2 3d 06 0c 21 3d 41 6a aa 3c 4d dc 9b 3b
       0.11053899 0.039318107 0.020802619 0.0047564865
000140 1d 74 47 3c 05 a7 d7 bc d8 73 25 3d 77 23 d7 3d
       0.01217368 -0.026324758 0.04039368 0.10504811

fc3.weight f4 [1, 84]
000000 9e 88 37 be 0a 71 87 3e 80 7b 30 be 21 2e 51 be
       -0.17923209 0.2645343 -0.17234612 -0.20427753
000010 04 9c 92 3c 93 0a 6f be 5e 6f 9a 3e cc d6 53 be
       0.01789666 -0.23343877 0.3016309 -0.20687407
000020 33 48 93 3e 58 8c 87 bc d0 f5 1c be a5 de 89 3e
       0.2876602 -0.016546413 -0.15328145 0.26927677
000030 55 31 5c be 02 ab 71 be 46 6a 8f be 69 07 83 bd
       -0.21503194 -0.2360039 -0.28010768 -0.06397898
000040 a1 c4 a5 3e bb 99 37 be 79 60 9d 3e 6c 68 89 3e
       0.32376578 -0.17929737 0.30737665 0.2683748
000050 ec 0f 42 be 0c e0 6d bd d3 35 a9 3e cc 78 65 be
       -0.18951386 -0.058074996 0.33048877 -0.22409362
000060 80 a4 99 3e 94 88 8c 3e d9 a3 ff 3c d7 09 bf 3d
       0.30008316 0.2744795 0.031206058 0.09328049
000070 76 f8 10 3d 13 62 cc bd c0 7b 06 3b 74 81 32 be
       0.0353932 -0.09979644 0.0020520538 -0.17432195
000080 98 63 a3 3e 93 b5 92 bd b7 be 97 3e b7 69 84 3c
       0.31911922 -0.07163539 0.2963769 0.01616369
000090 e3 d1 9c 3e d7 0a 34 be 58 4e ad 3e 7c 12 44 be
       0.3062888 -0.1758226 0.33848834 -0.19147676
0000a0 54 d2 3e be ea 50 ac 3e 31 e3 56 bd 3a 06 89 3e
       -0.18634921 0.33655483 -0.05246276 0.26762563
0000b0 64 d1 38 be 96 25 48 3d 66 68 b6 3d 54 94 67 be
       -0.18048626 0.04886397 0.08906631 -0.22615176
0000c0 b4 1a 8f 3d 37 3b 2d be a6 65 63 bd 56 af 2e bd
       0.06987515 -0.1691712 -0.05551686 -0.042647682
0000d0 b4 15 7f 3e 78 9d 65 3e 73 83 d5 3e 41 fd bc 3c
       0.24910623 0.22423351 0.4170185 0.02306998
0000e0 d7 57 48 be 84 e3 cd 3e 6c 2f d9 bd 59 c1 a6 3e
       -0.19564758 0.40212643 -0.10604748 0.32569388
0000f0 23 ee a2 3e 68 2e f8 bc f3 77 4e be b6 e0 0d be
       0.3182231 -0.030295566 -0.20162944 -0.13855252
000100 f9 d4 ab 3e f5 fd 56 be 62 67 20 3d 26 c5 8c 3e
       0.33560923 -0.20995314 0.039161094 0.27494162
000110 1a 1b 67 bd 8c f2 91 3c 02 e5 8f 3e 5c 3f 9a 3e
       -0.05642233 0.01781585 0.28104407 0.30126464
000120 bc ba 8d 3e cb 2b 8c 3e c7 9d 50 be 30 d3 6b be
       0.2768153 0.2737716 -0.20372687 -0.2302978
000130 07 e9 aa 3e b7 b6 aa 3e 1d cc fe 3d 85 67 6a be
       0.3338091 0.33342525 0.12441275 -0.22891052
000140 8f a0 13 be 39 ed 29 be ae 4b 6d be a9 c2 b5 3e
       -0.14416717 -0.165944 -0.23173401 0.35500076
