output_visualizations/base_tsk[^]_agm[crop_plus]_spl[S2]_mdl[lenet]_ls[SM]_tu[none]/model.pt (torch, 248071 bytes, 10 tensors)

conv1.weight f4 [6, 1, 5, 5]
000000 61 c9 6b 3e 48 c3 5a 3e 98 be 0b bd d3 4b 6c 3e
       0.23026039 0.21363556 -0.03411731 0.230758
000010 b0 de 4d bb 62 4a 71 3d 17 a2 d3 bd 29 82 d5 3d
       -0.003141325 0.058908828 -0.103336506 0.10425217
000020 60 c8 57 3e 24 e4 da bd c0 ea 16 3e 62 8f 7f bb
       0.21072531 -0.106880456 0.14737988 -0.0038995375
000030 8d 08 ef 3d 42 0e 70 3d 38 f4 29 3e 6f 00 90 bd
       0.11671553 0.058607347 0.16597068 -0.07031333
000040 0d 6f e2 3d c6 8f 73 bb 74 4b 48 bd 28 e6 18 3e
       0.110563375 -0.0037164553 -0.048900083 0.14931548
000050 c4 e1 2d be ad 73 d6 bd 35 8c 12 be 72 a2 2b 3e
       -0.16980654 -0.10471282 -0.14311297 0.16761187
000060 fc 5d 9f bd b4 88 b8 3c 66 7f b1 3a 30 a4 1d be
       -0.07781598 0.022526123 0.0013541996 -0.15394664
000070 30 ab 07 be 6f a2 e3 be cf 25 9f 3e 47 1d 93 bd
       -0.13248897 -0.44459864 0.31083533 -0.071833186
000080 a6 95 48 3e 58 7d 38 bd c6 7f 85 be 78 f6 38 3e
       0.19588336 -0.045041412 -0.26074046 0.1806277
000090 ac 7b e5 3d 01 bd 6f 3e a9 1e 7a 3b a2 ce 47 be
       0.11205229 0.23411943 0.0038165248 -0.19512418
0000a0 5a 71 6d bb e0 3e 11 bd 06 34 2a 3e 0b b9 81 3e
       -0.0036230893 -0.035460353 0.16621408 0.2533649
0000b0 78 7b 06 3e 8e c4 67 be 1c 8a b7 3d 1e 7e 04 3e
       0.13133037 -0.22633573 0.08961889 0.12938735
0000c0 3e 35 8c 3e 87 06 6d 3d be 43 15 be 24 82 52 bc
       0.2738437 0.057867553 -0.14576623 -0.012848411
0000d0 eb 6e bf bd 0a ac 33 3e 6d 03 a7 3c 80 d4 06 3e
       -0.09347328 0.17546096 0.020387376 0.13167
0000e0 b1 38 f5 3d c0 c4 0f 3d dd 22 13 3e 54 03 59 be
       0.11973704 0.035099745 0.14368768 -0.21192676
0000f0 3d fa d1 3d 5d 5a 4b bd 8d 7f c6 3d 71 a5 b9 bd
       0.10252807 -0.049646724 0.09692297 -0.090647586
000100 85 98 5b bd a2 50 83 3d 6e 68 74 3e 98 23 da bd
       -0.05361225 0.06411864 0.23867962 -0.1065132
000110 88 49 2d be a3 c1 83 be 52 b0 85 3e 20 8a c6 3d
       -0.16922581 -0.2573367 0.26111084 0.09694314
000120 d9 d8 ee 3d 4e b3 9f be 7b 7d d4 be b8 bc 7b be
       0.11662454 -0.31191486 -0.41501984 -0.24583709
000130 95 0b 59 be 1f c7 15 3d 23 3b 06 3e 4e 44 92 3e
       -0.21195824 0.03656685 0.13108496 0.28567737
000140 99 2a 17 be 29 ae 21 be 5a 15 eb 3d 2d 67 5d 3c
       -0.14762343 -0.15789093 0.11478682 0.013513369
000150 ca 1c 76 3e 1b 20 5f bd b3 16 05 3e 5f a0 ce bd
       0.2403442 -0.054473978 0.1299694 -0.10089182
000160 4a 2d ff 3b 32 75 28 3e 18 bc 85 3d 9e 83 c4 bc
       0.0077873813 0.16450956 0.06530017 -0.023988541
000170 a3 73 15 3e 67 48 3e 3e c4 35 d7 bd cf 4b ff 3c
       0.14594893 0.18582307 -0.10508302 0.031164078
000180 f9 05 8d 3e bf 81 11 bc a5 9a d0 bc df d8 3e be
       0.2754362 -0.008881032 -0.025464365 -0.18637417
000190 b9 68 b6 be 3e df 30 3e 71 e6 b6 bd 78 51 a9 be
       -0.35626772 0.1727266 -0.08930672 -0.33069968
0001a0 06 c4 a8 be 54 68 b9 be e4 86 7a bd 4e 6c f7 bd
       -0.32962054 -0.3621241 -0.061163798 -0.12081204
0001b0 1a 5e 87 be ac 93 b4 be fb e0 76 3e cc 4d a9 3e
       -0.2643898 -0.35268915 0.2410926 0.33067167
0001c0 a0 60 8e 3e 40 bd cd bc eb af 92 bd c0 85 4b be
       0.27808094 -0.025114655 -0.0716246 -0.1987524
0001d0 c9 fc 3d 3e d2 89 04 be b7 5b bb bd 51 5e 77 be
       0.18553461 -0.129432 -0.091483526 -0.24157073
0001e0 08 cc 23 be 1e 4e 6e 3d 7f 17 d3 bc 05 5c 8d be
       -0.159958 0.058179967 -0.02576804 -0.27609268
0001f0 c1 0b e9 be 8f 67 a8 be 80 a5 83 be 05 51 a3 be
       -0.4551678 -0.3289151 -0.25712204 -0.3189775
000200 75 e6 72 bd 98 89 7f bd 5c 96 6e 3c 7e b8 77 bd
       -0.059301812 -0.06238708 0.014562216 -0.06047868
000210 e0 f6 89 be 4b 68 66 bc 59 fc aa bc 80 26 a2 bd
       -0.26946163 -0.014062951 -0.020872282 -0.079174995
000220 44 69 0f be 43 5e 44 be 40 41 e0 3b e3 af 61 3d
       -0.14005 -0.19176583 0.006843716 0.05509938
000230 fe c4 1e 3e d1 be 78 bd 05 2b 6a 3e 33 ff e6 bd
       0.15504834 -0.06072885 0.22867973 -0.11279144
000240 d0 df d7 3d 3f 96 47 3e 4d bd 97 3e 8a 32 ad 3e
       0.10540736 0.19490908 0.29636613 0.3382762
000250 1e b9 9a 3e 77 ce 27 3d
       0.30219358 0.040968385

conv1.bias f4 [6]
000000 4c 7b c5 bc 50 b4 0b be f9 49 d3 bb 9b d4 4f be
       -0.024106644 -0.13643003 -0.006448027 -0.20295946
000010 5b ef 3f 3e ed 58 c6 bb
       0.1874365 -0.0060530812

conv2.weight f4 [16, 6, 5, 5]
000000 d7 4b ba 3d 00 4f 80 3d 15 48 a6 3d e8 65 81 3d
       0.090964966 0.06265068 0.08119217 0.06318265
000010 2d fd ac 3e 16 e6 d5 3c 6f 31 3b 3a 98 52 c8 bd
       0.33786908 0.02611069 0.000714085 -0.097813785
000020 e2 74 eb 3c ae b5 0b 3e cc 12 57 3a b1 92 c7 3d
       0.028742258 0.13643524 0.00082044 0.09744776
000030 1d 6e e3 3c c3 40 3b bd 40 94 c5 3d 10 3c cd 3c
       0.027762467 -0.04571606 0.09647417 0.025053054
000040 54 79 89 3d 87 4a 04 bc e6 44 2a bd 2a c2 d7 3d
       0.06712595 -0.008074409 -0.041569613 0.10535081
000050 93 38 06 bd a4 14 33 3d ac ee a2 3d 56 87 76 bd
       -0.032768797 0.043720856 0.07955679 -0.06018766
000060 0a 83 14 3e 10 4e ab 3d 5f df 8a 3d 20 9e e0 bc
       0.14503112 0.083644986 0.06780886 -0.02741915
000070 07 63 bf 3d c2 14 7a 3e 14 fa d4 3d 39 a1 b6 3d
       0.0934506 0.24421981 0.10399261 0.089174695
000080 0e a2 93 3c aa b2 cc 3d d7 86 16 3e 87 a1 e3 3c
       0.01802161 0.09995015 0.14699875 0.027786983
000090 57 a6 f6 3d 31 9d da 3d 00 4c 90 3d 64 05 1d 3e
       0.120434456 0.10674513 0.07045746 0.15334088
0000a0 12 ad 16 3d 21 a5 1e 3d f8 33 f9 3c 1a 4f 95 3d
       0.036786146 0.038731698 0.030420288 0.07290478
0000b0 26 58 84 3d 13 c5 95 3d df 87 34 3e 4b c4 b0 3d
       0.064621255 0.073129795 0.17629956 0.0863119
0000c0 87 0e 82 3d b6 17 5c 3d be e8 f3 bd 06 c4 e3 bc
       0.06350427 0.05373355 -0.119096264 -0.027803432
0000d0 0a 51 82 bd c6 fc 70 be 4b 2b 57 be 3a 78 64 3c
       -0.06363113 -0.23533925 -0.21012609 0.01394468
0000e0 cf 41 7f 3c e2 81 aa bc bf 60 2a be a4 24 b8 bd
       0.015579655 -0.020813886 -0.16638468 -0.08991364
0000f0 6c 14 03 3c 45 4d 1d 3c d7 9e d7 3b b4 06 54 be
       0.008000474 0.009600942 0.0065802145 -0.20705682
000100 53 88 67 be c4 63 e1 3d 79 cc 45 bd a0 4e 41 bd
       -0.22610597 0.11005357 -0.048290703 -0.047194123
000110 bf 59 4c be 08 5c 92 bd 08 b5 1b 3e 35 4a d9 3d
       -0.1995611 -0.0714646 0.15205777 0.10609857
000120 00 c9 80 bd c8 92 7c be a1 be 81 be 9c e3 f5 bc
       -0.06288338 -0.24665368 -0.2534075 -0.03001576
000130 6c 6c 21 3b 4b de 29 3d 8e d0 04 3e 23 bc 61 3e
       0.0024631275 0.04147176 0.12970182 0.22044425
000140 08 89 d9 bd c3 7a 00 be d4 1f f0 bd e4 ba f9 bc
       -0.1062184 -0.1254683 -0.11724821 -0.030484624
000150 83 31 57 3e 2f a5 af bd aa 5a 26 bd 35 08 15 be
       0.21014981 -0.08576428 -0.040613808 -0.14553912
000160 2b 06 22 bd c9 3d 0d 3e f1 73 40 bd b0 8d 7e 3d
       -0.039556663 0.137931 -0.04698557 0.062146842
000170 4d 2b b5 bd 40 0f 52 bc da 15 30 3e 80 22 68 bc
       -0.088461496 -0.012821019 0.17195836 -0.014168382
000180 72 62 77 b8 2d 27 4d bd c1 c8 3f bd 89 80 79 3d
       -5.8981073e-05 -0.05008619 -0.046822313 0.060913596
000190 f0 09 19 3d c3 51 9e bd 98 81 a8 3b 93 3e ad bd
       0.037362993 -0.077304386 0.005142402 -0.08459201
0001a0 6a ab 46 be ba bc b4 3c 7d 94 0e 3e 50 4d 41 3d
       -0.19401327 0.022062648 0.13923831 0.04719287
0001b0 df 22 16 3d 59 d6 a9 bd 39 9e 07 3c d9 7e 00 3c
       0.03665435 -0.08292837 0.008277469 0.007842743
0001c0 a8 a4 5c bc e8 c0 f4 bd 06 5f 2d be eb d9 9a bc
       -0.0134669915 -0.119508564 -0.1693078 -0.01890274
0001d0 21 ab 86 3d 76 94 a5 3d 60 93 36 3d f7 e3 22 be
       0.06575609 0.08084957 0.04457414 -0.15907274
0001e0 8e ce f8 bb 23 12 bc 3c 1e 90 64 3d cd 36 c5 bd
       -0.0075929826 0.022957867 0.055801503 -0.09629593
0001f0 53 52 f1 bd c6 b8 03 be a4 2a a2 bc b1 ad be bd
       -0.1178328 -0.12863454 -0.019795723 -0.09310473
000200 c9 30 26 be 1d 78 35 be 4a 1b 22 be ec e2 ba 3d
       -0.16229548 -0.17721601 -0.15830722 0.09125313
000210 63 8a 45 3d bf 68 23 be 35 15 15 be 34 a4 11 be
       0.04822768 -0.15957926 -0.14558871 -0.14222795
000220 03 0b 1d be a8 3d 1e be 01 e9 21 bd a4 cc 9c bd
       -0.15336232 -0.15453207 -0.03952885 -0.076562196
000230 0f 3b 88 bd d9 0c b8 bd 31 cc dc bd 9c f9 e8 bd
       -0.066518895 -0.089868255 -0.10781134 -0.11375734
000240 31 9e b3 bd f2 25 cb 3d 3a 00 01 bb ae c7 a5 bd
       -0.08770407 0.09919347 -0.0019683973 -0.080947265
000250 ac d4 36 be fc fc b2 bd ad 42 4c bd 34 4c 88 3d
       -0.17854565 -0.08739659 -0.049868274 0.066551596
000260 71 51 7d 3d 46 bf 00 3e 10 45 64 3e 7a a8 ed 3c
       0.061845247 0.12572965 0.2229197 0.029011
000270 56 df 81 bd 4f 6f 44 3d 1a e8 d1 3d 9d f2 8b 3d
       -0.06341426 0.047957715 0.10249348 0.06833384
000280 b5 c6 ba 3d 0b 5b f2 3d 81 d0 9e 3b a6 d2 f9 3b
       0.091199316 0.11833771 0.004846633 0.007623988
000290 40 28 8c bd 29 ae e4 3c 9b 60 d4 3d 01 54 98 3d
       -0.068436146 0.027915077 0.103699885 0.074378975
0002a0 90 08 31 bd ab 35 a5 bd 91 d6 b7 bc 39 cb 08 bd
       -0.043221056 -0.08066877 -0.02244118 -0.033396933
0002b0 fd af 12 bc c4 31 f3 3c f5 f6 ad 3d 1b c4 85 bd
       -0.008953092 0.029686816 0.08494369 -0.06531545
0002c0 19 ca f5 bd 02 f9 d8 bd de b8 68 3d b5 5d 4c 3c
       -0.12001438 -0.105943695 0.056816928 0.012473513
0002d0 4b 75 0a 3c 18 50 bb 3d 7e cf 86 bc 73 3a 3d bd
       0.008450816 0.09146136 -0.016456362 -0.04619832
0002e0 a0 91 8f bb 21 f3 14 3d 54 d3 e4 3c 0a 92 a6 bb
       -0.0043813735 0.03636468 0.0279328 -0.005083327
0002f0 35 1e 85 bd cb bd 85 bd a6 0a 23 3e 34 21 2f 3d
       -0.06499902 -0.06530341 0.15922031 0.042756274
000300 21 f9 6b 3d ff 37 00 3e 51 08 6e 3d 22 87 ff 3d
       0.057610635 0.12521361 0.0581134 0.124769464
000310 66 eb 09 3e ec 81 17 3e 8b 78 22 3d 58 d4 8f 3d
       0.13468704 0.14795655 0.03966574 0.07022923
000320 e9 75 6b bd 8d 80 88 3c c7 08 10 bd f2 3a 01 bd
       -0.057485495 0.01666286 -0.03516462 -0.031550355
000330 37 dd 78 be 4f b8 eb bd b5 12 c8 bd 68 eb 68 3c
       -0.24303137 -0.115097634 -0.09769193 0.0142162815
000340 b8 c6 49 bc 79 62 0c be 4c a9 34 bd d0 79 fe bd
       -0.012315445 -0.1370944 -0.044106767 -0.12425578
000350 7a c5 fa bd 86 e2 a8 3c 9c 65 eb bc dc fc 13 be
       -0.12244697 0.020615827 -0.028734975 -0.14451927
000360 b0 4a 98 be 39 34 6f be 4c f7 21 be 0e f6 38 be
       -0.29744482 -0.23359765 -0.15816993 -0.18062612
000370 fe 68 85 be 46 43 8e be 79 0c 7e be f6 49 5f be
       -0.26056665 -0.277857 -0.24809445 -0.21805558
000380 8f 10 88 bd 67 19 7a 3d 85 7a 10 3e 5a 6e b2 3d
       -0.06643783 0.06105938 0.14109237 0.08712454
000390 b2 5e 84 bb 0b 0e dd 3d 4a b6 03 bd 6a 41 4d bd
       -0.004039609 0.10793694 -0.032156266 -0.05011121
0003a0 ae 0f 72 3c 7c 5c e5 bc 54 67 ce bd cc 9a 07 bd
       0.014774246 -0.027998202 -0.10078302 -0.03310661
0003b0 d2 0a 81 bd 76 4e 02 be d9 d6 4b be 4b 34 4a be
       -0.06300892 -0.12725243 -0.19906177 -0.1974651
0003c0 d7 4e 37 be 81 61 25 be 8b 42 89 be 6d 37 a4 be
       -0.17901169 -0.16150476 -0.2680858 -0.32073537
0003d0 b2 a6 3a bd 60 29 97 bd 1c f5 02 be 95 f7 05 be
       -0.04556913 -0.073809385 -0.12788814 -0.13082726
0003e0 a7 3c aa bd bb 5a 46 bd bc b8 88 bd 8f 70 47 bd
       -0.0831235 -0.04842637 -0.0667586 -0.04869133
0003f0 10 50 bf bd ec 9d e7 bd 7a 6e 5d be 56 b6 04 bd
       -0.093414426 -0.11309418 -0.21624175 -0.03240045

conv2.bias f4 [16]
000000 b6 d3 31 3d 04 e9 de bc d5 a8 b6 bc 57 23 8a bd
       0.043414794 -0.02721072 -0.022297302 -0.06745022
000010 c5 28 be bd 0b 47 43 3e 14 91 a8 3c 18 32 d1 3c
       -0.0928512 0.1907007 0.020576991 0.025536582
000020 98 60 d7 3d 71 f4 fa 3c be 58 0c be ff ff 8b bc
       0.10516471 0.030634137 -0.13705727 -0.017089842
000030 eb b1 9e 3d 66 5d 01 3d 37 46 08 3e 55 56 c9 3d
       0.07748779 0.031583212 0.13308035 0.0983092

fc1.weight f4 [120, 400]
000000 73 29 c6 3c 96 1d 0f 3e 25 e9 fc 3c cd ea 9e bd
       0.024189686 0.1397613 0.03087289 -0.077596284
000010 03 c8 da 3d cb 40 3e bd cd 94 ae 3b 63 64 bf bc
       0.106826805 -0.04644851 0.005327797 -0.023363298
000020 12 c9 78 bd 3a 98 ae 3d 31 d7 91 3c 9e 8d fa bc
       -0.06073863 0.08525129 0.017802807 -0.030585106
000030 53 2a de bd e8 21 14 be f3 70 26 3e 10 98 b1 bd
       -0.108479165 -0.14466059 0.16254024 -0.08671582
000040 cb 47 be 3c aa c7 19 be cf 42 45 be 00 5e 7b 3e
       0.023227593 -0.15017572 -0.19263767 0.24547577
000050 f9 55 cf bd 64 b8 e6 ba 40 16 db bd 31 c0 29 be
       -0.1012382 -0.001760256 -0.10697603 -0.16577221
000060 18 30 8a 3e 5e 4c ae 3d 04 84 c6 3d cc d8 9c 3d
       0.26989818 0.0851066 0.09693149 0.07658538
000070 ea d8 7a bb ad b7 96 bc df 98 8a bd 27 bd 8b bc
       -0.0038276264 -0.01839813 -0.06767439 -0.017057968
000080 bb 5c 85 3c c2 fb a7 bc 80 38 ef bc 6c d3 49 be
       0.016279569 -0.02050579 -0.029201746 -0.19709557
000090 43 2e 3e be 8b ed 38 be c7 3a 1a be 77 75 d9 bd
       -0.18572335 -0.18059365 -0.15061484 -0.10618108
0000a0 95 c1 04 be 81 d7 3d be 2b 54 5a be 6f ef 4e be
       -0.1296447 -0.1853924 -0.2132117 -0.20208524
0000b0 5a a2 85 bd 34 c4 3f bd dd 8e 14 3d 90 5d 81 bc
       -0.06525107 -0.046817973 0.036269058 -0.015791684
0000c0 9d fd c8 bc 60 5d 38 bd 09 a6 cb 3c 7d ce ba 3d
       -0.024534995 -0.045010924 0.024859445 0.09121416
0000d0 c1 5a 15 3d 05 a5 40 3d ed 82 bf bc 53 26 67 bc
       0.036463503 0.047032375 -0.02337786 -0.014108258
0000e0 52 43 0e 3d f1 89 b9 bd 0f 51 02 bd 5c af ce bd
       0.03473217 -0.09059513 -0.031815585 -0.10092041
0000f0 28 8a 43 be 19 03 24 be be 06 b8 be 06 0b 9d be
       -0.19095671 -0.16016807 -0.35942644 -0.30672473
000100 75 cf f5 bd 97 9c 03 be d6 3c ee bd a8 f6 19 be
       -0.1200246 -0.12852703 -0.11632697 -0.15035498
000110 28 60 51 be 0e 7b 8c bd 72 fb bb bd ca ad 41 bd
       -0.20446837 -0.06859408 -0.09178819 -0.04728488
000120 8b 5c 12 bc 0a 40 fe 3c 42 bf bd 3d 52 4b 63 3d
       -0.008933197 0.031036396 0.09264995 0.055491753
000130 f9 d7 8c 3d 4c 48 b8 bd d8 24 f2 bd 81 ae bc 3c
       0.06877131 -0.089981645 -0.11823434 0.023032429
000140 38 22 16 3c 29 b1 82 bd 76 b1 55 be 8f 19 84 be
       0.009163432 -0.06381447 -0.20868477 -0.2580075
000150 7e 68 da bd fd 3f c4 bd 63 86 ff bc 48 8b 77 be
       -0.106644616 -0.09582517 -0.03119201 -0.24174225
000160 be c5 cb be 2d 13 47 be 0e 25 50 bd 09 b9 de bb
       -0.39799303 -0.19440909 -0.050816588 -0.0067969603
000170 c8 b9 4b be 11 69 cd be 3e 38 a7 be fd 55 fe 3d
       -0.19895089 -0.40119222 -0.32660097 0.12418745
000180 25 ec 84 3d 8e 1f 08 be 19 1f 5a be dd 6f a4 be
       0.064903535 -0.13293287 -0.21300925 -0.32116595
000190 43 6a 28 bc 2d 1e 95 bd 28 a8 c4 3c 80 bb 88 3d
       -0.010279241 -0.07281146 0.024005964 0.06676388
0001a0 e6 ef cb bb c5 ec 56 bd 95 e7 a2 bd d8 10 ff bb
       -0.0062236665 -0.052471895 -0.07954327 -0.0077839904
0001b0 88 e7 fc 3d 63 c8 42 bd f8 fc 06 bd 75 4f e4 bd
       0.123488486 -0.047554385 -0.032956094 -0.11147968
0001c0 d8 d2 93 bd 51 89 d5 3d 8d 9f 96 bd 1f d9 cd 3d
       -0.0721795 0.10426582 -0.07354651 0.10051178
0001d0 00 1b a5 bd d1 26 b7 ba 7a 77 db 3d c9 ba 76 3d
       -0.080617905 -0.001397336 0.10716148 0.060236726
0001e0 5f 79 a2 3d 3c b9 00 be c9 32 2b 3b dc 87 4c 3d
       0.07933306 -0.12570661 0.00261228 0.049934253
0001f0 28 b5 1a 3d 58 7c c6 bd 60 08 82 bd 3e 96 73 bc
       0.03777042 -0.096916854 -0.06349254 -0.0148673635
000200 b6 c5 16 3d ab cc 8e 3d d1 37 18 bd ad 4f f2 3c
       0.036809646 0.06972631 -0.037162606 0.029579008
000210 0a 49 bf 3d e6 ac 7b 3d 00 64 74 3e c4 f1 91 3b
       0.09340103 0.061444186 0.23866272 0.0044538695
000220 52 3b 8a 3d c7 5d f4 3d 80 80 f3 3d 5f df fb 3d
       0.06749596 0.11931949 0.11889744 0.12298464
000230 5a 0b 4f 3d 80 b5 34 3d e8 c0 3b 3e 6d 45 00 3e
       0.050547935 0.044118404 0.18335307 0.12526484
000240 1d bd fb 3d ea 8e b3 3d 2a 08 1d 3e 5d 87 b3 3e
       0.1229193 0.08767493 0.15335146 0.3506421
000250 30 a4 55 3e d2 ac 50 3e f9 d1 db bc 39 69 84 bd
       0.20863414 0.20378426 -0.026833521 -0.06465382
000260 a9 1d 22 3d 41 61 8f bb b7 95 c3 bc ea a4 90 be
       0.039579067 -0.0043756072 -0.0238751 -0.2825082
000270 29 7f bf bd 69 fd 93 3d 86 5b 9a 3d 30 6c c9 bd
       -0.09350426 0.072260685 0.07536988 -0.09835088
000280 fd 30 10 be 71 5a 00 bd bf 5d 06 bc 3e d6 e0 bd
       -0.14081188 -0.03133625 -0.008201062 -0.109783635
000290 35 74 3c bd 7a 16 93 bd e9 a1 27 3d 33 5b 18 3d
       -0.04600926 -0.071820214 0.040925894 0.03719635
0002a0 c0 c6 56 3c 29 91 af bc dc c6 f2 bd 08 ab ec bc
       0.013108909 -0.021431522 -0.11854336 -0.028890148
0002b0 b4 d1 b3 bc db 0f 31 3d 7b 29 a2 3d 74 45 52 3e
       -0.02195058 0.04322801 0.07918068 0.20534307
0002c0 6f 14 5f 3d 47 9b 19 3e a6 41 85 3d f1 6a 18 3d
       0.054462846 0.1500064 0.06506662 0.037211362
0002d0 6f aa f1 3d a5 b7 05 3d 46 68 ad 3c 30 15 64 bd
       0.11800086 0.03264584 0.021167886 -0.05568427
0002e0 7f 7a 31 3c 4a 1a 4b bd 13 23 08 bd d9 8a 94 bc
       0.010832428 -0.049585618 -0.033236574 -0.018132614
0002f0 5e cb ff bc 8b b8 3d 3d f3 e2 4c be 4f 14 9f bd
       -0.031224903 0.046318572 -0.2000845 -0.077675454
000300 39 98 26 be d8 2c 0a be 62 8c 13 3d 24 b8 05 be
       -0.16269006 -0.13493669 0.03602255 -0.13058525
000310 42 ba 3c be 8c 78 04 be d2 76 e0 bd ed f6 56 3e
       -0.18430427 -0.1293661 -0.10960163 0.20992632
000320 0c 1c 5c 3e 03 75 2a be 09 3d 9e bd 6e 23 40 bd
       0.21495074 -0.16646199 -0.07726485 -0.04690879
000330 3a 73 05 be 08 64 8f 3e a6 64 49 be 51 4f 0b be
       -0.13032237 0.28006005 -0.196673 -0.13604476
000340 c4 54 6a bd c3 1c c9 bc fe 55 4f 3e 68 6e 6e be
       -0.057209745 -0.024549847 0.20247647 -0.23284304
000350 e6 32 f2 bd 1c b6 b8 bd 63 8b f7 ba 14 5d f1 3d
       -0.11826114 -0.090191096 -0.0018886145 0.11785331
000360 df 15 7c be b1 42 fc bd 52 ae 15 be b3 4f 23 3d
       -0.24617718 -0.12317408 -0.14617279 0.03987093
000370 10 85 24 bd dc ff 92 be c8 77 06 bd fc 5d 37 bd
       -0.04016596 -0.2871083 -0.032829076 -0.044767365
000380 8d 54 6a 3e 59 7f 3f 3c 29 31 27 3e 86 27 84 3d
       0.22883816 0.011688077 0.16327347 0.06452851
000390 19 15 98 bd 80 3a f8 3d ca 73 9f 3c 71 6e e8 3b
       -0.07425899 0.12120533 0.019464392 0.0070932438
0003a0 d8 01 3d 3c af cc 57 be cf 2f 47 bd 1a bf 87 bd
       0.011536084 -0.21074174 -0.04862958 -0.066282466
0003b0 8b ae b1 3d 4a 67 65 3c 6d 46 de bd ac 47 e8 bc
       0.086758696 0.014001677 -0.108532764 -0.028354488
0003c0 e5 84 cb bd 14 3b 0d 3d f3 d0 97 bd 28 db 17 be
       -0.09937457 0.03448017 -0.07412901 -0.14829695
0003d0 25 94 c3 3d de 80 7a bd e5 9d 1c 3c c3 2c 23 3b
       0.09549741 -0.061158054 0.009559129 0.0024898506
0003e0 84 69 86 3b 11 8f 22 3e 45 d5 90 3e 68 57 05 3e
       0.004101934 0.15874888 0.28287712 0.13021624
0003f0 55 07 26 be ba cc 0b be f2 f3 1f be fe c4 fe 3c
       -0.16213734 -0.13652316 -0.15620402 0.031099793

fc1.bias f4 [120]
000000 5b 5a 83 bd 89 72 6e 3c a4 b2 2d be 74 ae 20 3e
       -0.06413718 0.0145536745 -0.16962677 0.15691549
000010 69 0d ba 3d f6 34 77 bd 6b 90 8a bc b9 6f 27 bd
       0.09084589 -0.06035324 -0.016914567 -0.04087803
000020 09 c0 8a bc 4b 4f b9 bd a0 77 b1 3c 6c 84 10 bd
       -0.016937273 -0.09048327 0.021663487 -0.035282537
000030 a7 de db 3c f9 b8 c1 3d 83 4a 66 bd 76 94 e2 3c
       0.026839567 0.09459109 -0.056223404 0.027658682
000040 22 c5 11 3e d8 f5 19 bd 7d 43 32 bd 1f 61 1c bd
       0.14235356 -0.03758797 -0.043521393 -0.03817856
000050 74 a2 41 bd 26 62 fb 3c c8 db 52 3d 9c 14 64 3c
       -0.047274068 0.03068645 0.05147913 0.013920929
000060 ec 1b 16 3d 69 7c 80 3c 65 82 79 3d 1c 3b aa 3c
       0.036647722 0.015684323 0.06091537 0.020780139
000070 6f c9 c1 bc a1 d3 f6 bb 73 34 5c 3b 16 30 42 3c
       -0.023655621 -0.0075325524 0.0033600598 0.011852285
000080 6b ae 9b bc 4c cb 68 bd eb 0d 8a 3c 83 00 ba 3d
       -0.019004067 -0.056834504 0.01685234 0.09082129
000090 27 39 53 bd b8 b7 9e 3c e3 57 b7 3d e4 ab a8 bc
       -0.051568177 0.019374713 0.0895231 -0.020589776
0000a0 9f 73 c6 bc a0 f8 27 3d 5e bd 8d 3d ae 8b 50 bb
       -0.024225054 0.04100859 0.069208845 -0.0031821537
0000b0 c4 8b 7a bd 36 c5 40 bd 6a b1 04 bd 8a d3 a4 3d
       -0.061168447 -0.047063075 -0.032395758 0.080481604
0000c0 82 b6 cd bb 56 e0 57 3d a3 20 5e 3d 37 e8 55 3d
       -0.00627786 0.052704178 0.054230344 0.05222341
0000d0 63 a5 43 3c 01 98 e3 3d 30 77 01 bd 58 02 24 3d
       0.011941287 0.11112977 -0.031607807 0.040041298
0000e0 a9 05 dc bc 1f fa ac 3d 1e 8d 48 3d b7 31 0b 3d
       -0.026858168 0.08446144 0.048962705 0.03398296
0000f0 49 68 7a 3c bc 50 a4 3d 50 23 d0 bc fa 6c d7 3d
       0.015283653 0.08023211 -0.025407463 0.105188325
000100 e1 19 02 bc 8f b5 83 bd 4d c2 9f bc 90 b0 de bc
       -0.00794074 -0.06431114 -0.01950183 -0.027183801
000110 16 58 88 3d a8 8e 68 bc f4 f2 aa 3c 11 a4 85 3d
       0.06657426 -0.014194168 0.020867802 0.06525434
000120 33 5c 97 bc 77 26 99 3c 25 e7 bd 3d 41 3e dd 3c
       -0.018476581 0.0186951 0.09272603 0.027007224
000130 ba 31 9d bc 39 85 1d bd 1a 2c 6b 3b d7 7e 1a 3d
       -0.01918875 -0.03845713 0.003588444 0.03771862
000140 a6 ef de b9 81 5b 8d 3d ce 7a 6b 3b 58 91 8e bd
       -0.00042521692 0.069022186 0.0035931352 -0.06961316
000150 d3 8e 97 3a 60 81 3e 3d c0 76 dc bc 64 ff bb 3b
       0.0011562951 0.0465101 -0.026912093 0.005737232
000160 96 e4 81 3d d8 a3 01 bd b0 d8 63 3c ff 74 8c bb
       0.063424274 -0.031650394 0.013906643 -0.004286408
000170 ad db 18 3a 22 32 3c bd e7 ee fb bc 09 54 b1 3d
       0.0005831074 -0.045946248 -0.030753566 0.086586066
000180 a3 ce 27 3d 9d b5 a8 bd 14 3e 3b bd 8f e8 c9 3d
       0.04096855 -0.08237765 -0.0457135 0.0985881
000190 dc bf 2e 3c 27 20 87 3c f6 5c 76 bd fd 3d 9d 3d
       0.01066586 0.016494824 -0.06014725 0.07677839
0001a0 f2 21 ba 3d a2 09 76 3d f9 22 26 bd cd d2 32 bc
       0.09088506 0.06006778 -0.040560696 -0.010914517
0001b0 76 0d 7e bd 14 4b 8e 3d f5 29 17 3d 80 f5 01 3c
       -0.062024556 0.06947914 0.036905248 0.007932067
0001c0 d6 7e 11 3d 1d 8a 44 bd 43 6e 1b bb ad c2 80 bd
       0.03552135 -0.047983278 -0.0023716844 -0.062871315
0001d0 83 d6 24 bc 43 ec 00 be ef 0b ec bd d7 f4 37 bd
       -0.010060909 -0.12590127 -0.11525714 -0.04491123

fc2.weight f4 [84, 120]
000000 af d6 6b 3e 61 7a c9 39 57 b6 86 be 4a 17 cd bc
       0.23031114 0.00038428887 -0.2631099 -0.02503552
000010 94 60 35 bd fd 71 1a be 5e ec 83 bd fb f9 7d be
       -0.044281557 -0.15082546 -0.06441568 -0.24802391
000020 46 f9 a8 3d 8f 98 0e 3c 36 29 fe bd 0e 3b 24 bd
       0.0825067 0.008703365 -0.12410204 -0.04009538
000030 7e 73 26 3e 86 95 89 be 86 ed a0 3d 29 3d b9 3d
       0.16254994 -0.2687189 0.07857804 0.090448685
000040 79 69 07 be d6 59 a5 bd 02 51 15 3e 2d a6 16 3e
       -0.13223828 -0.080737755 0.14581683 0.14711829
000050 32 d9 16 bd 4d e6 03 be f4 c1 c5 3d 48 a1 8f bd
       -0.036828227 -0.12880822 0.09656134 -0.07013184
000060 fa aa 3e 3d 21 b6 06 bd 1c 1e 51 3d 2e 6d 00 be
       0.046549775 -0.032888535 0.051054105 -0.12541649
000070 cf bd 82 3d f6 6c c0 bb ce f3 6f 3d 3d 0e 7c 3d
       0.06383859 -0.005872364 0.05858212 0.061537016
000080 a9 e5 19 3b a9 90 da 3d 7b 32 08 3d d1 db d2 3c
       0.0023482835 0.10672123 0.033251267 0.025739582
000090 e0 a6 ed bd db c3 94 bc 81 0e 58 3b 6a 7e 59 3d
       -0.116040945 -0.018159797 0.003296763 0.053099073
0000a0 34 fe 8c 3d e8 f7 84 bc 27 a8 f0 3b 42 b1 a9 3c
       0.06884423 -0.016231492 0.007344264 0.020714406
0000b0 4b f2 a1 bd af 32 a3 bc ff 63 01 be 01 66 bc 3d
       -0.07907542 -0.019921629 -0.12635802 0.09199143
0000c0 5f ee d1 3c 5c ff 24 be 15 ef 54 3c 4a 65 91 bb
       0.02562636 -0.16113037 0.012996455 -0.0044371234
0000d0 a9 03 92 bd 31 77 12 3d f7 c0 bb bd 1b 34 d4 3d
       -0.07129604 0.0357582 -0.091676645 0.10361501
0000e0 d0 86 94 3d 19 2c 43 3e f1 fd 91 bd dd 77 da 3c
       0.07252276 0.1905979 -0.071285136 0.026668483
0000f0 7e 7e d0 3d 57 bc 07 3e 7f 50 6a 3d a1 9b b0 ba
       0.101803765 0.1325544 0.057205673 -0.0013474115
000100 10 fb 32 3d b0 f3 a2 bc 96 8e a4 3d 29 cf 18 3d
       0.043696463 -0.01989159 0.080350086 0.03730694
000110 df 13 76 bc dd a0 e9 3d 04 46 6d bd 9f df ae 3d
       -0.015019386 0.11407635 -0.0579281 0.08538746
000120 e3 43 c3 ba 1b 4d e8 3d cb 3b d4 3d bf 4c 5d be
       -0.0014897551 0.11342832 0.10362967 -0.21611308
000130 17 d9 e2 3d 9b 14 97 bd 41 8e 2f 3e af 92 b4 bd
       0.11076563 -0.07376977 0.1714411 -0.0881704
000140 86 82 45 3b 8b 30 32 3d 41 4f 66 3d 85 cb b9 3d
       0.0030137612 0.043503325 0.056227926 0.090720214
000150 80 0c c7 ba 04 ec 1b be f0 72 8d bb 09 32 27 3c
       -0.001518622 -0.15226752 -0.00431668 0.0102048
000160 bf b8 30 3e 63 1e 0c 3d c1 9f ac 3d 7e cf bb bd
       0.17257975 0.034208667 0.08428908 -0.09170435
000170 08 d9 51 3d 20 70 00 3e d4 08 bf bd 37 25 8d 3d
       0.051232368 0.12542772 -0.09327856 0.06891864
000180 1c 7c 4a 3d 3c be 1e be d0 b9 e9 3c e4 00 0f 3e
       0.049434766 -0.15502256 0.028530985 0.13965183
000190 82 df bd bd 04 ef 37 bb 3a 80 5e 3d bb 4f ab 3d
       -0.09271146 -0.0028066048 0.054321505 0.08364817
0001a0 7f f7 63 bc 1a 6b 57 3b 7d 41 34 3e 2d 66 20 bd
       -0.013913988 0.0032870234 0.17603107 -0.039159942
0001b0 90 78 49 bc 44 88 90 3d 11 9a a3 bd 73 7f 60 bc
       -0.012296811 0.070572406 -0.0798837 -0.013702261
0001c0 1c 80 8a 3d 62 17 47 3e 11 16 e9 bc bf a4 67 3e
       0.06762716 0.19442514 -0.028452905 0.2262144
0001d0 3a 05 3a bd a5 82 29 3e 13 d2 4a be b9 a0 29 bd
       -0.04541514 0.16553743 -0.198067 -0.041413043
0001e0 2b c2 29 3e d3 5c 95 bd ae 85 c9 be e5 8f a7 bd
       0.16577975 -0.072930954 -0.39359802 -0.081817426
0001f0 b0 14 09 be 36 5c 29 be 12 f6 b8 bc 5d 6d 23 be
       -0.13386798 -0.16539082 -0.022578273 -0.15959688
000200 a2 2d 05 3c 6d b5 18 bd b6 93 b0 be e9 5d c7 3b
       0.0081285555 -0.037282396 -0.34487695 0.006084193
000210 3a ef fd 3d fe 9d a0 bd c0 9b c7 3c 8b ae 7c 3d
       0.123991445 -0.078426346 0.02436626 0.061689895
000220 8c ac 5b bd e3 92 af bd 3c 19 4e 3e c7 de 2f 3d
       -0.05363135 -0.08572938 0.20126814 0.042937066
000230 fc 2a 61 3d 50 41 0b bd c5 1d d0 3c 73 11 12 bd
       0.054972634 -0.033997834 0.02540482 -0.035661172
000240 f0 a6 f7 bd 99 cc 8a 3d 6b 93 0d 3e dc f2 48 be
       -0.12092388 0.06777305 0.13825767 -0.19623893
000250 c4 d9 16 3e 30 ce 1c bd 04 ff 03 3d e1 b4 d0 bd
       0.14731508 -0.038282573 0.032225624 -0.1019075
000260 f1 55 20 be 1e ee 4c bd 91 d4 8c 3d ad 11 c1 3d
       -0.15657784 -0.050031774 0.06876481 0.094271995
000270 3c 22 9a be 81 1a a8 bc 62 97 1c 3c 77 dd 83 bd
       -0.30104244 -0.02052045 0.009557577 -0.064387254
000280 24 0b 31 bd 34 34 d8 bc 28 e5 62 3d 8a 6c 16 3d
       -0.043223515 -0.02639208 0.05539432 0.036724605
000290 37 a4 a4 3b 1a 90 87 3d 91 d8 3b 3e 80 62 14 3e
       0.0050244587 0.06619282 0.18344332 0.144907
0002a0 01 07 d8 3d 3e 0f a7 3c b5 66 9e 3d 5c 43 19 3e
       0.10548211 0.02039301 0.077344336 0.14967102
0002b0 57 fd c2 3d c8 9c 05 be 7a 88 21 be 91 f7 2a 3e
       0.09520977 -0.13048089 -0.15774718 0.16696002
0002c0 3d 77 0e 3e f9 e1 69 3e 4d 22 9a 3d 96 d4 43 be
       0.13912673 0.22840108 0.075260736 -0.19124064
0002d0 02 66 ae 3d b6 94 0f 3e d6 c6 5c 3d c3 a8 f3 3d
       0.0851555 0.14021572 0.053900562 0.11897423
0002e0 6c 1e 5c 3d 00 f4 4d 3a 11 0e 81 3d ea c5 2e bd
       0.05373995 0.0007856488 0.06301511 -0.042669214
0002f0 80 8d 18 bd fd 0b 9f 3e 57 81 8d bd af 1c 7d b7
       -0.03724432 0.31063834 -0.06909435 -1.5086654e-05
000300 4c b7 8b 3d 4b cc 7c bd 00 17 40 3e 05 60 00 be
       0.068220705 -0.061718266 0.18758774 -0.12536629
000310 a4 3c 1b 3e 95 30 22 bc 1c 96 3f 3c 56 1e 2f be
       0.15159851 -0.009899278 0.011693504 -0.17101416
000320 ee 63 73 bc 9d 9a 44 3e 02 65 f7 bc ea 15 3e 3d
       -0.014855368 0.19199605 -0.030199531 0.046407618
000330 25 89 f6 bb 7b ff 3a be 92 72 14 bd 35 8a 6a bd
       -0.007523673 -0.1826152 -0.036242075 -0.05726071
000340 2a f9 a2 3d 02 50 0c bc c3 63 2e 3d c7 bf 21 bd
       0.079576805 -0.008563997 0.04257561 -0.039489534
000350 b4 0d 0b 3d af fe 51 3e f4 b3 0f be 4d 40 a9 bd
       0.033948615 0.2050731 -0.1403349 -0.082642175
000360 1c f7 fb 3c 0f e1 20 bd 54 59 20 bd df a6 3d 3e
       0.03075748 -0.039277133 -0.03914769 0.18520688
000370 e6 da 02 be 50 83 2a bc 83 5a 0c 3d 86 d1 0f 3e
       -0.12778816 -0.010407284 0.034266006 0.1404477
000380 a7 98 13 be 52 76 02 bd 32 e1 9f 3d 6f bf 80 bd
       -0.14413701 -0.03185112 0.078066245 -0.06286513
000390 55 02 84 3d 4a 40 ee 3c 0e 96 22 3d 95 51 04 3e
       0.06445757 0.02908339 0.039693885 0.12921746
0003a0 67 40 3c 3e e7 94 09 3e 61 4f 20 bd a8 e9 38 3e
       0.18383943 0.13435708 -0.0391382 0.18057883
0003b0 3c 4b c3 3e 16 02 8c 3d fa f0 f2 bd 64 c7 b2 3b
       0.38143337 0.06836335 -0.11862369 0.005455898
0003c0 4a cc ad bd f3 e5 b7 3d 41 90 70 3e 4a 72 6e 3c
       -0.08486231 0.08979406 0.23492528 0.014553616
0003d0 7f 40 f6 bd 8a c5 9c 3e ed 09 14 bd f9 0e d2 3c
       -0.120240204 0.3061946 -0.03614228 0.025641905
0003e0 66 68 d2 3c ce 29 af 3c 1a 96 57 3e dc 08 42 3d
       0.025684547 0.021382239 0.21053353 0.04737173
0003f0 28 b3 0d 3e 5b 5d 52 bd be 7b a2 3d 47 d6 5e bc
       0.13837874 -0.051358562 0.07933758 -0.013600892

fc2.bias f4 [84]
000000 5c 46 66 3d 25 eb 89 3e 15 52 9b 3c db c1 0a 3e
       0.056219444 0.26937214 0.018960038 0.13550512
000010 75 06 57 bc fb dc 08 3d 67 f0 b2 3d e3 d2 6f bb
       -0.013124098 0.03341387 0.08737259 -0.0036594204
000020 cf 2a 9f bc 49 23 51 3b 4f 81 1b 3e 6f 3f 07 3e
       -0.019429592 0.00319119 0.15186046 0.13207792
000030 84 f6 a9 bc 98 29 57 bd 34 a5 84 3e c7 aa 53 3e
       -0.02074743 -0.0525299 0.2590729 0.20670615
000040 5c da 81 3d ba 24 28 3e 28 46 1f 3c 9a 2e 8b 3c
       0.06340477 0.1642026 0.009721316 0.016989995
000050 97 43 3d 3d 9c bb 99 bc 88 4f c6 3c 8f e3 0f 3e
       0.046207037 -0.018766217 0.024207845 0.1405165
000060 5f 57 e8 3d 32 ef 69 3c 2c 39 5d be 15 59 b0 3b
       0.1134479 0.01427822 -0.2160384 0.005381713
000070 bb bb 78 bd 92 32 5e bb 7e b0 ff bd fa 1a fb 3d
       -0.06072591 -0.0033904654 -0.12484835 0.12261005
000080 85 f0 b7 3d 96 f4 cc bd 40 44 19 3e 91 ab 5f 3e
       0.08981422 -0.100075886 0.14967442 0.21842791
000090 6b 5f 6f 3c 9d c7 ef bd de b5 9c bc 10 d2 a0 bc
       0.014610152 -0.11707995 -0.01912969 -0.019631416
0000a0 dd e9 bd 3d 9f c0 bf bc 83 70 32 be 8c 41 25 be
       0.092731215 -0.023407279 -0.17425732 -0.16138285
0000b0 2a 77 71 3c 6d 4e e6 bc 95 03 aa 3d c1 bf f4 ba
       0.014737884 -0.028113568 0.083014645 -0.001867287
0000c0 ce 36 33 3d 18 ef a8 bc 30 2f c7 bd be a3 f2 bd
       0.043753438 -0.020621821 -0.09725797 -0.118476376
0000d0 de 62 0e bd a2 ee 64 3e 13 11 d1 3b cc 7a ba bd
       -0.034762256 0.22356656 0.0063802092 -0.09105453
0000e0 01 1e dc 3d 30 12 44 3c 92 d2 87 bd c7 70 83 bd
       0.1074791 0.011967227 -0.0663196 -0.06417995
0000f0 a8 fb 90 3d 28 e5 e9 bd ef bf 6e 3e 3f 2b 39 3e
       0.070792496 -0.11420661 0.23315404 0.18082903
000100 09 97 2a 3e f6 34 79 3c 9b d7 14 3e c4 d4 74 3e
       0.16659178 0.015210381 0.14535372 0.23909289
000110 7e c0 4d bd 76 52 9e bd 31 f0 68 3e d5 98 9f 3d
       -0.050232403 -0.07730572 0.22747876 0.07792822
000120 5e 6c 10 3e 7d 53 c2 3c 5b 82 4d bc 66 95 66 3d
       0.14103839 0.023721451 -0.012543286 0.05629482
000130 08 40 ae 3d 08 75 2a be ba a4 25 be 0e 38 f4 bb
       0.08508307 -0.16646206 -0.1617612 -0.0074529713
000140 d0 85 17 3e 43 ef a8 bd ac 6e 80 3d 34 33 9f 39
       0.14797139 -0.082487606 0.06271109 0.00030364993

fc3.weight f4 [5, 84]
000000 07 93 a4 3c c8 70 fe 3d 24 40 74 be 5b e6 86 be
       0.02008964 0.12423855 -0.23852593 -0.26347622
000010 d7 dc 8f 3c 52 53 96 be 08 0c 16 3e d1 f0 9c bd
       0.01756136 -0.29360443 0.14653027 -0.076631196
000020 f8 59 1b 3e fe 60 44 be 0f 83 d2 bd 37 82 d2 3d
       0.15171039 -0.19177625 -0.10278904 0.10278743
000030 63 d0 15 be 7c 60 1e bd f7 d3 75 be 1d 72 0e be
       -0.14630274 -0.038666233 -0.2400664 -0.13910718
000040 9e b8 97 3e cd 8c 19 be 36 c7 86 3d e3 22 6c 3d
       0.2963304 -0.14995117 0.06580965 0.057650458
000050 56 0d 90 be e6 56 f5 be 78 fe 5b 3e e9 ba 8b be
       -0.28135175 -0.4791786 0.21483791 -0.2729104
000060 7e e5 c4 39 f9 72 80 bd ab c7 89 be 24 4c ce 3d
       0.00037555018 -0.06271929 -0.26910147 0.100731164
000070 8f df cc 3c d5 e8 8c be bb 39 93 bc f9 57 85 bd
       0.025008945 -0.27521387 -0.017971864 -0.0651092
000080 7d fb 26 3e 9c 90 ce bd b2 3f a0 3d 4b 05 a4 bd
       0.16306873 -0.10086176 0.07824649 -0.08008822
000090 65 e0 0b 3e 87 b9 9b bc 62 1a 91 3d db cc 4c be
       0.13659818 -0.019009365 0.0708511 -0.20000021
0000a0 2c 53 84 be 14 a5 52 3e 20 c0 b1 be f6 17 d0 3c
       -0.25844705 0.20570785 -0.34716892 0.02540205
0000b0 37 47 72 3d 28 db 20 3f 35 4d ac 3e 57 14 1f bd
       0.059149947 0.62834406 0.33652654 -0.038837757
0000c0 fb e0 7c 3c 39 27 2f be 80 46 01 bd 1a 36 a8 bc
       0.015434499 -0.17104806 -0.031561375 -0.02053361
0000d0 4c 0b 19 3d d7 43 4b 3c c4 61 ee 3d 69 60 2c 3c
       0.03736429 0.012406311 0.11639741 0.010521033
0000e0 04 5f 7a be e6 c4 a2 3d be cf 34 3b a9 be cf 3c
       -0.24450308 0.07947712 0.0027589644 0.025359469
0000f0 a4 9e c7 3d 9b c5 c7 bd 3a 66 ca bd f9 78 57 3d
       0.09747055 -0.09754487 -0.098827794 0.052605603
000100 ad 68 22 3e a2 b4 a6 3d e2 dc f7 be d3 26 f4 3d
       0.15860243 0.08139922 -0.48410708 0.11921468
000110 14 ab 5f be ef 27 53 be b0 f5 24 3d 99 97 f1 3d
       -0.21842605 -0.20620702 0.04027337 0.11796493
000120 3b 1d c9 3c 42 c7 60 3c bb 89 6e be 47 5c ad be
       0.024550071 0.013719382 -0.23294728 -0.33859465
000130 bb 6b a7 3e 37 be 31 be 96 9f 25 bb c8 93 d5 be
       0.3269938 -0.17357717 -0.0025272123 -0.4171431
000140 eb 0a e1 bd 7c 11 a9 bd 4d 1e 8a be c5 24 ac bd
       -0.109884106 -0.08255288 -0.26976243 -0.08405451
000150 06 dc cf bd 2d fa 8f be ab a4 86 3d 3b 84 f2 3d
       -0.10149388 -0.28120556 0.06574377 0.11841627
000160 b4 d4 9c 3d 8d 4c e8 bd ef 85 82 3d 32 69 d7 bc
       0.076577574 -0.11342726 0.06373202 -0.026295278
000170 b1 e8 8c be ed 11 06 bf 2b 7f 12 3d e1 86 88 3d
       -0.2752128 -0.523711 0.035765808 0.06666351
000180 de b2 43 3e f2 49 db 3d c9 a3 07 be 0d b8 2f be
       0.19111201 0.10707463 -0.13246073 -0.17160054
000190 d8 8f 7c 3d b9 8c 08 3d 6d ef 10 3e bc 6d bd bd
       0.061660618 0.03333733 0.14153834 -0.09249446
0001a0 02 fe 19 3d da de 2c 3c 39 73 d4 bd 50 92 81 be
       0.037595756 0.010551179 -0.103735395 -0.2530694
0001b0 f8 08 71 3d 41 e8 c1 bc 42 d8 17 3e e6 6f 3e 3e
       0.058846444 -0.023670318 0.1482859 0.18597373
0001c0 53 16 4d 3e c4 6b fd 3d 57 b4 b3 bc f7 8d 32 be
       0.20028047 0.1237407 -0.021936579 -0.17436968
0001d0 eb 78 2d 3d 62 9d 1c bd bc 9e 11 be d1 2c 31 be
       0.042351644 -0.03823603 -0.14220709 -0.17302252
0001e0 a6 17 0b be 38 fe 61 bd 2d 48 a5 bd f9 56 2d be
       -0.1358324 -0.055174083 -0.08070407 -0.16927709
0001f0 1f b5 c3 3c fe 38 23 3a 04 37 d8 bd aa 15 c2 bc
       0.023890076 0.0006226449 -0.105573684 -0.02369197
000200 a0 c1 10 3e e9 2f 9b be ee f9 78 3d 8c 7d 96 bc
       0.14136362 -0.3030999 0.060785227 -0.018370412
000210 8b 37 33 3e 13 60 d4 3d 32 ce 2b bd 19 4f f7 bd
       0.17501657 0.10369887 -0.04194469 -0.120756336
000220 50 20 cc 3d 07 06 b9 be 53 59 81 bd 6e 1d 3e 3d
       0.099671006 -0.3613741 -0.06315865 0.046414785
000230 6b b1 f0 3d ee 3b 0b 3d 90 f7 11 be 6d 0f c3 3c
       0.1175259 0.0339927 -0.14254594 0.023811067
000240 0c a9 78 be 4f 0c 18 3e 7a 0b f0 3c aa bb 8e be
       -0.24283236 0.14848445 0.029302347 -0.2787755
000250 04 5e 79 be 17 36 8e be 97 21 a5 be 9c 12 9f be
       -0.2435227 -0.27775642 -0.3225219 -0.31068885
000260 a4 b5 70 bd 07 c5 e2 bc 2b de 7f be c0 63 16 3e
       -0.058766976 -0.02768184 -0.24987094 0.14686489
000270 b5 07 f1 bd 01 be a8 3c 4b 26 81 3e db 6e c7 3d
       -0.11769048 0.020598413 0.25224528 0.09737941
000280 26 b6 9a 3d bd 35 06 bd cb 2d 2e 3c e0 58 98 3e
       0.07554273 -0.032766093 0.010631035 0.29755306
000290 9f a8 62 3c 62 ec f4 3d 01 e4 3b be d3 bf 36 3e
       0.013834148 0.11959149 -0.18348695 0.17846613
0002a0 3c dc 6d be db d3 79 be a9 b6 7b 3e 2d 8c d8 bd
       -0.23228544 -0.24397223 0.24581398 -0.105736114
0002b0 e2 0e 0b bd dd 91 d5 3d 7f fc 10 3d 3e 1c 83 3d
       -0.03394974 0.10428212 0.03539705 0.06401871
0002c0 d8 71 9a 3e b3 fb 9f 3d 49 fd 0d be eb ef db bd
       0.3016498 0.0781168 -0.13866152 -0.1073912
0002d0 a2 5c c4 3d 90 f9 7a bd c2 f5 11 be cf ca f9 3c
       0.09587981 -0.061273158 -0.14253905 0.030492214
0002e0 1a 7a ec 3c b5 08 d1 bd 4e 75 f6 bc 34 fe 77 3e
       0.028866816 -0.10206739 -0.030085232 0.24218065
0002f0 ec ae 3d 3e f0 95 58 3e f3 a9 99 3d 8a b2 4b 3d
       0.18523759 0.21150947 0.07503118 0.049730815
000300 93 09 53 bc 6e 96 4f bd 4e cf fd 3d 9a e8 8b be
       -0.012880701 -0.05068057 0.12393056 -0.27325898
000310 1a 57 b8 bd 5f a5 31 3d a7 82 5f bd e7 3e 15 be
       -0.09000988 0.0433706 -0.05456796 -0.14574777
000320 01 2f 95 bc ff cc a3 bd a7 f1 ab 3d 2a de 88 bd
       -0.01821089 -0.07998084 0.08395701 -0.066829994
000330 fb 5a 01 3d ce 5f cd 3d be fe b3 bd ea 0a 91 3e
       0.031580906 0.10028039 -0.087888226 0.2832864
000340 36 75 8a 3d 4d 80 35 3e 65 ba e3 3b 35 63 d9 3d
       0.067606375 0.17724724 0.00694971 0.10614625
000350 0e 9c f9 bc 51 f9 08 bf a8 9b 67 be 5f 63 36 bd
       -0.03046992 -0.53505427 -0.22617972 -0.04452836
000360 98 de 6f be 57 bb e6 3d 33 14 56 3d 5c 90 55 bc
       -0.23424757 0.11266201 0.052265357 -0.013034906
000370 40 1d 82 3c e6 6b 36 be d6 97 a1 bd 9e db 73 3d
       0.015883088 -0.17814597 -0.078902885 0.059535615
000380 4f 6c 28 be 8c 51 94 bd b5 10 90 bc 40 82 f3 bb
       -0.16447566 -0.07242116 -0.017586092 -0.0074312985
000390 f6 9b 2e 3e c8 2b 53 3e 50 68 49 be 74 ba b7 bd
       0.17051682 0.2062217 -0.19668698 -0.0897111
0003a0 4b 48 25 be 87 4a a2 3e a9 2b 43 3d 39 30 0d be
       -0.16140859 0.31697485 0.04764906 -0.13787927
0003b0 20 a0 5a 3e ba 5b 84 3e b3 db e5 bd f4 b5 eb bd
       0.21350145 0.25851232 -0.11223545 -0.11509314
0003c0 89 d7 80 3c 66 78 ce bd 17 50 86 bc 60 80 9f bc
       0.015727775 -0.10081558 -0.016395612 -0.019470394
0003d0 e2 6c d3 bd 6a c5 03 bb 09 49 61 bb 5e 21 2f bd
       -0.10323502 -0.0020106682 -0.0034375808 -0.04275643
0003e0 3b 77 34 be e2 60 1d be 79 af 11 3e ab e3 bc bc
       -0.17623608 -0.15368989 0.14227094 -0.02305778
0003f0 4d 6e bd 3d d1 8c 5c bd 5a 5a bd be 63 7f 26 3e
       0.09249554 -0.05384523 -0.36982995 0.16259532

fc3.bias f4 [5]
000000 c8 54 f1 3d 82 24 dd 3c bb ad 09 be a8 7b b2 bc
       0.11783749 0.026994947 -0.13445179 -0.02178748
000010 ab 5d 13 3e
       0.143912
