output_visualizations/base_tsk[x]_agm[ac]_spl[S2]_mdl[lenet]_ls[BCE]_tu[none]/model.pt (torch, 246727 bytes, 9 tensors)

conv1.weight f4 [6, 1, 5, 5]
0	0x3e0a2919	0.1349224
1	0x3e31b68e	0.17354795
2	0xbd1061e2	-0.0352496
3	0x3e60b435	0.21943744
4	0xbb32fd7b	-0.002731173
5	0x3c83f615	0.016108552
6	0xbdba33ff	-0.09091949
7	0x3e05d21e	0.13068435
8	0x3e4ee71e	0.20205352
9	0xbdf2977b	-0.11845299
10	0x3e2b64bc	0.16737646
11	0x3d76dc9f	0.060268994
12	0x3e258617	0.16164432
13	0x3d1ef71b	0.038809877
14	0x3df4e2e8	0.119573414
15	0xbc3ddfc5	-0.011588995
16	0x3e461a50	0.19345975
17	0x3d4842eb	0.048891943
18	0xbda6842f	-0.08130681
19	0x3db340fd	0.0875263
20	0xbdbd6775	-0.092482485
21	0xbc3352f1	-0.010945068
22	0xbdae3f58	-0.085081756
23	0x3e008df3	0.1255415
24	0xbe18e503	-0.14931111
25	0xbdd81d9f	-0.10552525
26	0xbd8a3811	-0.06748975
27	0xbe07001a	-0.13183632
28	0x3c594e70	0.01326333
29	0xbe43a551	-0.19106032
30	0x3e30c44a	0.17262378
31	0xbe33f5c6	-0.17574224
32	0x3e1c55f4	0.15267164
33	0x3cdf9d0e	0.02729657
34	0xbd92d5c1	-0.071696766
35	0x3dd43aa4	0.10362747
36	0x3cdd9e69	0.027053075
37	0x3e29d158	0.16583765
38	0x3c8dac52	0.017294083
39	0xbd9be0b1	-0.07611216
40	0x3d1c0e64	0.03809966
41	0xbd26c72a	-0.04071728
42	0x3ddb174d	0.10697804
43	0x3e43b2ea	0.19111219
44	0x3dee06f9	0.11622424
45	0xbde40b7e	-0.111350045
46	0x3dffe57a	0.12494941
47	0x3d478bfb	0.04871748
48	0x3dd388e0	0.10328841
49	0xbe0677f7	-0.131317
50	0xbe74d43c	-0.23909086
51	0xbdea5866	-0.11442642
52	0xbe037d0d	-0.12840672
53	0x3e6b0a88	0.22953236
54	0x3ddd5d8b	0.108088575
55	0x3d1b1634	0.03786297
56	0x3c8b0c5a	0.016973663
57	0xbb8e73ec	-0.004347315
58	0x3e3a8f96	0.18218836
59	0xbe15ba4a	-0.14621845
60	0x3d1cb03b	0.038254004
61	0xbddade6c	-0.10686955
62	0x3dbf13e3	0.09329965
63	0xbd736e06	-0.0594311
64	0x3cdd66f5	0.027026633
65	0x3cc700cf	0.024292378
66	0x3e791277	0.2432345
67	0xbd92dab5	-0.07170621
68	0xbe10411e	-0.1408734
69	0xbe3c20a0	-0.1837182
70	0x3e636be0	0.2220912
71	0x3dff37b0	0.124617934
72	0x3e5dfbfd	0.21678157
73	0xbe58b1d7	-0.2116159
74	0xbe921004	-0.28527844
75	0xbe44f0b1	-0.19232441
76	0xbe0e28a1	-0.13882686
77	0x3e18f2b8	0.1493634
78	0x3e34ffc5	0.17675693
79	0x3e83002c	0.2558607
80	0xbe2469bf	-0.16055964
81	0xbe22bd94	-0.15892631
82	0x3e272848	0.1632396
83	0x3c8d1efb	0.017226687
84	0x3e4a480a	0.19754043
85	0xbd46f6ec	-0.048575327
86	0x3e18afc3	0.14910798
87	0xbdbfdd53	-0.09368386
88	0xbd19403b	-0.03741477
89	0x3dc367b9	0.09541268
90	0x3d99e6e5	0.07514743
91	0x3c8c275e	0.017108615
92	0x3e376a87	0.1791173
93	0x3e1831b9	0.14862718
94	0xbe347c68	-0.17625582
95	0xbced83f0	-0.028993577
96	0x3e93353e	0.28751558
97	0x3c7f1a86	0.0155702885
98	0xbd5b6774	-0.053565457
99	0xbe6aba35	-0.22922595
100	0xbd987028	-0.07443267
101	0x3da6c09e	0.081422076
102	0xba046d59	-0.00050516945
103	0xbe00e93a	-0.12588969
104	0x3c7e551a	0.0155232195
105	0xbdede37a	-0.11615653
106	0xbe1a8953	-0.15091448
107	0xbdc25ae7	-0.094899945
108	0xbe1fa979	-0.15591992
109	0xbdef5a7d	-0.11687181
110	0x3e4bb3a9	0.19892754
111	0x3d5593e6	0.052143
112	0x3da7ea0f	0.0819894
113	0xbe214474	-0.15748769
114	0xbde93e51	-0.11388839
115	0xbd84b243	-0.06479313
116	0x3d3e8768	0.046515852
117	0xbe1ad64d	-0.15120812
118	0xbd629578	-0.055318326
119	0xbdcb1957	-0.099169426
120	0x3c1bb575	0.009503712
121	0xbd5e17f0	-0.054222047
122	0x3c01effc	0.007930752
123	0xbdebfe6a	-0.11523135
124	0xbe036723	-0.12832312
125	0xbd8be134	-0.068300635
126	0xbccac09a	-0.024750043
127	0xbdf01d91	-0.11724389
128	0x3e514e7c	0.20440096
129	0xbd1c7117	-0.03819379
130	0x3e6ecd4e	0.23320505
131	0x3e15cbcf	0.14628528
132	0xbdb6b854	-0.089218765
133	0x3e47b7a8	0.19503653
134	0xbca18ced	-0.019720519
135	0xbd5d0ef2	-0.05396933
136	0xbe12bef3	-0.14330654
137	0xbe3900c3	-0.18066697
138	0x3dc1da36	0.094654486
139	0xbc789aa5	-0.015173589
140	0x3e0c405d	0.13696428
141	0xbe0775e7	-0.1322857
142	0x3e2e9da5	0.17052324
143	0xbda08f24	-0.07839802
144	0x3d660ffc	0.056167588
145	0x3e00d879	0.12582578
146	0x3e178aef	0.14799093
147	0x3e43b972	0.1911371
148	0x3e87412a	0.26416904
149	0xbd5dc3a9	-0.054141674

conv1.bias f4 [6]
0	0xb9c38f6e	-0.00037300162
1	0xbdbc099d	-0.09181521
2	0xbc293f6b	-0.010330061
3	0xbd87d32b	-0.06632074
4	0x3e43fc74	0.19139272
5	0xbe12379f	-0.1427903

conv2.weight f4 [16, 6, 5, 5]
0	0x3d053aeb	0.03252689
1	0xbb5d9942	-0.0033813273
2	0x3ce324cb	0.027727505
3	0xbc63a42a	-0.01389412
4	0x3dc1930d	0.09451876
5	0x3c9744e8	0.018465474
6	0x3c0e3ced	0.008681518
7	0xbd53937e	-0.05165433
8	0x3d737c52	0.059444733
9	0xbc668304	-0.0140693225
10	0xbc5fe5f6	-0.013665667
11	0x3dcbcaaf	0.09950768
12	0x3d672bfc	0.05643843
13	0xbcb72769	-0.02235766
14	0xbd56dead	-0.052458454
15	0x3cac601f	0.021041928
16	0x3d9b2d05	0.07576946
17	0x3c433519	0.011914515
18	0xbd1dae8a	-0.03849653
19	0xbd5a656f	-0.05331939
20	0xbd1c582a	-0.038170017
21	0x3d554121	0.052064065
22	0x3db3e040	0.08783007
23	0xbda119a1	-0.078662165
24	0xbc3d5d9b	-0.011557962
25	0x3d401c05	0.04690172
26	0x3c85e799	0.016345786
27	0xbc23b4ea	-0.009991864
28	0x3d736854	0.059425667
29	0x3cb8a4e3	0.022539562
30	0x3d1acd06	0.03779318
31	0x3c15259a	0.009103203
32	0x3c304c8c	0.010760438
33	0x3c9c7790	0.01909998
34	0xbd2b54f2	-0.041829057
35	0xbc98b4fb	-0.018640986
36	0x3db79061	0.08963085
37	0x3de1edda	0.11031695
38	0x3b664f0c	0.003514233
39	0xbd2e29bb	-0.042520266
40	0xbb38a2d3	-0.0028173223
41	0x3cbe63e8	0.023240998
42	0x3d49083f	0.04908013
43	0x3cf02793	0.029315745
44	0xbdd9ef51	-0.10641349
45	0xbd0e98bb	-0.034813624
46	0x3db6e2f9	0.0893001
47	0x3d52c6c5	0.051459093
48	0x3af2717a	0.0018496953
49	0xbd90092b	-0.07032999
50	0x3dc3e4eb	0.09565147
51	0x3d903024	0.07040432
52	0x3df3e0d0	0.11908114
53	0x3e426946	0.18985471
54	0x3e424c8c	0.18974513
55	0x3e3fd243	0.18732552
56	0x3d5d76b1	0.05406827
57	0x3de71dd8	0.11284989
58	0x3e0e49ba	0.13895312
59	0x3e2060ee	0.15661976
60	0x3e35936e	0.17732021
61	0x3dfb5bfb	0.12273403
62	0x3e35449f	0.17701958
63	0x3d5f5e01	0.05453301
64	0x3b094f5c	0.0020951843
65	0x3e47a7bc	0.1949758
66	0x3dcc4b73	0.09975328
67	0x3e0b17f6	0.13583359
68	0x3cf1691e	0.02946907
69	0x3df09d59	0.11748762
70	0x3e532476	0.20619377
71	0x3e2b6e04	0.16741186
72	0x3d036f64	0.032088652
73	0x3b63b0b6	0.003474278
74	0xbd063958	-0.03276953
75	0x3dc059c4	0.093921214
76	0x3db8d0f5	0.090242304
77	0x3e784719	0.24245872
78	0x3e70e03e	0.23523042
79	0x3dc1ca30	0.09462392
80	0x3cea133e	0.028573629
81	0x3bc66bd4	0.0060553346
82	0x3daca5a0	0.08430028
83	0x3d539e3f	0.051664587
84	0x3cd464c4	0.025926955
85	0x3c9c1f78	0.019057974
86	0x3dd6fbd4	0.10497251
87	0x3ddae301	0.10687829
88	0x3d8e943d	0.06961868
89	0xbdc2c303	-0.09509852
90	0x3ca5aadc	0.020223074
91	0x3df2ec6f	0.118615024
92	0x3cfa44a0	0.030550301
93	0x3daf6159	0.085634895
94	0xbd80b2fc	-0.062841386
95	0x3cd0ed2b	0.025503716
96	0x3da2fd09	0.07958419
97	0xbce8dfc9	-0.028427022
98	0xbd00e4bc	-0.031468138
99	0xbe071f12	-0.13195446
100	0x3d76baaa	0.06023661
101	0xbd0a504d	-0.033767987
102	0x3d16a010	0.03677374
103	0x3d10dd67	0.035367396
104	0x3dbcd76b	0.09220775
105	0xbd82b49d	-0.063821055
106	0x3d883ab3	0.06651821
107	0xbd11e3b1	-0.035617534
108	0x3d60516c	0.05476515
109	0x3dfa7213	0.12228789
110	0xbcf2c66e	-0.029635634
111	0xbd0b91bd	-0.034074534
112	0xbc18b951	-0.009321527
113	0xbd123926	-0.035699032
114	0x3da66abf	0.08125829
115	0xbdc20bfe	-0.094749436
116	0x3cd06fe1	0.025443973
117	0x3dacf235	0.08444635
118	0x3dff6d7f	0.124720566
119	0x3d0173e2	0.031604655
120	0xbd8bc6ff	-0.06825065
121	0x3c72ecfd	0.01482701
122	0x3d9d58dd	0.07682965
123	0xbcc1f82c	-0.023677908
124	0x3d0437fc	0.032279953
125	0xbdf7c585	-0.12098221
126	0xbd9de24b	-0.077091776
127	0xbd8f7640	-0.07004976
128	0xbdb88bc0	-0.0901103
129	0xbdf82b35	-0.12117616
130	0xbdfed159	-0.12442274
131	0x3d09bbc6	0.03362634
132	0x3d69e1e7	0.057100203
133	0xbd6fad8c	-0.058515117
134	0xbdb4be60	-0.08825374
135	0xbd54c91b	-0.0519496
136	0xbda106b1	-0.078626044
137	0xbdab38cd	-0.08360443
138	0xbb550b6f	-0.0032508036
139	0xbdfc5af3	-0.12322035
140	0xbd9ad10d	-0.075594045
141	0xbd1c0223	-0.038087975
142	0xbd7e1dfe	-0.06204032
143	0xbd9ee737	-0.077589445
144	0xbda366e5	-0.0797861
145	0xbcecf8fd	-0.02892732
146	0xbd884694	-0.06654087
147	0xbd982a98	-0.07429999
148	0xbdfd25a9	-0.12360699
149	0x3bccacb3	0.0062461733
150	0xbcc33ccc	-0.023832701
151	0x3bf061c8	0.007335875
152	0xbc2e2ffb	-0.010631557
153	0x3d8ac884	0.067765266
154	0x3e08db40	0.13364887
155	0x3d71ee4f	0.05906516
156	0xbd8c2b58	-0.06844205
157	0x3d8b01ab	0.067874275
158	0x3e0cc60b	0.13747422
159	0x3d84370b	0.06455811
160	0x3dc1b2f7	0.09457963
161	0x3dda3b01	0.10655785
162	0x3d009572	0.031392522
163	0x3d41960e	0.047262244
164	0xbd5db36a	-0.05412618
165	0x3ca14260	0.01968497
166	0x3d8e0565	0.06934623
167	0x3d8b1292	0.067906514
168	0xbd4552cc	-0.048174664
169	0xbdbceea9	-0.09225208
170	0xbd2917ff	-0.04128265
171	0xbdc97eab	-0.09838613
172	0xbd87fe34	-0.06640282
173	0xbd373c2a	-0.04473511
174	0x3afc5fba	0.0019254603
175	0x3ce55fbb	0.02799975
176	0xbd22c8a0	-0.039742112
177	0xbce7aa93	-0.028279578
178	0x3dae18ac	0.085007995
179	0xbcd62c58	-0.026144192
180	0xbb02218d	-0.0019856424
181	0x3d7f544f	0.062336262
182	0xbb11c76f	-0.0022244116
183	0x3c4f89c4	0.012667123
184	0x3b976487	0.004620138
185	0xbca2a180	-0.0198524
186	0xbc80c35a	-0.01571815
187	0xbca3cdec	-0.019995652
188	0xbd0560df	-0.032563087
189	0xbd2e36e3	-0.042532813
190	0x3d7ee820	0.06223309
191	0xbd3a5dec	-0.045499727
192	0xbd0ad374	-0.033893064
193	0x3d0d16c5	0.034445543
194	0xbb99645a	-0.0046811523
195	0x3c1000cf	0.008789255
196	0x3d14a2d0	0.036288083
197	0x3d28766a	0.041128553
198	0xbdba3b76	-0.090933725
199	0xbd04d802	-0.032432564
200	0x3e0d2011	0.13781764
201	0x3dc5af62	0.09652592
202	0x3db2bbd3	0.08727231
203	0x3e55fd5b	0.20897429
204	0x3de94ad0	0.113912225
205	0x3d011e36	0.031522952
206	0x3a7e7835	0.00097072433
207	0x3e2223db	0.1583399
208	0x3e3ff4b4	0.1874569
209	0x3d2579f9	0.040399525
210	0x3e4033e1	0.1876979
211	0x3cd071a5	0.025444815
212	0x3d3d0f89	0.046157394
213	0x3dacc9bb	0.084369145
214	0x3db1e91d	0.08687041
215	0x3e4ad82d	0.19809027
216	0x3c0fa571	0.008767472
217	0x3d8e4a00	0.06947708
218	0x3bcecb39	0.006310847
219	0x3bbc9a91	0.0057557304
220	0x3e225cde	0.15855739
221	0x3df5b755	0.119978584
222	0x3d626252	0.055269547
223	0xbd53ea0d	-0.05173688
224	0x3d40cf60	0.04707277
225	0xbc9c0fd2	-0.019050512
226	0x3dec8b86	0.115500495
227	0x3eb8ab4c	0.3606819
228	0x3e8c9dcb	0.27464136
229	0x3e4ff264	0.20307308
230	0xbc986a23	-0.018605297
231	0x3d804031	0.062622435
232	0x3ebcc2cf	0.36867377
233	0x3e497d01	0.19676591
234	0x3cffdfcf	0.03123465
235	0x3c57ee1a	0.013179326
236	0x3e15757b	0.14595596
237	0x3e5b37da	0.21408024
238	0x3e0b5938	0.13608253
239	0xbc6f4db4	-0.014605928
240	0xbd34c187	-0.044129875
241	0x3d5758a3	0.052574765
242	0x3d52a656	0.05142816
243	0xbcd42fa2	-0.02590162
244	0xbc885324	-0.016641207
245	0x3d7aab3f	0.06119847
246	0x3d3c5913	0.045983385
247	0x3b9aea43	0.004727633
248	0xbd0efc23	-0.034908425
249	0xbe187816	-0.14889559
250	0xbd40dd7b	-0.04708622
251	0x3c8f269c	0.017474465
252	0xbd9759cd	-0.07390175
253	0xbc6e6613	-0.014550704
254	0x3be63cfa	0.007026312
255	0xbd4f649a	-0.05063305

conv2.bias f4 [16]
0	0xbc3663dc	-0.011132207
1	0x3c6e9f7e	0.014564393
2	0x3ca9c96a	0.020725925
3	0x3c30fb12	0.010802047
4	0xbc137b4a	-0.009001562
5	0x3d20bc22	0.039241917
6	0x3db29ba9	0.08721096
7	0xbb8aceaf	-0.0042360644
8	0xbd58091b	-0.05274306
9	0x3c919f4e	0.017776158
10	0xbbf1aea2	-0.007375554
11	0x3d6f5975	0.058434922
12	0x3d330fdd	0.0437163
13	0xbc865f70	-0.01640293
14	0x3d46b8b6	0.048515998
15	0x3d9a606a	0.07537921

fc1.weight f4 [120, 400]
0	0xbb4d08eb	-0.0031285833
1	0x3d29cb9e	0.04145395
2	0x3cd5e934	0.026112176
3	0xbd383f79	-0.044982407
4	0xbc5340aa	-0.012893835
5	0xbd295fc3	-0.04135109
6	0xbc43eb62	-0.011957975
7	0x3d4d30c6	0.050095342
8	0x3d1558b8	0.036461562
9	0x3d1c0aca	0.038096227
10	0x3d639798	0.055564493
11	0x3cb09575	0.021555642
12	0x3d0aff61	0.033934955
13	0x3d2e15b2	0.04250116
14	0x3d65ad73	0.056073617
15	0x3bd2c2d8	0.0064319186
16	0x3dcc8609	0.09986503
17	0x3d4ad75f	0.0495218
18	0x3cf5daf9	0.03001164
19	0x3d55e75c	0.052222595
20	0x3d067b2e	0.032832317
21	0x3d551a55	0.052027065
22	0x3d89259c	0.066966265
23	0x3d412452	0.04715378
24	0x3d85aa24	0.065265924
25	0x3d04ff41	0.03246999
26	0x3ccd3fa8	0.025054768
27	0xbb90be82	-0.0044172416
28	0xbd987459	-0.074440666
29	0xbd7ebefb	-0.062193852
30	0x3c8d4dd9	0.017249035
31	0x3d03f7c9	0.03221873
32	0xbba93051	-0.0051632305
33	0x3d6e3f47	0.058165815
34	0x3cf46761	0.029834451
35	0x3c943ed0	0.018096358
36	0x3d164950	0.03669101
37	0x3d307fa5	0.04309048
38	0x3dc5c982	0.09657575
39	0x3d5178fe	0.051140778
40	0x3d545b67	0.05184498
41	0x3c0eb2a9	0.008709588
42	0x3cfcf03f	0.030876277
43	0x3d9304d7	0.071786575
44	0x3d9bbe46	0.07604651
45	0x3cc29995	0.023754874
46	0x3d1bc1a1	0.038026456
47	0xbd030d94	-0.03199537
48	0x3cedee69	0.029044347
49	0xbd026829	-0.031837616
50	0xbd0622b0	-0.032747924
51	0x3cc8ec83	0.02452684
52	0xbc6939ad	-0.014234942
53	0x3d1ced71	0.03831238
54	0xbd465258	-0.048418373
55	0x3d281cac	0.04104297
56	0x3d7fe147	0.0624707
57	0x3bbcdad2	0.00576339
58	0x3d6acab6	0.057322226
59	0x3bf8bb08	0.0075906552
60	0x3d901e0f	0.07036983
61	0x3dd9ef14	0.10641304
62	0x3d00b499	0.03142223
63	0x3d4501c7	0.048097398
64	0x3d8b188c	0.06791791
65	0x3ce5f40c	0.028070472
66	0x3d24f4f6	0.040272675
67	0x3d8e2116	0.069399044
68	0x3c3f02d6	0.011658391
69	0xba698bbd	-0.0008909067
70	0x3d2dd126	0.042435788
71	0x3d15fbe8	0.03661719
72	0xbca71e38	-0.020400152
73	0x3cbb9253	0.022896921
74	0xbd852a54	-0.06502214
75	0xbd36c9c7	-0.044626024
76	0x3ce924bc	0.0284599
77	0x3b997256	0.0046828194
78	0xbd8f51b9	-0.06998009
79	0xbd153621	-0.036428574
80	0x3d170a3a	0.036874987
81	0xbca194df	-0.019724308
82	0xbd700440	-0.058597803
83	0xbd800b63	-0.06252172
84	0xbcb8d2eb	-0.022561511
85	0x3c47749d	0.012173799
86	0x3d29a996	0.041421495
87	0xbad296f8	-0.0016066721
88	0x3b136120	0.002248831
89	0xbd223cd0	-0.039608777
90	0x3d6c90dc	0.057755336
91	0x3ceb3ce6	0.028715562
92	0x3d4ebdfd	0.050474156
93	0x3c06d808	0.008230217
94	0xbd7a6e1f	-0.061140176
95	0x3dcf52ac	0.1012319
96	0x3d6d3274	0.057909444
97	0x3cb0ef2b	0.02159842
98	0x3d03ad10	0.032147467
99	0x3ca795c9	0.020457165
100	0xbd04cb98	-0.032420725
101	0xbc8cc2ea	-0.017182786
102	0xbd00c515	-0.031437952
103	0x3c99c56d	0.018770898
104	0x3ca14d94	0.019690312
105	0xba9bf2d0	-0.0011897925
106	0x3d9301fa	0.071781114
107	0xbc7c145b	-0.0153857125
108	0x3da81607	0.082073264
109	0xbc95ab33	-0.01827011
110	0x3cecb2a0	0.028893769
111	0x3c80cfb7	0.015724046
112	0xbd0f3215	-0.03495987
113	0x3d288cb2	0.041149803
114	0xbc9efea3	-0.01940853
115	0x3d17b73d	0.037039984
116	0xbcffe42e	-0.031236734
117	0x3c67b4b2	0.014142202
118	0x3d81c6a5	0.063367166
119	0x3d9d1483	0.07669928
120	0x3d2a8fc1	0.041641
121	0xbd036e0f	-0.032087382
122	0x3daaf066	0.083466336
123	0x3d467885	0.04845478
124	0x3d822677	0.06354993
125	0xbc26bc64	-0.010176752
126	0xbc806fb0	-0.015678257
127	0xbd195c69	-0.037441645
128	0x3d8477e0	0.06468177
129	0x3b99b46d	0.004690698
130	0xbd09b7d0	-0.033622563
131	0x3d5099f8	0.050928086
132	0x3c91ef03	0.017814165
133	0x3d817d6b	0.0632275
134	0x3d10a896	0.035317026
135	0xbce214a4	-0.027597733
136	0x3daa1740	0.08305216
137	0x3ccf2fab	0.025291285
138	0x3d857bd6	0.065177605
139	0x3bac394a	0.005255853
140	0xbb73e545	-0.0037215513
141	0x3dc3b3f9	0.095558114
142	0x3db9c0b2	0.09069957
143	0x3d7130ca	0.05888442
144	0x3d8fc824	0.07020596
145	0x3cb8cb6d	0.022557938
146	0x3cc96f7e	0.024589296
147	0x3d2afe29	0.041746292
148	0x3cb0e272	0.021592353
149	0x3d4df95a	0.05028663
150	0x3d78c161	0.060731295
151	0xbc884ed9	-0.01663916
152	0x3be1d97c	0.0068923812
153	0xbc43689e	-0.011926798
154	0x3d0f049d	0.03491651
155	0xbd11b916	-0.035576902
156	0x3c990499	0.01867895
157	0xbbdce476	-0.006741102
158	0x3cb0eb91	0.021596702
159	0x3ceaf7b5	0.028682569
160	0xbc394dda	-0.011310065
161	0x3d02428a	0.031801738
162	0x3d38275c	0.04495941
163	0xbc8bec6b	-0.017080506
164	0x3d94adfe	0.07259749
165	0x3d4a9aa8	0.049463898
166	0x3cc69ff0	0.024246186
167	0x3c185098	0.009296559
168	0x3d190608	0.037359267
169	0xbc2de461	-0.010613532
170	0xbca58e19	-0.020209359
171	0x3c5af052	0.013362961
172	0x3cd69183	0.026192432
173	0x3cdbb256	0.026818436
174	0xbd1446e0	-0.036200404
175	0x3d43f716	0.04784306
176	0xbc9fd62f	-0.01951131
177	0x3d489075	0.04896589
178	0x3cd0bfe1	0.02548212
179	0xbc29389e	-0.01032844
180	0x3d808aff	0.062765114
181	0x3d49f819	0.04930887
182	0x3d866124	0.06561497
183	0x3c47ac83	0.012187126
184	0x3d6f4574	0.058415845
185	0x3d15b3f0	0.036548555
186	0x3d93e546	0.07221465
187	0x3d0f1e60	0.034941077
188	0x3db2891e	0.08717559
189	0x3d9c5dce	0.07635079
190	0xbc6b9a0c	-0.014379989
191	0x3db0571c	0.08610365
192	0x3c4a176f	0.012334689
193	0x3c4bb46b	0.012433152
194	0xbc7f1efd	-0.015571353
195	0x3c9c5d4e	0.01908746
196	0xbc3ad685	-0.0114036845
197	0x3be5be65	0.007011222
198	0xbb8104ff	-0.003937363
199	0x3c82b004	0.015953071
200	0xbd7a94d2	-0.061177082
201	0xbc2a4fcb	-0.010395001
202	0x3d0221d3	0.03177054
203	0xbbba9c7f	-0.0056949253
204	0xbd054852	-0.032539673
205	0x3d686ba3	0.056743275
206	0x3cab5cf2	0.020918343
207	0x3c5c2560	0.013436645
208	0x3d8dc3e3	0.06922128
209	0x3a452c84	0.0007521587
210	0x3db8d5f2	0.09025182
211	0x3d103d94	0.035214975
212	0x3d5abdd1	0.05340368
213	0x3dd64f59	0.10464353
214	0xbcb68c78	-0.022283778
215	0x3db95f9e	0.09051441
216	0x3d13ad43	0.036053907
217	0x3ce5b224	0.028039046
218	0x3c55f0a5	0.013057862
219	0xbcc995d3	-0.024607575
220	0x3ca5de77	0.020247681
221	0x3a4e129b	0.0007861049
222	0x3d2f583b	0.042808753
223	0x3c9f028f	0.0194104
224	0x3c361e7f	0.011115669
225	0x3d3c7f4f	0.04601985
226	0x3d568c0e	0.05237966
227	0x3cb1d16e	0.02170631
228	0x3cab139f	0.02088338
229	0x3cf1e61a	0.029528666
230	0x3d538eaf	0.051649746
231	0xbc9657c6	-0.0183524
232	0x3c951285	0.018197307
233	0xbcbd6c61	-0.023122968
234	0x3ca06f5d	0.019584352
235	0xbab4a1e0	-0.0013781153
236	0x3da7304d	0.081635095
237	0x3d589710	0.05287844
238	0x3d3d19c8	0.046167165
239	0xbb307200	-0.0026923418
240	0xbd02930c	-0.031878516
241	0x3d1ed21e	0.038774602
242	0x3c385121	0.011249811
243	0x3c6646c1	0.014054955
244	0x3d60ef08	0.054915458
245	0xbcf136ea	-0.02944513
246	0xbc242ba2	-0.0100201685
247	0x3d742790	0.059608042
248	0x3d14b10d	0.03630166
249	0xbcf75b73	-0.030194974
250	0x3c08e796	0.008355996
251	0x3cf97367	0.030450536
252	0xbce161d1	-0.027512463
253	0x3c9c77cb	0.01910009
254	0x3bb7ea95	0.005612681
255	0x3b846448	0.004040275

fc1.bias f4 [120]
0	0xbcd9a9e9	-0.026570277
1	0x3c22ee53	0.009944516
2	0xbd25b71f	-0.04045784
3	0x3d920d18	0.07131404
4	0x3c92367e	0.01784825
5	0x3d876502	0.066110626
6	0x3cf8013e	0.03027403
7	0x3b33bf49	0.0027427247
8	0x3a11a7e2	0.00055563275
9	0x3cc07f3e	0.023498174
10	0x3d729ba7	0.059230473
11	0xbbfbf6a5	-0.0076893144
12	0xbc1300eb	-0.008972387
13	0x3d1e0686	0.03858044
14	0xbcf69efd	-0.030105108
15	0x3cec6e59	0.028861212
16	0x3d700900	0.058602333
17	0xbd195733	-0.037436675
18	0x3d033d39	0.03204081
19	0xbc7d84df	-0.0154735735
20	0xbd3be54a	-0.045872964
21	0x3cc15b80	0.0236032
22	0x3d0ac365	0.03387775
23	0xbd45b5f2	-0.04826922
24	0xba552cf9	-0.00081320066
25	0x3d87ee23	0.06637218
26	0xbd418b4d	-0.04725199
27	0x3c96542c	0.018350683
28	0x3a915ab6	0.0011089656
29	0x3d12dd66	0.035855673
30	0x3da67ab1	0.0812887
31	0xbc711a91	-0.014715807
32	0x3d17bffc	0.037048325
33	0xbd59c1c0	-0.05316329
34	0xbd1b1241	-0.037859205
35	0x3d35868a	0.04431776
36	0x3c4e8db4	0.012607027
37	0x3d9a62f3	0.07538404
38	0x3c4ab828	0.012373008
39	0x3a80472c	0.0009786836
40	0x3b80b8d6	0.003928284
41	0x3cb802b6	0.02246223
42	0x3d02e625	0.031957764
43	0x3ce3295c	0.027729683
44	0xbd0778ce	-0.033074193
45	0xbceba386	-0.028764497
46	0xbc88dab4	-0.016705848
47	0xbc3636de	-0.01112148
48	0xbd165390	-0.036700785
49	0x3d850788	0.06495577
50	0x3d811c01	0.063041694
51	0x3d3e6af9	0.046488736
52	0x3d87522e	0.066074714
53	0x3dbcb11e	0.0921347
54	0xbc9e212c	-0.019302927
55	0x3d2ffb6f	0.042964395
56	0x3d27723e	0.040880434
57	0x3b363ae1	0.002780609
58	0x3bd24f94	0.006418178
59	0xbc352f4e	-0.011058642
60	0x3d142e6b	0.03617708
61	0xbd450e85	-0.04810955
62	0xbac6d275	-0.0015168922
63	0x3c920880	0.017826319
64	0x3cd464e7	0.02592702
65	0xbd7846fb	-0.060614567
66	0xbc4ddc6a	-0.012564758
67	0xbcd8e7ea	-0.026477773
68	0x3cea3eda	0.028594423
69	0x3d69d8c7	0.0570915
70	0x3b9f8e19	0.0048692343
71	0x3d592683	0.053015243
72	0x3c46768a	0.012113223
73	0xbd2135ee	-0.039358072
74	0xbcbbecc4	-0.022940047
75	0x3d3d6b2e	0.046244793
76	0x3c951037	0.018196208
77	0xbccc6157	-0.024948759
78	0x3bfe2377	0.0077556926
79	0x3ce1beff	0.027556894
80	0xbd45c0d5	-0.048279602
81	0x3cc05916	0.02347998
82	0x3c0149a4	0.007891092
83	0x3cc00f0d	0.023444677
84	0x3d447f7f	0.047973152
85	0xbccc4c1f	-0.024938641
86	0x3c09bee3	0.008407327
87	0x3c519cc0	0.01279372
88	0x3d1059cc	0.035241887
89	0xbc6bd537	-0.014394096
90	0x3d32de1b	0.043668848
91	0x3d332445	0.04373576
92	0xbd28bc75	-0.04119535
93	0x3d0847f8	0.03327176
94	0xbc77a95b	-0.015116061
95	0xbc92d7f8	-0.017925248
96	0x3d240fd4	0.040054157
97	0x3caf320f	0.021386174
98	0xbd156cbf	-0.03648066
99	0x3cad4c1a	0.021154452
100	0x3cf88528	0.030336931
101	0xbca414b4	-0.020029403
102	0x3c060097	0.008178852
103	0x3aca8bf1	0.0015453083
104	0xbc26be94	-0.010177273
105	0xbc362438	-0.011117034
106	0x3cd83486	0.026392233
107	0x3cf2b81a	0.029628802
108	0xbd2481f6	-0.040163003
109	0x3db24f27	0.08706503
110	0x3daff068	0.08590776
111	0x3cb134f2	0.021631692
112	0xbc2ed94a	-0.010671923
113	0x3c977b77	0.01849149
114	0x3d5cbfa1	0.05389369
115	0x3d8857bd	0.0665736
116	0x3cb9ed19	0.022696065
117	0x3d413f12	0.04717929
118	0xbd4ff239	-0.05076811
119	0xbd32e694	-0.043676928

fc2.weight f4 [84, 120]
0	0x3dbf65fa	0.09345622
1	0x3dfec08d	0.1243907
2	0xbc07a6a0	-0.008279473
3	0x3ddb0adf	0.10695433
4	0x3cf47edc	0.029845648
5	0xbe83e16c	-0.2575792
6	0xbde0b6ca	-0.10972364
7	0xbddbf7d9	-0.107406326
8	0x3d64a870	0.055824697
9	0xbde8a60b	-0.11359795
10	0xbd00ee28	-0.031477123
11	0xbd26e00b	-0.040741008
12	0x3d0d93ac	0.03456466
13	0xbd42c2ac	-0.047548935
14	0x3e26a80b	0.16275041
15	0x3e5f8fd6	0.21832213
16	0xbddc6d20	-0.107630014
17	0x3d3910fb	0.04518221
18	0x3cd7e3fc	0.026353829
19	0x3e33bac3	0.17551713
20	0x3d240910	0.040047705
21	0xbde28780	-0.11061001
22	0xbd179b8c	-0.037013575
23	0xbdb9094e	-0.09034978
24	0x3e5a7481	0.21333505
25	0xbd559004	-0.052139297
26	0x3db6c917	0.089250736
27	0xb92a4600	-0.0001623854
28	0xbccebcfc	-0.0252366
29	0x3da33903	0.079698585
30	0xbd51c9a4	-0.05121769
31	0x3e1dea1a	0.15421334
32	0x3d877df7	0.06615823
33	0x3db78641	0.08961154
34	0x3dcf5a28	0.10124618
35	0xbe28a6db	-0.164699
36	0x3d23c4a0	0.039982438
37	0xbcb2f683	-0.021846062
38	0xbd87472a	-0.0660537
39	0x3e4261ba	0.18982592
40	0xbd59f231	-0.053209487
41	0x3d331dd2	0.04372961
42	0x3c6befb0	0.014400408
43	0x3d8e0fb0	0.06936586
44	0xbda85aa4	-0.08220413
45	0x3d75b3ac	0.0599858
46	0x3c380641	0.01123196
47	0xbc96a29c	-0.018388085
48	0x3d783a44	0.06060244
49	0xbe2b4edc	-0.16729301
50	0xbd407b81	-0.046992783
51	0x3d573826	0.05254378
52	0xbd7d61e2	-0.061860926
53	0xbc7ccece	-0.015430165
54	0x3d37b3e5	0.044849295
55	0x3c31d9ae	0.010855122
56	0xbdc3ed1d	-0.0956671
57	0x3e1ac4b2	0.15114096
58	0xbcd69d4c	-0.026198052
59	0x3e292dc3	0.16521363
60	0xb9a186ab	-0.00030808648
61	0x3d2980a4	0.041382447
62	0xbc7de590	-0.0154966265
63	0xbdba5db8	-0.09099907
64	0xbdcb41ed	-0.09924684
65	0xbca2f3b0	-0.01989159
66	0x3dfe45c7	0.12415653
67	0x3e0f083e	0.13967988
68	0x3da5bfae	0.080932006
69	0xbdf2b380	-0.11850643
70	0xbe014b38	-0.1262635
71	0x3e1aa8fd	0.15103526
72	0x3dc236ad	0.09483085
73	0x3e11cfbf	0.14239405
74	0x3c13cc70	0.00902091
75	0xbdaac0e2	-0.08337571
76	0x3d579490	0.052631915
77	0xbd9a9680	-0.07548237
78	0x3e2a5e0e	0.16637442
79	0xbdd5e6fe	-0.10444449
80	0x3e323906	0.17404565
81	0xbe14ab01	-0.14518358
82	0x3d8344b6	0.0640959
83	0x3e380269	0.1796967
84	0xbd330cc6	-0.043713354
85	0xbdb0f8f2	-0.086412326
86	0xbe270c28	-0.16313231
87	0xba00ef00	-0.0004918426
88	0xbb0c133c	-0.002137377
89	0xbbb950a0	-0.005655363
90	0x3d998196	0.0749542
91	0xbe157d97	-0.1459869
92	0x3d72e2a8	0.059298187
93	0xbd628632	-0.05530376
94	0x3d8fde6b	0.07024845
95	0x3e648d89	0.22319616
96	0xbd188593	-0.03723676
97	0x3d95b1d3	0.07309308
98	0x3c3824f0	0.011239275
99	0xbd9a75f4	-0.07542029
100	0x3d449201	0.047990803
101	0x3dbf11b8	0.093295515
102	0xbd0a40dc	-0.03375326
103	0x3d428dd4	0.04749854
104	0x3b1ee1c0	0.0024243444
105	0x3e0e71bc	0.13910574
106	0x3ca1a932	0.019733999
107	0xbe0210cc	-0.1270172
108	0xbc497890	-0.012296811
109	0xbdaff755	-0.08592097
110	0xbe0fd60a	-0.14046493
111	0x3caaac50	0.020834118
112	0x3e165915	0.1468242
113	0xbd4f63aa	-0.050632156
114	0xbc92360c	-0.017848037
115	0x3cadf636	0.021235567
116	0xbe1c803f	-0.15283297
117	0xbc017e10	-0.007903591
118	0x3daa2322	0.08307482
119	0xbd2b9dd1	-0.041898552
120	0xbd1daf0d	-0.03849702
121	0xbd6a0d3e	-0.057141535
122	0xbcffd5c5	-0.031229863
123	0x3d865e0d	0.065609075
124	0xbd2f7d5d	-0.042844165
125	0xbc3a1c99	-0.011359357
126	0x3cf40840	0.02978909
127	0x3daac55b	0.08338424
128	0x3c428d95	0.011874576
129	0x3d831640	0.06400728
130	0xbd23b20e	-0.039964728
131	0xbcf728d6	-0.03017084
132	0xbd6e2e26	-0.05814948
133	0xbc5f5672	-0.01363145
134	0xbd44de38	-0.048063487
135	0xbd568cfb	-0.052380543
136	0x3d1e43aa	0.03863875
137	0xbdf0df7f	-0.117613785
138	0x3d044cf3	0.032299947
139	0x3cd86306	0.026414406
140	0x3c92365c	0.017848186
141	0x3dcf5f96	0.101256534
142	0x3d8c934d	0.06864033
143	0x3c8fa5c0	0.01753509
144	0xbdf19cd5	-0.117974915
145	0x3de694ae	0.11258827
146	0x3d88b300	0.066747665
147	0xbce77f93	-0.028259074
148	0x3da50911	0.0805837
149	0xbd160fe3	-0.036636245
150	0x3dd590a9	0.10427982
151	0xbdbb6c7c	-0.09151551
152	0xbcb7d8ef	-0.02244231
153	0xbd21fdd4	-0.03954871
154	0x3d191ca4	0.03738083
155	0x3d306fad	0.043075252
156	0xbdd5b9b0	-0.10435808
157	0x3da2702f	0.079315536
158	0xbd45f69d	-0.048330892
159	0xbda936fc	-0.082624406
160	0xbd2fe34b	-0.042941373
161	0xbdb481e6	-0.08813839
162	0xbd5720bc	-0.052521452
163	0x3d1bf89e	0.038078897
164	0xbcded138	-0.027199373
165	0x3cb3e6f0	0.021960706
166	0x3d9957ce	0.074874505
167	0x3cf3cad1	0.029759796
168	0x3dc17069	0.09445269
169	0x3e0d6c40	0.13810825
170	0x3d14a312	0.03628833
171	0x3d079ee2	0.033110507
172	0x3e10eea0	0.14153528
173	0xbc3b1fdb	-0.011421169
174	0xbd7d1a22	-0.0617925
175	0x3dbcb003	0.09213259
176	0x3de393a4	0.111121446
177	0x3c1c6c55	0.009547313
178	0x3c7b7823	0.015348467
179	0xbd909379	-0.07059378
180	0x3dc701dd	0.09717152
181	0xbc5e3e97	-0.013564727
182	0x3b8029e8	0.0039112456
183	0x3db6b84a	0.08921869
184	0x3e05910b	0.13043611
185	0xbc8cdf92	-0.01719645
186	0xbc84ee4f	-0.016226916
187	0xbdbfe031	-0.09368933
188	0x3d05f439	0.032703612
189	0x3e17147d	0.1475391
190	0x3ccd3532	0.02504978
191	0xbd3691ac	-0.044572517
192	0x3d33df2c	0.043914005
193	0xbe012d9c	-0.12615055
194	0x3da08643	0.078381084
195	0x3d9e943e	0.07743119
196	0x3d96c959	0.07362623
197	0x3a7448e5	0.00093187235
198	0xbc47013a	-0.0121462885
199	0xbd740494	-0.05957468
200	0xbd06e9fe	-0.032937996
201	0x3e0f4950	0.1399281
202	0xbcf70670	-0.030154437
203	0x3d895efa	0.067075685
204	0x3d50a42c	0.050937817
205	0xbd564cab	-0.05231921
206	0x3d02dd9b	0.03194962
207	0xbd90b765	-0.0706623
208	0x3d0a2315	0.033724863
209	0xbd664101	-0.056214336
210	0x3cf0e0a9	0.029404001
211	0x3d2b6ade	0.041849963
212	0x3d44c570	0.048039854
213	0x3e032ba2	0.12809613
214	0xbdcbaef9	-0.09945483
215	0xbddcc6a8	-0.10780078
216	0x3dea9d68	0.11455804
217	0xbb96048f	-0.00457818
218	0xbd955c0b	-0.072929464
219	0xbd31a0bd	-0.043366183
220	0xbdb07493	-0.08615985
221	0xbd5394bb	-0.051655512
222	0x3a04d9b5	0.0005067841
223	0x3d629552	0.055318184
224	0x3c2d1889	0.010564932
225	0xbce7fc66	-0.028318595
226	0x3d82076c	0.06349072
227	0x3c743c75	0.014906992
228	0x3d2fcd08	0.042920142
229	0x3dff7af8	0.12474626
230	0x3dcc4d85	0.09975723
231	0x3da78fb6	0.081817076
232	0x3dc9b237	0.09848445
233	0x3da8c74d	0.082411386
234	0xbc7cefe8	-0.0154380575
235	0x3e06a653	0.13149385
236	0x3d88b1c2	0.066745296
237	0x3c4dd03c	0.012561854
238	0xbc89218b	-0.016739627
239	0x3bce1861	0.0062895273
240	0xbbdc9783	-0.006731929
241	0x3dbb29c7	0.09138828
242	0xbd95a64d	-0.0730711
243	0x3c79b749	0.0152414525
244	0xbdc2aff9	-0.0950622
245	0xbc75bba5	-0.014998351
246	0xbd80a6b3	-0.06281795
247	0xbd4c3de1	-0.0498637
248	0x3d842eb9	0.06454224
249	0xbc138d44	-0.009005848
250	0x3afd6bf4	0.0019334541
251	0x3d241387	0.040057685
252	0x3c57131d	0.013127116
253	0x3d4f52f6	0.050616227
254	0x3d44a8a8	0.048012406
255	0x3def4b99	0.11684341

fc2.bias f4 [84]
0	0xbd71f090	-0.05906731
1	0x3dd55e60	0.10418391
2	0x3d9b3c05	0.07579807
3	0x3d690248	0.05688694
4	0x3c2ad8c8	0.010427661
5	0x3c8ba596	0.017046731
6	0x3d4ea6e5	0.05045213
7	0x3d927620	0.07151437
8	0x3dd022e5	0.101629056
9	0xbd433d50	-0.047665894
10	0x3d37faff	0.044917103
11	0x3c8ecc3e	0.017431375
12	0x3d4e3804	0.05034639
13	0xbc6c7934	-0.014433194
14	0x3d9f1ae6	0.07768802
15	0x3cccbc0c	0.024992011
16	0x3d52c568	0.051457793
17	0x3c48b17d	0.012249348
18	0x3db8c076	0.09021084
19	0x3de253b8	0.11051124
20	0x3dada8cb	0.0847946
21	0xbc84edc8	-0.016226664
22	0x3e0069f4	0.12540418
23	0x3dc1e8fc	0.09468266
24	0x3df07b2b	0.117422424
25	0x3da1ddb9	0.07903618
26	0xbdab13e2	-0.08353402
27	0xbdcb8150	-0.09936774
28	0xbda9d2db	-0.082921706
29	0xbd7e03c1	-0.0620153
30	0xbda9077f	-0.08253383
31	0x3d6e2afc	0.05814646
32	0x3e020e44	0.12700754
33	0xbd0761d6	-0.033052288
34	0x3da4b0a5	0.08041505
35	0x3c3ea9aa	0.011637131
36	0x3d7f215e	0.06228768
37	0xbc2d8481	-0.010590673
38	0x3d95e81f	0.07319664
39	0x3ccbcb65	0.02487726
40	0x3d014d05	0.031567592
41	0x3da896e6	0.082319066
42	0xbdb37f09	-0.087644644
43	0xbd552789	-0.052039657
44	0x3cce27e7	0.025165511
45	0xbdb5a10d	-0.088686086
46	0x3d74ecfc	0.05979632
47	0x3d3141c4	0.04327561
48	0xbdbf0b76	-0.09328358
49	0x3d7aa64b	0.061193746
50	0xbd836d34	-0.06417313
51	0xbd810983	-0.06300642
52	0x3db10d98	0.08645171
53	0x3de3b2f9	0.11118121
54	0xbc8ed5d3	-0.017435944
55	0xbcd6b7f8	-0.02621077
56	0x3c24ec14	0.010066051
57	0xbd684d53	-0.056714367
58	0xbd97bbd4	-0.07408872
59	0xbc42662a	-0.011865178
60	0x3c7c127c	0.015385266
61	0xbd24f4cb	-0.040272515
62	0x3d8eb8db	0.06968852
63	0x3d322c14	0.043499067
64	0x3d1e518a	0.03865198
65	0x3d8c2732	0.068434134
66	0xbd434443	-0.04767252
67	0x3dc11499	0.09427757
68	0xbd2c89d9	-0.04212365
69	0xbdb98436	-0.0905842
70	0x3d8a0f3f	0.06741189
71	0x3d7cf18e	0.061753802
72	0x3d2351d1	0.039872948
73	0x3da67685	0.081280746
74	0x3d150b27	0.03638759
75	0x3d02b04b	0.031906407
76	0x3d5aacd1	0.053387467
77	0xbd3bbb73	-0.045833062
78	0xbdc54cc4	-0.096337825
79	0xbc32b1d7	-0.010906658
80	0xbc8247ae	-0.01590332
81	0xbd48078c	-0.048835322
82	0x3d49c591	0.04926068
83	0xbd452a81	-0.048136238

fc3.weight f4 [1, 84]
0	0xbe0c28ae	-0.13687393
1	0x3de91eda	0.113828376
2	0xbd7f3443	-0.0623057
3	0xbe06b549	-0.13155092
4	0x3c929c04	0.01789666
5	0xbe261eea	-0.1622273
6	0x3e2652b0	0.1624248
7	0xbdf373a4	-0.11887291
8	0x3e024f8c	0.12725657
9	0xbc502308	-0.012703665
10	0xbd9a2510	-0.075266
11	0x3e16a2c5	0.14710529
12	0xbdf213ec	-0.11820206
13	0xbe020799	-0.12698211
14	0xbe10f9f1	-0.14157845
15	0xbd8dba02	-0.06920244
16	0x3e2a6de3	0.16643481
17	0xbdb19c60	-0.08672404
18	0x3deff9c3	0.1171756
19	0x3d95ba1e	0.0731089
20	0xbdbe5d90	-0.092951894
21	0xbd7c4896	-0.06159266
22	0x3e2e42d3	0.17017679
23	0xbe14227b	-0.14466278
24	0x3dfb5ee1	0.12273956
25	0x3d99146d	0.07474599
26	0xbd6f2b5e	-0.058390968
27	0x3da4d465	0.080483235
28	0x3d10f876	0.0353932
29	0xbe1ceb97	-0.15324245
30	0x3b067bc0	0.0020520538
31	0x3d8e7ede	0.06957792
32	0x3e1e1fcd	0.15441819
33	0xbde29c1d	-0.110649325
34	0x3ddcb26b	0.10776218
35	0x3c381124	0.011234555
36	0x3e07ca21	0.132607
37	0xbda6381f	-0.08116173
38	0x3e168000	0.14697266
39	0xbdb9bcc9	-0.09069211
40	0xbd9aa675	-0.075512804
41	0x3e27c08c	0.16382045
42	0xbd56e331	-0.05246276
43	0x3dba661d	0.09101508
44	0xbdc04450	-0.093880296
45	0x3d482596	0.04886397
46	0x3e387bfb	0.18016045
47	0xbe013bc4	-0.12620455
48	0x3d829416	0.063759014
49	0xbda3ee60	-0.08004451
50	0xbd6365a6	-0.05551686
51	0xbd2eaf56	-0.042647682
52	0x3d964adf	0.07338499
53	0x3da2b547	0.07944732
54	0x3d40f3c1	0.04710746
55	0x3d59e626	0.053198002
56	0xbde670cd	-0.11251984
57	0x3d4c06b6	0.049811088
58	0xbdd92f6c	-0.10604748
59	0x3da1d5c2	0.07902099
60	0x3e039da2	0.12853101
61	0xbcf82e68	-0.030295566
62	0xbdd9eb6e	-0.10640608
63	0xbd07dfec	-0.033172533
64	0x3de24602	0.11048509
65	0xbdc3329d	-0.09531138
66	0x3d206762	0.039161094
67	0x3db54354	0.088507324
68	0xbdd88d6e	-0.105738506
69	0x3cbb8d84	0.022894628
70	0x3dad78c5	0.084703006
71	0x3e13075e	0.14358279
72	0x3daa245e	0.08307718
73	0x3dbe67ce	0.09297143
74	0xbddac13a	-0.10681386
75	0xbe135e37	-0.14391409
76	0x3df1d5d7	0.11808365
77	0x3d8ca50a	0.06867416
78	0x3cb29497	0.021799369
79	0xbde35491	-0.11100114
80	0xbd84f318	-0.06491679
81	0xbd4d09b5	-0.050058085
82	0xbe1769a5	-0.14786394
83	0xba47c146	-0.00076200475
