output_visualizations/base_tsk[^]_agm[none]_spl[S3]_mdl[lenet]_ls[SM]_tu[none]/model.pt (torch, 248071 bytes, 10 tensors)

conv1.weight f4 [6, 1, 5, 5]
0	0x3e931ff6	0.28735322
1	0x3eb80a11	0.3594518
2	0x3dae7808	0.08518988
3	0x3e565b17	0.20933186
4	0xbddcc7c5	-0.107802905
5	0x3e31a609	0.17348494
6	0x3e0e70ec	0.13910264
7	0x3ea0f51d	0.31437007
8	0x3e6881be	0.22705743
9	0xbe525928	-0.20541823
10	0x3e70465f	0.23464344
11	0x3e5d5887	0.21615802
12	0x3e9d8856	0.3076808
13	0x3d5f8fd3	0.05458052
14	0x3d02b937	0.031914916
15	0xbd8dc0ef	-0.06921565
16	0x3e66ef16	0.22552142
17	0x3dfaa835	0.12239114
18	0xbd9ef0df	-0.07760786
19	0x3c83980f	0.016063718
20	0xbe6c8d08	-0.23100674
21	0xbd904265	-0.07043914
22	0xbd7bb43f	-0.061451193
23	0x3e04b61b	0.12960093
24	0xbe4768c4	-0.19473559
25	0xbd9695cd	-0.07352791
26	0xba6d118a	-0.0009043446
27	0xbd8c64bb	-0.0685515
28	0xbd098028	-0.033569485
29	0xbea3a577	-0.31962177
30	0x3e6178c5	0.22018726
31	0xbd882bbb	-0.06648966
32	0x3e8d9ca0	0.27658558
33	0x3d7e4c86	0.062084697
34	0xbde7e76a	-0.113234356
35	0x3e4e740f	0.2016146
36	0x3e5974bb	0.21235935
37	0x3ecef57c	0.40421665
38	0x3e3aaa26	0.18228969
39	0xbc9ce4a1	-0.019151988
40	0x3dd5cab7	0.104390554
41	0x3df0a4aa	0.11750157
42	0x3eb8c3fe	0.3608703
43	0x3ed254e7	0.410804
44	0x3e6b867a	0.23000517
45	0xbdc4281f	-0.09577965
46	0x3e4a9030	0.19781566
47	0x3e518b8d	0.2046339
48	0x3e8801c1	0.26563838
49	0xbcff1dea	-0.031142194
50	0xbe507288	-0.2035619
51	0xbda3af71	-0.07992447
52	0xbe05c085	-0.13061722
53	0x3e333df5	0.17504103
54	0x3d831eb1	0.06402338
55	0x3db1e655	0.086865105
56	0x3da7baf2	0.08189954
57	0x3d0ec656	0.034857117
58	0x3e2c03f6	0.16798386
59	0xbe148125	-0.1450239
60	0x3d3039be	0.043023817
61	0xbdb389a3	-0.087664865
62	0x3de5974d	0.11210499
63	0xbd8a887e	-0.06764315
64	0x3d3ba367	0.04581013
65	0x3c26c946	0.010179823
66	0x3e6e4b89	0.23271002
67	0xbd8f07fd	-0.069839455
68	0xbe0cce4e	-0.13750574
69	0xbe1642e2	-0.14673951
70	0x3e6bda70	0.23032546
71	0x3e02cd7c	0.12773699
72	0x3e600c03	0.21879582
73	0xbe5a33c8	-0.21308815
74	0xbe7ed719	-0.2488674
75	0xbe3b9210	-0.18317437
76	0xbe02078a	-0.12698188
77	0x3e0661b3	0.13123207
78	0x3e2f65ab	0.17128627
79	0x3e974b03	0.29549417
80	0xbe05d686	-0.13070115
81	0xbdefa4b8	-0.117013395
82	0x3e37da47	0.1795436
83	0x3d0306fb	0.03198908
84	0x3e7df993	0.24802236
85	0xbda05edb	-0.07830592
86	0x3e10a902	0.14126971
87	0xbd84bcef	-0.06481349
88	0x3bd0dd2b	0.0063740215
89	0x3e1b421d	0.15161939
90	0x3c79b337	0.015240482
91	0xbcc295fe	-0.023753162
92	0x3e402daa	0.1876742
93	0x3e44906f	0.19195722
94	0xbdf9835d	-0.12183259
95	0xbdffcbc1	-0.12490035
96	0x3e4cd4bb	0.20003025
97	0xbd55e0a4	-0.052216187
98	0xbdb23ffd	-0.08703611
99	0xbe73e9d1	-0.23819663
100	0x3dfb6c9d	0.12276576
101	0x3e472532	0.19447783
102	0xbdeea660	-0.11652827
103	0xbedea21b	-0.43483052
104	0xbeb613ed	-0.35562077
105	0x3dd27918	0.10277003
106	0xbe58d543	-0.21175103
107	0xbed5712f	-0.41687915
108	0xbf1404ac	-0.5781963
109	0xbf068872	-0.5255195
110	0x3eab4e34	0.33458102
111	0xbe7a766c	-0.24459237
112	0xbe9585e1	-0.29203704
113	0xbeeaaba0	-0.45834064
114	0xbeef3d84	-0.4672662
115	0xbc40d109	-0.011768588
116	0xbeb4ed7a	-0.3533743
117	0xbf15b412	-0.5847789
118	0xbec24f3c	-0.37951076
119	0xbef390a8	-0.475713
120	0x3b994e0d	0.004678494
121	0xbedcd56f	-0.43131587
122	0xbeec1c05	-0.46115127
123	0xbefc63e5	-0.49294963
124	0xbea859ea	-0.328811
125	0xbe07f03f	-0.1327524
126	0xbdc31694	-0.09525791
127	0xbe2adfb6	-0.16686901
128	0x3e42db0a	0.1902887
129	0xb9cfcced	-0.00039634798
130	0x3e1edc61	0.15513755
131	0x3d20c99a	0.039254762
132	0xbe27b64d	-0.16378136
133	0x3e34bfcf	0.17651294
134	0xbc077984	-0.008268718
135	0xbd91b03e	-0.07113694
136	0xbe231b22	-0.15928319
137	0xbe26da94	-0.16294318
138	0x3dec53ae	0.11539398
139	0x3c97a0f6	0.01850937
140	0x3dcea817	0.10090654
141	0xbe01ce62	-0.12676385
142	0x3e61700b	0.22015397
143	0xbd937530	-0.07200086
144	0x3cc6f20f	0.024285344
145	0x3da4e22b	0.080509506
146	0x3e32d916	0.17465624
147	0x3e851e1d	0.25999537
148	0x3e821a12	0.25410515
149	0xbdf84b8d	-0.12123785

conv1.bias f4 [6]
0	0xbd31e04b	-0.043426793
1	0xbd268de0	-0.040662646
2	0xbc7b9a5b	-0.015356625
3	0xbdd7b38d	-0.105322935
4	0x3ec12085	0.37720123
5	0xbe149c7b	-0.14512818

conv2.weight f4 [16, 6, 5, 5]
0	0x3de094a3	0.1096585
1	0x3d99381e	0.07481407
2	0x3c842911	0.016132863
3	0xbd62ba3d	-0.055353392
4	0x3df20443	0.11817219
5	0x3d117a24	0.035516873
6	0x3cfbd938	0.030743226
7	0xbdd42b0a	-0.103597715
8	0xbcd70118	-0.026245639
9	0xbcc27363	-0.023736661
10	0xbccc377c	-0.0249288
11	0x3dd07384	0.10178283
12	0x3c6cfd22	0.014464648
13	0xbdc0fe9c	-0.09423563
14	0xbd8b20e5	-0.067933835
15	0xbbeae828	-0.0071687885
16	0x3d98ad1c	0.07454893
17	0xbbd235e0	-0.006415114
18	0xbda7e5be	-0.08198117
19	0xbd62d62a	-0.055380024
20	0xbdb0df41	-0.08636332
21	0x3d3d089d	0.046150792
22	0x3dc6bf09	0.09704406
23	0xbdbf08db	-0.09327861
24	0xbcc9b2a3	-0.024621313
25	0x3d89f90d	0.06736956
26	0x3c5ca85e	0.013467876
27	0xbdd539d2	-0.10411419
28	0xbcd3f7ef	-0.02587506
29	0x3d229f34	0.03970261
30	0x3d584aa4	0.052805558
31	0x3c0ac341	0.008469404
32	0xbd911b92	-0.07085337
33	0xbd8bd617	-0.06827944
34	0xbd537caf	-0.05163258
35	0xbc55255d	-0.013009396
36	0x3db190da	0.08670206
37	0x3d5262a7	0.051363613
38	0xbd61d2f3	-0.055132817
39	0xbd4adfcd	-0.04952984
40	0xbc7910b6	-0.015201738
41	0x3ce72381	0.028215172
42	0x3cf3ae37	0.029746158
43	0xbcb9f19c	-0.022698216
44	0xbe03cff3	-0.12872295
45	0xbd8ffade	-0.07030271
46	0x3ddc6d29	0.10763008
47	0x3d935648	0.07194191
48	0xbd249aef	-0.04018682
49	0xbdf68c4a	-0.12038477
50	0xbe54cc56	-0.20781073
51	0xbbd5baa7	-0.006522495
52	0xbc384082	-0.011245849
53	0xbe47b5fb	-0.19503014
54	0xbb1902f7	-0.0023347714
55	0xbe702501	-0.23451616
56	0xbd8e18a2	-0.06938292
57	0xbcfd660b	-0.030932447
58	0xbe6d214b	-0.23157232
59	0x3c50c9cd	0.012743426
60	0xbe91459c	-0.2837342
61	0xbdf6ad85	-0.12044815
62	0x3de6b7f3	0.11265554
63	0xbe1a5d5f	-0.15074681
64	0xbe5d3a19	-0.21604194
65	0xbe8ea912	-0.27863365
66	0xbe85b620	-0.26115513
67	0x3e090be7	0.13383447
68	0xbd7629cb	-0.06009845
69	0xbe6c8c4f	-0.23100398
70	0xbe8e2019	-0.27758864
71	0xbe80e76a	-0.25176555
72	0x3e39567b	0.18099396
73	0x3de2ebbc	0.11080119
74	0xbefe1d00	-0.496315
75	0x3d60c4fd	0.054875363
76	0xbd1e1dab	-0.038602512
77	0xbb7afcdb	-0.0038297686
78	0x3dc4cdde	0.096095785
79	0x3dea76d1	0.11448444
80	0xbd3bbb83	-0.045833122
81	0xbe4d6bcf	-0.20060657
82	0xbe55c0f8	-0.20874393
83	0xbd84db6a	-0.064871624
84	0x3dbe8892	0.093033925
85	0xbce5797a	-0.028012026
86	0xbdf08f0f	-0.11746036
87	0xbe4a9f0b	-0.19787233
88	0xbd379969	-0.044824038
89	0xbd93f67f	-0.0722475
90	0xbc961ed5	-0.018325249
91	0xbd01f4a9	-0.031727467
92	0xbdfd5a7d	-0.12370775
93	0x3c2f7cd5	0.010710915
94	0xbe069d67	-0.13145982
95	0xbd40daf9	-0.04708383
96	0xbcd85e4a	-0.026412148
97	0xbd9e044d	-0.07715664
98	0xbdb4b8f8	-0.088243425
99	0xbe692606	-0.22768411
100	0xbd429e1d	-0.04751407
101	0x3d405449	0.04695538
102	0x3e692b3c	0.22770399
103	0x3de909db	0.11378833
104	0x3dcb5363	0.09928014
105	0xbe507809	-0.2035829
106	0x3d2d6e6b	0.04234163
107	0x3ddc7c70	0.10765922
108	0x3df61800	0.120162964
109	0x3dd6232c	0.10455927
110	0xbe1afc8d	-0.15135403
111	0xbd83e298	-0.06439704
112	0x3df6b0f5	0.120454706
113	0xbc8f0ba6	-0.01746161
114	0x3dbac8ed	0.09120355
115	0xbe423db4	-0.1896885
116	0xbd250365	-0.04028644
117	0x3e1abf9f	0.1511216
118	0x3e18f58d	0.1493742
119	0x3e071ab8	0.13193786
120	0xbe2c12af	-0.16804002
121	0xbe02125b	-0.12702315
122	0x3e0355f3	0.12825756
123	0x3de4e4e5	0.11176471
124	0x3e68680c	0.2269594
125	0xbd8c3846	-0.06846671
126	0xbd28a52f	-0.041173156
127	0xbdac1db7	-0.08404105
128	0xbd7cb615	-0.061697084
129	0xbd8ff535	-0.070291914
130	0xbdb88897	-0.090104274
131	0xbae0b1b9	-0.0017142809
132	0x3d3c41f9	0.045961354
133	0xbc6c5f7f	-0.014427065
134	0xbd80467d	-0.062634446
135	0xbccf6b34	-0.025319673
136	0xbe39be0b	-0.18138902
137	0xbdcf09f6	-0.10109322
138	0xbc2fe59e	-0.010735897
139	0xbdcd9de4	-0.10039881
140	0xbd2e2420	-0.04251492
141	0xbcae2914	-0.021259822
142	0x3cc5b020	0.024131835
143	0xbcb8cfc9	-0.022560017
144	0xbdd03383	-0.10166075
145	0xbd425c2f	-0.047451194
146	0xbc460041	-0.0120850215
147	0x3d0b3cfb	0.033993702
148	0xbd55eae9	-0.05222598
149	0xbbf883fa	-0.007584092
150	0x3cc8f7f2	0.024532292
151	0x3dd22498	0.10260886
152	0x3d836d49	0.06417329
153	0x3daad281	0.08340932
154	0x3e02e5d1	0.1278298
155	0x3dcef336	0.101049826
156	0xbb090bc3	-0.0020911552
157	0x3dc722fe	0.09723471
158	0x3df24820	0.11830163
159	0x3d114ff4	0.03547664
160	0x3dca8597	0.098887615
161	0x3de3c600	0.1112175
162	0x3b3b5640	0.0028585345
163	0x3c09c70a	0.008409271
164	0xbd9f765a	-0.07786246
165	0xbace7bb2	-0.0015753417
166	0x3d6d4dee	0.057935648
167	0x3cfacfda	0.03061669
168	0xbd8e2c2f	-0.06942021
169	0xbdcd0359	-0.10010404
170	0xbd80171b	-0.06254407
171	0xbdab0c7c	-0.083519906
172	0xbd76c9a0	-0.06025088
173	0xbca1a521	-0.01973206
174	0x3d138311	0.036013667
175	0x3db62d24	0.08895329
176	0x3cb03e7a	0.021514166
177	0x3c6b65d4	0.014367539
178	0x3dc0a0ed	0.09405694
179	0xbcac5891	-0.021038326
180	0x3cda14a9	0.02662118
181	0x3d73a0cc	0.05947952
182	0xbd0370fc	-0.032090172
183	0xbcd0b532	-0.025477026
184	0xbcc0c234	-0.023530103
185	0xbc350638	-0.011048846
186	0xbd4ba731	-0.049719993
187	0xbdca8b93	-0.09889903
188	0xbdd3a929	-0.10334999
189	0xbdb1fb23	-0.08690479
190	0x3d87a514	0.06623283
191	0xbd3eb55b	-0.046559673
192	0xbd74f2f5	-0.059802014
193	0x3b273086	0.00255111
194	0xbc3349c5	-0.010942881
195	0x3d33318d	0.043748427
196	0x3d8c64b3	0.06855144
197	0x3d904674	0.07044688
198	0xbd3b5fbb	-0.045745593
199	0x3cb329c4	0.021870501
200	0x3e4db622	0.2008901
201	0x3dcb23b7	0.099189214
202	0x3e00fd61	0.12596656
203	0x3c09d1f3	0.008411872
204	0xbec0eddf	-0.3768148
205	0x3e1df420	0.15425158
206	0xbcf6ae10	-0.030112296
207	0xbe41a214	-0.18909484
208	0xbed299d1	-0.41132978
209	0xbf29f276	-0.6638559
210	0x3caa3a3d	0.020779723
211	0xbed8ebc5	-0.42367378
212	0xbf2531fe	-0.6452941
213	0xbf1935ed	-0.5984791
214	0xbef15dd7	-0.47141907
215	0xbeb223b9	-0.3479288
216	0xbeff49d2	-0.49861008
217	0xbef9fbb0	-0.48824835
218	0xbf1eb70c	-0.6199806
219	0xbee7470d	-0.45171395
220	0xbeca6358	-0.39528918
221	0xbea8aebb	-0.3294581
222	0xbf06ff57	-0.5273337
223	0xbeeb2771	-0.4592853
224	0xbe599c50	-0.21251035
225	0x3dc056b0	0.09391534
226	0x3e3338c8	0.17502129
227	0x3e5d74cf	0.2162659
228	0x3c9ec62d	0.019381607
229	0x3dac7be9	0.084220715
230	0x3d908df2	0.07058324
231	0x3d6b8c33	0.05750675
232	0x3d768bfb	0.06019209
233	0xbd92395b	-0.07139846
234	0xbca5189b	-0.020153334
235	0xbb7f68f2	-0.0038972464
236	0xbbd43a7a	-0.0064766975
237	0xbd7d9cde	-0.06191718
238	0xbd9f4942	-0.07777645
239	0xbd9a0314	-0.07520118
240	0xbe1b8ca9	-0.15190376
241	0xbdabfa95	-0.08397404
242	0xbdc3a62f	-0.095531814
243	0xbe2655d9	-0.16243686
244	0xbdeefb4d	-0.116690256
245	0x3c9794f7	0.01850365
246	0xbd90751c	-0.07053587
247	0xbda17116	-0.078828976
248	0xbdda228c	-0.106511205
249	0xbe197ac5	-0.14988239
250	0xbe8efb90	-0.27926302
251	0xbdd8f6cb	-0.10593947
252	0xbe411dcf	-0.18859027
253	0xbd3c6a67	-0.04599991
254	0xbdf52864	-0.119705945
255	0xbe9bc655	-0.30424753

conv2.bias f4 [16]
0	0xbd2a889f	-0.0416342
1	0x3dd25d3e	0.10271691
2	0x3d4e25fd	0.050329197
3	0xbccd0267	-0.02502556
4	0xbce2df20	-0.027694285
5	0x3c84df0a	0.016219635
6	0xbd3aa782	-0.045569904
7	0xbc087c21	-0.008330376
8	0xbd95b7a7	-0.073104195
9	0x3cd3a713	0.025836503
10	0xbd705dcf	-0.058683213
11	0x3c988cb8	0.018621787
12	0xbd64a8d9	-0.05582509
13	0x3caff4a5	0.02147896
14	0x3d90f1e1	0.07077385
15	0x3cba8d43	0.022772437

fc1.weight f4 [120, 400]
0	0x3d29bf1b	0.041442018
1	0x3c30c420	0.010788947
2	0xb9fb63c4	-0.00047948782
3	0x3c5c5cf5	0.013449897
4	0x3deb3c40	0.11486101
5	0xbd599846	-0.053123735
6	0xbda2a2ea	-0.0794123
7	0xbd4e62c7	-0.05038717
8	0x3d4fad98	0.05070266
9	0x3dc98143	0.09839108
10	0x3cee2fdb	0.029075554
11	0xbd982d1e	-0.074304804
12	0xbd43b61d	-0.0477811
13	0x3b345821	0.002751835
14	0x3de7102e	0.11282383
15	0x3cb5ab1b	0.022176316
16	0x3d1e75a0	0.038686395
17	0xbd095b31	-0.033534233
18	0xbd85c8be	-0.06532429
19	0x3dbc1df2	0.09185399
20	0x3d91fdac	0.07128462
21	0x3c411e93	0.011787075
22	0x3c71d6ee	0.014760716
23	0xbc53c0dc	-0.012924399
24	0x3dec9c6b	0.11553272
25	0x3e5c6273	0.2152193
26	0x3e35d2eb	0.1775624
27	0x3dd7d773	0.105391406
28	0xbcedaff7	-0.02901457
29	0x3b0ba641	0.0021308812
30	0x3d356955	0.044289906
31	0x3d8123a7	0.06305628
32	0x3db12cc4	0.086511165
33	0x3e2aa5c7	0.16664802
34	0x3dd3472d	0.1031631
35	0x3d8f0740	0.06983805
36	0x3cd995d4	0.026560701
37	0x3cf1f528	0.029535845
38	0x3d2cea74	0.04221578
39	0x3ceddfc1	0.029037358
40	0x3d8d994e	0.06914006
41	0xbab31a01	-0.0013664366
42	0xbc5ad5a4	-0.0133566
43	0xbe0fde46	-0.14049634
44	0xbd5968ed	-0.05307858
45	0x3d38dc02	0.04513169
46	0x3b941424	0.0045190025
47	0xbe080f04	-0.13286978
48	0xbe828a3c	-0.2549609
49	0xbd9569ca	-0.07295568
50	0xbdd4656f	-0.103709094
51	0xbce958bb	-0.028484693
52	0xbd4248fe	-0.047432892
53	0x3d831f24	0.06402424
54	0xbccd70fc	-0.02507829
55	0xbcfbd950	-0.030743271
56	0xbc9a89f8	-0.018864617
57	0xbd85f5a3	-0.06540992
58	0x3d4493e2	0.047992595
59	0x3bcbc890	0.0062189773
60	0x3c87196f	0.01649162
61	0x3d9305bc	0.07178828
62	0xbc212c44	-0.009837214
63	0x3cb11b39	0.021619426
64	0x3d4d04d4	0.050053433
65	0xbb03ff7d	-0.0020141297
66	0xbc202c21	-0.009776146
67	0x3d67af16	0.05656346
68	0x3d2920b5	0.041290957
69	0x3d55b979	0.052178834
70	0x3d77950f	0.060444888
71	0x3d2c68e6	0.042092226
72	0x3b3bc589	0.0028651676
73	0x3ddd0660	0.107922316
74	0x3d3af921	0.045647744
75	0xbc9886e5	-0.01861901
76	0x3d8268d3	0.0636765
77	0x3d909821	0.07060266
78	0x3d043270	0.032274663
79	0xbdfe4b93	-0.124167584
80	0x3d2df55f	0.042470332
81	0x3ded0df3	0.11574926
82	0x3d5da785	0.054114837
83	0xbdda85b2	-0.106700316
84	0xbded4b32	-0.11586608
85	0x3acb23ce	0.0015498342
86	0x3e123064	0.14276272
87	0xbc2d6e01	-0.010585309
88	0xbe312a47	-0.17301284
89	0xbe8fed1f	-0.28110597
90	0x3d8ce24a	0.06879099
91	0x3d8b4680	0.06800556
92	0xbe1eb821	-0.15499927
93	0xbe938fc2	-0.28820616
94	0xbe83f7a1	-0.25774863
95	0x3d34fc45	0.044185895
96	0xbda8af13	-0.08236518
97	0xbe5484b0	-0.20753741
98	0xbe25421b	-0.16138498
99	0xbdbdd70c	-0.092695326
100	0x3e8f2617	0.27958748
101	0x3e38d921	0.18051578
102	0x3cd62eb3	0.026145315
103	0xbdbdf8ec	-0.09275994
104	0xb9300a41	-0.00016788488
105	0x3e58758c	0.2113859
106	0x3e45e2bd	0.19324775
107	0x3d890ab1	0.06691492
108	0x3cc2b0be	0.023765918
109	0x3d07c84b	0.03315
110	0x3d6f7aa6	0.058466576
111	0x3e418586	0.18898591
112	0x3d533b3c	0.051570162
113	0x3d69787c	0.05699967
114	0x3db41857	0.08793705
115	0x3dac5e4e	0.08416425
116	0x3d82af01	0.063810356
117	0x3dbea034	0.093079
118	0xb942e0a9	-0.00018584974
119	0x3db3585b	0.08757087
120	0x3dcd8aff	0.10036277
121	0x3d384b17	0.044993486
122	0x3d285935	0.0411007
123	0xbe604409	-0.21900953
124	0xbe610c83	-0.21977429
125	0xbe08e801	-0.13369752
126	0xbe3df1a6	-0.18549213
127	0xbe1e95a2	-0.15486768
128	0x3c715cb2	0.014731573
129	0x3c8843fc	0.01663398
130	0xbdefffb1	-0.11718691
131	0xbdbfbb13	-0.093618535
132	0xbd0555c8	-0.03255251
133	0x3d7b026c	0.061281607
134	0x3d615bb3	0.05501909
135	0xbdb49829	-0.08818085
136	0xbcc65922	-0.024212424
137	0xbc6f352b	-0.014600079
138	0x3d3d5beb	0.046230238
139	0x3d555c33	0.05208988
140	0x3d2a7de3	0.04162396
141	0x3dd1a28a	0.1023608
142	0x3dcb4241	0.09924746
143	0x3dfbcc1f	0.122947924
144	0x3e81ff75	0.2539021
145	0x3dcd9668	0.10038453
146	0x3da1a53a	0.078928426
147	0x3cc32004	0.023818977
148	0x3d0a566b	0.03377382
149	0x3e4131b5	0.18866618
150	0x3c14ca31	0.009081409
151	0xbdc975ca	-0.098369196
152	0xbda7b35a	-0.081885055
153	0xbd243aad	-0.04009502
154	0x3d4c4dd1	0.0498789
155	0xbd5715af	-0.052510913
156	0x3c65c255	0.014023383
157	0xbd75e14f	-0.060029324
158	0x3d37c0cd	0.044861604
159	0x3da360fe	0.07977484
160	0xbd2f0558	-0.042729706
161	0x3d2d8f2d	0.04237287
162	0x3d120f7b	0.035659295
163	0xbbb8e889	-0.0056429547
164	0x3e039a3b	0.12851803
165	0x3d423c73	0.04742093
166	0x3d907169	0.07052881
167	0x3ccab3f2	0.024744008
168	0x3d85244d	0.065010644
169	0x3dd33d81	0.10314465
170	0x3c928ad1	0.017888458
171	0x3dd43e3a	0.10363431
172	0x3dd5b1cc	0.10434303
173	0x3ddd656d	0.10810361
174	0x3dfc5e25	0.12322644
175	0x3d19422d	0.037416626
176	0xbcbb91c5	-0.022896657
177	0x3d4a3cb7	0.04937431
178	0x3d7fd811	0.062461916
179	0x3cf85f4b	0.030318877
180	0x3d0711db	0.032976013
181	0x3c089a55	0.008337577
182	0x3c9d52a4	0.019204445
183	0xbc1295dc	-0.008946862
184	0x3d1d7212	0.038438864
185	0x3c48c87e	0.012254832
186	0x3d073b20	0.03301537
187	0x3d052a87	0.03251126
188	0x3da58d74	0.08083621
189	0x3ca83f80	0.020538092
190	0xbcea09c1	-0.028569104
191	0x3d84aed7	0.064786606
192	0xbc3f55d3	-0.011678177
193	0xbcde95f2	-0.027171109
194	0xbdad7239	-0.08469052
195	0x3d205901	0.03914738
196	0xbd0c201a	-0.034210302
197	0xbd4a5bd5	-0.049403984
198	0xbcec2383	-0.028825527
199	0x3d2e8a70	0.042612493
200	0xbdffc797	-0.124892406
201	0xbd318a13	-0.04334457
202	0x3ce02bb8	0.027364597
203	0x3d552694	0.052038744
204	0xbd90d705	-0.07072262
205	0x3d211ec3	0.039335977
206	0xbc873678	-0.016505465
207	0xbba8d7c3	-0.005152674
208	0x3c1eff3f	0.00970441
209	0xbdcf3cfb	-0.10119053
210	0x3ddac5f6	0.10682289
211	0x3cabb7cc	0.020961665
212	0xbd3cce5f	-0.04609525
213	0xbd33b73c	-0.043875918
214	0xbe25af04	-0.16180044
215	0x3da2b8f8	0.07945436
216	0xbd02fd36	-0.031979762
217	0xbe033acb	-0.12815396
218	0xbdcf2042	-0.101135746
219	0xbd604fe3	-0.054763686
220	0xbc159e9b	-0.009132053
221	0xbd9b2c88	-0.07576853
222	0xbdc0e1b7	-0.09418052
223	0x3d255528	0.040364414
224	0x3dda8205	0.106693305
225	0x3cc12b2a	0.023580153
226	0x3c4fca76	0.012682548
227	0xbafbc708	-0.0019209096
228	0x3d4a8948	0.049447328
229	0x3dd2e2cc	0.10297164
230	0x3d195de4	0.037443057
231	0xbd6dd8b4	-0.058067992
232	0xbd0a854f	-0.03381854
233	0xbd032178	-0.03201434
234	0x3d1f580d	0.03890233
235	0xbc8061c9	-0.015671628
236	0x3d21ff0d	0.039549876
237	0x3c9ff4b6	0.019525867
238	0x3c978d4a	0.018499989
239	0x3a0a5fa7	0.00052785355
240	0xbcca491f	-0.02469307
241	0x3c65a75f	0.014016955
242	0xbcc68e89	-0.024237888
243	0xbcd82faf	-0.026389925
244	0x3d87e1de	0.066348776
245	0xbbddfc3b	-0.006774453
246	0xbbbc77a6	-0.005751568
247	0x3d4f0478	0.05054137
248	0x3cf6f8d6	0.030147951
249	0x3c3a32bc	0.011364635
250	0x3c2666f2	0.01015638
251	0xbd33157c	-0.04372166
252	0xbd80143a	-0.06253858
253	0x3db0311e	0.08603118
254	0x3db363ba	0.08759256
255	0xbd040aab	-0.032236736

fc1.bias f4 [120]
0	0xbc00cb85	-0.007861023
1	0xbcd44027	-0.025909496
2	0xbc9e27e9	-0.01930614
3	0x3c472d74	0.012156833
4	0x3d55e76c	0.052222654
5	0x3cdd41a2	0.027008835
6	0xbc8add54	-0.01695124
7	0xbd061899	-0.032738302
8	0x39ffe1d6	0.0004880565
9	0xbcda863e	-0.02667534
10	0xbd8dcea3	-0.069241785
11	0xbc03cbfe	-0.008044241
12	0xbc02f08f	-0.007991924
13	0x3c2ece2d	0.010669273
14	0xbc97cbb1	-0.018529745
15	0x3e47607a	0.19470397
16	0x3beed88e	0.007288999
17	0xbdc6e96c	-0.097124904
18	0x3e3b948e	0.18318388
19	0xbd3aecde	-0.04563605
20	0x3d443059	0.04789767
21	0xbd49f88d	-0.049309302
22	0x3cd1ccdb	0.025610378
23	0xbd51c238	-0.051210612
24	0xbcecdd59	-0.02891414
25	0x3d943ea3	0.072385095
26	0x3e238a6b	0.15970771
27	0x3c6ef71e	0.0145852845
28	0x3d2c5922	0.04207719
29	0x3d2b9fdc	0.0419005
30	0x3d5dfdd2	0.05419714
31	0xbca22e0d	-0.01979735
32	0xbcde2b4b	-0.027120253
33	0xbc9c0682	-0.019046072
34	0x3e2db934	0.1696518
35	0x3d40f02b	0.047104042
36	0x3d4d7ef9	0.05016992
37	0x3d02b2c1	0.031908754
38	0x3e4df4fa	0.20112982
39	0xbcb5bd5c	-0.02218502
40	0x3b846939	0.004040864
41	0x3e3f1ebc	0.18664068
42	0x3ceedf65	0.029159257
43	0x3cda4e2f	0.026648609
44	0xbd514865	-0.05109443
45	0xbcee019f	-0.029053507
46	0x3d17578a	0.036948718
47	0x3d6e9536	0.058247767
48	0xbc3390a0	-0.010959774
49	0x3de31e8f	0.11089813
50	0x3ddb2fa0	0.10702443
51	0x3e37b91e	0.1794171
52	0x3c465cf9	0.012107127
53	0x3da540ba	0.08068986
54	0x3d78d4dc	0.060749874
55	0x3d1e9519	0.03871641
56	0x3c662e29	0.014049091
57	0x3cb07c9a	0.02154379
58	0xbd54fa94	-0.051996782
59	0xbcb1ad89	-0.021689193
60	0xbca01f1d	-0.019546086
61	0x3c9a0906	0.01880313
62	0xbc68d9de	-0.0142121
63	0x3c8bdb36	0.017072301
64	0x3d44c807	0.048042323
65	0xbdae8446	-0.08521323
66	0x3c701211	0.014652745
67	0x3dc92533	0.09821548
68	0x3d33ea94	0.043924883
69	0x3c90165e	0.01758879
70	0x3dc51505	0.0962315
71	0x3d7447d8	0.059638828
72	0x3b37a3fc	0.0028021326
73	0xbd72e10e	-0.05929666
74	0xbd0a13eb	-0.0337104
75	0xbc0ad0d4	-0.00847264
76	0x3daadc5d	0.08342812
77	0x3d02923f	0.031877752
78	0x3e3e4bb8	0.18583572
79	0x3cf60cbd	0.030035371
80	0x3c324d03	0.010882619
81	0xbcca69d6	-0.02470867
82	0x3da51f58	0.08062619
83	0x3c74cbbe	0.014941154
84	0xbd277bc7	-0.040889528
85	0xbde4bc56	-0.11168735
86	0xbce1d1dc	-0.027565889
87	0x3de0cc81	0.10976506
88	0x3bb6d505	0.005579593
89	0xbd74f972	-0.059808202
90	0x3e4ab97e	0.19797322
91	0x3ad0b8a1	0.0015924164
92	0xbcc4d2d1	-0.024026306
93	0x3d7e3c9f	0.06206953
94	0x3cd5ef2c	0.026115023
95	0xbd38c529	-0.0451099
96	0xbd4d76a7	-0.050161984
97	0x3d8873ee	0.06662737
98	0xbd01b079	-0.031662438
99	0x3d97b46e	0.07407461
100	0x3d006ad6	0.031351887
101	0xbd174b2d	-0.036936928
102	0xbbc90770	-0.00613492
103	0x3e46c9c3	0.19412903
104	0xbc588bb6	-0.013216903
105	0xbc0ff915	-0.008787413
106	0x3dae97e1	0.08525062
107	0x3c600281	0.013672472
108	0xbc8f8906	-0.017521393
109	0x3d96e55e	0.07367967
110	0x3d1a37fd	0.03765105
111	0x3d9277de	0.07151769
112	0xbcce43a8	-0.025178745
113	0x3e1aaedc	0.15105766
114	0xbd6080d4	-0.05481036
115	0x3e5639cf	0.2092049
116	0xbc90331b	-0.017602494
117	0xbca8aac7	-0.020589245
118	0xbd57123f	-0.052507635
119	0xbd990e64	-0.07473448

fc2.weight f4 [84, 120]
0	0x3c9c6c18	0.019094512
1	0x3cfc973f	0.030833839
2	0xbd08c9d5	-0.033395607
3	0x3d85ece7	0.06539326
4	0xbd169ea1	-0.036772374
5	0xbd80dd25	-0.0629218
6	0xbdd84766	-0.10560493
7	0x3cb14cac	0.021643005
8	0x3d66c6bc	0.05634187
9	0xbdac80df	-0.08423018
10	0xbcfa2f04	-0.030539997
11	0xbd26e00b	-0.040741008
12	0x3d0d93ac	0.03456466
13	0xbc8a86f9	-0.016910063
14	0x3c0bf74b	0.008542846
15	0x3ddf953b	0.10917135
16	0xbd824dd2	-0.06362499
17	0xbe4ea5ef	-0.20180486
18	0x3e4ddc11	0.2010348
19	0x3df2b53a	0.118509725
20	0x3d66d9a1	0.05635989
21	0xbd364b00	-0.04450512
22	0x3db08d79	0.08620734
23	0xbe277949	-0.1635486
24	0x3d852c10	0.06502545
25	0x3ded940c	0.11600503
26	0x3dd28871	0.102799304
27	0x3da77316	0.08176248
28	0xbc8dfdaf	-0.01733288
29	0xbda5b1b3	-0.08090534
30	0x3d793f88	0.060851604
31	0x3c0afe66	0.008483505
32	0x3cbe2ec8	0.023215666
33	0xbd2182f2	-0.03943152
34	0x3e0c722b	0.13715427
35	0xbd9e77f9	-0.07737727
36	0xbd886b65	-0.06661109
37	0x3d8ef1ff	0.06979751
38	0x3d1f81c4	0.038942114
39	0x3d3ca698	0.046057314
40	0xbd59f231	-0.053209487
41	0x3ddcd0c8	0.10782009
42	0x3c6befb0	0.014400408
43	0x3d8e0fb0	0.06936586
44	0x3e9819b3	0.29707107
45	0x3cb5ed3e	0.022207852
46	0xbdd2d149	-0.10293824
47	0x3ad472a9	0.0016208488
48	0x3e8da612	0.27665764
49	0xbd22d33b	-0.039752226
50	0xbd8cc09b	-0.06872674
51	0xbc030a51	-0.007998065
52	0xbd95a79b	-0.07307359
53	0xbdd14ef4	-0.10220137
54	0x3cdd7beb	0.027036628
55	0xbc345e22	-0.011008771
56	0xbdd85406	-0.10562901
57	0x3d143d62	0.03619135
58	0xbd61b58e	-0.055104785
59	0x3d592040	0.05300927
60	0x3d8015ad	0.06254134
61	0xbd0d5767	-0.03450718
62	0xbcf8859f	-0.030337153
63	0xbdba5db8	-0.09099907
64	0x3e3f571a	0.1868557
65	0xbd26c8bb	-0.040718775
66	0x3d74aaf6	0.059733354
67	0x3d846d02	0.06466104
68	0x3d8e5091	0.069489606
69	0xbc152350	-0.009102657
70	0x3de8f3ae	0.11374603
71	0x3db2912a	0.08719094
72	0xbd44ba77	-0.04802939
73	0xbcf29a9a	-0.029614735
74	0x3c19f944	0.009397808
75	0xbd449d80	-0.048001766
76	0x3d81c2fe	0.0633602
77	0xbda755da	-0.08170672
78	0x3dd81707	0.10551267
79	0x3c6d76b5	0.014493634
80	0x3d557b65	0.05211963
81	0x3e97122e	0.29506058
82	0x3de6b503	0.11264994
83	0x3dacb978	0.08433813
84	0xbd2fd52e	-0.042927913
85	0xbe0fe0b8	-0.14050567
86	0xbb8d72f0	-0.00431668
87	0xbc398ca5	-0.011325036
88	0xbd93418b	-0.07190236
89	0xbd12f840	-0.03588128
90	0x3cc27383	0.02373672
91	0xbda97c97	-0.08275717
92	0x3d6cb4ab	0.057789486
93	0x3c94018c	0.018067144
94	0xbd3348dd	-0.04377066
95	0x3c97d3cf	0.018533615
96	0xbcc213d0	-0.023691088
97	0x3dce5901	0.1007557
98	0x3b822981	0.003972233
99	0xbb970273	-0.0046084463
100	0xbd04d70f	-0.03243166
101	0x3c499b38	0.012305073
102	0xbcd0e13c	-0.025498025
103	0x3e98bb6c	0.29830492
104	0x3b1ee1c0	0.0024243444
105	0x3c9e9a5b	0.019360712
106	0x3dc5d1d1	0.0965916
107	0xbcf28ef5	-0.029609183
108	0xbd887d6d	-0.06664548
109	0xbd13464f	-0.035955723
110	0xbd90a7f9	-0.07063288
111	0x3db45150	0.08804572
112	0x3d850c0a	0.06496437
113	0x3e78ba38	0.24289787
114	0xbdac5d9b	-0.08416291
115	0x3e9a8b1a	0.3018425
116	0xbdaab811	-0.08335889
117	0xbd015833	-0.031578254
118	0x3d3f2181	0.04666281
119	0xbc6ae182	-0.014335992
120	0xbd9f2f77	-0.07772725
121	0xbd0f798f	-0.035028037
122	0xbaa856a5	-0.0012843205
123	0x3c6ab508	0.014325388
124	0xbe167705	-0.1469384
125	0xbdb3cd1f	-0.08779358
126	0x3da98295	0.0827686
127	0x3c83b687	0.016078247
128	0x3c441317	0.011967442
129	0x3be1080c	0.0068674143
130	0xbe100026	-0.14062557
131	0xbc92254a	-0.017840046
132	0xbd6b48d6	-0.05744251
133	0xbd5e8621	-0.054327134
134	0xbe8255aa	-0.25455981
135	0x3d23b97c	0.039971814
136	0xbc50a345	-0.012734239
137	0xbea58610	-0.32328844
138	0x3e3c7e0a	0.18407455
139	0x3d94efc8	0.07272297
140	0x3d79dc40	0.061001062
141	0x3baded7e	0.0053078523
142	0x3d4281f6	0.04748722
143	0x3d2bf928	0.04198566
144	0xbdc3f982	-0.09569074
145	0x3ddf0bc4	0.10890916
146	0x3e07f377	0.13276468
147	0xbc35414a	-0.011062929
148	0x3e308433	0.1723793
149	0xbe306d5e	-0.1722922
150	0x3d3b961d	0.045797456
151	0xbd693428	-0.056934506
152	0xbde77919	-0.113023944
153	0x3dfaaf43	0.1224046
154	0x3e0dcb0f	0.13846992
155	0x3d8e8e36	0.06960718
156	0xbe05b4f5	-0.13057311
157	0x3c158217	0.009125254
158	0x3db30c8f	0.0874263
159	0xbd6b2388	-0.057406932
160	0xbd2db0eb	-0.04240505
161	0x3dac35fd	0.08408735
162	0xbd51af50	-0.05119258
163	0x3cf51e3b	0.029921642
164	0x3e5e4f75	0.21709998
165	0x3cf756d7	0.030192776
166	0x3df3ce13	0.1190454
167	0x3dd6763d	0.10471771
168	0x3e914919	0.28376082
169	0x3e54d63e	0.20784852
170	0x3d71ebf9	0.05906293
171	0x3d09636b	0.033542078
172	0x3dc41f48	0.09576279
173	0xbe12344f	-0.14277767
174	0xbcb7750b	-0.022394678
175	0x3e0945e7	0.13405572
176	0x3d9b36c7	0.07578807
177	0xbcc927d4	-0.024555124
178	0xbdb1c1af	-0.0867952
179	0xbd8103e3	-0.062995695
180	0xbcb324f4	-0.021868207
181	0x3cc8b5f4	0.024500825
182	0xbc371a12	-0.011175649
183	0x3db93574	0.090433985
184	0x3dd8f71d	0.10594008
185	0xbb1c1700	-0.002381742
186	0x3e3e8703	0.1860619
187	0xbd98de45	-0.074642695
188	0x3d9fd7f0	0.07804859
189	0x3dc4b0c7	0.0960403
190	0x3d600c46	0.054699205
191	0xbda18bdb	-0.078880034
192	0xbdc0617b	-0.09393593
193	0xbe859c44	-0.26095784
194	0x3d69a9ab	0.057046574
195	0x3cbb54da	0.022867609
196	0x3df7ecb1	0.12105692
197	0xbdbb869d	-0.09156535
198	0x3da91e74	0.082577616
199	0x3c583174	0.013195384
200	0xbd45d405	-0.0482979
201	0x3e954e16	0.29161137
202	0xbd9f42bf	-0.07776403
203	0x3d913d51	0.07091773
204	0x3c188733	0.009309578
205	0xbdab4254	-0.083622605
206	0xbd306c3c	-0.04307197
207	0x3c4bcc52	0.0124388505
208	0xbd0d33f4	-0.034473374
209	0xbd5e684f	-0.054298695
210	0x3df07571	0.1174115
211	0xbca94278	-0.020661578
212	0x3d954f45	0.0729051
213	0x3e1425fc	0.14467615
214	0xbd8cd06e	-0.06875692
215	0xbe0e4ae6	-0.13895759
216	0x3d989286	0.07449822
217	0x3c502b62	0.012705656
218	0xbd9ba3bf	-0.075995915
219	0xbd1a4cde	-0.037670963
220	0xbe0f6fbf	-0.14007472
221	0xbd53b4c4	-0.051686063
222	0x3c285e43	0.01027638
223	0x3e8b0257	0.27150223
224	0xbb149026	-0.0022668927
225	0x3c47f0c9	0.012203404
226	0x3df09139	0.11746449
227	0x3cd21cac	0.025648437
228	0x3de4768d	0.11155424
229	0x3e1ff183	0.15619473
230	0x3d1ca972	0.038247533
231	0x3e228b75	0.15873511
232	0x3dab6e50	0.0837065
233	0x3e2bd2f0	0.16779685
234	0xbdede3b6	-0.11615698
235	0x3e929950	0.28632593
236	0x3c33016f	0.010925635
237	0xbc716fe8	-0.014736153
238	0x3cc4e617	0.024035497
239	0x3d616394	0.055026606
240	0xbcddf1d6	-0.027092855
241	0x3d1fd9fb	0.03902624
242	0xbe2a76b3	-0.16646843
243	0xbb751e32	-0.003740203
244	0x3da093bf	0.0784068
245	0x3ce04933	0.027378654
246	0xbe004e90	-0.12529969
247	0xbc7fe812	-0.015619295
248	0x3d844e42	0.06460239
249	0x3d15eef2	0.03660483
250	0x3cc2f6d6	0.023799341
251	0x3cea10aa	0.0285724
252	0x3c4b25bf	0.012399136
253	0x3d81bace	0.06334458
254	0x3e99f2f8	0.30068183
255	0x3d3add08	0.045620948

fc2.bias f4 [84]
0	0x3d2e18b4	0.042504027
1	0x3e4e5d0e	0.20152685
2	0x3da1ec6e	0.079064235
3	0x3df85377	0.12125295
4	0xbca5419d	-0.020172888
5	0x3d8c2887	0.068436675
6	0x3dc96782	0.09834196
7	0x3d59de04	0.053190246
8	0x3da1704b	0.07882746
9	0x3d2900e4	0.041260615
10	0x3e1a0987	0.15042697
11	0x3e001f9f	0.12512062
12	0x3d11fe2c	0.035642788
13	0xbd56d20c	-0.05244641
14	0x3e504a05	0.20340736
15	0x3cccbc0c	0.024992011
16	0x3d297fa0	0.04138148
17	0x3e03a689	0.12856497
18	0x3d1e1a2a	0.03859917
19	0x3d942df2	0.07235326
20	0x3dea3f1a	0.11437817
21	0xbd1160eb	-0.03549282
22	0x3da868c2	0.08223106
23	0x3e0613b4	0.13093454
24	0x3e32e0e5	0.17468603
25	0x3d6e7821	0.058220033
26	0xbd4ee3e8	-0.050510317
27	0xbcb5983e	-0.022167321
28	0xbdd283d2	-0.10279049
29	0xbd95937c	-0.07303521
30	0xbdfa0cb8	-0.12209457
31	0x3cfbcd0f	0.030737428
32	0x3d83da1f	0.06438088
33	0xbd4c8892	-0.04993493
34	0x3ddf3583	0.108988784
35	0x3e1a9942	0.15097526
36	0x3cda26d5	0.026629845
37	0xbbe6fca7	-0.0070491615
38	0x3cbc472b	0.022983154
39	0x3d3c45bc	0.04596494
40	0x3e04acf4	0.12956601
41	0x3d095a69	0.033533487
42	0xbda926d0	-0.08259356
43	0xbdc6a45e	-0.09699319
44	0x3d423ab4	0.047419265
45	0x3d216c8b	0.039410155
46	0x3d78ef31	0.060774986
47	0x3cacbc56	0.0210859
48	0xbda16b16	-0.07881753
49	0xba48ee25	-0.0007664881
50	0xbce08f84	-0.027412184
51	0xbd0b58dd	-0.034020294
52	0x3c778839	0.015108162
53	0x3dfd6b17	0.123739414
54	0xbccab9b7	-0.024746759
55	0x3d3466ad	0.04404323
56	0x3e0971db	0.13422339
57	0xbd6decc2	-0.058087118
58	0xbda9870c	-0.08277711
59	0xbd5ad912	-0.05342967
60	0x3cf4caeb	0.029881915
61	0xbd12af93	-0.035811972
62	0x3e462ff9	0.19354238
63	0x3d801521	0.0625403
64	0x3deba475	0.11505977
65	0x3d739a4a	0.059473313
66	0x3cc6cf8e	0.024268892
67	0x3e51498e	0.20438215
68	0xbd8f689c	-0.070023745
69	0xbdfa2c83	-0.12215521
70	0x3e35a1b6	0.17737469
71	0x3bf00b6e	0.0073255813
72	0x3dcf4423	0.10120418
73	0x3cde8ee8	0.027167752
74	0xbc58e659	-0.013238513
75	0x3d96f9e5	0.07371882
76	0x3d612ece	0.054976277
77	0xbdbe8cd5	-0.09304205
78	0xbde964f8	-0.113962114
79	0xbd3447bf	-0.044013735
80	0x3da29322	0.079382196
81	0xbdd18a6f	-0.10231482
82	0x3db4764d	0.088116266
83	0x3d2024c0	0.039097548

fc3.weight f4 [5, 84]
0	0xbdd83ab1	-0.105580695
1	0x3e39f76a	0.18160787
2	0x3cb77609	0.02239515
3	0xbe8eaba1	-0.27865317
4	0x3c62de00	0.013846874
5	0xbe9b392a	-0.3031705
6	0x3e528014	0.2055667
7	0xbea4a6bc	-0.32158458
8	0x3e3882e0	0.18018675
9	0xbe69c670	-0.22829604
10	0xbe25e432	-0.16200331
11	0x3d2d2d8c	0.042279765
12	0xbd8f7ba5	-0.07006005
13	0xbd963d46	-0.07335906
14	0xbe9257a7	-0.28582498
15	0xbd8dba02	-0.06920244
16	0x3e77095f	0.24124669
17	0xbe3d2ee1	-0.18474914
18	0x3d1f39a8	0.038873345
19	0xbb469725	-0.0030302492
20	0xbea69b6e	-0.32540458
21	0xbd360b0c	-0.04444413
22	0x3e4207fd	0.1894836
23	0xbe980331	-0.29689935
24	0x3de4f720	0.11179948
25	0x3e03cbd5	0.12870724
26	0x3e191628	0.14949858
27	0x3de7070b	0.1128064
28	0x3c7f0de3	0.015567276
29	0xbe11d0bd	-0.14239784
30	0xbc4c5ab4	-0.012472797
31	0xbd946c1c	-0.07247183
32	0x3e0d71b6	0.13812909
33	0xbf1d2c94	-0.61396146
34	0x3c519d72	0.012793886
35	0xbe78adfb	-0.24285118
36	0x3dd17b76	0.102286264
37	0xbd4903d1	-0.049075905
38	0x3d86f009	0.06588752
39	0xbe712cb2	-0.23552206
40	0xbe8d9239	-0.27650622
41	0x3db2415e	0.08703874
42	0xbeccd433	-0.40005645
43	0x3ded1119	0.11575527
44	0x3d8fc866	0.07020645
45	0x3e88721d	0.26649562
46	0x3e895c3b	0.2682818
47	0xbe0391a8	-0.12848532
48	0x3db130e0	0.086519
49	0xbeb6424d	-0.35597458
50	0xbcdbf93b	-0.02685224
51	0xbe2d4b41	-0.16923238
52	0x3d57ca75	0.052683312
53	0xbe28bd78	-0.16478527
54	0x3d4e44f8	0.050358742
55	0x3e87a288	0.2649119
56	0xbe6a564e	-0.22884485
57	0x3d4525d4	0.04813178
58	0xbdc82c2b	-0.09774049
59	0x3caf10a0	0.021370232
60	0x3ec8732d	0.39150372
61	0xbed7ba0e	-0.42134136
62	0xbe298c76	-0.16557488
63	0xbbf3aef2	-0.0074366266
64	0x3e8b12ec	0.27162874
65	0xbd8d974c	-0.06913623
66	0x3e696176	0.22791085
67	0xbe81e3da	-0.2536915
68	0xbdd11086	-0.1020823
69	0xbef919b8	-0.48652434
70	0xbde6495f	-0.11244463
71	0x3e0590e7	0.13043557
72	0x3e039430	0.12849498
73	0xbca8ea4d	-0.020619536
74	0xbe45c39f	-0.19312905
75	0xbe92c819	-0.28668287
76	0x3e81f787	0.2538416
77	0xbc066b28	-0.008204259
78	0x3c23fad6	0.010008534
79	0xbd8b5eb1	-0.0680517
80	0xbe1a0271	-0.15039994
81	0xbd65e590	-0.05612713
82	0xbeae8ca5	-0.34091678
83	0x3d205b27	0.03914943
84	0x3b7a8b9a	0.0038230182
85	0xbe00affc	-0.12567133
86	0x3bd65dd0	0.006541945
87	0x3e34e8c1	0.17666914
88	0x3d6eb2a3	0.05827583
89	0xbe18baa8	-0.14914954
90	0x3ded0098	0.11572379
91	0x3d0121d0	0.031526387
92	0xbe1b785f	-0.15182637
93	0xbe8f78ee	-0.2802195
94	0x3c6b4eba	0.014362032
95	0x3dd8a549	0.10578401
96	0x3e794cb3	0.24345665
97	0x3db8a8f3	0.090165995
98	0xbde9a6c3	-0.114087604
99	0xbd5cc478	-0.053898305
100	0x3e8789f8	0.2647245
101	0xbb2ef4df	-0.0026696248
102	0x3d8cba24	0.06871441
103	0x3c7bb5c7	0.015363163
104	0x3d052aa6	0.032511376
105	0x3d3e3bb1	0.046443645
106	0xbda1301e	-0.07870506
107	0xbe44b00a	-0.19207779
108	0x3dc5a4a2	0.09650542
109	0x3e0cb384	0.13740355
110	0xbe61ca21	-0.22049762
111	0x3e1cfa8d	0.15329953
112	0x3dcfc794	0.101454884
113	0x3d6236c5	0.055228014
114	0xbcbba867	-0.022907449
115	0xbe1ee25d	-0.15516038
116	0x3dd5917f	0.10428142
117	0x3f1b3923	0.6063406
118	0xbe192b5c	-0.14957947
119	0xbe63f36a	-0.22260824
120	0xbd9ca92b	-0.07649454
121	0xbd079fc9	-0.033111367
122	0xbd351881	-0.044212822
123	0xbe87bbef	-0.2651057
124	0xbd89b196	-0.06723325
125	0x3d7ef730	0.062247455
126	0x3e014b58	0.12626398
127	0x3c84001d	0.016113335
128	0x3e415137	0.18878637
129	0xbea40cba	-0.3204096
130	0x3e2a3434	0.16621476
131	0x3e32b48e	0.17451689
132	0x3d860d06	0.06545453
133	0x3eb8836f	0.36037776
134	0xbe881a58	-0.265826
135	0xbe9c279d	-0.30498973
136	0x3de10673	0.10987558
137	0xbe96b1c5	-0.29432502
138	0xbd48b60c	-0.04900174
139	0xbe6bb2e2	-0.23017457
140	0x3d9acbb0	0.075583816
141	0xbbf75c57	-0.0075488496
142	0xbd7a4383	-0.06109954
143	0xbbe493fa	-0.006975648
144	0xbed3bec1	-0.4135647
145	0x3ef2b217	0.47401497
146	0x3df1581c	0.11784384
147	0xbe91d7ba	-0.284849
148	0xbe3c3704	-0.18380362
149	0xbdc54b2d	-0.09633479
150	0xbeb8833f	-0.36037633
151	0xbea07633	-0.3134018
152	0xbca67656	-0.020320099
153	0x3e0e39c4	0.13889223
154	0xbe6fae32	-0.23406294
155	0x3dec7d2a	0.11547311
156	0x3e0bf664	0.1366821
157	0x3cd87291	0.026421817
158	0x3dfffa12	0.12498869
159	0x3db2ab90	0.08724129
160	0x3e6955e2	0.22786668
161	0xbcaa478a	-0.020786066
162	0x3d960d51	0.07326759
163	0x3d4b36f0	0.04961294
164	0x3dff9a1d	0.12480567
165	0x3d8ccae7	0.06874638
166	0xbe768800	-0.24075317
167	0x3e5fc2d8	0.2185167
168	0xbe27461d	-0.1633534
169	0xbe975b75	-0.29561964
170	0x3eaa093d	0.33210173
171	0xbe625c83	-0.22105603
172	0xbd20c1ec	-0.03924744
173	0x3e0a6e43	0.13518624
174	0x3d020b69	0.031749163
175	0x3ec88739	0.39165667
176	0x3e593362	0.21211007
177	0xbdc9f588	-0.098612845
178	0xbe23b6b9	-0.15987672
179	0xbe1666dd	-0.14687677
180	0xbc2d3800	-0.0105724335
181	0x3cbb7342	0.022882108
182	0xbdc66d8e	-0.09688865
183	0x3d96e685	0.07368187
184	0xbe1f69e5	-0.1556774
185	0xbd7e87fc	-0.062141404
186	0xbcb53786	-0.022121202
187	0x3d35d0d7	0.04438862
188	0x3dee99c8	0.11650425
189	0x3d720d2f	0.059094604
190	0x3dbff4e4	0.09372881
191	0x3d99b2cf	0.07504808
192	0xbca23cc3	-0.019804364
193	0xbe3ae37a	-0.18250838
194	0x3e5155e9	0.20442928
195	0xbe8efa06	-0.27925128
196	0xbc475879	-0.01216709
197	0x3d87aa95	0.06624333
198	0xbd37c9ed	-0.044870306
199	0xbd4297ad	-0.04750793
200	0xbd433064	-0.04765357
201	0xbb390654	-0.0028232532
202	0x3e5a5d04	0.21324545
203	0x3e2c7f63	0.16845469
204	0xbcaf8198	-0.0214241
205	0x3d31d339	0.04341433
206	0xbd5dcb31	-0.054148857
207	0x3e937366	0.2879898
208	0x3e1eca16	0.15506777
209	0x3d7180a4	0.058960572
210	0xbe32a4f6	-0.1744574
211	0x3d507ec5	0.050902147
212	0xbdd3fbe7	-0.10350781
213	0xbe17d9be	-0.14829156
214	0xbdc2e15b	-0.095156394
215	0xbe1fdb6e	-0.1561105
216	0xbdae9e8d	-0.08526335
217	0x3ef8e59b	0.48612675
218	0x3e8bd518	0.27311015
219	0xbb5a9b2c	-0.003335665
220	0xbc98acec	-0.018637143
221	0xbe7f3240	-0.24921513
222	0xbd4556a4	-0.04817833
223	0x3e8e91b7	0.27845547
224	0xbdcaf696	-0.09910314
225	0xbd9227c8	-0.07136494
226	0xbc0f42f7	-0.008743993
227	0xbc8773f3	-0.016534781
228	0x3d87560c	0.06608209
229	0x3d9e9d50	0.07744849
230	0xbe519384	-0.20466429
231	0x3cbc716d	0.023003304
232	0xbe4f47ae	-0.20242187
233	0x3da1a1bd	0.07892177
234	0x3e21eb24	0.15812355
235	0x3d509d8e	0.050931506
236	0x3de25fc9	0.11053426
237	0x3ee36086	0.4440958
238	0xbdc77a19	-0.09740085
239	0xbd7f5ed2	-0.062346287
240	0xbe924e2a	-0.2857526
241	0xbdd41980	-0.10356426
242	0x3b36fae9	0.002792055
243	0x3ca02246	0.019547593
244	0xbe1fb5a1	-0.1559663
245	0xbc630ec3	-0.0138585
246	0xbd89ac46	-0.06722312
247	0xbcd0df07	-0.025496973
248	0xbe8b34f5	-0.2718884
249	0xbd9ad114	-0.0755941
250	0x3e62405d	0.22094865
251	0xbddebe09	-0.1087609
252	0xbd7d5f6c	-0.06185858
253	0xbdd7e712	-0.1054212
254	0xbe91e645	-0.28495994
255	0x3e1689cf	0.14701007

fc3.bias f4 [5]
0	0x3dd7f1ab	0.105441414
1	0x3d7dc505	0.06195547
2	0xbd5217e7	-0.051292326
3	0xbd3bec4d	-0.04587965
4	0x3daa6719	0.083204456
