output_visualizations/base_tsk[x]_agm[none]_spl[S3]_mdl[lenet]_ls[BCE]_tu[none]/model.pt (torch, 246727 bytes, 9 tensors)

conv1.weight f4 [6, 1, 5, 5]
0	0x3e2c6e13	0.16838865
1	0x3e4e001c	0.20117229
2	0xbdc26955	-0.09492747
3	0x3dd2c25b	0.102909766
4	0xbe375545	-0.17903621
5	0x3cf8180c	0.030284904
6	0xbb5b0301	-0.0033418539
7	0x3e1a606c	0.15075845
8	0x3e00ab89	0.12565435
9	0xbe98d29e	-0.29848188
10	0x3e044801	0.12918092
11	0x3e0d578d	0.13802929
12	0x3e6b5ba7	0.22984181
13	0x3c9a335b	0.018823316
14	0xbcb2f3cd	-0.021844769
15	0xbde26f2b	-0.1105636
16	0x3e4b80c8	0.19873345
17	0x3d8f2fa6	0.0699151
18	0xbdb3fb10	-0.08788121
19	0xbc62d3a4	-0.013844404
20	0xbe3ff4de	-0.18745753
21	0xbd1a04a6	-0.03760209
22	0xbdbdd9e6	-0.092700765
23	0x3e0b3289	0.13593496
24	0xbe397b33	-0.18113403
25	0xbdfdd362	-0.12393834
26	0xbd972555	-0.073801674
27	0xbe0fbc0f	-0.14036582
28	0x3c541542	0.012944521
29	0xbe4cdf22	-0.20006993
30	0x3e252715	0.1612819
31	0xbe2655af	-0.16243623
32	0x3e225d5a	0.15855923
33	0x3d11e30a	0.035616912
34	0xbd8fd32a	-0.07022698
35	0x3dcc9f72	0.09991349
36	0x3d6210ae	0.05519169
37	0x3e3d6e57	0.18499123
38	0x3ce0de48	0.027449742
39	0xbda240b6	-0.07922499
40	0x3cbcc718	0.023044154
41	0xbce0d087	-0.027443184
42	0x3de9aac4	0.11409524
43	0x3e451bc5	0.19248874
44	0x3dcdb237	0.100437574
45	0xbdf4703d	-0.1193547
46	0x3e06faf0	0.13181663
47	0x3d5b3702	0.053519256
48	0x3df020b2	0.11724986
49	0xbdf5ee9c	-0.12008402
50	0xbe6574f9	-0.22407903
51	0xbddc2320	-0.10748887
52	0xbe10bf8e	-0.14135572
53	0x3e4ffc73	0.20311145
54	0x3dc70429	0.0971759
55	0x3d66c824	0.056343213
56	0x3d16aeb0	0.03678769
57	0x3c01f462	0.007931801
58	0x3e3b50da	0.18292561
59	0xbe01641c	-0.12635845
60	0x3cbbd82d	0.02293023
61	0xbdfaf9a4	-0.122546464
62	0x3db8ebaa	0.09029324
63	0xbd50f766	-0.051017188
64	0x3d805b23	0.06267383
65	0x3b25e295	0.0025312055
66	0x3e569c67	0.209581
67	0xbdb1ea81	-0.08687306
68	0xbdf1180d	-0.117721654
69	0xbe0313ae	-0.12800476
70	0x3e5d5fc7	0.21618567
71	0x3dcc0b68	0.09963113
72	0x3e5365ec	0.20644349
73	0xbe384af5	-0.17997344
74	0xbe659af4	-0.22422391
75	0xbe23fbf4	-0.16014081
76	0xbe087465	-0.13325651
77	0x3db7dc34	0.08977547
78	0x3df244c0	0.11829519
79	0x3e62442d	0.2209632
80	0xbdc305f6	-0.09522621
81	0xbe02003d	-0.12695403
82	0x3dfc54f9	0.12320895
83	0xbd0faa24	-0.035074368
84	0x3e2e5796	0.17025599
85	0xbc959ef0	-0.018264264
86	0x3e120a1c	0.14261669
87	0xbe05c3da	-0.13062993
88	0xbd7895c2	-0.060689695
89	0x3db8bde7	0.09020596
90	0x3da5b125	0.08090428
91	0xbb7b6770	-0.0038361214
92	0x3e18123a	0.14850703
93	0x3e2278a9	0.1586634
94	0xbe0c42da	-0.13697377
95	0xbd65ca89	-0.056101356
96	0x3e74fb84	0.2392407
97	0xbd12fdbf	-0.035886522
98	0xbd5adc8f	-0.053432997
99	0xbe427fc3	-0.1899405
100	0xbe2988b1	-0.1655605
101	0xbd244b94	-0.04011114
102	0xbe11cb33	-0.1423767
103	0xbe8b8c8f	-0.27255675
104	0xbe056a4c	-0.1302883
105	0xbe4ccbc4	-0.19999605
106	0xbe8b1ad6	-0.27168912
107	0xbe719f1d	-0.23595853
108	0xbe9e0582	-0.30863577
109	0xbe892274	-0.26784098
110	0x3e019820	0.12655687
111	0xbd83e176	-0.06439488
112	0xbd70741a	-0.058704473
113	0xbea0c7bf	-0.31402394
114	0xbe8bc2f2	-0.2729717
115	0xbe0c8510	-0.13722634
116	0xbd8eb87c	-0.06968781
117	0xbe97f486	-0.29678744
118	0xbe6760b5	-0.22595485
119	0xbe8863bf	-0.266386
120	0xbd72b5b8	-0.05925533
121	0xbe2c42dc	-0.1682238
122	0xbe04bc5d	-0.1296248
123	0xbe8e86c0	-0.2783718
124	0xbe925750	-0.2858224
125	0xbe1ff8bb	-0.15622227
126	0xbddfd1b8	-0.109286726
127	0xbe280119	-0.16406669
128	0x3e7c6b02	0.24650195
129	0xbd4e83d9	-0.05041871
130	0x3e021d01	0.12706377
131	0x3cd3980d	0.02582934
132	0xbe2b9851	-0.16757323
133	0x3e56f36c	0.20991296
134	0xbdaa67ba	-0.083205655
135	0xbe004014	-0.12524444
136	0xbe54a2c8	-0.20765221
137	0xbe501a5c	-0.20322555
138	0x3df94cf0	0.12172878
139	0xbd8d1f82	-0.06890775
140	0x3d8996d8	0.06718224
141	0xbe3f4232	-0.18677595
142	0x3e1bf4e8	0.15230143
143	0xbd875179	-0.066073366
144	0xbc4ff63b	-0.012692983
145	0x3d94bea6	0.07262926
146	0x3def3ae4	0.11681154
147	0x3e597bb1	0.21238591
148	0x3e9f3ef5	0.3110272
149	0xbd8ccf93	-0.06875529

conv1.bias f4 [6]
0	0xbdb382c8	-0.08765179
1	0xbdc4f8f8	-0.096177995
2	0xbb64a0dc	-0.0034885919
3	0xbdfbb982	-0.12291242
4	0x3e463cac	0.19359082
5	0xbdd94690	-0.10609162

conv2.weight f4 [16, 6, 5, 5]
0	0x3d042877	0.032265153
1	0x3a1c1f30	0.0005955575
2	0x3c19fa91	0.009398119
3	0xbd520627	-0.0512754
4	0x3d8d3129	0.06894142
5	0x3cf9fd46	0.030516278
6	0x3ba528e1	0.0050402735
7	0xbda42006	-0.080139205
8	0x3cf4a7ad	0.02986511
9	0xbcae1b3a	-0.021253217
10	0xbc6dee9c	-0.014522221
11	0x3dc4cee7	0.09609776
12	0x3cf28685	0.02960516
13	0xbd6a36c8	-0.05718115
14	0xbd839e97	-0.06426733
15	0x3c85725c	0.016289882
16	0x3dabba39	0.083851285
17	0x3ba83dfc	0.0051343422
18	0xbd72f2ac	-0.05931346
19	0xbd7b442e	-0.061344318
20	0xbd4fe56f	-0.050755914
21	0x3d6c361e	0.057668798
22	0x3daf4f5a	0.08560057
23	0xbdb00905	-0.0859547
24	0xbc1dda71	-0.0096346
25	0x3d2544c4	0.040348783
26	0xbbda6245	-0.0066645467
27	0xbd3387a0	-0.043830514
28	0x3d097b95	0.033565123
29	0x3cc86741	0.024463298
30	0x3d8d7d87	0.06908708
31	0x3cefaac6	0.029256236
32	0xbc3b56d2	-0.011434274
33	0xbc218091	-0.009857313
34	0xbd143ccf	-0.036190804
35	0x3c997a0b	0.018734952
36	0x3dea740a	0.11447914
37	0x3dce9af4	0.10088149
38	0xbd29c76e	-0.041449957
39	0xbd6e594e	-0.058190636
40	0x3cc5b534	0.024134256
41	0x3d5a4513	0.05328853
42	0x3d6af655	0.057363827
43	0x3c256db1	0.010096953
44	0xbde3a7ef	-0.11116015
45	0xbd21cd70	-0.03950256
46	0x3db19acc	0.08672103
47	0x3d4f0ee1	0.0505513
48	0x3b934a85	0.0044949674
49	0xbd6ac349	-0.057315145
50	0x3e34e260	0.1766448
51	0xbd379897	-0.044823255
52	0x3d6949b4	0.056955054
53	0x3e61d1f5	0.22052749
54	0x3e1a9d92	0.15099171
55	0x3e297ad5	0.16550763
56	0x3d7ecbbb	0.06220601
57	0x3e5cacca	0.21550289
58	0x3df3de71	0.11907662
59	0xbd71d91f	-0.059044953
60	0x3d96c924	0.07362583
61	0x3e6c2e01	0.23064424
62	0x3eb1b1d3	0.34705982
63	0x3b30855e	0.0026934962
64	0xbe3b25fc	-0.18276209
65	0x3e95e176	0.29273576
66	0x3e631165	0.22174604
67	0x3e48f000	0.19622803
68	0xbce8ce85	-0.028418789
69	0x3ca2ca96	0.019871991
70	0x3eae3442	0.34024245
71	0x3e47d3f5	0.19514449
72	0xbc77c0d4	-0.015121657
73	0xbe0446ba	-0.12917605
74	0x3ce70437	0.028200252
75	0x3c6722c2	0.014107408
76	0x3d1f1286	0.038836025
77	0x3e0e1970	0.13876891
78	0x3e0ef0a3	0.13958983
79	0x3c49cc84	0.012316827
80	0xbdcd9416	-0.10038011
81	0x3d0cf3f4	0.03441234
82	0x3d8878e8	0.06663686
83	0xbd29a379	-0.041415665
84	0xbd8d1145	-0.068880595
85	0xbdad5839	-0.08464093
86	0x3e0238bd	0.12716956
87	0x3d79054c	0.060796067
88	0xbdafa062	-0.085755125
89	0xbe333ab0	-0.17502856
90	0x3da9986a	0.08281024
91	0x3e0b76e5	0.13619573
92	0xbd0d9747	-0.034568097
93	0xbdba3980	-0.090929985
94	0xbdc6a03f	-0.09698533
95	0x3dc18d7f	0.09450816
96	0x3dd7364e	0.10508405
97	0xbe2cf791	-0.16891314
98	0xbe1aefbb	-0.15130512
99	0xbdd3eb9f	-0.103476755
100	0x3d240be3	0.0400504
101	0xbd89c9dc	-0.06727955
102	0x3d20f114	0.03929241
103	0x3d4e2e99	0.050337408
104	0x3dbf1fae	0.09332214
105	0xbdcef6e5	-0.10105685
106	0x3c8f687d	0.017505879
107	0xbd6e4227	-0.058168557
108	0x3d3d8f3e	0.046279185
109	0x3df31caa	0.118707016
110	0xbd99c7be	-0.07508801
111	0xbd83c2a0	-0.06433606
112	0xbd1f78d7	-0.0389336
113	0xbd3d7d64	-0.04626216
114	0x3da6eaa4	0.08150223
115	0xbe16ec33	-0.1473854
116	0xbc3f26b1	-0.01166694
117	0x3d300846	0.04297664
118	0x3dcc50f8	0.09976381
119	0x3c9bd8ec	0.019024335
120	0xbddbcd88	-0.10732561
121	0xbcd27877	-0.025692208
122	0x3cb9846f	0.022646157
123	0xbd961de4	-0.0732992
124	0x3c3b5042	0.011432709
125	0xbe714f83	-0.23565488
126	0xbda873fa	-0.08225246
127	0x3cf339df	0.029690681
128	0xbe0a52ad	-0.13508101
129	0x3d085937	0.033288207
130	0xbea23f28	-0.3168881
131	0xbd0b482f	-0.034004387
132	0xbbb5b37f	-0.0055450792
133	0xbe91f5a4	-0.2850772
134	0x3dc16bf5	0.09444419
135	0xbe39768d	-0.1811163
136	0xbe0ff36a	-0.14057699
137	0xbe716e3b	-0.23577206
138	0xbe30f39d	-0.17280431
139	0x3dcca116	0.09991662
140	0xbe7fb29b	-0.24970476
141	0xbddd5244	-0.108067065
142	0xbe887a5d	-0.26655856
143	0xbe961b15	-0.29317537
144	0x3e445a9f	0.19175194
145	0xbe1625e1	-0.14662887
146	0xbd3c8256	-0.046022736
147	0xbe547858	-0.20749032
148	0xbe1c0f71	-0.15240265
149	0x3e9bc4cc	0.30423582
150	0xbd5bb7b1	-0.05364198
151	0xbba7284f	-0.0051012407
152	0xbd27eb1e	-0.04099571
153	0x3cac0442	0.020998124
154	0x3dbc4806	0.09193425
155	0x3cdba744	0.026813157
156	0xbdacfca6	-0.08446626
157	0x3d019719	0.03163824
158	0x3da600b4	0.08105603
159	0x3cafe68a	0.021472234
160	0x3d7bb4b4	0.06145163
161	0x3dc678e9	0.096910305
162	0xba983544	-0.0011612554
163	0x3c39ae3d	0.011333046
164	0xbd9c32eb	-0.07626899
165	0x3bb93a12	0.0056526745
166	0x3dba9f19	0.09112377
167	0x3d6458a6	0.055748604
168	0xbd89a011	-0.06719983
169	0xbdc100e6	-0.094239995
170	0xbcfa8311	-0.030580075
171	0xbd5b20fe	-0.05349826
172	0xbd6d2011	-0.05789191
173	0xbd32c5a7	-0.043645527
174	0x3cd87eb0	0.026427597
175	0xbbbda030	-0.005786918
176	0xbd9c7804	-0.07640079
177	0xbd72e76c	-0.059302732
178	0x3d70c396	0.058780275
179	0xbd7b0723	-0.061286103
180	0x3b9bfd10	0.004760392
181	0x3d893baf	0.06700837
182	0xbcdebc8d	-0.027189517
183	0xbcb34876	-0.021885138
184	0xbcf6aedf	-0.030112682
185	0x3cfd8659	0.030947851
186	0x3c5df785	0.013547783
187	0xbd54bdb4	-0.051938727
188	0xbda6c2c1	-0.08142615
189	0xbd8622a6	-0.065495774
190	0x3e062769	0.13100971
191	0x3b94fbc0	0.0045466125
192	0xbd41c49d	-0.047306646
193	0xbb6800d6	-0.003540089
194	0xbb72a095	-0.0037021984
195	0x3d7c6943	0.061623823
196	0x3da206e0	0.079114676
197	0x3d11a3cf	0.03555661
198	0xbde32f7d	-0.11093042
199	0xbcb7fbee	-0.022458997
200	0xbc090246	-0.008362358
201	0xbdb38a75	-0.08766643
202	0x3d1d4ce1	0.038403396
203	0x3e925324	0.28579056
204	0x3deb1465	0.11478499
205	0xbdc981fd	-0.098392464
206	0xbbe8fc32	-0.007110142
207	0x3e97a5c8	0.2961867
208	0x3e7aae0e	0.24480459
209	0xbdd9cfa0	-0.106353045
210	0x3d9c6081	0.07635594
211	0x3e466824	0.19375664
212	0x3e4aa4a1	0.19789363
213	0x3d6a41df	0.057191726
214	0xbca965d0	-0.02067843
215	0x3e9115cb	0.2833694
216	0x3e6b9362	0.23005441
217	0x3e27e367	0.16395341
218	0xbdd05deb	-0.101741634
219	0xbd61c3b1	-0.055118266
220	0x3e7d2efb	0.24724953
221	0x3e2b7f38	0.16747749
222	0x3df0ecdd	0.11763928
223	0xbe11c583	-0.14235501
224	0x3d1ec1fe	0.038759224
225	0xbe35eaf1	-0.17765404
226	0xbb77a454	-0.0037787156
227	0x3e3a2ad4	0.181804
228	0x3e0c544c	0.13704032
229	0x3da68f57	0.08132809
230	0xbe412d80	-0.18865013
231	0x3d53841d	0.051639665
232	0x3e606170	0.2191217
233	0x3d796085	0.060883064
234	0xbe443bd9	-0.19163455
235	0x3c86b4c6	0.016443621
236	0x3e5314c6	0.20613393
237	0x3dfbfde6	0.12304287
238	0xbd136b5a	-0.03599105
239	0xbe2a58ff	-0.16635512
240	0x3dc8b32d	0.097998
241	0x3e2a091a	0.16605034
242	0xbcb10a31	-0.021611305
243	0xbe49c4b8	-0.19703948
244	0xbd8139d6	-0.063098595
245	0x3e52baf5	0.20579131
246	0x3d021727	0.03176036
247	0xbde2a90a	-0.11067398
248	0xbe1f7c78	-0.15574825
249	0xbe12981d	-0.14315839
250	0xbd6fdaa9	-0.05855814
251	0xbd0f6c99	-0.035015676
252	0xbd85cd76	-0.06533329
253	0x3be98d59	0.0071274457
254	0xbc1eee91	-0.009700433
255	0xbd0aa738	-0.03385088

conv2.bias f4 [16]
0	0xbc76542c	-0.015034717
1	0xba627d35	-0.0008639873
2	0x3bbb9d0d	0.005725509
3	0x3b8de449	0.004330192
4	0xbd2f2b98	-0.042766184
5	0x3c34395f	0.011000006
6	0x3d76e779	0.060279343
7	0x3cd06c15	0.025442163
8	0xbcc7ad4e	-0.02437463
9	0x3d63e8d7	0.055641975
10	0xbc4651d8	-0.012104474
11	0x3d444a0c	0.04792218
12	0x3d8e46bc	0.06947085
13	0x3c9d0730	0.019168466
14	0x3bda28ca	0.0066576945
15	0x3b2f5d5e	0.0026758532

fc1.weight f4 [120, 400]
0	0xbd63db61	-0.055629138
1	0x3e2faa09	0.17154707
2	0x3d2cda42	0.042200334
3	0xbdb2c1db	-0.08728381
4	0xbcf8df12	-0.030379806
5	0xbd39124c	-0.045183465
6	0x3e04ab67	0.1295601
7	0x3e5e6965	0.21719892
8	0x3e16b5bf	0.14717768
9	0x3e46d5e2	0.19417527
10	0xbbecbc0e	-0.0072245663
11	0x3d928d9e	0.071559176
12	0x3ddfc980	0.10927105
13	0x3e033ad2	0.12815407
14	0x3daf2321	0.08551622
15	0xbd8c90db	-0.068635665
16	0x3e005f45	0.12536342
17	0x3cf2c176	0.029633265
18	0x3db95dd5	0.090511
19	0x3d125568	0.03572598
20	0x3c79db2a	0.015250007
21	0x3dabec8b	0.08394726
22	0x3d4a3459	0.04936633
23	0x3e117be6	0.1420742
24	0x3d2f53f4	0.042804673
25	0xbd85619c	-0.06512758
26	0x3d7c765c	0.061636314
27	0x3d9e3501	0.077249534
28	0xbd9070e1	-0.0705278
29	0xbcfd42b7	-0.030915601
30	0x3c2447e6	0.010026908
31	0x3dc50902	0.09620859
32	0x3defebfe	0.11714934
33	0x3e438d36	0.19096836
34	0x3e6ec533	0.23317413
35	0x3ccb35b0	0.024805874
36	0x3dd3f29a	0.10349007
37	0x3db092b5	0.08621732
38	0x3e433837	0.19064413
39	0x3dcde78c	0.1005393
40	0x3cef7f9a	0.02923565
41	0x3dd2a885	0.10286049
42	0x3d0277ef	0.03185266
43	0x3e18a2ba	0.14905825
44	0x3d90f29f	0.07077526
45	0x3d939899	0.0720684
46	0x3e188c73	0.14897327
47	0xbbc9cf29	-0.0061587286
48	0x3e11c0e5	0.1423374
49	0x3c6ebbb6	0.014571121
50	0xbd7d5c91	-0.061855856
51	0x3c79a8d4	0.015238006
52	0xbd06f150	-0.032944977
53	0x3d6884a9	0.05676714
54	0xbcdc70bd	-0.026909227
55	0x3c9eba78	0.019376025
56	0x3d9652a8	0.07339984
57	0xbccac84e	-0.024753716
58	0x3d3ba919	0.04581556
59	0xbd129b42	-0.035792597
60	0x3c5b345e	0.0133791845
61	0x3dd53946	0.10411315
62	0x3ca9e3ea	0.02073856
63	0xbaf3ae23	-0.0018591325
64	0xbc0dd46a	-0.0086566005
65	0xbbd78769	-0.0065774214
66	0x3d8755bf	0.06608152
67	0x3dadee36	0.08492701
68	0xbc3ceed7	-0.011531553
69	0xbd03aa93	-0.032145094
70	0x3ccfa37f	0.025346516
71	0x3ce40a12	0.027836833
72	0xbc601229	-0.013676205
73	0x3bb323cc	0.005466914
74	0xbda6db80	-0.08147335
75	0xbdf9a641	-0.121899135
76	0x3c81f4a9	0.015863733
77	0xbbe54d1f	-0.006997719
78	0xbd356f07	-0.044295337
79	0xbcd8a011	-0.026443513
80	0x3de0c7d5	0.10975615
81	0x3dac72cf	0.084203355
82	0xbd4fe3e1	-0.05075443
83	0x3c631df8	0.013862126
84	0x3ccaf997	0.024777217
85	0x3d07016f	0.03296035
86	0x3e005f04	0.12536246
87	0x3d2d8069	0.04235879
88	0xbd5de7f0	-0.05417627
89	0xbd85571d	-0.06510756
90	0xbb557ede	-0.003257684
91	0x3daa91e3	0.08328607
92	0x3d64fcb3	0.055905055
93	0xbd97403d	-0.07385299
94	0xbe00da15	-0.12583192
95	0x3d5402e6	0.051760577
96	0x3d8e7e28	0.06957656
97	0x3d3188d6	0.043343388
98	0xbc881be3	-0.01661486
99	0xbca90f69	-0.020637231
100	0x3bb65c32	0.0055651898
101	0x3a124f17	0.00055812433
102	0xbcfc01e8	-0.030762628
103	0x3c11342e	0.008862538
104	0x3ce56897	0.028003974
105	0xbd19ecae	-0.03757923
106	0x3d21c3cd	0.03949337
107	0xbda0e25d	-0.07855675
108	0x3c044ce8	0.0080749765
109	0xbd65db15	-0.056117136
110	0xbc1c96e8	-0.009557463
111	0x3c4d3c8f	0.012526645
112	0xbd744bc6	-0.059642576
113	0xbc9daeac	-0.01924833
114	0xbd871376	-0.06595509
115	0x3c052bb5	0.008128096
116	0xbcde90a3	-0.027168578
117	0xbb9b6cc0	-0.0047431886
118	0xbb539557	-0.0032285058
119	0x3cd2542f	0.025674907
120	0x3cc66730	0.024219126
121	0xbb472e04	-0.0030392418
122	0x3d4f0760	0.050544143
123	0x3a227f8d	0.0006198816
124	0x3d03e7a7	0.032203343
125	0x3dc2dffe	0.09515379
126	0x3d2423ff	0.04007339
127	0xbdbf0bc1	-0.09328414
128	0x3d847b98	0.06468886
129	0xbccc6d3f	-0.024954436
130	0xbddfda1f	-0.10930275
131	0x3e918464	0.2842132
132	0x3d7f9879	0.06240127
133	0x3ddbcb90	0.10732186
134	0xbd4b5075	-0.049637277
135	0xbd61741f	-0.055042382
136	0x3e0f22d4	0.1397813
137	0x3df84859	0.12123174
138	0x3e0d847e	0.13820073
139	0xbcf6e63e	-0.030139085
140	0xbceff348	-0.02929081
141	0x3e11d396	0.1424087
142	0x3e5569d6	0.20841154
143	0x3e0afbf8	0.13572681
144	0x3d906694	0.07050815
145	0x3b2dfda8	0.0026548896
146	0x3dab8855	0.08375613
147	0x3d95701a	0.07296772
148	0x3cd4e0e5	0.025986144
149	0x3d841ef1	0.06451214
150	0x3d7b0151	0.061280552
151	0x3d272eee	0.04081624
152	0xba866f5e	-0.0010256579
153	0xbd16d616	-0.036825262
154	0xbcef55a5	-0.029215643
155	0xbdbb088e	-0.09132491
156	0x3dc1f755	0.09471003
157	0x3d86206d	0.065491535
158	0x3d29ba0a	0.041437186
159	0x3cd0a66d	0.025469983
160	0xbd84478c	-0.06458959
161	0x3d2af310	0.04173571
162	0x3d82896e	0.06373869
163	0x3c4239ca	0.011854598
164	0x3e01dd72	0.12682131
165	0x3bfdf693	0.007750341
166	0x3d44f161	0.04808176
167	0x3d233166	0.039842032
168	0x3db455da	0.088054374
169	0x3c8b24c5	0.016985307
170	0xbd2f0a60	-0.042734504
171	0x3d838191	0.06421197
172	0x3d01d5aa	0.031697907
173	0x3d9c68f3	0.07637205
174	0xbd551483	-0.052021515
175	0x3d01a644	0.031652704
176	0xbd27c3c6	-0.04095819
177	0x3cf9ea3a	0.030507196
178	0x3cb3815a	0.021912266
179	0x3a92d1e3	0.0011201467
180	0x3d020e44	0.031751886
181	0x3d17a6be	0.037024252
182	0x3d3f0c35	0.0466425
183	0xb844018a	-4.6731475e-05
184	0x3d40ab83	0.047038566
185	0xbc8ba90e	-0.017048385
186	0x3d262d16	0.04057034
187	0x3c83a4a2	0.016069714
188	0x3d6f1ee7	0.05837908
189	0x3d2b782b	0.041862648
190	0xbd879ede	-0.066220984
191	0x3d686da0	0.05674517
192	0x3b9d4f0f	0.0048006843
193	0x3ac93691	0.0015351345
194	0xbd189662	-0.03725279
195	0xbb562e52	-0.0032681418
196	0xbc6f011b	-0.014587666
197	0x3c484b54	0.012224991
198	0x3be18373	0.006882125
199	0x3c810454	0.015749134
200	0xbd89c888	-0.067277014
201	0xbdada6db	-0.08479091
202	0x3ccde872	0.025135253
203	0xbba3e785	-0.0050019645
204	0xbda5e763	-0.08100774
205	0x3dd13d50	0.102167726
206	0x3d9a3f41	0.07531596
207	0xbd8dae06	-0.06917958
208	0x3d8039ef	0.0626105
209	0xbdebe577	-0.11518376
210	0x3d8e0c92	0.06935991
211	0x3de5f060	0.112274885
212	0x3d50a3a3	0.050937306
213	0x3cb94116	0.022614043
214	0xbe1d4332	-0.15357664
215	0x3dc2deda	0.09515162
216	0x3dde4759	0.10853452
217	0x3da55ff0	0.08074939
218	0xbcdd1da8	-0.02699168
219	0xbdbb621e	-0.09149574
220	0x3a72d192	0.0009262796
221	0x3d2f41f4	0.042787507
222	0x3dddb6f2	0.1082591
223	0xbcb223d5	-0.021745602
224	0xbccccbc9	-0.024999516
225	0x3ce835f3	0.028346037
226	0x3d0eb5d6	0.03484138
227	0x3b8bdaf7	0.004268046
228	0x3c0ed2cf	0.008717253
229	0x3d01fb1b	0.031733613
230	0x3cc5b9cb	0.024136445
231	0xbd0e809f	-0.03479063
232	0x3bb368ad	0.005475125
233	0xbd2702d4	-0.04077418
234	0xbba7bed0	-0.005119182
235	0xbd33aca1	-0.043865804
236	0x3d206640	0.039160013
237	0x3cfcd8a3	0.03086502
238	0x3cb08b14	0.021550693
239	0xbd0dd326	-0.034625195
240	0xbd740c04	-0.05958177
241	0x3bc4110c	0.0059834775
242	0x3b75e26a	0.0037518987
243	0x3be27f06	0.006912115
244	0x3d3d5a90	0.046228945
245	0xbd06760d	-0.032827426
246	0xbc8827c0	-0.016620517
247	0x3d81f880	0.06346226
248	0x3d3a7356	0.04552015
249	0xbc6ca37e	-0.014443276
250	0xbc18c505	-0.009324317
251	0x3d1c1e7c	0.03811501
252	0xbd93a7ca	-0.072097376
253	0x3b947766	0.004530835
254	0xbc86ce03	-0.016455656
255	0xbd0d74c9	-0.034535203

fc1.bias f4 [120]
0	0xbd573d9b	-0.052548986
1	0x3c9e02a9	0.019288378
2	0xbcd628f7	-0.02614258
3	0x3e176221	0.14783527
4	0x3d022a89	0.031778846
5	0x3ddb2c70	0.10701835
6	0x3d916e1e	0.07101081
7	0x3d6c23f6	0.057651483
8	0x3a11b1eb	0.0005557823
9	0xbbd06f60	-0.006360933
10	0xbc9c9d94	-0.019118108
11	0xbcfd11c6	-0.030892264
12	0xbc02f07f	-0.007991909
13	0x3b9f8016	0.004867564
14	0xbd89ae31	-0.067226775
15	0x39aeab83	0.00033315652
16	0x3dd544b2	0.10413493
17	0xbd816b4f	-0.063192956
18	0x3d0647f6	0.03278347
19	0xbd46c981	-0.048532013
20	0x3d39e131	0.045380775
21	0x3df5ec9d	0.12008021
22	0x3db3cca1	0.08779264
23	0xbd4af60c	-0.049551055
24	0xb7a62fc3	-1.9810983e-05
25	0x3df9f0e6	0.12204151
26	0xbd4f8833	-0.050667
27	0xbc8182ad	-0.015809381
28	0x3ded9780	0.11601162
29	0x3d81a8ee	0.06331049
30	0x3e12425c	0.14283127
31	0xbd1585d8	-0.036504596
32	0xbd2d3260	-0.04228437
33	0xbd628527	-0.055302765
34	0xbd717885	-0.058952827
35	0x3ca371a2	0.019951645
36	0xbcad53cc	-0.021158122
37	0x3dfabff9	0.12243647
38	0x3bdd5339	0.0067543057
39	0xbbbb34b7	-0.005713071
40	0x3b32a43b	0.0027258534
41	0x3a4d5338	0.000783253
42	0x3d04d18a	0.032426395
43	0x3ce35c6f	0.027754037
44	0xbd0a4299	-0.03375492
45	0xbceec6c3	-0.029147511
46	0xbc667094	-0.014064927
47	0xbd26ee1b	-0.04075442
48	0xbcd518dd	-0.026012832
49	0x3dda0b82	0.10646726
50	0x3d6c5656	0.057699524
51	0x3c336030	0.010948226
52	0x3dfbf521	0.12302614
53	0x3e2ac720	0.16677523
54	0xbd2ec2a8	-0.042666107
55	0x3c588801	0.01321602
56	0x3ca9fc66	0.020750236
57	0x3e9d44b2	0.30716473
58	0xbc9f7a20	-0.019467413
59	0xbd21da3b	-0.03951476
60	0x3bf778f9	0.007552263
61	0x3d8213fd	0.06351469
62	0xbcb45ee7	-0.02201791
63	0x3c682ece	0.014171315
64	0x3d8f5a95	0.06999699
65	0xbd40ab45	-0.047038335
66	0xbc7e0838	-0.015504889
67	0xbd402550	-0.046910584
68	0x3d0be40e	0.034153037
69	0x3cdb6702	0.026782516
70	0x3d589421	0.05287564
71	0x3cac0850	0.021000057
72	0xbcb56362	-0.022142116
73	0xbd7ad61e	-0.061239354
74	0x3e0c004d	0.1367199
75	0x3ddde767	0.10835152
76	0x3d95bc5c	0.07311317
77	0x3dec9527	0.11551886
78	0xbcc52b69	-0.024068551
79	0x3caf5d7e	0.021406885
80	0xbd9751db	-0.073886596
81	0xbb99b78b	-0.0046910695
82	0x3c0149c6	0.007891124
83	0x3bbf9cb1	0.0058475365
84	0x3cc17de0	0.023619592
85	0xbccc4c04	-0.02493859
86	0x3d772113	0.060334276
87	0x3dbb936f	0.0915898
88	0xbc65041c	-0.0139780305
89	0xbc5d6c82	-0.01351464
90	0x3c36b8d2	0.011152463
91	0x3aa6277a	0.001267656
92	0xbd48074f	-0.048835095
93	0x3dabf13f	0.083956234
94	0xbd249962	-0.04018534
95	0xbc8fa17e	-0.01753306
96	0x3be6403f	0.0070267017
97	0x3e07b8ce	0.13254091
98	0xbd02e708	-0.03195861
99	0x3d005aa5	0.031336445
100	0x3bddc6f1	0.0067681004
101	0xbd7fa607	-0.062414195
102	0x3be84aca	0.0070889937
103	0x3ab41a6a	0.0013740782
104	0xbc240e64	-0.010013197
105	0xbd19fc17	-0.037593927
106	0x3da15011	0.078765996
107	0x3deee401	0.11664582
108	0xbd3ba649	-0.04581288
109	0x3e0bcde9	0.13652767
110	0x3e0473b7	0.12934767
111	0x3cb1362b	0.021632275
112	0xbd5d6b18	-0.05405721
113	0x3d895680	0.06705952
114	0xbcc5bbb9	-0.024137365
115	0x3df15d8e	0.11785422
116	0x3da003b5	0.07813207
117	0x3d972d31	0.073816665
118	0xbd4ff03e	-0.050766222
119	0xbd2f8c11	-0.042858187

fc2.weight f4 [84, 120]
0	0x3bcf0100	0.006317258
1	0xbb84d660	-0.004053876
2	0xbc07cb58	-0.008288227
3	0x3da42026	0.08013944
4	0x3cf47edc	0.029845648
5	0xbd8c09eb	-0.06837829
6	0xbd83ec5e	-0.06441568
7	0x3cb14cac	0.021643005
8	0x3d64a870	0.055824697
9	0xbdac80df	-0.08423018
10	0x3d091d7e	0.03347539
11	0xbd26e00b	-0.040741008
12	0x3d0d93ac	0.03456466
13	0xbd42c2ac	-0.047548935
14	0x3d9d35e0	0.076762915
15	0x3daee74a	0.08540209
16	0xbd824dd2	-0.06362499
17	0xbda559d6	-0.080737755
18	0x3cd7e3fc	0.026353829
19	0x3d952ba6	0.07283716
20	0x3d240910	0.040047705
21	0xbd364b00	-0.04450512
22	0x3d9eab12	0.07747473
23	0xbdb9094e	-0.09034978
24	0x3d9bf07a	0.07614227
25	0xbd06b621	-0.032888535
26	0xbbced670	-0.006312184
27	0xb92a4600	-0.0001623854
28	0xbccebcfc	-0.0252366
29	0xbcab0808	-0.020877853
30	0x3cb83658	0.02248685
31	0x3c904f9c	0.017616086
32	0x3c2d4fa0	0.010578066
33	0x3db78694	0.089612156
34	0xbc131dd0	-0.008979276
35	0xbd677fc3	-0.056518327
36	0xbda3caa2	-0.079976335
37	0x3d8dba5e	0.06920312
38	0xbd87472a	-0.0660537
39	0x3d3ca698	0.046057314
40	0xbd59f231	-0.053209487
41	0xbd79a2dd	-0.060946334
42	0x3c6befb0	0.014400408
43	0x3d8e0fb0	0.06936586
44	0xbda85aa4	-0.08220413
45	0x3d75b3ac	0.0599858
46	0xbdba09ba	-0.090838864
47	0xbc96a29c	-0.018388085
48	0xbcd400b0	-0.025879234
49	0xbd84a1b0	-0.06476152
50	0xbd90de7d	-0.07073686
51	0xbd1be1b5	-0.038057048
52	0xbd95a79b	-0.07307359
53	0x3a742800	0.0009313822
54	0xbd79ef51	-0.061019246
55	0xbd2dfc49	-0.042476926
56	0xbd3a8272	-0.04553456
57	0x3cdbeaf0	0.026845425
58	0xbcd69d4c	-0.026198052
59	0x3d592040	0.05300927
60	0x3d63e254	0.055635765
61	0xbd897ea6	-0.067136094
62	0xbc7de590	-0.0154966265
63	0xbdba5db8	-0.09099907
64	0x3d32fb10	0.043696463
65	0xbca2f3b0	-0.01989159
66	0x3cc0a6ac	0.023516975
67	0x3cf6611c	0.030075602
68	0x3da5bfae	0.080932006
69	0xbc152350	-0.009102657
70	0xbcdd383c	-0.027004354
71	0x3db06c7e	0.08614443
72	0xbbeb6e80	-0.0071848035
73	0x3c88fd54	0.016722359
74	0x3c13cc70	0.00902091
75	0xbd451fbb	-0.048125964
76	0x3d579490	0.052631915
77	0xbd9a9680	-0.07548237
78	0x3d3af8cc	0.045647427
79	0x3d3615b4	0.04445429
80	0x3d74290c	0.059609458
81	0xbd841c94	-0.06450763
82	0x3d8344b6	0.0640959
83	0x3dacb978	0.08433813
84	0xbac70c80	-0.001518622
85	0xbdb0f8f2	-0.086412326
86	0xbb8d72f0	-0.00431668
87	0xba00ef00	-0.0004918426
88	0xbda38d0c	-0.07985887
89	0xbbb950a0	-0.005655363
90	0xbcf70e3a	-0.030158151
91	0xbda97c97	-0.08275717
92	0x3d72e2a8	0.059298187
93	0x3cc4d7bc	0.024028651
94	0xbd1f503b	-0.038894873
95	0x3da9ac38	0.08284801
96	0x3b97fd20	0.004638329
97	0x3ba53780	0.0050420165
98	0x3c3824f0	0.011239275
99	0xbd9a75f4	-0.07542029
100	0xbd1dd0e5	-0.038529295
101	0x3c499b38	0.012305073
102	0xbd0a40dc	-0.03375326
103	0x3d428dd4	0.04749854
104	0x3b1ee1c0	0.0024243444
105	0x3c9e446c	0.019319735
106	0x3db4f958	0.08836621
107	0xbd20662d	-0.039159942
108	0xbc497890	-0.012296811
109	0xbd5b4700	-0.053534508
110	0xbda39a11	-0.0798837
111	0x3caaac50	0.020834118
112	0x3d850c0a	0.06496437
113	0x3cfd1de0	0.030898035
114	0xbd92f11a	-0.07174893
115	0x3d721010	0.05909735
116	0xbdaab811	-0.08335889
117	0xbd82e297	-0.06390875
118	0x3daa2322	0.08307482
119	0xbd2b9dd1	-0.041898552
120	0xbd7a5e1c	-0.061124906
121	0x3d7f6294	0.06234987
122	0xbd3158b2	-0.043297477
123	0x3db31e01	0.08745957
124	0x3d35e349	0.04440621
125	0x3d1e6d95	0.038678724
126	0x3da0c7b2	0.07850589
127	0x3dd4f7bf	0.10398816
128	0x3c42560b	0.011861335
129	0x3daeb29a	0.08530159
130	0xbe5a50d0	-0.2131989
131	0xbdb6725a	-0.089085296
132	0xbd6b4893	-0.05744226
133	0xbe22997d	-0.15878864
134	0xbe0f2a62	-0.13981012
135	0xbd2c997c	-0.04213856
136	0x3dfd12e5	0.123571195
137	0xbe6cb331	-0.23115231
138	0x3d0290bb	0.031876307
139	0xbcd57211	-0.026055368
140	0x3dd8be65	0.1058319
141	0x3dc5643f	0.09638261
142	0x3e004983	0.12528042
143	0x3c3a36de	0.01136562
144	0xbdaef126	-0.08542089
145	0x3e126f24	0.1430021
146	0x3da3fbaf	0.08006989
147	0xbe2b3b97	-0.1672195
148	0x3e1d576e	0.15365383
149	0xbc9ea175	-0.019364098
150	0x3e03d64a	0.12874714
151	0xbe143262	-0.14472345
152	0x3db7161f	0.08939766
153	0xbd2ab2f5	-0.041674573
154	0xbc54b831	-0.012983368
155	0x3d81b0a5	0.063325204
156	0xbe2809b3	-0.1640995
157	0x3e0eaba8	0.13932669
158	0xbd99e3d1	-0.07514156
159	0xbd6b2388	-0.057406932
160	0xbd2a2d17	-0.041546907
161	0xbdc2be4e	-0.09508954
162	0xbd58e74e	-0.052954964
163	0x3d21cfff	0.039505
164	0xbcd8edc2	-0.02648056
165	0x3cb3e6f0	0.021960706
166	0x3daa8ed0	0.083280206
167	0xbdcf9d1d	-0.10137389
168	0x3db19f25	0.086729325
169	0x3e3e0de4	0.18559986
170	0x3c13b5b1	0.009015487
171	0x381ace4f	3.69086e-05
172	0x3e3c291d	0.18375058
173	0x3ba94ec4	0.0051668603
174	0xbd90cad8	-0.070699394
175	0x3d859f57	0.06524532
176	0x3e06a484	0.13148695
177	0x3d8c401f	0.06848168
178	0xbd4e41ea	-0.05035583
179	0xbe428115	-0.18994553
180	0x3de997d7	0.11405914
181	0x3d93fe56	0.07226245
182	0xbcc060a4	-0.023483582
183	0x3dbc81df	0.092044584
184	0x3e18e348	0.14930451
185	0x3a4df400	0.0007856488
186	0xbc5071db	-0.012722458
187	0xbda7574d	-0.08170948
188	0x3e52e48c	0.20594996
189	0x3da67159	0.08127088
190	0x3d856066	0.06512527
191	0xbd92496e	-0.07142912
192	0xbbbb069c	-0.005707575
193	0xbe2988df	-0.16556118
194	0x3e03c64f	0.12868617
195	0x3dc9469c	0.09827921
196	0x3e06e198	0.13171995
197	0x3d8f36f9	0.06992907
198	0xbdb736d2	-0.08946003
199	0x3d5b6797	0.053565588
200	0xbdf8b185	-0.12143234
201	0x3e2339fa	0.15940085
202	0xbcf7610b	-0.03019764
203	0x3d1ab5b8	0.037770957
204	0x3d9058fc	0.070482224
205	0xbd563b6a	-0.052302755
206	0x3d634b59	0.05549178
207	0x3cc70ac2	0.024297122
208	0xbbb7a7b4	-0.0056047086
209	0xbd62f3c5	-0.055408258
210	0x3bc42c11	0.0059866984
211	0xbd0135b8	-0.03154537
212	0x3d1faa14	0.03898056
213	0x3e3e19ea	0.18564573
214	0xbdca88d7	-0.098893814
215	0xbd82b16c	-0.06381497
216	0x3e13f221	0.14447834
217	0xbb7c21ee	-0.0038472372
218	0xbd8cfd45	-0.06884245
219	0xbd3777ab	-0.04479186
220	0xbddc75b2	-0.10764636
221	0xbe0ea19e	-0.1392884
222	0x37453c7c	1.1756198e-05
223	0x3d5e84be	0.05432581
224	0x3c1fdc61	0.009757132
225	0xbdc95fdc	-0.09832737
226	0x3ddd583e	0.108078465
227	0x3dafdddf	0.085872404
228	0x3d5580ed	0.052124906
229	0x3e21d5c6	0.15804204
230	0x3e28d566	0.16487655
231	0x3da5a34e	0.080877885
232	0x3cde963d	0.027171249
233	0x3df16391	0.11786569
234	0xbd90dce9	-0.07073385
235	0x3e259e8e	0.16173765
236	0x3dd0fd3b	0.1020455
237	0x3da712f4	0.08157912
238	0xbc88e8b6	-0.016712528
239	0x3c48e9c0	0.012262762
240	0x3c111068	0.008854009
241	0xbc1fd8d2	-0.009756284
242	0xbd8eabd0	-0.069663644
243	0x3bc7eee4	0.006101476
244	0xbe1e2ef7	-0.15447603
245	0xbd1741c2	-0.036927946
246	0xbdaa6d00	-0.08321571
247	0xbd2f9f1a	-0.04287634
248	0x3d843f9a	0.064574435
249	0xbd1aa69e	-0.037756555
250	0x3e114e4d	0.14190026
251	0x3dd87e0b	0.10570916
252	0x3c4b1433	0.012394953
253	0x3e52c91c	0.2058453
254	0x3def7e7d	0.116940476
255	0x3e03e4d4	0.1288026

fc2.bias f4 [84]
0	0xbdb8f2e4	-0.09030703
1	0x3e31df9c	0.17370456
2	0x3d9a575c	0.07536194
3	0x3d59add8	0.053144306
4	0x3c2ad8c8	0.010427661
5	0x3cac19db	0.021008423
6	0x3dec0323	0.11524036
7	0x3d9dc7c9	0.077041216
8	0x3e307adf	0.17234372
9	0xbd30d754	-0.043174103
10	0x3d37095e	0.044686668
11	0x3dc3ed55	0.09566752
12	0x3d560599	0.052251432
13	0xbd2707ec	-0.04077904
14	0x3d9a551e	0.07535766
15	0x3cccbc0c	0.024992011
16	0x3de9f529	0.11423714
17	0x3c8a1ba9	0.016858893
18	0x3e24cc0a	0.1609346
19	0x3e880b37	0.26571056
20	0x3db5e9ab	0.08882459
21	0xbaf34aab	-0.0018561681
22	0x3e42fafd	0.19041057
23	0x3da89a9b	0.08232614
24	0x3e5644c9	0.20924677
25	0x3d58397a	0.05278919
26	0xbdabf906	-0.08397107
27	0x3c9dc9c7	0.019261254
28	0xbda9d2db	-0.082921706
29	0xbd85ad51	-0.06527198
30	0xbdb9bcb3	-0.09069195
31	0x3d2c4f60	0.042067885
32	0x3e43d39e	0.19123694
33	0xbd1ce044	-0.038299814
34	0x3e19bd9b	0.15013735
35	0x3c91c883	0.017795807
36	0x3e0ae6fc	0.13564676
37	0xbc283ec2	-0.010268869
38	0x3e2086f2	0.15676478
39	0x3ce5f2e4	0.02806992
40	0x3d4ee987	0.050515678
41	0x3e1b018d	0.1513731
42	0xbdb37f09	-0.087644644
43	0x3ce7b9c8	0.02828683
44	0x3d3701f9	0.044679616
45	0xbdb5a10d	-0.088686086
46	0x3cb07b58	0.02154319
47	0x3d39bd86	0.04534676
48	0xbdb4ae6e	-0.08822332
49	0x3d952294	0.07281986
50	0xbd836d34	-0.06417313
51	0xbd810983	-0.06300642
52	0x3e27f871	0.16403367
53	0x3e36d634	0.1785515
54	0xbcad2b3b	-0.021138778
55	0xbcd6b7f8	-0.02621077
56	0x3b929bef	0.004474155
57	0x3d51ecf5	0.05125137
58	0xbd97bbd4	-0.07408872
59	0x3da32831	0.0796665
60	0xbc9e9174	-0.019356467
61	0xbd24f4cb	-0.040272515
62	0x3d9cb53d	0.07651756
63	0x3d020b06	0.031748794
64	0x3df4488c	0.119279
65	0x3d996bca	0.07491262
66	0xbd434443	-0.04767252
67	0x3e2d96a4	0.16951996
68	0xbd2bde4a	-0.04196004
69	0xbdb98436	-0.0905842
70	0x3e15f62a	0.14644685
71	0x3e026a55	0.12735875
72	0x3deb6b77	0.11495107
73	0x3e1fa1cb	0.15589063
74	0x36a349b3	4.8663583e-06
75	0x3d304a96	0.04303988
76	0xbb3f0e11	-0.0029152671
77	0x3d82f76b	0.063948475
78	0xbdc73b0c	-0.09728059
79	0xbbecc9d5	-0.0072262087
80	0xbb7ef23b	-0.0038901705
81	0xbd745da8	-0.05965963
82	0x3d38f200	0.045152664
83	0xbd439a1a	-0.047754385

fc3.weight f4 [1, 84]
0	0xbcadef2c	-0.02123221
1	0x3e49c077	0.19702326
2	0xbe0c3d02	-0.13695148
3	0xbe486e85	-0.1957341
4	0x3c929c04	0.01789666
5	0xbe682bf5	-0.22673018
6	0x3e7574ca	0.23970333
7	0xbe4bc82a	-0.19900575
8	0x3e58b29f	0.21161889
9	0xbdfd4b8c	-0.12367925
10	0xbe18cfe0	-0.14923048
11	0x3e86e217	0.26344368
12	0xbe463626	-0.19356593
13	0xbda72738	-0.08161777
14	0xbe5f9b54	-0.21836597
15	0xbd8dba02	-0.06920244
16	0x3e730fa9	0.23736443
17	0xbe2e32bb	-0.1701154
18	0x3e5322c3	0.2061873
19	0x3eaa68e3	0.33283147
20	0xbe270754	-0.16311389
21	0xbe3ef341	-0.18647482
22	0x3e8c019d	0.2734498
23	0xbe5531c1	-0.20819761
24	0x3e8e19ee	0.27754158
25	0xbe0a7e65	-0.13524778
26	0xbe180541	-0.14845754
27	0x3e62daf6	0.2215384
28	0x3d10f876	0.0353932
29	0xbde1cdc2	-0.11025573
30	0xbbd07861	-0.0063620065
31	0xbe08a5b8	-0.13344467
32	0x3e6501f8	0.22364032
33	0xbe3dd49e	-0.18538138
34	0x3e424707	0.18972407
35	0x3c93abfe	0.018026348
36	0x3e76399b	0.24045412
37	0xbdcec505	-0.10096172
38	0x3e92881d	0.2861947
39	0xbe1cb341	-0.15302755
40	0xbe22d1cd	-0.15900345
41	0x3e8b9ea0	0.2726946
42	0xbd56e331	-0.05246276
43	0x3e22a396	0.15882716
44	0xbe3fd5cf	-0.18733905
45	0x3d482596	0.04886397
46	0x3ddf6b17	0.10909098
47	0xbe565f75	-0.20934851
48	0x3d89497f	0.067034714
49	0xbe24d925	-0.16098459
50	0xbd6365a6	-0.05551686
51	0xbd2eaf56	-0.042647682
52	0x3e49052f	0.19630884
53	0x3e1321ef	0.14368413
54	0x3d199b9b	0.037501913
55	0x3d59e626	0.053198002
56	0xbe1d1298	-0.15339124
57	0x3e66cee4	0.2253986
58	0xbdd92f6c	-0.10604748
59	0x3e42fa55	0.19040807
60	0x3d841b41	0.06450511
61	0xbcf82e68	-0.030295566
62	0xbe3eef45	-0.18645962
63	0xbdf285bd	-0.11841915
64	0x3e477912	0.19479778
65	0xbe3f9c8d	-0.18712063
66	0x3d206762	0.039161094
67	0x3e474c61	0.1946273
68	0xbe404016	-0.18774447
69	0x3cbb8d84	0.022894628
70	0x3e347c34	0.17625505
71	0x3e654167	0.2238823
72	0x3e2dee90	0.16985536
73	0x3e33e20d	0.175667
74	0xbd3eb695	-0.046560843
75	0xbe696055	-0.22790654
76	0x3d94fb67	0.07274514
77	0x3ea7cd6c	0.32773912
78	0x3cab6a07	0.020924581
79	0xbe399aed	-0.18125506
80	0xbdc80e6c	-0.09768376
81	0xbdfaf3ba	-0.122535184
82	0xbe661048	-0.22467148
83	0xbabc193b	-0.0014350781
