output_visualizations/base_tsk[x]_agm[crop_plus]_spl[S1]_mdl[lenet]_ls[BCE]_tu[none]/model.pt (torch, 246727 bytes, 9 tensors)

conv1.weight f4 [6, 1, 5, 5]
0	0x3db96d00	0.09053993
1	0x3e2fb60f	0.17159294
2	0xbcbb52ac	-0.02286657
3	0x3e3015dc	0.17195839
4	0xbde62803	-0.112381004
5	0x3bf7a08e	0.0075569814
6	0xbd9533fe	-0.07285307
7	0x3e1dac57	0.15397774
8	0x3e29ad28	0.1656996
9	0xbe5e7d3d	-0.21727462
10	0x3e15f444	0.14643961
11	0x3d09b87b	0.0336232
12	0x3e13bbdc	0.14427131
13	0x3c07f0be	0.0082971435
14	0x3d695285	0.056963462
15	0xbce862a1	-0.028367342
16	0x3e099281	0.13434793
17	0xb9b27164	-0.00034035288
18	0xbdc083aa	-0.09400113
19	0x3d95ddb5	0.07317678
20	0xbdb29509	-0.087198325
21	0xbd89f505	-0.06736187
22	0xbe092a47	-0.13395034
23	0x3e15b1a0	0.1461854
24	0xbdf5be90	-0.119992375
25	0xbe06741a	-0.13130227
26	0xbdf35c8c	-0.11882886
27	0xbe086f61	-0.13323738
28	0x3d012f88	0.03153947
29	0xbe3bed27	-0.18352185
30	0x3e543a42	0.20725349
31	0xbe314f96	-0.17315516
32	0x3e4226e2	0.18960145
33	0x3d97f5e1	0.074199446
34	0xbce1fac5	-0.027585397
35	0x3e175015	0.14776643
36	0x3d70aeab	0.058760326
37	0x3e5cabe9	0.21549954
38	0x3d92c169	0.07165796
39	0xbd07c106	-0.033143066
40	0x3d541b96	0.05178412
41	0xbcd2333b	-0.025659194
42	0x3e1a0e06	0.15044412
43	0x3e82b87a	0.2553137
44	0x3e2bb3b4	0.1676777
45	0xbe211857	-0.15731941
46	0x3dbd25bc	0.09235713
47	0x3d47394a	0.04863862
48	0x3e0bf861	0.13668968
49	0xbde18cc1	-0.11013175
50	0xbe92f54f	-0.2870278
51	0xbe109678	-0.141199
52	0xbe10ae04	-0.14128882
53	0x3e583671	0.21114518
54	0x3e12486e	0.14285442
55	0x3c744119	0.014908099
56	0x3c4ed00d	0.012622845
57	0x3b0bfaad	0.0021359131
58	0x3e3c32d7	0.18378769
59	0xbdc29512	-0.09501089
60	0x3cd3c7be	0.02585208
61	0xbdf51d95	-0.11968533
62	0x3dc90fc4	0.0981746
63	0xbd03bdb6	-0.032163344
64	0x3da08087	0.07837015
65	0x3cb3e43c	0.021959417
66	0x3e50c42b	0.20387332
67	0xbd9c5e61	-0.07635189
68	0xbdbfc3b3	-0.093634985
69	0xbdfdf37f	-0.12399959
70	0x3e78c913	0.24295454
71	0x3dc205a0	0.09473729
72	0x3e411613	0.18856077
73	0xbe49fc4f	-0.19725154
74	0xbe873e04	-0.26414502
75	0xbe67f5db	-0.2265238
76	0xbe281ec5	-0.16417988
77	0x3d960c35	0.07326547
78	0x3de974b2	0.11399211
79	0x3e77ba6f	0.24192213
80	0xbe115718	-0.1419338
81	0xbe0df099	-0.13861312
82	0x3df65172	0.12027253
83	0xbcd821a5	-0.02638323
84	0x3e414f6c	0.18877953
85	0xbd5c4a93	-0.053782057
86	0x3e04687d	0.12930484
87	0xbde8cd83	-0.11367323
88	0xbd3d7af2	-0.046259828
89	0x3dda284d	0.10652218
90	0x3d9dbdf9	0.0770225
91	0xbcc51c23	-0.024061268
92	0x3e0ab3b3	0.13545112
93	0x3e110821	0.14163257
94	0xbe1423d4	-0.14466792
95	0x3a4c061c	0.0007782893
96	0x3e6fe7ca	0.23428264
97	0xbd24e4fb	-0.040257435
98	0xbd99f171	-0.075167544
99	0xbe5ec34f	-0.21754192
100	0xbc7af704	-0.015317682
101	0x3e420a0f	0.1894915
102	0xbd898b1b	-0.067159854
103	0xbeb89090	-0.36047792
104	0xbe257ef1	-0.16161706
105	0xbdf1a9e6	-0.11799984
106	0xbe47e085	-0.19519241
107	0xbecc5344	-0.39907277
108	0xbf3bd2af	-0.7336835
109	0xbf077e64	-0.5292723
110	0x3ea936e0	0.3304968
111	0x3e142ab7	0.1446942
112	0xbdab79de	-0.08372854
113	0xbf27a291	-0.6548243
114	0xbee802a6	-0.4531452
115	0x39738255	0.00023222838
116	0x3d897c5e	0.06713174
117	0xbecab6bd	-0.39592543
118	0xbf15382b	-0.5828883
119	0xbee3a0b0	-0.44458532
120	0x3ddc5924	0.1075919
121	0x3c7823b8	0.015145235
122	0xbd3f9c72	-0.046780057
123	0xbea0fc83	-0.3144265
124	0xbe5da124	-0.21643502
125	0xbde923cd	-0.113837816
126	0xbe0b1625	-0.13582666
127	0xbe6420b3	-0.22278099
128	0x3e3045be	0.17214105
129	0xbe108403	-0.14112858
130	0x3e915dc8	0.28391862
131	0x3d9c8cff	0.0764408
132	0xbe280fee	-0.16412327
133	0x3e50b6b0	0.2038219
134	0xbdb9d9b7	-0.09074729
135	0xbd34fbc4	-0.044185415
136	0xbe87b393	-0.26504192
137	0xbe91d09f	-0.28479478
138	0x3d25187c	0.040306553
139	0xbe19efd1	-0.15032889
140	0x3e24ca8b	0.16092889
141	0xbe314e6e	-0.17315075
142	0x3e2900fe	0.16504285
143	0xbdefb1a4	-0.11703804
144	0xbdab46d3	-0.08363118
145	0x3e0fef75	0.1405619
146	0x3e3dedbc	0.1854772
147	0x3e8ece20	0.27891636
148	0x3ea02b5a	0.31283075
149	0xbdf6d161	-0.120516546

conv1.bias f4 [6]
0	0xbceb5c5c	-0.028730564
1	0xbd9054e6	-0.07047443
2	0xbc08bd21	-0.008345873
3	0xbdf360a4	-0.11883667
4	0x3ddb3d89	0.10705096
5	0xbccb7818	-0.024837539

conv2.weight f4 [16, 6, 5, 5]
0	0x3dcb801d	0.09936545
1	0x3d915ec6	0.07098155
2	0x3d5542e4	0.052065745
3	0xbd92dbf7	-0.07170861
4	0xbcc1a1af	-0.023636667
5	0x3da6849f	0.08130764
6	0x3d2691a4	0.040666237
7	0xbd9aeaf9	-0.07564349
8	0xbd1bcacf	-0.03803521
9	0xbe0fbbb2	-0.14036444
10	0x3d288e96	0.041151606
11	0x3dce9849	0.1008764
12	0x3b1bffa8	0.0023803506
13	0xbe11d3bd	-0.14240928
14	0xbe41cb61	-0.18925239
15	0x3d948563	0.07252004
16	0x3dbc6907	0.0919972
17	0x3bc3e47e	0.005978166
18	0xbdb2c93b	-0.08729788
19	0xbe2ce142	-0.16882804
20	0xbcfb62e5	-0.030686805
21	0x3d8a984c	0.067673296
22	0x3dee4e03	0.11635973
23	0xbd830b7a	-0.06398673
24	0xbd8be46a	-0.06830676
25	0x3dc5cb35	0.09657899
26	0x3d324c08	0.04352954
27	0xbd824f4b	-0.0636278
28	0xbdd1a5d9	-0.10236711
29	0xbdf5c8f8	-0.12001222
30	0x3dd91fb2	0.106017485
31	0x3cb020e3	0.021500057
32	0xbd9692f5	-0.073522486
33	0xbe335379	-0.17512311
34	0xbe621486	-0.22078142
35	0x3d615569	0.055013094
36	0x3dd8c890	0.10585129
37	0x3d8e74da	0.069558814
38	0xbe0ea5b3	-0.13930397
39	0xbe90d59a	-0.28287965
40	0x3d2c9286	0.042131923
41	0x3d9226a2	0.07136275
42	0x3dd7010c	0.104982466
43	0x3cf52dc6	0.029929053
44	0xbe682d66	-0.22673568
45	0xbe0c0578	-0.13673961
46	0x3d757062	0.05992163
47	0x3da73f04	0.08166316
48	0x3ce99cdf	0.028517185
49	0xbdd5b467	-0.104348
50	0x3d804150	0.06262457
51	0x3c2b5d39	0.010459238
52	0xbd92e62a	-0.071728066
53	0xbe862db3	-0.2620674
54	0xbec336d3	-0.38127765
55	0x3e3d2e05	0.18474586
56	0xbd731e0c	-0.059354827
57	0xbe32c0fd	-0.17456432
58	0xbe951d85	-0.29124084
59	0xbea4e89a	-0.3220871
60	0x3d5a43a6	0.05328717
61	0xbd9d69c5	-0.076861896
62	0x3cb58525	0.022158215
63	0xbd580c11	-0.052745882
64	0xbe7de92f	-0.24795984
65	0xbe0f6b99	-0.14005889
66	0xbe6b8d71	-0.23003174
67	0x3d88455f	0.066538565
68	0x3ca1cd5f	0.019751249
69	0xbcfc662b	-0.030810436
70	0xbdd84057	-0.10559147
71	0xbe56fe96	-0.20995554
72	0xbe0301ed	-0.12793703
73	0xbcb94d72	-0.022619937
74	0xbde13359	-0.10996122
75	0x3e04f5fb	0.12984459
76	0x3e168207	0.14698039
77	0xbc0410c4	-0.008060638
78	0xbe696316	-0.22791705
79	0xbe2392b1	-0.15973927
80	0xbb8efa76	-0.0043633534
81	0xbe1ec8eb	-0.15506332
82	0xbe9bdf16	-0.3044364
83	0xbe8e6c2d	-0.27816907
84	0xbdba0a3e	-0.09083985
85	0xbe4d2c6d	-0.20036478
86	0xbe510267	-0.20411073
87	0xbe87530c	-0.26430547
88	0xbe833b3b	-0.25631127
89	0xbe8620a0	-0.26196766
90	0xbe8fced9	-0.280875
91	0xbe1964cd	-0.14979859
92	0xbe0d8903	-0.13821797
93	0xbe4607bd	-0.1933889
94	0xbec2b0c2	-0.3802548
95	0xbe269fdb	-0.16271918
96	0xbdc9e888	-0.09858805
97	0xbe571a0c	-0.2100603
98	0xbe410e91	-0.18853213
99	0xbe23d18b	-0.15997903
100	0xbd383bbf	-0.044978853
101	0xbe38ec40	-0.18058872
102	0xbe356ddd	-0.17717691
103	0xbe814094	-0.25244582
104	0xbe070381	-0.1318493
105	0xbdfefe93	-0.124509
106	0xbd8873b1	-0.066626914
107	0xbe509152	-0.20367935
108	0xbe0eb8fc	-0.13937753
109	0xbd72e652	-0.05930168
110	0xbd802414	-0.06256881
111	0xbe4fcd85	-0.20293243
112	0xbe47d6af	-0.19515489
113	0xbe35717d	-0.17719074
114	0xbd76fe8a	-0.06030134
115	0xbe86e3bd	-0.26345626
116	0xbe0d4ae2	-0.13798097
117	0xbc434e87	-0.011920578
118	0xbc06e4c9	-0.008233258
119	0xbd99e8cb	-0.07515105
120	0xbeab7d50	-0.33494043
121	0xbdebd892	-0.11515917
122	0x3c1542d5	0.009110172
123	0xbdcab09b	-0.09896966
124	0xbd7e6754	-0.06211026
125	0xbc4df866	-0.01257143
126	0xbdb458e6	-0.088060185
127	0xbe4f7c63	-0.20262294
128	0xbe9f9ec6	-0.31175822
129	0xbe938bce	-0.288176
130	0x3b400e42	0.0029305373
131	0x3d3392d9	0.043841217
132	0x3cd1827b	0.025574913
133	0xbe1881a0	-0.14893198
134	0xbec701fc	-0.388687
135	0x3abcd039	0.0014405317
136	0x3b912cfc	0.0044304114
137	0x3d9dbeb5	0.0770239
138	0x3df5b1c2	0.11996795
139	0xbe4cb88a	-0.19992271
140	0xbe36b78a	-0.17843452
141	0x3c96d7b7	0.018413408
142	0x3e024dc5	0.12724979
143	0x3dc6738c	0.096900076
144	0xbd17f5d8	-0.03709969
145	0xbe282277	-0.16419397
146	0xbdebd342	-0.115149036
147	0x3d5c3b7b	0.053767662
148	0x3dab7b32	0.08373107
149	0x3e2dfad4	0.16990215
150	0xbde140b8	-0.10998672
151	0xbd07e2c5	-0.03317525
152	0xbbf08d7d	-0.0073410855
153	0x3d4ad36d	0.049518038
154	0x3ded9820	0.11601281
155	0xbb1bfb74	-0.0023801
156	0xbdb4bd7d	-0.088252045
157	0x3d2b9671	0.04189152
158	0x3da8c875	0.08241359
159	0x3c931567	0.017954541
160	0x3d97b102	0.074068084
161	0x3dc84a8e	0.09779845
162	0x3a6445be	0.0008707902
163	0xbc362859	-0.011118018
164	0xbde0a669	-0.1096924
165	0x3d57d305	0.05269148
166	0x3dd0da7f	0.10197925
167	0x3d67d0bc	0.05659555
168	0xbdc9e7e1	-0.098586805
169	0xbe22c2a6	-0.15894565
170	0x3d01ad49	0.0316594
171	0xbd32ffd1	-0.043700997
172	0xbdae9e9f	-0.08526348
173	0xbde46847	-0.11152702
174	0xbd892c21	-0.0669787
175	0xbcc0bd91	-0.023527892
176	0xbd7830dd	-0.060593475
177	0xbd2a12b9	-0.04152176
178	0x3d43dcc4	0.04781796
179	0xbcf5f8a7	-0.030025793
180	0x3c8578e3	0.016292995
181	0x3d952fc2	0.072845
182	0xbca4549a	-0.020059872
183	0xbd870c1e	-0.06594108
184	0xbcf7cf83	-0.030250316
185	0x3d45ad71	0.04826111
186	0x3c7d9059	0.01547631
187	0xbd98a63c	-0.07453582
188	0xbe33e5db	-0.17568152
189	0xbe27d104	-0.16388327
190	0x3e1703bf	0.14747523
191	0xbca79b1e	-0.020459708
192	0xbe1b9c87	-0.15196429
193	0xbe26ba90	-0.16282105
194	0xbe213e07	-0.15746318
195	0x3dd2f16d	0.102999546
196	0x3d942c00	0.07234955
197	0xbd4b266d	-0.049597193
198	0xbe8697b3	-0.26287612
199	0xbe1f44a9	-0.15553536
200	0xbcc72042	-0.024307374
201	0xbc0298b4	-0.007970978
202	0x3dcc65a1	0.09980322
203	0x3e2cd379	0.16877545
204	0xbe07be2f	-0.13256143
205	0xbc84a715	-0.016192952
206	0x3b929247	0.004473004
207	0x3dd92816	0.10603349
208	0x3cf7bfc4	0.030242808
209	0xbe08785a	-0.1332716
210	0x3df2ce30	0.118557334
211	0x3cc02e4f	0.023459582
212	0xbdae8578	-0.08521551
213	0xbe3eefd7	-0.18646179
214	0xbe025a13	-0.12729673
215	0x3e5bb681	0.21456338
216	0x3d4923ac	0.049106285
217	0xbda7f4d2	-0.08200993
218	0xbeace29e	-0.33766645
219	0xbe9cd7b9	-0.30633333
220	0x3e0a6ca4	0.13518006
221	0x3df990f2	0.12185849
222	0x3ddecbff	0.10878753
223	0xbe2673ef	-0.16255163
224	0xbe85d50a	-0.26139098
225	0xbd30354f	-0.04301959
226	0x3e782e18	0.24236333
227	0x3e9ec79b	0.31011662
228	0x3e2b7706	0.16744623
229	0x3dbd5e00	0.09246445
230	0x3a8222d6	0.0009928595
231	0x3dd8bfca	0.10583456
232	0x3e207387	0.1566907
233	0x3b35b4fd	0.0027726286
234	0xbc385594	-0.011250872
235	0x3db24b07	0.087057166
236	0x3e374837	0.17898642
237	0x3cde61a3	0.027146166
238	0xbd0807fc	-0.03321074
239	0x3d3494c5	0.04408719
240	0x3da407b5	0.080092825
241	0x3d44ed64	0.048077956
242	0xbd52eb7f	-0.051494118
243	0xbe1db216	-0.15399966
244	0x3cf1c937	0.029514892
245	0x3d989b93	0.074515484
246	0xbddcff76	-0.10790913
247	0xbe628dd2	-0.22124413
248	0xbe5f574d	-0.21810646
249	0xbdefe3f6	-0.11713402
250	0x3caf775c	0.02141922
251	0x3c3f0aaf	0.011660262
252	0x3cd2715b	0.025688818
253	0x3ca8ba9e	0.020596799
254	0xbd408f94	-0.047011927
255	0x3d52ea18	0.05149278

conv2.bias f4 [16]
0	0xbd3e24a0	-0.046421647
1	0xbc3a0da4	-0.011355791
2	0xbd22ff6f	-0.03979438
3	0x3c31eab6	0.010859182
4	0xbdc3920c	-0.095493406
5	0xba076c1c	-0.0005165951
6	0x3dcbebe2	0.099571005
7	0x3bdde5c6	0.006771776
8	0xba903d8f	-0.0011004674
9	0x3d15cae3	0.03657044
10	0xbd35d812	-0.044395514
11	0x3c2baed4	0.010478694
12	0x3dbc16b1	0.091840155
13	0xbcd04e53	-0.025427973
14	0x3d7c9c50	0.06167251
15	0x3dd6e1c6	0.104922816

fc1.weight f4 [120, 400]
0	0x3d9ac1c3	0.07556488
1	0x3e1c54ca	0.1526672
2	0x3e171ecf	0.14757846
3	0x3cdcef74	0.026969649
4	0x3cea3f96	0.028594773
5	0x3d798c69	0.06092492
6	0x3c8545a3	0.016268557
7	0x3d856eb4	0.065152556
8	0x3d21c559	0.039494846
9	0x3cc95017	0.024574323
10	0x3de83161	0.11337543
11	0x3d829869	0.06376726
12	0x3d27afba	0.04093907
13	0x3d77ea41	0.060526136
14	0x3dc7e4a1	0.097604044
15	0x3cbe3370	0.023217887
16	0x3dac024c	0.083988756
17	0x3d0d0aa4	0.034433976
18	0x3d4a774c	0.049430177
19	0x3d8c7691	0.06858552
20	0x3da8abd6	0.082359
21	0x3d808cea	0.06276877
22	0x3e0ebd96	0.13939509
23	0x3d277459	0.040882442
24	0x3e05c094	0.13061744
25	0x3e1d8a08	0.15384686
26	0x3dee5b20	0.116384745
27	0x3c0fd44b	0.008778642
28	0xbd6f49d5	-0.05842002
29	0xbbdfdb38	-0.006831553
30	0x3dd2a6fc	0.10285756
31	0x3df5cf5e	0.12002443
32	0x3d28adfb	0.041181546
33	0x3baac6a4	0.005211668
34	0xbc398ffe	-0.011325834
35	0x3de27385	0.1105719
36	0x3dea6573	0.11445131
37	0x3d0f477a	0.034980275
38	0x3d66995f	0.05629861
39	0xbc6b4394	-0.014359374
40	0x3e1a54bd	0.15071388
41	0x3d9b68f7	0.0758838
42	0x3cce53cf	0.025186447
43	0x3d50a6d1	0.05094034
44	0x3da28ea5	0.079373635
45	0x3e1ebd3d	0.15501876
46	0x3e27a1cc	0.16370314
47	0x3d714f47	0.058913495
48	0x3dd155cf	0.10221445
49	0x3d09eec4	0.03367497
50	0xbc7637d6	-0.015027961
51	0xbac77289	-0.0015216629
52	0xbd5f267a	-0.054480053
53	0x3b1ce62c	0.0023940904
54	0xbd91cca5	-0.07119111
55	0x3cc06ea1	0.023490252
56	0x3ba311c1	0.0049764817
57	0xbd88cc1d	-0.066795565
58	0x3cb2773b	0.02178537
59	0x3ccd111c	0.025032572
60	0x3c327a5b	0.01089343
61	0x3cfed143	0.031105643
62	0xbcfabd31	-0.030607792
63	0xbc8aff9b	-0.016967585
64	0x3d861e78	0.0654878
65	0xbaa6fc58	-0.0012739999
66	0xbc879e3d	-0.016554946
67	0x3c9f3627	0.019435002
68	0xbd1d0092	-0.038330622
69	0x3cad9466	0.021188926
70	0xbc6e34d1	-0.01453896
71	0xbb35bc40	-0.0027730614
72	0xbd89f921	-0.06736971
73	0xbc5f1910	-0.013616815
74	0xbc2d976e	-0.010595186
75	0x3df70b8c	0.12062749
76	0x3e341fb6	0.17590222
77	0x3dcde5bd	0.10053585
78	0x3d80afca	0.06283529
79	0x3d8e8e01	0.06960679
80	0x3ce76f01	0.028251173
81	0x3ce42f5a	0.02785461
82	0x3daa6d4c	0.08321628
83	0x3db5bbd4	0.08873716
84	0x3e1e53dd	0.15461679
85	0xbba5b4c6	-0.0050569503
86	0x3b879455	0.0041375556
87	0x3d18064a	0.037115373
88	0x3d055b79	0.03255794
89	0x3da942ea	0.08264716
90	0x3d00e207	0.031465556
91	0xbd65bfb3	-0.05609102
92	0x3cde1c49	0.027113097
93	0xbcabba0e	-0.020962741
94	0x3cad7787	0.02117516
95	0x3d953633	0.07285728
96	0x3d1aa7fe	0.037757866
97	0x3b86a53b	0.0041090525
98	0x3d3ca0fc	0.046051964
99	0x3e30ba85	0.17258652
100	0x3c9116b8	0.017711028
101	0x3d9095cf	0.07059824
102	0xbab848fc	-0.0014059837
103	0x3d2fed14	0.042950705
104	0x3cb130c2	0.021629695
105	0xbd2f2ad2	-0.042765446
106	0x3a86ac70	0.0010274779
107	0xbdcf13e2	-0.10111214
108	0x3d6d35ee	0.05791276
109	0xbda26f9c	-0.07931444
110	0xbda129c8	-0.07869297
111	0xbdc47c04	-0.095939666
112	0xbde13f61	-0.10998417
113	0x3bb2ae0e	0.005452878
114	0xbdb490bd	-0.08816669
115	0xbde34f48	-0.11099106
116	0xbdb980b0	-0.09057748
117	0xbd872b35	-0.06600038
118	0xbced0746	-0.028934132
119	0x3beb524a	0.0071814405
120	0xbceb91eb	-0.028756103
121	0xbd5a81cf	-0.05334645
122	0xbd31e8c3	-0.04343487
123	0xbd63a9cf	-0.055581864
124	0x3cbd6785	0.023120651
125	0x3df30b34	0.11867371
126	0x3e21de94	0.15807563
127	0x3e1afbe3	0.1513515
128	0x3e5cb95b	0.21555082
129	0x3e54ab98	0.20768583
130	0x3e29d969	0.16586842
131	0x3dd6fdef	0.10497653
132	0x3df43045	0.11923269
133	0x3e2a7bf4	0.16648847
134	0x3e9443b7	0.28957912
135	0x3db97699	0.09055824
136	0x3dbd28ee	0.09236322
137	0x3dc0c584	0.09412673
138	0x3e2f8444	0.17140299
139	0x3e1b9a3b	0.15195553
140	0x3e01d6a1	0.1267953
141	0x3dd98301	0.1062069
142	0x3df6086a	0.120133236
143	0x3db71079	0.08938689
144	0x3e443d98	0.19164121
145	0x3d8d2b99	0.06893081
146	0x3cff9631	0.031199547
147	0xbbc1eca5	-0.005918103
148	0x3ba6f3fa	0.0050950022
149	0x3e149fc3	0.1451407
150	0x3d1d3dc0	0.038388968
151	0xbc2ec32d	-0.010666651
152	0x3c897fc0	0.016784549
153	0x3bb9129a	0.0056479694
154	0xb83adc9a	-4.4551307e-05
155	0xbdaf3acc	-0.085561365
156	0x3d097cd8	0.033566326
157	0xbc2d5a8a	-0.010580668
158	0x3cd51998	0.02601318
159	0xbcd458ca	-0.025921244
160	0xbd928802	-0.07154848
161	0x3d224f19	0.039626215
162	0x3d0629dd	0.032754768
163	0xbd14c657	-0.036321964
164	0x3cda2454	0.02662865
165	0xbc2638b4	-0.010145355
166	0x3c8bb2d5	0.017053047
167	0x3c1155e1	0.008870573
168	0x3bf44153	0.0074540763
169	0xbd68aaca	-0.056803502
170	0xbd40c07d	-0.04705857
171	0x3c2aef2c	0.010433
172	0x3d11cc2f	0.035595115
173	0x3d13a270	0.036043584
174	0xbd6ba81b	-0.057533365
175	0x3d565a44	0.052332178
176	0xbc8ce65b	-0.017199686
177	0x3d068835	0.03284474
178	0x3cbed013	0.023292577
179	0x3ba0c970	0.0049068257
180	0x3d81dcf1	0.06340969
181	0x3d232fa9	0.039840374
182	0x3d29591f	0.041344758
183	0xbc18a634	-0.00931697
184	0x3d9d3ef8	0.07678026
185	0x3ce30b23	0.027715271
186	0x3d4923fc	0.049106583
187	0xbba95bbd	-0.0051684068
188	0x3cf38953	0.029728567
189	0x3d7a4ede	0.06111037
190	0xbcffe250	-0.031235844
191	0x3d9301da	0.071780875
192	0xbcf82df8	-0.030295357
193	0xbd2da357	-0.0423921
194	0xbcb8cb04	-0.022557743
195	0x3c78cbe4	0.01518533
196	0xbc19ae36	-0.009379914
197	0x3c36c013	0.0111541925
198	0xbab3adbf	-0.0013708397
199	0x3d992bd8	0.07479066
200	0x3dec744b	0.115456186
201	0x3e1402c7	0.14454184
202	0x3d30ef97	0.04319724
203	0x3d481fda	0.0488585
204	0x3dd10f78	0.102080286
205	0x3e399069	0.18121494
206	0x3c8ed53e	0.017435666
207	0xbd1f1017	-0.038833704
208	0x3cf2bdcd	0.02963152
209	0x3e0108d3	0.12601022
210	0x3e310ef1	0.17290856
211	0x3ca56854	0.02019135
212	0x3d3991c3	0.045305025
213	0x3da77c85	0.08178047
214	0x3e3582de	0.17725703
215	0x3e132d65	0.14372785
216	0xbc753d9b	-0.014968301
217	0xbba040db	-0.004890544
218	0x3d087d79	0.033322785
219	0x3e5e22a7	0.21692906
220	0x3d3bd1c4	0.045854345
221	0xbba4becf	-0.005027629
222	0x3d2f6ecb	0.04283027
223	0x3d9ba8d8	0.07600564
224	0x3e5792db	0.21052115
225	0x3cb9aaa0	0.022664368
226	0x3d48be9d	0.049009908
227	0x3cd4a771	0.025958749
228	0x3c318168	0.0108340755
229	0x3c4c7a39	0.012480312
230	0x3d32ae18	0.04362306
231	0xbc99eeda	-0.018790651
232	0x3c41522d	0.011799377
233	0xbd1f9f45	-0.03897025
234	0xbaf4ccc2	-0.0018676745
235	0xbc994e71	-0.018714162
236	0x3d58936f	0.05287498
237	0x3c979231	0.018502327
238	0x3c4d5241	0.012531818
239	0xbc47439f	-0.012162118
240	0xbd088ba7	-0.033336308
241	0x3c674ef1	0.014117942
242	0xbc0d8179	-0.008636826
243	0xb953dbcf	-0.00020204413
244	0x3db0ef18	0.086393535
245	0xbd2a7804	-0.041618362
246	0xbcfd6140	-0.030930161
247	0x3d575078	0.052566975
248	0x3d0940de	0.033509128
249	0xb8e0dbf2	-0.0001072212
250	0x3ddd256f	0.107981555
251	0x3dc3109f	0.095246546
252	0xba0f19bf	-0.00054588536
253	0xbca54d51	-0.020178469
254	0x3d38f138	0.04515192
255	0x3c0b0be8	0.008486725

fc1.bias f4 [120]
0	0xbde02ae7	-0.10945683
1	0xbd8177a7	-0.0632165
2	0xbdf06f22	-0.11739947
3	0x3e0d96d7	0.13827072
4	0xbd9224b3	-0.07135906
5	0x3e07d516	0.1326488
6	0x3db6f431	0.089332946
7	0x3d880cb7	0.0664305
8	0xbdf98d7b	-0.121851884
9	0x3dae493c	0.08510062
10	0xbd89d97c	-0.06730935
11	0xbdc94af9	-0.09828753
12	0x3c0f409b	0.0087434305
13	0xbcdfb5b0	-0.027308315
14	0xbe19749d	-0.1498589
15	0xbd21fa68	-0.039545447
16	0x3e02cf3b	0.12774365
17	0xbde00f8f	-0.109404676
18	0x3e1b1f04	0.1514855
19	0xbdbf4fc0	-0.09341383
20	0xbdc2f27d	-0.09518907
21	0xbd95f23a	-0.07321592
22	0x3de6b4da	0.112649634
23	0xbd4dee55	-0.05027612
24	0xbd90a72a	-0.07063134
25	0x3e0e4e7a	0.13897124
26	0xbe0016ee	-0.12508747
27	0xbd9e4e39	-0.077297635
28	0x3dfd3500	0.123636246
29	0x3df88f5f	0.12136721
30	0x3e164848	0.1467601
31	0xbdad4b18	-0.084615886
32	0xbc20b550	-0.009808853
33	0xbd80ee4d	-0.06295452
34	0xbdcda253	-0.100407265
35	0x3dd137be	0.1021571
36	0xbc9be875	-0.019031743
37	0x3e2a45c8	0.16628182
38	0x3c0ebf4a	0.008712599
39	0xbdaf2824	-0.08552578
40	0xbd361c19	-0.04446039
41	0xbd2a1be6	-0.041530512
42	0x3b9550e1	0.0045567607
43	0x3ca9688b	0.020679733
44	0xbd14ddbc	-0.036344275
45	0xbe20efc2	-0.1571646
46	0xbdae5260	-0.085118055
47	0xbd063871	-0.03276867
48	0xbda0b4f8	-0.07847017
49	0x3e0bc21e	0.13648269
50	0xbbe8dc1e	-0.007106318
51	0xbd2e6ecd	-0.042586137
52	0x3e014146	0.12622556
53	0x3e2b1101	0.16705705
54	0xbda98313	-0.082769535
55	0xbd7dc8de	-0.06195914
56	0x3df4ea1c	0.11958715
57	0x3dee86bf	0.116467945
58	0x3bc54dfc	0.0060212594
59	0xbd94ccc4	-0.072656184
60	0x3dc5a934	0.096514136
61	0x3d6535c6	0.055959485
62	0xbd1ca91e	-0.03824722
63	0x3bc167b3	0.0059022545
64	0x3db66dcf	0.08907663
65	0xbd8d8cc8	-0.069116175
66	0xbd5eaaf8	-0.054362267
67	0xbdcdc566	-0.100474164
68	0x3e2e767b	0.17037384
69	0x3e35a0ff	0.17737196
70	0x3d7dcf89	0.0619655
71	0xbd6fbff5	-0.058532674
72	0xbd7a5963	-0.061120402
73	0xbd7a7c10	-0.06115347
74	0x3dad2ea3	0.08456161
75	0x3deee137	0.1166405
76	0xbcace2a7	-0.02110417
77	0xbcd6d6fa	-0.026225556
78	0xbd7c0fad	-0.061538387
79	0x3bd8f049	0.006620441
80	0xbd4dde70	-0.05026096
81	0x3db95749	0.090498514
82	0xbd62fb46	-0.055415414
83	0xbd1e4361	-0.038638476
84	0x3de4fa93	0.11180606
85	0xbd946263	-0.07245328
86	0xbd19588a	-0.037437953
87	0x3db62a47	0.088947825
88	0xbd6e9888	-0.058250934
89	0xbd0440da	-0.03228841
90	0xbd82ed8c	-0.06392965
91	0x3de33782	0.11094572
92	0xbdb186b0	-0.08668268
93	0x3ddc668e	0.10761748
94	0xbdbff2c9	-0.093724795
95	0xbd5ec57e	-0.054387562
96	0x3e00020f	0.12500785
97	0xbdbdae44	-0.09261754
98	0xbdc6c089	-0.09704692
99	0x3c9b4cb9	0.018957483
100	0xbd4f368f	-0.05058914
101	0xbde22563	-0.11042287
102	0x3d0e3451	0.03471786
103	0xbd76faf3	-0.060297918
104	0x3dc32c33	0.09529915
105	0xbda56fa4	-0.080779344
106	0x3dbfaae0	0.09358764
107	0x3dc22e95	0.09481541
108	0xbd465042	-0.048416384
109	0x3e1fd03a	0.15606776
110	0x3e19ea61	0.15030815
111	0x3bb8d4b4	0.0056405906
112	0xbdad0a4c	-0.084492296
113	0x3dc70578	0.0971784
114	0xbce89a23	-0.02839381
115	0x3e092f4d	0.1339695
116	0x3de75b96	0.112967655
117	0x3db6ce89	0.08926112
118	0xbd2891be	-0.041154616
119	0xbc7909c9	-0.015200087

fc2.weight f4 [84, 120]
0	0x3cb23aa7	0.021756483
1	0x3d2bff40	0.041991472
2	0x3c7b2fce	0.015331222
3	0xbcee9690	-0.029124528
4	0x3e50c3ac	0.20387143
5	0xbe398930	-0.18118739
6	0xbe02ebba	-0.12785235
7	0xbd7aed63	-0.061261546
8	0x3ee791dc	0.4522847
9	0xbe620a83	-0.22074322
10	0x3d131c0a	0.035915412
11	0x3c295296	0.010334631
12	0x3d88bb0d	0.06676302
13	0x3e5ef20d	0.21772023
14	0x3ed53992	0.41645485
15	0x3dd8ffb7	0.10595649
16	0xbe6b01b6	-0.22949871
17	0xbd90491d	-0.07045195
18	0xbd3c99f7	-0.04604527
19	0x3dc9d3e3	0.09854867
20	0x3daf079b	0.085463725
21	0x3d1ffeeb	0.039061468
22	0xbda694df	-0.08133864
23	0xbdb8ff47	-0.09033065
24	0x3da61c63	0.08110883
25	0xbe09cf9b	-0.13458101
26	0x3c494a1d	0.012285736
27	0x3cc3d6f0	0.023906201
28	0xbe386465	-0.18007047
29	0xbdbd9f89	-0.092589445
30	0xbd9d5de3	-0.07683923
31	0x3c83c97b	0.016087284
32	0x3d157697	0.03649005
33	0x3d86cecf	0.06582414
34	0x3bd41f60	0.0064734668
35	0xbe15c4a5	-0.14625795
36	0xbd2a986e	-0.041649275
37	0xbd1d10f6	-0.038346253
38	0xbd87472a	-0.0660537
39	0x3cc4da72	0.024029944
40	0xbca57d07	-0.02020122
41	0xbd5b199b	-0.053491216
42	0xbbb94360	-0.0056537837
43	0x3d2c2d29	0.042035256
44	0xbda748a8	-0.08168155
45	0x3e585c46	0.2112895
46	0xbdafc867	-0.085831456
47	0xbc8366bd	-0.0160402
48	0xbcd311a6	-0.025765251
49	0xbe14de91	-0.14538027
50	0xbd1bbd6d	-0.038022447
51	0xbd1e4af7	-0.03864571
52	0xbe4e2940	-0.20132923
53	0xbdc29d46	-0.09502654
54	0xbd4b0189	-0.04956201
55	0xbcb07737	-0.021541221
56	0xbe33700c	-0.17523211
57	0xbe1801d2	-0.14844444
58	0xbcd6989f	-0.026195822
59	0x3d54a213	0.05191238
60	0xbd5c2d4d	-0.05375414
61	0xbe2ad829	-0.16684021
62	0xbb48329e	-0.0030547748
63	0xbe037f9c	-0.12841648
64	0xbe04048b	-0.12892358
65	0xbca2cb20	-0.019872248
66	0x3cc3ee2a	0.023917276
67	0x3d235b52	0.03988201
68	0x3ba17178	0.0049268566
69	0xbdc0a293	-0.094060086
70	0xbd8504c4	-0.064950496
71	0x3dd0fb50	0.10204184
72	0xbc2f14aa	-0.010686079
73	0x3c3d1809	0.011541375
74	0xbda4efd5	-0.08053557
75	0xbe360019	-0.17773475
76	0xbd0d345f	-0.034473773
77	0xbd97c794	-0.074111134
78	0x3d92f303	0.07175257
79	0x3d363338	0.04448244
80	0x3d79b64f	0.06096488
81	0xbded2eb4	-0.115811735
82	0x3ed4a065	0.4152862
83	0x3e58a6f8	0.21157444
84	0xbdda3a4f	-0.10655653
85	0xbd8f8337	-0.07007449
86	0xbb8d72f0	-0.00431668
87	0xbd942574	-0.07233706
88	0xbd9df17f	-0.07712077
89	0x3b15b316	0.002284234
90	0x3dd357ac	0.103194565
91	0xbe305188	-0.17218602
92	0x3f30905d	0.6897028
93	0xbd131198	-0.03590545
94	0xba03c44f	-0.00050265057
95	0x3d548026	0.051880024
96	0xbdd486fd	-0.103773095
97	0x3cc5ab97	0.024129672
98	0x3d174fbc	0.036941275
99	0xbd90cb51	-0.070700295
100	0xbc49d1f3	-0.012318122
101	0x3d7244b3	0.059147548
102	0x3b9d2a4a	0.004796301
103	0x3d005fa6	0.031341217
104	0xbd0e61f7	-0.034761395
105	0x3c3a62bb	0.011376078
106	0xbd4ab705	-0.049490947
107	0xbe5885d3	-0.211448
108	0xbc47baff	-0.012190579
109	0xbe427d22	-0.18993047
110	0xbe662e50	-0.22478604
111	0x3caaac50	0.020834118
112	0x3d6b1bbf	0.057399508
113	0xbe2ded35	-0.16985019
114	0xbd8775a4	-0.06614235
115	0xbd19439d	-0.037417997
116	0xbe45b93e	-0.19308946
117	0xbe048a3b	-0.12943356
118	0x3dfe4148	0.12414795
119	0xbc8a2903	-0.016865259
120	0xbcf1bbd7	-0.029508514
121	0xbcd01528	-0.025400713
122	0xbe7e397a	-0.24826613
123	0x3d9af2ba	0.07565828
124	0xbd960bff	-0.07326507
125	0x3b1982f0	0.0023423992
126	0x3d2545d3	0.040349793
127	0x3e3e9f7d	0.18615527
128	0x3c97a0a3	0.018509215
129	0x3da43b69	0.08019144
130	0xbdc53df2	-0.09630956
131	0xbe7673b2	-0.24067572
132	0xbd591c34	-0.053005412
133	0x3d95f79e	0.0732262
134	0xbd3e4947	-0.0464566
135	0xbc50ac0f	-0.012736334
136	0x3da51e81	0.08062459
137	0xbda7f608	-0.082012236
138	0x3dc0901f	0.09402489
139	0x3cb87740	0.0225178
140	0x3dbc80b7	0.09204238
141	0x3ce3935d	0.02778023
142	0x3e060d25	0.13090952
143	0x3c353622	0.01106027
144	0xbdcb91c8	-0.09939915
145	0x3e053115	0.13007005
146	0x3d964a80	0.073384285
147	0xbe61afb0	-0.22039676
148	0x3e2c72e5	0.16840704
149	0x3e168062	0.14697412
150	0x3e141f0f	0.14464973
151	0xbd312f9f	-0.043258306
152	0xbc97eb31	-0.018544765
153	0xbbc93097	-0.0061398256
154	0x3d7f0a92	0.06226594
155	0x3e0d3ff9	0.13793935
156	0xbe818c11	-0.25302175
157	0x3e0c708d	0.1371481
158	0xbd432065	-0.047638316
159	0xbdbd6290	-0.09247315
160	0xbcbfcd0d	-0.023413206
161	0xbd55fbe1	-0.052242164
162	0xbd5400a4	-0.051758423
163	0x3d8ad2d9	0.06778497
164	0xbcdf0389	-0.027223365
165	0xbd052dbd	-0.032514323
166	0x3d9a35d7	0.075298004
167	0x3b5e42bf	0.0033914295
168	0x3dc04bb8	0.09389442
169	0x3e621441	0.22078039
170	0x3d0f0356	0.03491529
171	0x3d4309b0	0.04761666
172	0x3e347aae	0.17624924
173	0xbcb1a1bc	-0.021683566
174	0xbd4a5099	-0.04939327
175	0x3da0fdf4	0.07860938
176	0x3e13ab4a	0.1442081
177	0x3e2a1ebd	0.16613288
178	0x3cdd2f96	0.02700023
179	0xbd3d176f	-0.046164926
180	0x3de81ea8	0.11333972
181	0x3e07a9dc	0.1324839
182	0xbc5f3c6a	-0.013625244
183	0x3d8d62ac	0.06903586
184	0x3e4de130	0.20105433
185	0x3a4df400	0.0007856488
186	0x3ce02979	0.027363526
187	0xbd8136ae	-0.063092574
188	0x3e0a8ed0	0.13531041
189	0x3e5b2467	0.21400605
190	0x3d295351	0.041339222
191	0xbd7ed890	-0.06221825
192	0x3d866675	0.06562511
193	0xbe82fa3e	-0.25581545
194	0x3df8be71	0.12145699
195	0x3daa92f8	0.08328813
196	0x3d72ee64	0.05930938
197	0x38cd39c3	9.785921e-05
198	0x3cf9eeba	0.030509342
199	0xbdc3c022	-0.09558131
200	0xbbb719db	-0.005587799
201	0x3e251b85	0.16123779
202	0x3d906181	0.070498474
203	0x3d4d1e63	0.050077807
204	0x3d87e3ff	0.06635284
205	0xbcee38e0	-0.029079854
206	0xbd051473	-0.032490205
207	0x3d4a0a1e	0.049326055
208	0x3ccef913	0.025265252
209	0xbc19b05a	-0.009380424
210	0x3da4dd25	0.080499925
211	0x3d5f84ee	0.05457013
212	0x3d557133	0.05210991
213	0x3e2eba70	0.17063308
214	0xbd98e887	-0.07466226
215	0xbea4f080	-0.32214737
216	0x3df065ee	0.117381915
217	0xbccb2e6d	-0.024802411
218	0xbd983f6f	-0.07433974
219	0xbd404601	-0.04694176
220	0xbda42f17	-0.08016794
221	0xbd97cb9c	-0.07411882
222	0x3d821df9	0.06353373
223	0x3d8312c2	0.06400062
224	0x3de50557	0.11182659
225	0x3a24e463	0.0006290136
226	0x3d743d62	0.05962885
227	0x3d17fcc9	0.03710631
228	0x3d53943f	0.05165505
229	0x3e16ead3	0.14738016
230	0x3debaab1	0.11507166
231	0x3d69c717	0.057074632
232	0x3dcf0fbd	0.10110424
233	0x3e109660	0.14119864
234	0xbe9a9706	-0.30193347
235	0x3e1797a7	0.14803945
236	0x3e08982e	0.13339302
237	0x3d984f81	0.07437039
238	0x3c933384	0.0179689
239	0x3b4faeb9	0.0031689836
240	0xbc074310	-0.008255735
241	0x3dc8e3f2	0.09809102
242	0x3e1fb406	0.15596017
243	0x3c1fa6ca	0.009744355
244	0x3c0e5a88	0.0086885765
245	0x3cd534a0	0.02602607
246	0xbd2e923b	-0.042619925
247	0xbe057508	-0.13032925
248	0x3d781225	0.06056418
249	0x3baac05c	0.0052109193
250	0x3d9453b0	0.072425246
251	0x3e85b31f	0.2611322
252	0x3d28776c	0.041129515
253	0x3e170406	0.14747629
254	0x3e0f9e61	0.1402526
255	0x3db3bf12	0.08776678

fc2.bias f4 [84]
0	0xbe5689b7	-0.20950972
1	0x3e45b2f4	0.19306546
2	0xbc94c43b	-0.018159976
3	0xbc71e67a	-0.014764423
4	0x3d9dd553	0.07706704
5	0xbd58b3db	-0.0529059
6	0x3ddacc95	0.10683552
7	0x3b9238a9	0.004462321
8	0x3e40b5a0	0.18819284
9	0xbdd01c59	-0.10161657
10	0xbd1f9616	-0.038961492
11	0x3da90be2	0.082542196
12	0xbc6e466f	-0.01454316
13	0xbde368c0	-0.11103964
14	0x3c170ec0	0.009219825
15	0xbd5d44e1	-0.054020766
16	0x3dee6309	0.11639983
17	0xbd7292c0	-0.059221983
18	0x3e2f2de9	0.17107357
19	0x3e6b2f7c	0.22967333
20	0x3cc588d5	0.024113098
21	0xbd9e94d6	-0.07743232
22	0x3e40dee5	0.18835028
23	0x3c7826d4	0.015145976
24	0x3e50b2b5	0.20380671
25	0x3e116fba	0.14202777
26	0xbe1fb8c6	-0.15597829
27	0x3c410ce3	0.011782858
28	0x3d3f3418	0.04668054
29	0xbe357b05	-0.1772271
30	0xbdb3f874	-0.08787623
31	0x3e18cc0c	0.14921588
32	0x3e4c21fe	0.19934842
33	0xbdd44db2	-0.10366382
34	0x3e0acd1c	0.13554806
35	0x3c9285f9	0.017886149
36	0x3e132d3c	0.14372724
37	0xbd82bcd3	-0.063836716
38	0x3dfca603	0.12336352
39	0xbd6086fa	-0.054816224
40	0xbd0bbe3c	-0.03411697
41	0x3e2dc0db	0.169681
42	0xbe221c65	-0.15831144
43	0x3ca7d608	0.0204878
44	0xbd01aa9e	-0.031656854
45	0xbdb5a10d	-0.088686086
46	0x3dc6134c	0.09671649
47	0x3c860081	0.016357662
48	0xbdc5e350	-0.09662497
49	0xbbde4d67	-0.0067841294
50	0xbd836d34	-0.06417313
51	0xbe23187a	-0.15927306
52	0x3e20f2d4	0.15717632
53	0x3e4470fa	0.19183722
54	0xbbbe461c	-0.0058066975
55	0x3cb8dd9f	0.022566615
56	0xbd8389a5	-0.06422738
57	0xbcb72e9c	-0.022361092
58	0xbd97bbd4	-0.07408872
59	0x3d9071c3	0.07052948
60	0x3da67ca6	0.081292436
61	0xbd9306bd	-0.071790196
62	0x3c1b7ff2	0.009490954
63	0xbd5200b3	-0.051270198
64	0x3df268f7	0.11836427
65	0x3b3817d0	0.0028090365
66	0xbd434443	-0.04767252
67	0x3e3a8a91	0.18216921
68	0xbddf523a	-0.10904355
69	0xbdc5393d	-0.09630058
70	0x3e0a1833	0.13485794
71	0x3dfb75ac	0.122783035
72	0x3dfcbfb2	0.123412505
73	0x3e34cb1c	0.17655605
74	0xbd24fa6f	-0.040277895
75	0xbccba732	-0.024859998
76	0x3db3f062	0.08786084
77	0xbdd96242	-0.10614444
78	0xbdcd95cd	-0.10038338
79	0xbd9a3e84	-0.07531455
80	0xbdaa0438	-0.08301586
81	0xbe009a9c	-0.12558979
82	0xbcb38bf2	-0.021917317
83	0xbd988fad	-0.07449279

fc3.weight f4 [1, 84]
0	0xbe021fdc	-0.12707466
1	0x3e426c05	0.18986519
2	0xbdd33ea0	-0.10314679
3	0xbe1e838f	-0.15479873
4	0x3e15455d	0.14577241
5	0xbe48ad40	-0.1959734
6	0x3e5b2cc5	0.21403797
7	0xbe07b731	-0.13253476
8	0x3e442932	0.1915634
9	0xbdde06ed	-0.10841165
10	0xbdb066b0	-0.08613336
11	0x3e540d7d	0.2070827
12	0xbe0f8b73	-0.1401804
13	0xbe28bc76	-0.16478142
14	0xbe351368	-0.17683184
15	0xbd8b6168	-0.06805688
16	0x3e748826	0.23880062
17	0xbdff441e	-0.12464164
18	0x3e412f02	0.18865588
19	0x3e3969b9	0.18106736
20	0xbe0a3ef4	-0.13500577
21	0xb9d6d8a5	-0.00040978673
22	0x3e7047f2	0.23464945
23	0xbe2520fd	-0.16125865
24	0x3e47ca5e	0.1951079
25	0x3e4a58ef	0.19760488
26	0xbde6f136	-0.11276476
27	0x3e9f5d44	0.31125844
28	0x3e7b9c71	0.24571396
29	0xbe8c9079	-0.27453974
30	0xbb69d14e	-0.0035677734
31	0x3e417d14	0.1889537
32	0x3e690e5a	0.22759381
33	0xbe25ec87	-0.1620351
34	0x3e367faa	0.17822137
35	0x3c80f19a	0.015740205
36	0x3e51fb60	0.20506048
37	0xbda716c8	-0.08158642
38	0x3e5df492	0.21675327
39	0xbde6f08a	-0.11276348
40	0xbde6bf23	-0.11266925
41	0x3e7ab82e	0.24484321
42	0xbe1d31da	-0.15351048
43	0x3e1fcfb3	0.15606575
44	0xbe0d93c9	-0.13825907
45	0x3d482596	0.04886397
46	0x3dbd4858	0.09242314
47	0xbd71bcbf	-0.059017893
48	0x3d745ec6	0.059660695
49	0xbdef7893	-0.116929196
50	0xbd6365a6	-0.05551686
51	0xbdd3bc7c	-0.10338685
52	0x3e0af4e9	0.13569988
53	0x3e3cf8ec	0.18454331
54	0x3d84bcb3	0.06481304
55	0x3e28339e	0.1642594
56	0xbe1b107d	-0.15143009
57	0x3de9adcc	0.11410102
58	0xbdd92f6c	-0.10604748
59	0x3e19b4d5	0.15010388
60	0x3e41df94	0.18932945
61	0x3a9f2b5d	0.001214366
62	0xbe1ddeb7	-0.1541699
63	0xbda0a92e	-0.078447685
64	0x3e7064ea	0.23475996
65	0xbe2465a1	-0.16054393
66	0x3d206762	0.039161094
67	0x3e37a4ad	0.17933913
68	0xbe234db1	-0.15947606
69	0x3c96d918	0.018414065
70	0x3e44aa53	0.19205599
71	0x3e5473a5	0.2074724
72	0x3e0c792a	0.13718095
73	0x3e395814	0.18100005
74	0xbe0a6b17	-0.13517414
75	0xbe29f8e7	-0.16598855
76	0x3e5319b8	0.2061528
77	0xbcb91479	-0.02259277
78	0x3cd0a3bb	0.025468698
79	0xbe157995	-0.14597161
80	0xbd983bc6	-0.07433276
81	0xbdd05a1b	-0.10173436
82	0xbe32e781	-0.17471124
83	0x3cecead1	0.028920563
