output_visualizations/base_tsk[+1]_agm[ac]_spl[S3]_mdl[lenet]_ls[SM]_tu[none]/model.pt (torch, 249415 bytes, 10 tensors)

conv1.weight f4 [6, 1, 5, 5]
0	0x3ee5275a	0.44756585
1	0x3f099d02	0.537552
2	0x3eb52e78	0.35387015
3	0x3f129d52	0.572713
4	0x3e999711	0.29998067
5	0x3ec178d7	0.37787506
6	0x3ea0875c	0.3135327
7	0x3f056292	0.5210353
8	0x3f085f33	0.5327026
9	0x3e18955c	0.14900726
10	0x3f134397	0.5752501
11	0x3f024ba2	0.50896657
12	0x3f12bef4	0.5732262
13	0x3ea463d8	0.32107425
14	0x3e98e8b2	0.29865032
15	0x3e9399e3	0.28828344
16	0x3efc33f4	0.49258387
17	0x3ea03c17	0.31295845
18	0x3c89e8bc	0.01683461
19	0x3ded9bf8	0.11602014
20	0x3d823d98	0.06359404
21	0x3e1f8ed9	0.15581836
22	0x3dca950e	0.09891711
23	0x3e19544c	0.14973563
24	0xbdaf8f73	-0.08572283
25	0xbe0097dd	-0.12557931
26	0x3da6993e	0.081346974
27	0x3e42f373	0.19038181
28	0x3dcfd349	0.10147721
29	0xbf0a3611	-0.5398875
30	0x3e091b69	0.13389362
31	0xbd224bb0	-0.039622962
32	0x3ef5443e	0.47903627
33	0x3e1fe3ec	0.15614289
34	0xbebb0b46	-0.36532038
35	0x3e172aa8	0.14762366
36	0x3e6d27a0	0.23159647
37	0x3f0aaf3b	0.5417363
38	0x3e55e943	0.20889764
39	0xbe8ae104	-0.27124798
40	0x3dbc6354	0.09198633
41	0x3e18c028	0.14917052
42	0x3eda6f56	0.42663068
43	0x3eb25899	0.3483322
44	0xbd138f8e	-0.036025576
45	0x3d302eaa	0.043013252
46	0x3ec61a21	0.3869181
47	0x3ed79adf	0.42110345
48	0x3eb08263	0.34474477
49	0xbe334225	-0.17505701
50	0xbee7663f	-0.45195195
51	0xbe1f35ac	-0.15547818
52	0x3d090e89	0.033461127
53	0x3ecb56e1	0.3971472
54	0x3cd0e7b3	0.025501108
55	0xbe218db7	-0.15776716
56	0x3e09c4de	0.13454005
57	0x3ea264a1	0.317174
58	0x3eb8ad92	0.36069924
59	0xbe947e33	-0.29002532
60	0xbd88a560	-0.06672168
61	0x3e1396fb	0.14413063
62	0x3ee85254	0.4537531
63	0x3c726aa9	0.014795938
64	0xbe3444c7	-0.17604361
65	0x3dd0f89d	0.10203669
66	0x3f072380	0.52788544
67	0x3e1581d4	0.14600307
68	0xbe856f8c	-0.26061666
69	0xbeda94a3	-0.42691526
70	0x3eda9af5	0.42696348
71	0x3ea23457	0.31680557
72	0x3e47d583	0.19515042
73	0xbee6c81e	-0.45074552
74	0xbef873c9	-0.48525837
75	0xbec1de54	-0.37864935
76	0xbed64b27	-0.41854212
77	0x3e47e38b	0.19520395
78	0x3ee62d6f	0.44956538
79	0x3ed72a32	0.4202438
80	0xbebe4608	-0.37162805
81	0xbe8e6597	-0.27811882
82	0x3ec7958a	0.38981277
83	0x3eb34110	0.35010576
84	0x3e9a610d	0.3015217
85	0xbe835844	-0.2565328
86	0x3e2a7af5	0.16648467
87	0x3e75ff1b	0.24023096
88	0x3e8f94b8	0.2804315
89	0x3df1007e	0.11767672
90	0x3c489a31	0.012243793
91	0x3df81e37	0.12115138
92	0x3ee057c1	0.4381695
93	0x3eaf4f53	0.34240207
94	0xbe6e73da	-0.23286381
95	0x3dfb85dd	0.12281392
96	0x3ec2fb38	0.3808229
97	0x3de9304a	0.113861635
98	0x3d1041b9	0.035218928
99	0xbe9595a2	-0.29215723
100	0xba3702ec	-0.00069813314
101	0x3e1c409b	0.1525902
102	0xbd6915a8	-0.05690542
103	0xbe2adf83	-0.16686825
104	0xbe2d8de2	-0.16948655
105	0x3ce7505d	0.028236562
106	0xbde57f93	-0.112059735
107	0xbe80f461	-0.25186446
108	0xbe88df77	-0.2673299
109	0xbeae6887	-0.34064123
110	0x3ee4cf03	0.44689187
111	0x3e3023e6	0.17201194
112	0x3d179ebd	0.03701662
113	0xbe13d480	-0.14436531
114	0xbe538f25	-0.20660074
115	0x3e0bb414	0.13642913
116	0x3e293ac2	0.1652632
117	0xbe5afe8e	-0.21386167
118	0xbd5c4c36	-0.053783618
119	0xbe2a8768	-0.16653216
120	0x3e09ec70	0.134691
121	0xbd02e034	-0.031952098
122	0xbde4e051	-0.111755975
123	0xbe0a2f7e	-0.1349468
124	0xbe037e13	-0.12841062
125	0xbea63ddd	-0.32469073
126	0xbe8f9ee4	-0.2805091
127	0xbe911fab	-0.28344473
128	0x3d90c72d	0.0706924
129	0xbd8b8768	-0.06812936
130	0xbd3ed8a5	-0.046593327
131	0xbe5c375b	-0.21505491
132	0xbedbe186	-0.42945498
133	0xbdb9e465	-0.09076766
134	0xbe293502	-0.16524127
135	0xbd49f715	-0.0493079
136	0xbe0a95a9	-0.13533653
137	0xbe8a6233	-0.27028045
138	0xbd68ff35	-0.05688401
139	0xbd7bbd4c	-0.061459824
140	0x3eba6e5e	0.36412328
141	0x3e430f79	0.19048871
142	0x3eb662b8	0.3562219
143	0xbd314fb2	-0.043288894
144	0x3dab1ea3	0.08355453
145	0x3ea614bf	0.32437703
146	0x3eed6743	0.46367845
147	0x3edac3d1	0.4272752
148	0x3ebf431a	0.37355882
149	0xbc0d7a3f	-0.008635103

conv1.bias f4 [6]
0	0xbdb2bc10	-0.08727276
1	0xbdc62cb4	-0.09676495
2	0xbc5dd2e5	-0.013539051
3	0xbda57b20	-0.08080125
4	0x3e9ce834	0.30645907
5	0xbd4be9cf	-0.049783524

conv2.weight f4 [16, 6, 5, 5]
0	0x3d94e4ca	0.072702006
1	0x3d8c49a5	0.06849984
2	0xbd4f8d2e	-0.05067175
3	0xbe7ee2a0	-0.24891138
4	0xbccefc41	-0.025266768
5	0x3d9a56b5	0.07536069
6	0x3dbb8f7c	0.09158227
7	0xbdea17d8	-0.11430329
8	0xbe1e0d08	-0.15434659
9	0xbdcacfe7	-0.099029355
10	0x3d787ef3	0.060667943
11	0x3e44c649	0.19216265
12	0x3d44ac1f	0.04801571
13	0xbe2818b8	-0.1641568
14	0xbdb57624	-0.08860424
15	0x3d9a50f5	0.075349726
16	0x3e25b23d	0.16181274
17	0x39ec2168	0.00045038317
18	0xbe407803	-0.18795781
19	0xbde90098	-0.113770664
20	0x3c4b9f96	0.012428185
21	0x3e161081	0.14654733
22	0x3dd81375	0.10550586
23	0xbe6f59cc	-0.23374099
24	0xbdbfa97c	-0.093584985
25	0x3e011d7a	0.126089
26	0x3e541526	0.20711192
27	0xbe3d145d	-0.18464799
28	0xbe043df0	-0.12914252
29	0xbcc5f5d7	-0.024165077
30	0x3e346f96	0.17620692
31	0x3e880f21	0.26574042
32	0xbd26bd09	-0.04070762
33	0xbd545c4d	-0.051845837
34	0xbd465e67	-0.048429873
35	0x3dd118b6	0.10209791
36	0x3eaafc4a	0.33395606
37	0x3d77e2b4	0.060518935
38	0xbd9f4a07	-0.077777915
39	0xbd9223b5	-0.07135717
40	0x3db657d2	0.08903469
41	0x3e9019c3	0.28144655
42	0xbd14dc5c	-0.036342964
43	0xbdd4d046	-0.103912875
44	0xbe24ebb9	-0.16105546
45	0x3d90708f	0.07052719
46	0x3ed4ad2a	0.41538364
47	0x3cf5c8f7	0.030003054
48	0xbe14f4ac	-0.1454646
49	0xbe1fec1e	-0.15617415
50	0xbd7aaf4e	-0.06120234
51	0x3e1da048	0.15393174
52	0xbd11f3fe	-0.03563308
53	0xbcd864b4	-0.026415206
54	0x3c4acb6c	0.012377601
55	0xb9007aaf	-0.00012252734
56	0x3e2a4cd9	0.16630878
57	0xbe0e25d5	-0.1388162
58	0x3c6ef262	0.014584156
59	0x3e5360c4	0.20642382
60	0x3d6b51e0	0.05745113
61	0x3e6ea992	0.23306873
62	0xbcddbb05	-0.027066717
63	0x3de67817	0.11253374
64	0x3de3c098	0.11120719
65	0xbce6573a	-0.028117765
66	0x3e6231c3	0.22089295
67	0x3d593446	0.053028367
68	0xbc7f0a36	-0.015566399
69	0x3e2b62c6	0.16736898
70	0xbd71d1af	-0.05903786
71	0x3e835c0f	0.25656173
72	0x3da2345e	0.079201445
73	0xbda0a56e	-0.07844053
74	0x3d7346b6	0.059393607
75	0x3e2573f2	0.16157511
76	0x3cd2e01f	0.025741635
77	0xbe74c48c	-0.23903102
78	0xbd277159	-0.04087958
79	0x3d7bd2e1	0.061480407
80	0x3e15aaec	0.14615983
81	0x39a38360	0.00031187665
82	0xbedc7675	-0.43059126
83	0xbd804cdb	-0.06264659
84	0x3e2927d6	0.16519102
85	0x3e0396fd	0.12850566
86	0x3ddc437a	0.10755058
87	0xbe967ba8	-0.29391217
88	0x3d86de41	0.0658536
89	0x3dc30709	0.09522826
90	0x3d9f9a38	0.07793087
91	0x3e383013	0.17987089
92	0xbe45909c	-0.19293445
93	0x3c9fa8ab	0.019489607
94	0x3cc94c65	0.02457256
95	0x3dae5841	0.08512927
96	0x3e3a94d3	0.18220834
97	0xbe56fae9	-0.20994152
98	0xbd1a2471	-0.03763241
99	0xbd5064a4	-0.05087723
100	0xbddc60f1	-0.107606776
101	0xbd1d990e	-0.038476042
102	0x3e259b77	0.16172586
103	0x3da8acba	0.0823607
104	0x3d6840c4	0.05670239
105	0xbe54d218	-0.2078327
106	0x3dc8682f	0.097854964
107	0x3de4bae4	0.11168459
108	0x3dadf32c	0.08493647
109	0x3dcc1e6d	0.09966741
110	0xbe3f03bc	-0.18653768
111	0xbc8f6620	-0.017504752
112	0x3d82b2aa	0.06381734
113	0xbd2cfaeb	-0.04223148
114	0x3d8b054c	0.0678812
115	0xbe7d575e	-0.24740359
116	0x3d1ba5a9	0.037999783
117	0x3e3ed2be	0.1863508
118	0x3def3ab1	0.11681116
119	0x3cb1e7b4	0.02171693
120	0xbe748468	-0.23878634
121	0x3c4bd783	0.012441519
122	0x3e6b1a21	0.22959186
123	0xbc662fcf	-0.014049484
124	0x3d72d328	0.059283406
125	0xbe9a5e04	-0.30149853
126	0xbe8daaeb	-0.27669463
127	0xbdf3c304	-0.11902431
128	0x3dc973cc	0.098365396
129	0x3e39dc0b	0.18150346
130	0xbed373fe	-0.41299433
131	0xbebe8189	-0.37208202
132	0xbe313fbe	-0.17309472
133	0x3dd9df88	0.10638338
134	0x3c9c94fc	0.01911401
135	0xbeb899f1	-0.36054948
136	0xbf104389	-0.5635305
137	0xbebf0085	-0.37305084
138	0x3e0516f8	0.12997043
139	0x3dd0085e	0.10157846
140	0xbeaa828c	-0.33302724
141	0xbedff5d7	-0.43742248
142	0xbec6bfd9	-0.38818243
143	0xbd9df84f	-0.07713377
144	0x3dcfba73	0.10142984
145	0xbcf66f78	-0.03008245
146	0xbd13231e	-0.035922162
147	0xbd07f11a	-0.033188917
148	0x3bad8ab5	0.005296076
149	0x3e0783d0	0.13233876
150	0x3d30286c	0.0430073
151	0x3e15c864	0.14627224
152	0x3ddb61ac	0.10711989
153	0x3e215f12	0.15758923
154	0x3e661dad	0.22472258
155	0x3def6cd3	0.116906784
156	0x3d1d2a7d	0.038370598
157	0x3e2b7f30	0.16747737
158	0x3e64a68a	0.22329155
159	0x3dae93de	0.08524297
160	0x3df48dd7	0.11941116
161	0x3e2ae987	0.16690646
162	0x3db16e41	0.086636074
163	0x3d965946	0.07341246
164	0xbdc03f89	-0.09387118
165	0xbd5cc25d	-0.053896297
166	0x3c7e56da	0.015523637
167	0xbd9ac91f	-0.07557892
168	0xbe8310d3	-0.25598773
169	0xbe34dcbe	-0.17662331
170	0xbe091b16	-0.13389239
171	0xbe3577ea	-0.17721525
172	0xbe844f1d	-0.2584161
173	0xbe6f3ba3	-0.23362593
174	0x3cede1ba	0.029038299
175	0x3d9a4547	0.07532745
176	0x3dc8d426	0.09806089
177	0x3d835a8a	0.06413753
178	0x3e43f730	0.19137263
179	0xbc073281	-0.008251787
180	0x3d3ae5bc	0.045629248
181	0x3e115dcc	0.14195937
182	0x3d1d6a99	0.038431738
183	0x3deec8c2	0.11659385
184	0xbcc7b66e	-0.024378981
185	0xbd9bdc72	-0.07610406
186	0xbe0a7245	-0.13520153
187	0xbe732683	-0.2374516
188	0xbe69dcf1	-0.22838189
189	0xbe5656ef	-0.209316
190	0xbae45bee	-0.0017422417
191	0xbe47dadc	-0.19517082
192	0xbe9691b8	-0.2940805
193	0xbeabcb35	-0.33553472
194	0xbd463b36	-0.04839631
195	0x3c26d887	0.01018346
196	0xbcea2182	-0.02858043
197	0xbe1928fa	-0.14957038
198	0xbeb7fa60	-0.35933208
199	0x3c182883	0.0092870025
200	0x3cd7dd68	0.026350692
201	0xbd973be4	-0.0738447
202	0xbd844c7e	-0.06459902
203	0x3ea04f32	0.3131042
204	0x3e9fe0c0	0.31226158
205	0xbcf748c5	-0.030186066
206	0xbd545b65	-0.051844973
207	0x3e090752	0.13381699
208	0x3e99297a	0.29914457
209	0x3bb4a849	0.005513225
210	0xbca376ca	-0.019954104
211	0xbd0ec1af	-0.03485268
212	0xbcf8bfe3	-0.030364936
213	0xbcdcec6b	-0.026968202
214	0xbe7a98c1	-0.24472333
215	0xbd7d660e	-0.061864905
216	0xbe00c6f5	-0.12575896
217	0xbe5a160c	-0.21297473
218	0xbee4d0ea	-0.4469064
219	0xbd7762fe	-0.06039714
220	0xbdf77789	-0.120833464
221	0xbd8d391f	-0.068956606
222	0xbe414caf	-0.18876909
223	0xbec391ff	-0.38197324
224	0x3e686e79	0.22698392
225	0x3d65acf6	0.05607315
226	0x3e052594	0.13002616
227	0x3e04ecdf	0.12980984
228	0x3e628998	0.221228
229	0x3e910aa4	0.2832843
230	0x3c80dacb	0.015729329
231	0x3d898157	0.06714123
232	0x3e4e0f28	0.20122969
233	0x3e0f41f7	0.13990007
234	0xbdb4a88f	-0.088212125
235	0x3c70c828	0.0146961585
236	0x3e279b0b	0.16367738
237	0x3dd302c4	0.10303262
238	0xbe01792f	-0.12643884
239	0xbe46b637	-0.19405447
240	0xbe153f84	-0.1457501
241	0xbdb64fd7	-0.08901947
242	0xbe5803fb	-0.21095268
243	0xbecfdb31	-0.40596917
244	0x3d15861e	0.036504857
245	0xbd953921	-0.07286287
246	0xbe53bcac	-0.20677441
247	0xbe96f2aa	-0.29482013
248	0xbe38b106	-0.18036279
249	0x3de43113	0.11142173
250	0xbe5edeed	-0.21764727
251	0xbe317eba	-0.17333499
252	0xbdde758b	-0.10862263
253	0x3a1c7685	0.00059685885
254	0xbb04f629	-0.0020288324
255	0xbdeeac03	-0.116539024

conv2.bias f4 [16]
0	0xbd14ac29	-0.036296997
1	0x3d48de11	0.049039904
2	0x3a5acda1	0.0008346681
3	0x3ab504dc	0.0013810652
4	0x3d7980d6	0.060913883
5	0x3c640387	0.013916857
6	0x3e4688ae	0.19388077
7	0xbcd0055a	-0.025393177
8	0xbdd9700d	-0.10617075
9	0xbdc0f2cc	-0.0942131
10	0xbd3df5da	-0.04637704
11	0x3d26edfe	0.04075431
12	0x3db4f067	0.088349156
13	0xbcebc01f	-0.028778134
14	0x3d02d4bd	0.031941164
15	0x3dd58597	0.10425871

fc1.weight f4 [120, 400]
0	0x3c90ffac	0.017700039
1	0xbddfb97d	-0.10924051
2	0x3c96717d	0.018364662
3	0xbcd83a7c	-0.026395075
4	0xbd6979eb	-0.057001036
5	0xbd2d7e98	-0.042357057
6	0xbe10fb75	-0.14158423
7	0x3b033744	0.0020021955
8	0x3de527f5	0.11189262
9	0x3d27a6fc	0.040930733
10	0x3db71162	0.089388624
11	0xbc9e3d93	-0.01931647
12	0x3cea73c4	0.028619654
13	0x3e0c1415	0.13679536
14	0x3db48250	0.08813918
15	0x3e354873	0.17703418
16	0xbd377502	-0.04478932
17	0x3ce06b50	0.02739492
18	0x3e193fed	0.14965792
19	0x3d41e6f9	0.047339413
20	0x3e559ce5	0.20860632
21	0xbe9ff948	-0.31244874
22	0x3dd4f9a7	0.1039918
23	0x3e61f15b	0.22064726
24	0x3dbc8f2d	0.09206996
25	0xbcfcb9bc	-0.030850284
26	0xbcbf50b4	-0.023353912
27	0xbb0ab4f1	-0.0021164978
28	0xbe096ad4	-0.13419658
29	0xbe17c426	-0.14820918
30	0xbcfeac93	-0.03108815
31	0x3ea32921	0.31867316
32	0x3cf1ae99	0.0295022
33	0xbdcd2d47	-0.100184016
34	0xbe6b4221	-0.22974445
35	0x3dd704b2	0.104989424
36	0x3e1346c0	0.14382458
37	0xbda56529	-0.080759354
38	0xbe667593	-0.22505789
39	0xbe958f1a	-0.2921074
40	0x3e1a485e	0.15066668
41	0x3d78ade8	0.060712725
42	0x3be05a6e	0.0068467176
43	0xbd813ba5	-0.063102044
44	0xbe3e6e21	-0.18596698
45	0x3de4b2f4	0.11166945
46	0x3e2f5916	0.17123827
47	0x3cb5f8d0	0.02221337
48	0x3d3f950c	0.046773
49	0xbb773787	-0.0037722306
50	0x3d6e480d	0.05817418
51	0x3d96b368	0.07358438
52	0xbd76f25e	-0.060289733
53	0xbd8d6040	-0.06903124
54	0xbdaa2e29	-0.083095856
55	0xbd2bdcd4	-0.041958645
56	0xbc56333c	-0.013073739
57	0xbd9fb546	-0.07798247
58	0xbcc88652	-0.024478111
59	0xbd503678	-0.050833195
60	0xbda0df32	-0.07855071
61	0x3d1d86e6	0.038458727
62	0xbd8bbba2	-0.068228975
63	0xbd09166c	-0.03346865
64	0x3d21f12d	0.039536644
65	0xbde04cd0	-0.10952151
66	0x3cdf121e	0.027230319
67	0x3d8d7bb0	0.06908357
68	0x3cb2e02b	0.021835407
69	0xbc91f71f	-0.017818032
70	0xbe356ed8	-0.17718065
71	0x3caaf0b1	0.020866724
72	0x3ddaa215	0.10675446
73	0x3dc5e504	0.09662822
74	0xbe0248dd	-0.12723108
75	0xbd664d7a	-0.05622623
76	0x3b21a7ff	0.0024666784
77	0xbc3a4035	-0.011367847
78	0xbe033e92	-0.12816837
79	0xbdf3cdcc	-0.11904487
80	0xbc642894	-0.01392569
81	0x3e0fc2f9	0.1403922
82	0xbd04eec6	-0.032454275
83	0xbdb101fc	-0.086429566
84	0xbb42e79e	-0.0029740105
85	0xbbc8c67a	-0.006127176
86	0x3c9e20f3	0.01930282
87	0xbcd29582	-0.025706057
88	0xbe24581c	-0.16049236
89	0xbe631f04	-0.221798
90	0x3d42a02f	0.047516044
91	0x3de6f9ff	0.11278152
92	0xbc3afda8	-0.011413015
93	0xbddb451a	-0.107065395
94	0xbe5d33c6	-0.21601781
95	0x3d808c09	0.062767096
96	0x3e3bdc71	0.1834581
97	0x3df639db	0.12022754
98	0xbaf57513	-0.0018726907
99	0x3bf6d9c5	0.0075332844
100	0x3dc68f11	0.096952565
101	0xbd86eec9	-0.065885134
102	0xbe310dc2	-0.17290404
103	0xbdd06be9	-0.10176832
104	0xbc9cf538	-0.019159898
105	0x3da06805	0.0783234
106	0xbcfc78bf	-0.030819295
107	0xbe8a967b	-0.27067932
108	0xbcfc27eb	-0.030780753
109	0xbdf29f36	-0.11846773
110	0x3d6ffc26	0.058590077
111	0x3db7fcec	0.08983788
112	0xbd04bdfe	-0.032407753
113	0xbe0c6408	-0.13710034
114	0xbe7d8cd4	-0.24760753
115	0xbd13e0a0	-0.03610289
116	0x3d33029d	0.043703664
117	0x3c25112b	0.010074894
118	0xbd5f46cf	-0.054510888
119	0x3db5c216	0.088749096
120	0x3dfddf48	0.12396103
121	0x3d8640b4	0.0655531
122	0x3d866270	0.06561744
123	0x3e12e469	0.14344944
124	0x3de52cde	0.11190198
125	0xbe0d0f15	-0.13775285
126	0xbde502e3	-0.11182191
127	0xbdb376a1	-0.08762861
128	0xbd3c87f9	-0.04602811
129	0xbd70b416	-0.058765493
130	0xbe11f401	-0.14253236
131	0xbda7ec5d	-0.081993796
132	0xbda7c6d7	-0.081922226
133	0x3cef6995	0.02922515
134	0x3ce5a1a6	0.028031182
135	0xbdbfde76	-0.09368603
136	0x3cff6a59	0.03117864
137	0xbd8ea755	-0.0696551
138	0x3d58fc09	0.052974734
139	0x3c3d804a	0.011566231
140	0xbdbe406e	-0.09289633
141	0x3d9fda8d	0.07805357
142	0x3d7b6158	0.06137213
143	0x3daf8b1d	0.08571456
144	0x3d96626f	0.073429935
145	0xbe009362	-0.12556222
146	0xbd09c159	-0.033631656
147	0x3e1357da	0.14388981
148	0x3de79279	0.11307234
149	0x3d57c15b	0.052674633
150	0xbcf444af	-0.029817907
151	0x3dd82a98	0.10554999
152	0x3e0fb997	0.1403564
153	0xbb54c22a	-0.0032464364
154	0xbcfa99d8	-0.030590937
155	0xbe14ea12	-0.14542416
156	0x3e004e98	0.12529981
157	0x3cbef418	0.023309752
158	0x3d155c47	0.036464956
159	0x3da08aac	0.078389496
160	0xbd6f05c9	-0.058355127
161	0x3dbbf51b	0.091776095
162	0x3de8cd57	0.113672905
163	0x3d8ae21f	0.067814104
164	0x3d228143	0.039674055
165	0x3e199fc3	0.1500235
166	0x3d8007cd	0.06251488
167	0x3de7be03	0.11315539
168	0x3ca170a3	0.01970703
169	0xbe0c9991	-0.13730456
170	0x3cab79e6	0.02093215
171	0xbe228842	-0.1587229
172	0xbd6e21b4	-0.05813761
173	0x3d98a4fc	0.07453343
174	0xbdbadad1	-0.09123767
175	0xbd0ac6d4	-0.033881024
176	0x3c81efe3	0.015861457
177	0x3c20dd96	0.009818455
178	0xbd72ec45	-0.059307355
179	0xbe0caa38	-0.13736808
180	0x3c756228	0.014977016
181	0x3e3d1d37	0.18468176
182	0x3dcddc7c	0.1005182
183	0xbe318170	-0.17334533
184	0xbdf1981c	-0.11796591
185	0x3da4199b	0.08012696
186	0x3ddf8cec	0.109155506
187	0xbdde755b	-0.108622275
188	0x3c2b73ba	0.010464603
189	0x3cc57d08	0.024107471
190	0xbb83c583	-0.004021348
191	0xbde0defc	-0.10980031
192	0xbda465c3	-0.08027222
193	0xbd243d67	-0.04009762
194	0xbd887dfe	-0.06664656
195	0xbcc3f823	-0.023922032
196	0xbcd3f97d	-0.025875801
197	0xbd64e1c9	-0.055879388
198	0x3aafbecc	0.0013408302
199	0xbd9c0db3	-0.076198004
200	0xbd1b75b4	-0.037954047
201	0x3c927c34	0.01788149
202	0x3cc83f4e	0.024444249
203	0xbd96fd78	-0.07372564
204	0xbd0cb83c	-0.034355387
205	0x3a9e5fe7	0.0012083024
206	0xbda05f3f	-0.07830667
207	0xbdfa5954	-0.12224069
208	0xbddb4c5e	-0.10707925
209	0xbe03c055	-0.12866338
210	0x3d9b4e44	0.07583287
211	0xbccc37ae	-0.024928894
212	0xbc3b864b	-0.011445592
213	0xbe22f090	-0.1591208
214	0xbe56ec41	-0.20988561
215	0x3da38e81	0.07986165
216	0xbd6107eb	-0.05493919
217	0xbc842fa2	-0.016135994
218	0xbdc14f42	-0.09438945
219	0xbe031abd	-0.12803169
220	0xbdcc30f7	-0.09970277
221	0xbd99976d	-0.07499585
222	0x3dcd889c	0.10035822
223	0x3d64e234	0.055879787
224	0xbd14d3c9	-0.036334787
225	0x3dab8f1f	0.083769076
226	0x3e2b9762	0.16756967
227	0x3d4c9f18	0.04995641
228	0xbb8f09e5	-0.004365193
229	0x3b62474b	0.0034527357
230	0x3c72f656	0.014829239
231	0x3daaaa74	0.083332926
232	0x3dae3f8f	0.085082166
233	0xbbd4c4dd	-0.0064931945
234	0xbc0c679d	-0.008569625
235	0xbdccee5e	-0.100064024
236	0x3dd0bad4	0.10191885
237	0x3be47784	0.006972255
238	0xbd7057e3	-0.058677565
239	0xbe350439	-0.17677392
240	0xbe3f2544	-0.1866656
241	0x3da31abf	0.07964086
242	0x3d55a00b	0.052154582
243	0xbdc9e4e5	-0.09858111
244	0xbe124fbb	-0.14288227
245	0xbe418c2d	-0.18901129
246	0xbdfc11a9	-0.12308056
247	0x3c51ebaa	0.012812534
248	0xbd03c648	-0.032171518
249	0xbe525e77	-0.20543848
250	0x3d547658	0.051870674
251	0x3b18769a	0.0023264051
252	0xbd72ef54	-0.059310272
253	0xbdb72a07	-0.08943563
254	0xbd7b8312	-0.061404295
255	0x3c77e92e	0.015131278

fc1.bias f4 [120]
0	0xbd266ba1	-0.040629987
1	0x3c1238b6	0.008924654
2	0x3d2b01f7	0.04174992
3	0x3d9a3902	0.075304046
4	0xbafa2f77	-0.0019087632
5	0x3c42fc69	0.011901
6	0x3d7e25ef	0.062047895
7	0x3c95c6f1	0.01828334
8	0xbb878f2f	-0.004136942
9	0x3d9a8c42	0.07546283
10	0x3b94e262	0.0045435885
11	0xbc056079	-0.008140677
12	0xbbc5273f	-0.0060166414
13	0x3d22e225	0.03976645
14	0xbd38db21	-0.045130853
15	0xbc0ca4d3	-0.008584219
16	0x3e07d33f	0.13264178
17	0xbd3b8f8e	-0.0457912
18	0x3c9894c1	0.018625619
19	0xbcb21281	-0.021737339
20	0xbdb9ba8f	-0.09068786
21	0xbe162f7d	-0.14666553
22	0xbd579b7e	-0.052638523
23	0xbd8e361d	-0.06943915
24	0xbb9d1b0c	-0.004794484
25	0x3c21038d	0.009827507
26	0xbd464b76	-0.04841181
27	0x3ca322b3	0.019914007
28	0xbd0f899e	-0.03504335
29	0x3e151d52	0.14561966
30	0x3e425f38	0.18981636
31	0xbd793e32	-0.06085033
32	0x3c24fa4a	0.010069439
33	0xbd7f0b08	-0.06226638
34	0x3cad8619	0.021182107
35	0x3e48cdb2	0.19609717
36	0xbddbe6eb	-0.107374035
37	0x3e18a1e5	0.14905508
38	0x3e0fb486	0.14033708
39	0xbc95a90f	-0.01826909
40	0x36304e8d	2.6271766e-06
41	0xbcc2498c	-0.02371671
42	0x3cf3f949	0.029781954
43	0x3c6a364d	0.014295173
44	0xbd1bf321	-0.038073663
45	0x3d6d9aa5	0.05800881
46	0x3c27b951	0.010237054
47	0xbc4a3bdb	-0.012343372
48	0xbe34cd81	-0.17656519
49	0x3d922124	0.07135227
50	0x3cd92368	0.02650614
51	0x3db4a640	0.08820772
52	0x3df055c8	0.117351115
53	0x3c040122	0.008056911
54	0x3dcd2b53	0.10018029
55	0xbdcbb6ff	-0.09947013
56	0xbc8eb496	-0.017420094
57	0x3db339bd	0.08751247
58	0x3cc0cbcf	0.023534684
59	0xbc0bf461	-0.008542151
60	0x3db57b86	0.08861451
61	0xbd4c9f9c	-0.049956903
62	0xbbeb19f8	-0.0071747266
63	0x3e3a81a0	0.1821351
64	0x3dc76d95	0.09737698
65	0xbd7d759d	-0.061879743
66	0x3d6d3ec9	0.057921205
67	0xbcc5e5d5	-0.024157444
68	0x3c1d5121	0.009601862
69	0x3cd28875	0.025699833
70	0xbd395f0b	-0.045256656
71	0x3c4ad088	0.012378819
72	0x3cca2ad1	0.02467862
73	0xbc94cd53	-0.018164312
74	0xbd05f98c	-0.03270869
75	0xbc86abaf	-0.016439287
76	0xbb93e7b5	-0.0045137056
77	0xbd50cdea	-0.050977625
78	0x3bbf45cc	0.005837178
79	0xbc525b07	-0.012839085
80	0xbd3b6ea7	-0.045759823
81	0xbb73b953	-0.003718932
82	0x3d63ebf7	0.055644955
83	0x3d0b5d99	0.03402481
84	0xbc29f8f6	-0.010374298
85	0x3d4a0c48	0.04932812
86	0x3ba8a3c7	0.005146477
87	0x3c6c5ffb	0.01442718
88	0xbd101c28	-0.035183102
89	0xbc6bd541	-0.014394105
90	0x3d8995f4	0.067180544
91	0xbd382dea	-0.044965662
92	0xbd09b623	-0.033620965
93	0xbd95ff17	-0.07324045
94	0x3ddf1348	0.108923495
95	0xbcdf95f8	-0.02729319
96	0x3d900abd	0.07033298
97	0xbd0f2476	-0.03494688
98	0xbdf6cee3	-0.12051179
99	0x3d8d047f	0.06885623
100	0x3caf5b0f	0.021405725
101	0x3d9221e6	0.07135372
102	0xbaf13405	-0.0018402344
103	0x3ddc4784	0.10755828
104	0xbc30ff6b	-0.010803084
105	0x3d939331	0.07205809
106	0x3e2a03d5	0.16603024
107	0x3cfa232d	0.030534351
108	0xbd9fb271	-0.07797707
109	0x3db1ea09	0.08687217
110	0x3e3a20f4	0.18176633
111	0xbc2280eb	-0.009918432
112	0xbcdb7d69	-0.026793199
113	0xbd20e520	-0.03928101
114	0x3d854d8c	0.065089315
115	0x3da1f511	0.07908071
116	0x3dad1424	0.08451107
117	0x3d309d0a	0.043118514
118	0xbd7ffaf8	-0.0624952
119	0xbe567c1d	-0.20945783

fc2.weight f4 [84, 120]
0	0x3d90bd63	0.07067373
1	0xbb84d660	-0.004053876
2	0x3d686a68	0.056742102
3	0xbe6ec7e4	-0.2331844
4	0x3d6be9dd	0.057596076
5	0xbd8c09eb	-0.06837829
6	0xbe685bf6	-0.2269133
7	0xbe2ed68b	-0.17074029
8	0x3d64a870	0.055824697
9	0xbd8cdc9d	-0.06878016
10	0x3d091d7e	0.03347539
11	0xbd26e00b	-0.040741008
12	0x3aca39cd	0.0015428603
13	0xbd42c2ac	-0.047548935
14	0x3d9d35e0	0.076762915
15	0x3ec9893a	0.39362508
16	0xbe0bdfe5	-0.13659628
17	0xbda559d6	-0.080737755
18	0x3cd7e3fc	0.026353829
19	0x3d952ba6	0.07283716
20	0x3d8b63fb	0.06806179
21	0xbe254a07	-0.1614152
22	0x3e4e26b9	0.20131959
23	0x3eb2b01e	0.34899992
24	0x3d9bf07a	0.07614227
25	0xbd8bffa2	-0.068358675
26	0xbbced670	-0.006312184
27	0xb92a4600	-0.0001623854
28	0xbe21f5d6	-0.15816435
29	0xbd650ce6	-0.055920504
30	0x3de9fa76	0.11424725
31	0x3d0da479	0.03458068
32	0x3d29ad78	0.0414252
33	0x3e06877b	0.13137619
34	0xbea0e686	-0.31425875
35	0xbe26645f	-0.16249226
36	0xbdc58713	-0.09644904
37	0x3e17dbf4	0.14829999
38	0xbe8fa1d6	-0.2805316
39	0x3d3ca698	0.046057314
40	0xbd59f231	-0.053209487
41	0x3dc21c21	0.094780214
42	0x3c6befb0	0.014400408
43	0x3d8e0fb0	0.06936586
44	0xbda85aa4	-0.08220413
45	0xbc7e8f89	-0.015537151
46	0xbe40bb00	-0.18821335
47	0xbc96a29c	-0.018388085
48	0x3df06bbc	0.11739299
49	0xbea45997	-0.32099602
50	0xbc3da452	-0.011574822
51	0x3d0a893d	0.033822287
52	0xbe210ce1	-0.15727569
53	0x3bdb412d	0.006691119
54	0x3c6b27da	0.014352763
55	0xbd42ea54	-0.047586754
56	0x3dee2ac7	0.11629253
57	0xbe0898aa	-0.13339487
58	0x3db402d9	0.08789606
59	0x3d592040	0.05300927
60	0x3c6e6ab7	0.01455181
61	0xbdf4ac5b	-0.11946937
62	0xbc7de590	-0.0154966265
63	0xbe9bb6f2	-0.30413014
64	0xbe2f5429	-0.17121948
65	0xbca2f3b0	-0.01989159
66	0x3e190e90	0.14946961
67	0x3cf6611c	0.030075602
68	0xbda90535	-0.08252946
69	0xbc6eba6d	-0.014570815
70	0x3b005838	0.0019583832
71	0x3db06c7e	0.08614443
72	0x3c9d9ab8	0.019238815
73	0x3c8c5722	0.017131392
74	0x3c13cc70	0.00902091
75	0x3d6b8899	0.057503317
76	0x3d579490	0.052631915
77	0xbde4d237	-0.11172908
78	0x3e103a41	0.14084722
79	0x3d9ab1a4	0.075534135
80	0x3d74290c	0.059609458
81	0xbdcf28b7	-0.101151876
82	0x3e19c685	0.15017135
83	0x3e24ab4b	0.16080968
84	0xbd5f881e	-0.05457317
85	0xbe62d81b	-0.2215275
86	0xbe8b6949	-0.27228764
87	0xba00ef00	-0.0004918426
88	0xbda62512	-0.08112539
89	0xbbb950a0	-0.005655363
90	0xbdc2b500	-0.09507179
91	0xbc89448e	-0.016756322
92	0xbd298be1	-0.041393165
93	0x3e2cba1d	0.16867872
94	0xbed5dd1c	-0.41770256
95	0x3dd4e85d	0.10395882
96	0xbd8ed256	-0.06973712
97	0xbdca29fb	-0.098712884
98	0x3ca94de3	0.020667022
99	0xbdf46805	-0.11933903
100	0xbd1dd0e5	-0.038529295
101	0xbdee7f82	-0.11645414
102	0xbd0a40dc	-0.03375326
103	0xbe530225	-0.20606287
104	0x3b1ee1c0	0.0024243444
105	0x3d83de30	0.06438863
106	0xbe5d4d43	-0.21611504
107	0xbcc1a200	-0.023636818
108	0xbc6ecd79	-0.014575356
109	0x3bf8f9da	0.007598144
110	0x3d8a0fbe	0.06741284
111	0x3e351a93	0.17685919
112	0x3d850c0a	0.06496437
113	0x3d303ffb	0.043029767
114	0xbe04c44b	-0.12965505
115	0x3e609ea9	0.21935524
116	0xbe04488a	-0.12918296
117	0xbd3da9b8	-0.046304435
118	0x3e6ceee3	0.23138003
119	0x3d368815	0.04456337
120	0xbe1b31bd	-0.15155692
121	0xbd015e13	-0.031583857
122	0xbe02988f	-0.12753509
123	0x3c60c6c3	0.0137192635
124	0xbbb98083	-0.0056610717
125	0xbdd80f94	-0.10549846
126	0xbe9f5778	-0.3112142
127	0xbd927bf9	-0.07152552
128	0x3c70c4a2	0.014695318
129	0x3dd826bf	0.10554265
130	0xbda85601	-0.08219529
131	0xbc5fb9b3	-0.013655114
132	0xbe3acf0f	-0.18243049
133	0xbbff96e6	-0.007799971
134	0xbd364d2c	-0.04450719
135	0xbe60036b	-0.21876304
136	0x3d439f36	0.047759257
137	0xbd813434	-0.06308785
138	0x3d3e8e47	0.046522405
139	0x3d0d26eb	0.034460943
140	0x3d5b9e4f	0.05361777
141	0x3e5fadd9	0.21843661
142	0xbdad68e8	-0.08467275
143	0x3d2e3f38	0.04254076
144	0xbd7977eb	-0.06090538
145	0x3e923c75	0.2856175
146	0x3d9ff6ee	0.0781077
147	0xbd305b26	-0.043055676
148	0x3d07fdfc	0.033201203
149	0xbd32fa2f	-0.043695625
150	0xbd8fceea	-0.070218876
151	0xbcd9c2db	-0.026582172
152	0xbd7f7ef6	-0.06237694
153	0xbd8ecdee	-0.06972872
154	0x3e13354b	0.14375798
155	0x3dd10e3b	0.10207792
156	0x3d2d9f35	0.04238816
157	0x3ee13365	0.43984523
158	0x3c969b51	0.018384608
159	0xbd35711d	-0.044297326
160	0xbc841453	-0.016122973
161	0x3d4fd2db	0.050738197
162	0xbd56f62b	-0.052480858
163	0x3d8c39c8	0.068469584
164	0xbce05dfa	-0.027388562
165	0xbdadb011	-0.084808476
166	0x3ca78397	0.02044849
167	0x3d05a05d	0.032623637
168	0x3e947b13	0.29000148
169	0x3d21e1d1	0.039521996
170	0xbdfee974	-0.124468714
171	0x3dff08e4	0.124528676
172	0x3e62cb27	0.22147809
173	0xbd2561b2	-0.040376373
174	0xbe3be3aa	-0.18348566
175	0x3dfc4583	0.12317946
176	0xbe8c45b0	-0.27396917
177	0xbcb595be	-0.02216613
178	0x3d24b466	0.040211104
179	0xbd6375aa	-0.055532135
180	0x3e847c54	0.25876105
181	0xbdd056b8	-0.1017279
182	0x3c05dcf8	0.008170359
183	0x3ddd7f92	0.10815348
184	0x3e1374a6	0.14399967
185	0x3c4d6be5	0.012537931
186	0xbd2b0ba6	-0.041759156
187	0xbd54d864	-0.05196418
188	0x3dadbd15	0.0848333
189	0x3dbf03ea	0.093269184
190	0xba378d2f	-0.0007001934
191	0xbd668d7b	-0.05628727
192	0x3d83cb9e	0.06435321
193	0xbe6d703b	-0.23187344
194	0x3dbf6eb2	0.09347285
195	0x3cd96ec3	0.026542073
196	0x3d95052e	0.072763786
197	0x3d0f774c	0.03502588
198	0x3db7fb13	0.089834355
199	0xbe00818b	-0.12549417
200	0xbc62320e	-0.013805879
201	0x3e7927bb	0.24331562
202	0x3d17b7bd	0.03704046
203	0x3d153129	0.036423836
204	0x3c65dcdd	0.014029709
205	0xbeb78063	-0.3584014
206	0x3ccaa1d6	0.024735373
207	0xbd643fdb	-0.05572496
208	0x3d23dcb9	0.04000542
209	0xbd66b5af	-0.05632561
210	0x3e2428f1	0.16031243
211	0xbdf16455	-0.11786715
212	0xbddd6eff	-0.108121864
213	0x3e3cd3f8	0.18440235
214	0xbce7521b	-0.028237393
215	0xbe2b5dd4	-0.16735011
216	0x3dd92ebd	0.10604618
217	0xbc04a91f	-0.008096962
218	0xbed06451	-0.40701535
219	0xbd6ea65e	-0.05826413
220	0xbda40a22	-0.08009745
221	0xbdebc65a	-0.11512442
222	0x3c0c638e	0.008568658
223	0x3e88016c	0.26563585
224	0x3cbc2447	0.022966517
225	0xbd89ec36	-0.06734507
226	0x3e4deb8f	0.2010939
227	0xbde9a1b8	-0.114077985
228	0x3d9c7064	0.07638624
229	0x3e3dc7cf	0.18533252
230	0x3e00a319	0.12562217
231	0x3d885187	0.06656175
232	0x3ddae72b	0.10688623
233	0xbe01e464	-0.1268478
234	0xbe476301	-0.1947136
235	0x3e7a110a	0.24420562
236	0x3c868e5d	0.016425306
237	0xbdc95c66	-0.09832077
238	0xbbed8b95	-0.0072493055
239	0x3e1cedda	0.15325108
240	0xbd9724ec	-0.07380089
241	0x3d488060	0.048950553
242	0xbdf8bef5	-0.12145797
243	0xbc82473c	-0.015903108
244	0xbdc1df0e	-0.094663724
245	0x3ce33570	0.027735442
246	0xbd6adac2	-0.05733753
247	0xbd0e52a3	-0.034746777
248	0x3d80b236	0.06283991
249	0x3bf8dcac	0.0075946655
250	0xb8ebef27	-0.00011250219
251	0x3cfe444d	0.031038428
252	0xbab9cbd5	-0.0014175127
253	0x3d812fd4	0.063079506
254	0x38afaa62	8.3763865e-05
255	0x3d22db00	0.039759636

fc2.bias f4 [84]
0	0xbe34f61a	-0.17672005
1	0x3d17e833	0.037086677
2	0x3d727d2e	0.059201412
3	0xbc856ddc	-0.016287737
4	0x3c9f48d2	0.019443903
5	0x3b6152ec	0.00343817
6	0xbda4ba4d	-0.080433466
7	0xbd425931	-0.04744834
8	0x3da8e0db	0.08246013
9	0x3c904b01	0.01761389
10	0x3d0b6b02	0.034037597
11	0x3e591784	0.21200377
12	0x3b9ec2d1	0.0048450013
13	0x3e0821b4	0.13294107
14	0x3d3af08f	0.04563957
15	0xb9913daf	-0.00027702513
16	0x3cec1660	0.028819263
17	0xbbed7cf6	-0.0072475625
18	0x3da8ecf2	0.08248319
19	0x3db313e3	0.087440275
20	0x3e0bde30	0.13658977
21	0x3dac0eef	0.08401286
22	0x3e867d8f	0.2626767
23	0x3e4c9b07	0.19981013
24	0x3d5ecbf2	0.054393716
25	0xbd0b593c	-0.034020647
26	0xbe020cd9	-0.12700213
27	0x3d24ba68	0.040216833
28	0xbdd0f185	-0.10202316
29	0x3d59e1df	0.053193923
30	0x3d17ad7c	0.037030682
31	0x3d824057	0.06359928
32	0x3ddf8bef	0.10915362
33	0xbda4f6f8	-0.08054918
34	0x3c072676	0.008248916
35	0x3e0676ac	0.13131207
36	0x3d80fac1	0.062978275
37	0x3e07a19a	0.1324524
38	0xbb680ff7	-0.0035409906
39	0x3e0cfdb0	0.13768649
40	0x3dd72c5c	0.10506508
41	0x3dc28aac	0.09499106
42	0xbe046c6d	-0.12931986
43	0xbe14e414	-0.1454013
44	0x3bd327e9	0.0064439666
45	0xbe2d3af2	-0.16917017
46	0x3e5732a9	0.21015419
47	0x3d853a0b	0.065052114
48	0x3da610ae	0.0810865
49	0x3e2421c9	0.16028513
50	0xbddc497c	-0.107562035
51	0x3cec5ddf	0.028853355
52	0x3dfad7ba	0.12248178
53	0x3dc3cfbb	0.09561106
54	0x3c36d657	0.011159501
55	0x3d8c653a	0.06855245
56	0x3de4ec17	0.11177843
57	0x3e1467b5	0.14492686
58	0x3e40c344	0.18824488
59	0x3bda3823	0.006659524
60	0x3d148955	0.036263783
61	0xbd8fcd9f	-0.07021641
62	0x3dfbc11c	0.12292692
63	0x3bfb8101	0.0076752906
64	0xbe0fc7af	-0.14041017
65	0xbbc14d2d	-0.0058990926
66	0xbd315b17	-0.04329976
67	0x3e4cd51f	0.20003174
68	0xbc2e0eeb	-0.010623674
69	0x3dcc0938	0.09962696
70	0xbd198ac9	-0.03748587
71	0x3ca000ec	0.01953169
72	0xbda3cf13	-0.07998481
73	0x3ca873fe	0.020563122
74	0x3ddaa92b	0.106767975
75	0x3d8451fa	0.06460948
76	0xbcfafa61	-0.030636968
77	0x3df5c38b	0.120001875
78	0xbe0ad0d5	-0.13556226
79	0x3db1109b	0.08645745
80	0x3d1f8150	0.03894168
81	0xbdd1054f	-0.10206091
82	0x3cbb9126	0.02289636
83	0xbd37ae6d	-0.04484408

fc3.weight f4 [9, 84]
0	0xbd58ed3c	-0.05296062
1	0x3d545eb8	0.051848143
2	0xbcb1c022	-0.021698061
3	0xbdd74c15	-0.10512558
4	0xbd20c160	-0.039246917
5	0xbe1e4b47	-0.15458404
6	0x3dfe54e9	0.12418539
7	0xbe5f05cf	-0.2177956
8	0x3e44b609	0.19210066
9	0xbe428e81	-0.18999673
10	0xbe67e60e	-0.22646353
11	0x3dc787e2	0.097427145
12	0xbe9ee1df	-0.310317
13	0xbdcb1043	-0.09915211
14	0xbdb77b8d	-0.08959112
15	0xbd0afcf1	-0.03393263
16	0x3e7f5644	0.24935251
17	0xbd27139c	-0.040790185
18	0x3e51e2fb	0.20496742
19	0x3db391e8	0.08768064
20	0xbe41988b	-0.18905847
21	0xbe74ca67	-0.23905335
22	0x3e4c50e2	0.1995273
23	0xbea8d091	-0.32971624
24	0xbab898ba	-0.0014083602
25	0xbc84fd6b	-0.01623412
26	0x3c31ec38	0.010859542
27	0x3ea3170b	0.31853518
28	0x3d4eb73c	0.050467715
29	0xbec25686	-0.37956637
30	0x3ea5f275	0.32411543
31	0xbca7ef30	-0.020499796
32	0x3e0c009f	0.13672112
33	0xbeae7934	-0.34076846
34	0x3e7006ab	0.23440044
35	0xbd216cfc	-0.039410576
36	0x3e100625	0.14064844
37	0xbd817221	-0.063205965
38	0x3d8264bf	0.06366872
39	0xbde8d779	-0.11369223
40	0xbe9648b0	-0.2935233
41	0x3e693666	0.22774658
42	0xbd34331b	-0.04399405
43	0x3d81b83c	0.06333968
44	0xbe35826f	-0.17725538
45	0x3dcfd7b0	0.10148561
46	0x3eaf633e	0.34255403
47	0xbea6ed69	-0.32603005
48	0xbdc29a46	-0.095020816
49	0xbe39b09e	-0.1813378
50	0xbd2724c4	-0.040806547
51	0x3e2511e1	0.16120102
52	0x3d0646c6	0.03278234
53	0x3d8c6b14	0.06856361
54	0x3e50df84	0.20397764
55	0x3e6f1c30	0.23350596
56	0xbe799163	-0.24371867
57	0x3e242be6	0.16032371
58	0xbe68472e	-0.22683403
59	0x3e501798	0.203215
60	0x3e06728c	0.13129634
61	0xbd628cbb	-0.055309992
62	0xbec00848	-0.37506318
63	0xbac29c68	-0.0014847638
64	0x3cbe882e	0.023258295
65	0xbdff1a20	-0.12456155
66	0x3dd7ebe0	0.105430365
67	0x3e0c9c3a	0.1373147
68	0xbe2885ca	-0.16457286
69	0xbe0fe6fc	-0.14052957
70	0xbd965c81	-0.073418625
71	0x3e32ab2a	0.17448106
72	0x3b89ecf7	0.0042091566
73	0x3e15141f	0.14558457
74	0xbea9708d	-0.33093682
75	0xbe562df4	-0.20915967
76	0xbce7e7aa	-0.028308708
77	0xbb467c84	-0.003028662
78	0x3c786249	0.015160152
79	0xbea5364b	-0.32267985
80	0xbc40fa0f	-0.011778369
81	0xbd098734	-0.033576205
82	0xbdba4aea	-0.0909632
83	0xbe22a489	-0.15883078
84	0xbe8b7523	-0.27237806
85	0xbe1f7f82	-0.15575984
86	0x3db4982b	0.08818086
87	0x3d6001dc	0.054689273
88	0x3c716de0	0.014735669
89	0xbdb37e7e	-0.08764361
90	0x3dbdbab5	0.09264127
91	0xbda07f85	-0.078368224
92	0xbefbacf5	-0.49155393
93	0xbe89a1f4	-0.26881373
94	0x3ce8ebe1	0.028432788
95	0x3ea39466	0.31949157
96	0x3e3e6294	0.18592292
97	0x3e6a1559	0.22859706
98	0xbcf80bc0	-0.03027904
99	0xbdcfa1fc	-0.10138318
100	0x3ea6c91b	0.32575306
101	0x3a5fa534	0.0008531392
102	0x3e059140	0.1304369
103	0xbdc5bf12	-0.096555844
104	0xbb136fe8	-0.0022497121
105	0x3dc29801	0.09501649
106	0x3d0d0a46	0.034433626
107	0xbeaae427	-0.3337719
108	0xbe7c8016	-0.24658236
109	0x3d892aeb	0.06697639
110	0x3d76b377	0.060229745
111	0x3e8cad6b	0.27476057
112	0x3e4484da	0.19191304
113	0x3dfd70b7	0.12375014
114	0xbd9b9b36	-0.075979635
115	0xbea4dc44	-0.321993
116	0x3dfe4ea4	0.12417343
117	0x3ce9f9fa	0.02856158
118	0xbde3b4cc	-0.11118469
119	0xbe8ca808	-0.27471948
120	0xbe8bf98c	-0.27338827
121	0xbdedda98	-0.11613959
122	0xbd5d0333	-0.05395813
123	0xbe24967a	-0.16073027
124	0xbcb87899	-0.022518443
125	0x3e8d16fe	0.27556604
126	0xbd245f16	-0.040129744
127	0x3dc63c04	0.09679416
128	0x3dae68fa	0.085161164
129	0xbedf6d37	-0.43638012
130	0xbc4a368f	-0.012342109
131	0x3dba8e02	0.09109117
132	0x3dfde6f3	0.12397566
133	0x3e679699	0.22616042
134	0xbcf30671	-0.029666157
135	0xbe420e78	-0.18950832
136	0x3e69e5c9	0.22841562
137	0xbe7dbdcf	-0.24779437
138	0x3c8cfdb5	0.01721082
139	0xbe0e975a	-0.13924924
140	0xbe0c8b16	-0.13724932
141	0x3df8404b	0.12121638
142	0xbe9d051d	-0.30667964
143	0x3dfe7296	0.12424199
144	0xbed3ccad	-0.41367093
145	0x3d236215	0.03988846
146	0x3e001c76	0.12510857
147	0xbe363cad	-0.17796583
148	0xbdb41586	-0.08793168
149	0xbe48d530	-0.19612575
150	0xbe9dd20a	-0.3082431
151	0xbdc42c70	-0.09578788
152	0x3d66867e	0.056280605
153	0xbe48a6cf	-0.19594882
154	0xbe3e52fb	-0.18586342
155	0x3e00812e	0.12549278
156	0x3d22a95b	0.03971229
157	0x3eb99d85	0.3625299
158	0x3def0e0c	0.11672601
159	0x3dfd0783	0.12354948
160	0x3df881ac	0.12134108
161	0xbe10a65b	-0.1412596
162	0x3d0124b4	0.031529143
163	0x3dcc2a86	0.09969048
164	0x3d558f96	0.052138887
165	0x3e8e886c	0.27838457
166	0xbda566b8	-0.08076233
167	0x3e42f25a	0.19037762
168	0xbe5efff9	-0.21777333
169	0xbe71ffdc	-0.23632759
170	0x3db056c9	0.08610303
171	0xbdbf5643	-0.09342625
172	0xbe110dc2	-0.14165404
173	0x3d130d1d	0.035901178
174	0x3dc8a104	0.09796336
175	0x3e24a24c	0.16077536
176	0x3dcddba2	0.10051657
177	0xbdd94340	-0.1060853
178	0xbe529fc4	-0.20568758
179	0xbf04286b	-0.5162417
180	0x3cf11c36	0.029432397
181	0x3d05bdec	0.032651827
182	0xbccae91e	-0.024769362
183	0x3cbd7560	0.023127258
184	0xbd063a8b	-0.032770675
185	0x3b277edb	0.002555779
186	0xbe5d1276	-0.21589074
187	0x3dca9ec6	0.09893565
188	0x3e1eca83	0.1550694
189	0x3e3a10a0	0.18170404
190	0xbe30bb9f	-0.17259072
191	0xbb1ead7c	-0.0024212291
192	0x3dcca3bb	0.099921666
193	0xbe5f699d	-0.21817632
194	0x3dac1171	0.08401764
195	0xbe11854a	-0.14211002
196	0xbea195e3	-0.31559667
197	0x3d74fea2	0.05981315
198	0xbe31ee71	-0.17376114
199	0xbd9b738c	-0.07590398
200	0xbe75bc9c	-0.2399773
201	0x3cd68bd4	0.026189722
202	0x3e87acd4	0.26499045
203	0x3e0685ef	0.13137029
204	0xbdabc5f1	-0.08387364
205	0x3e49a937	0.19693457
206	0xbea126db	-0.31474957
207	0x3e849f3b	0.25902733
208	0x3e1c3574	0.15254766
209	0x3dc3d5ea	0.09562285
210	0xbd6a7526	-0.057240628
211	0xbe21efaa	-0.15814081
212	0xbb34f96a	-0.0027614483
213	0xbcdaf8c0	-0.026729941
214	0x3e142e96	0.14470896
215	0xbe2daa3d	-0.16959472
216	0xbe3ef212	-0.1864703
217	0x3de44380	0.11145687
218	0x3d7db8a6	0.061943673
219	0xbd161431	-0.03664035
220	0xbcf45356	-0.029824894
221	0xbe9c46e7	-0.30522844
222	0xbebff8f6	-0.3749463
223	0xbe9dcc73	-0.30820045
224	0xbd96e342	-0.07367565
225	0xbec9f728	-0.39446378
226	0x3e105f02	0.14098743
227	0x3d837508	0.06418806
228	0x3de2b517	0.110696964
229	0x3da7b36d	0.081885196
230	0xbe310374	-0.17286474
231	0xbe09b115	-0.13446458
232	0xbe78c4de	-0.24293849
233	0x3e70bfa3	0.23510604
234	0xbbe47cec	-0.0069728997
235	0xbd5c40e7	-0.053772833
236	0x3e00372a	0.12521043
237	0x3e05c92a	0.13065019
238	0xbde2e311	-0.11078466
239	0xbe73c822	-0.23806813
240	0xbd47d4b9	-0.048786853
241	0xbeaaa8ac	-0.3333181
242	0xbd50da14	-0.050989226
243	0x3de185eb	0.11011871
244	0x3ee6e171	0.45093873
245	0xbec4b7bb	-0.38421425
246	0xbdd5c9ca	-0.10438879
247	0xbd36965f	-0.044577
248	0xbead3f58	-0.3383739
249	0xbe829132	-0.255014
250	0x3da1f885	0.079087295
251	0x3c2f654d	0.010705304
252	0x3ea38dcd	0.31944123
253	0xbeb190fd	-0.3468093
254	0xbdbde9d8	-0.09273118
255	0x3d2ffff0	0.04296869

fc3.bias f4 [9]
0	0x3e00def5	0.12585051
1	0x3bb2a3e7	0.0054516676
2	0xbdfeeb95	-0.124472775
3	0x3e11454d	0.14186592
4	0xbdede768	-0.11616403
5	0x3d933c3e	0.07189225
6	0xbd68923e	-0.056780092
7	0xbe29ca67	-0.16581117
8	0xbdd87bbe	-0.10570477
