output_visualizations/base_tsk[^]_agm[crop]_spl[S2]_mdl[lenet]_ls[SM]_tu[none]/model.pt (torch, 248071 bytes, 10 tensors)

conv1.weight f4 [6, 1, 5, 5]
0.20005491 0.22521998 -0.0038687172 0.18638864 -0.10031252 0.05756382 -0.04208545 0.18476014
0.22754681 -0.14674872 0.11965679 0.04256519 0.19813947 0.09317045 0.12935846 -0.15540215
0.09239861 0.031449325 -0.055705186 0.07608617 -0.27004775 -0.14146325 -0.13430002 0.122543156
-0.16700698 -0.07492035 -0.0478752 -0.14003588 -0.051981717 -0.31055903 0.21366675 -0.13791415
0.16223924 -0.010089919 -0.15790462 0.16794509 0.08970329 0.20724952 0.021654272 -0.11697139
0.0726529 -3.5356483e-05 0.14796951 0.21105155 0.099221565 -0.10911756 0.14426634 0.09493349
0.14809653 -0.11100432 -0.20171887 -0.05767637 -0.13866651 0.16684774 0.060450044 0.10070129
0.102658376 0.020265812 0.15686852 -0.15055831 0.054172873 -0.08109314 0.0871771 -0.07830743
0.03892506 0.016494067 0.22753604 -0.099961855 -0.14383513 -0.15498133 0.23708057 0.11920787
0.19403367 -0.20905511 -0.2519252 -0.22804591 -0.18891776 0.066394016 0.102682896 0.20897758
-0.13788877 -0.14704166 0.13368171 -0.016830245 0.18350244 -0.04340531 0.1432621 -0.097942345
-0.025309522 0.12152781 0.0724292 -0.0034970988 0.17795008 0.19226922 -0.11544536 -0.071181364
0.22124049 -0.038624313 -0.05879366 -0.21777754 -0.08804496 0.118776724 -0.017821543 -0.23106258
-0.18307556 -0.15783334 -0.1460617 -0.14174084 -0.29770756 -0.3779912 0.11958019 0.040457036
0.041388966 -0.27192083 -0.38239044 -0.3226121 -0.12181392 -0.317803 -0.23017606 -0.3947183
-0.46662158 -0.44067898 -0.32686344 -0.4061813 -0.43934917 -0.11668036 -0.06845948 -0.15785618
0.16769399 -0.039692804 0.17207934 0.062316433 -0.1693594 0.13840704 -0.05502896 -0.076665215
-0.1660141 -0.19883214 0.057222143 -0.043688774 0.07786463 -0.16413268 0.14848582 -0.14681074
-0.034534663 0.041773945 0.10325037 0.16146208 0.18219186 -0.15858443
00000000: 32db 4c3e 11a0 663e 4e8a 7dbb aadc 3e3e
00000010: a770 cdbd 0ac8 6b3d cb61 2cbd c331 3d3e
00000020: 0802 693e 4c45 16be 9e0e f53d d658 2e3d
00000030: 13e5 4a3e 26d0 be3d 8b76 043e be21 1fbe
00000040: 7c3b bd3d 02d1 003d 1f2b 64bd 11d3 9b3d
00000050: b343 8abe bedb 10be f285 09be e8f7 fa3d
00000060: e103 2bbe d76f 99bd c918 44bd 9165 0fbe
00000070: c8ea 54bd 9801 9fbe 75cb 5a3e 5e39 0dbe
00000080: 0b22 263e 3050 25bc c0b1 21be ccf9 2b3e
00000090: 5cb6 b73d 3839 543e 4d64 b13c b28e efbd
000000a0: 0bcb 943d bc4b 14b8 5285 173e e61d 583e
000000b0: ad34 cb3d 0779 dfbd 8eba 133e 7d6c c23d
000000c0: 9ea6 173e 3c56 e3bd 648f 4ebe 0f3e 6cbd
000000d0: 98fe 0dbe 22da 2a3e 779a 773d 7a3c ce3d
000000e0: 8e3e d23d 7d04 a63c 24a2 203e f52b 1abe
000000f0: 60e4 5d3d 2914 a6bd e889 b23d a55f a0bd
00000100: e26f 1f3d 911e 873c 35ff 683e cdb8 ccbd
00000110: 8449 13be 6db3 1ebe 40c5 723e 4123 f43d
00000120: c3b0 463e 8b12 56be 57fc 80be de84 69be
00000130: a873 41be 96f9 873d 694b d23d 38fe 553e
00000140: b732 0dbe 1792 16be dce3 083e 95df 89bc
00000150: 10e8 3b3e c4c9 31bd 4db3 123e ff95 c8bd
00000160: ea55 cfbc 93e3 f83d c355 943d 952f 65bb
00000170: 8c38 363e 39e2 443e 9e6e ecbd 89c7 91bd
00000180: de8c 623e 8734 1ebd 9fd1 70bd 1301 5fbe
00000190: ea50 b4bd 3641 f33d 7cfe 91bc ab9b 6cbe
000001a0: 2978 3bbe 109f 21be 3391 15be 8324 11be
000001b0: 206d 98be 1088 c1be 75e6 f43d 47b6 253d
000001c0: 7a87 293d 3539 8bbe aec8 c3be 6a2d a5be
000001d0: 9479 f9bd 13b7 a2be 46b3 6bbe 8418 cabe
000001e0: 06e9 eebe ada0 e1be a55a a7be fff6 cfbe
000001f0: 60f2 e0be 1df6 eebd 7c34 8cbd 0da5 21be
00000200: f9b7 2b3e ec94 22bd 9135 303e 843f 7f3d
00000210: 8d6c 2dbe 93ba 0d3e 0c66 61bd a702 9dbd
00000220: 9aff 29be a79a 4bbe c461 6a3d 00f3 32bd
00000230: 7e77 9f3d 6612 28be ab0c 183e 8e55 16be
00000240: 3874 0dbd 281b 2b3d ee74 d33d 5156 253e
00000250: 8190 3a3e f563 22be

conv1.bias f4 [6]
-0.011259039 -0.12249811 -0.021608632 -0.08355472 0.3103583 -0.1467901
00000000: d577 38bc 4ae0 fabd 9604 b1bc bd1e abbd
00000010: 48e7 9e3e 2550 16be

conv2.weight f4 [16, 6, 5, 5]
0.08057916 0.06941618 0.07166559 0.0007051624 0.10659744 0.03854481 0.031778917 -0.04645709
0.063945204 0.0074152267 -0.03572506 0.065671414 0.01884147 -0.036588673 -0.038014844 -0.004406448
0.035071332 -0.030087126 -0.04818825 -0.04240985 -0.056858122 0.023599636 0.055576026 -0.07869966
0.0004902919 0.0826954 0.053371783 0.0092621455 0.106574975 0.07229626 0.027293295 -0.042085443
-0.04593667 0.03852138 -0.010210995 0.019407095 0.0448893 0.028377961 -0.009306026 -0.07957842
0.06125376 0.005322879 -0.0029677567 0.03676107 -0.10385944 0.029809369 0.08138038 0.017583897
0.032798488 -0.009275862 -0.2700158 -0.4704664 -0.43890494 -0.2127145 -0.1735065 -0.3843766
-0.479984 -0.59755325 -0.43039906 -0.29919514 -0.47134513 -0.40917087 -0.41049767 -0.36978957
-0.44440255 -0.48584983 -0.3980148 -0.4546759 -0.4432175 -0.2698236 -0.48382476 -0.39308965
-0.5740169 -0.513447 -0.43209815 0.18885681 0.26008594 0.1571143 0.055018086 -0.06999973
0.07554642 0.028407188 -0.02654791 -0.03390397 -0.07943857 -0.014367746 0.014654794 0.0139374295
0.03227051 -0.23894668 -0.0666304 -0.004147397 -0.03738299 0.018226894 -0.32848555 -0.029944997
-0.05949104 -0.043515228 -0.10295831 -0.30019388 -0.08134626 -0.14979303 -0.028500121 -0.00799194
0.014794936 -0.08024852 0.024743754 -0.06748526 0.0040282696 0.065760836 0.036137834 0.01551327
-0.02198153 -0.06036335 0.08349892 -0.0062061017 0.0862164 0.08766165 0.12698206 0.102905475
0.0037935448 0.050215703 0.074784376 -0.023621242 0.11899282 -0.048945338 -0.0071413815 -0.040189065
-0.033375733 -0.02592041 -0.077592 0.06699416 0.06844947 -0.012808308 -0.009298429 -0.033322852
-0.073734775 -0.07945691 0.030345783 -0.044829432 -0.05249069 -0.006370567 -0.02719025 -0.026415363
0.0026234984 -0.017318904 -0.028112993 -0.03909434 -0.06644873 0.06846383 -0.014900197 0.05678705
0.021649716 0.059898634 0.13328709 0.04451901 -0.05699955 0.05134509 0.10347264 0.04729089
0.049426753 0.07714762 -0.013073103 0.020999204 -0.055959377 -0.018653113 0.059001133 0.046265688
-0.046590056 -0.08167899 -0.05853923 -0.07971172 -0.0574804 -0.014073059 0.031687498 -0.019242562
-0.11568871 -0.09890584 0.0777466 -0.047315307 -0.038258143 -0.015739543 -0.08287026 -0.025581079
-0.038021326 0.004824763 -0.039952274 -0.06997801 -0.03340509 -0.1559348 0.09247872 -0.041628268
-0.05206263 0.053692568 -0.041083794 0.015543422 0.013985218 0.022398764 -0.04264201 0.0099006
-0.23141328 -0.26961824 -0.41298702 -0.2261341 -0.44345683 -0.44028467 -0.4620742 -0.4063922
-0.22836374 -0.3830228 -0.3301153 -0.41990766 -0.41115555 -0.25257674 -0.24895343 -0.30723375
-0.37282383 -0.42953587 -0.3963671 -0.3663718 -0.36926568 -0.37992194 -0.3802632 -0.41016185
-0.36853883 0.06333215 0.30917868 0.17562829 0.015948864 0.07435198 -0.022959165 -0.054328382
0.10502802 0.029346628 0.021577332 -0.10154864 -0.03181296 0.056720577 0.06873042 0.047801
-0.044354822 -0.019204196 0.0017699125 -0.14633824 -0.26643804 0.05297143 -0.067951754 -0.018259931
-0.19287522 -0.30418044 -0.22387448 -0.1293568 -0.08983211 -0.025110206 -0.13425076 -0.07228896
00000000: b006 a53d 122a 8e3d 69c5 923d a6da 383a
00000010: c24f da3d 2ae1 1d3d 9c2a 023d ca49 3ebd
00000020: b4f5 823d 6efb f23b 7154 12bd bc7e 863d
00000030: 6d59 9a3c 01de 15bd 74b5 1bbd f763 90bb
00000040: f5a6 0f3d 4779 f6bc 0b61 45bd f3b5 2dbd
00000050: 10e4 68bd 0654 c13c b0a3 633d 4a2d a1bd
00000060: ef86 003a 355c a93d 5f9c 5a3d 41c0 173c
00000070: fb43 da3d 1010 943d 3096 df3c c961 2cbd
00000080: 1728 3cbd 98c8 1d3d 044c 27bc a1fb 9e3c
00000090: d8dd 373d e678 e83c 4d78 18bc 03fa a2bd
000000a0: 39e5 7a3d 8c6b ae3b b27e 42bb c792 163d
000000b0: 42b4 d4bd c732 f43c c2aa a63d 1b0c 903c
000000c0: b557 063d c9f9 17bc 833f 8abe f9e0 f0be
000000d0: 26b8 e0be d4d1 59be b0ab 31be 02cd c4be
000000e0: 76c0 f5be 40f9 18bf 445d dcbe 1b30 99be
000000f0: 2654 f1be d87e d1be c02c d2be 0f55 bdbe
00000100: bb88 e3be 4fc1 f8be 99c8 cbbe 48cb e8be
00000110: 67ed e2be 5226 8abe e1b7 f7be 0c43 c9be
00000120: c6f2 12bf 4371 03bf f83b ddbe ae63 413e
00000130: fc29 853e 92e2 203e a55a 613d 055c 8fbd
00000140: 15b8 9a3d 31b6 e83c 017b d9bc e4de 0abd
00000150: b0b0 a2bd b266 6bbc a91a 703c d159 643c
00000160: 152e 043d 70ae 74be 8575 88bd e3e6 87bb
00000170: e81e 19bd 9150 953c 422f a8be 364f f5bc
00000180: e0ac 73bd 063d 32bd cedb d2bd 03b3 99be
00000190: de98 a6bd 5863 19be 1679 e9bc a0f0 02bc
000001a0: 7666 723c 5659 a4bd 6ab3 ca3c b635 8abd
000001b0: 93ff 833b 9ead 863d 4405 143d 5f2b 7e3c
000001c0: 9c12 b4bc 8f3f 77bd 7b01 ab3d 8e5c cbbb
000001d0: 3992 b03d f387 b33d 9607 023e 1bc0 d23d
000001e0: 1f9d 783b fbae 4d3d 8d28 993d 5681 c1bc
000001f0: 82b2 f33d e87a 48bd 4002 eabb 4a9d 24bd
00000200: feb4 08bd 0a57 d4bc 8ee8 9ebd 3c34 893d
00000210: 3c2f 8c3d f0d9 51bc 7058 18bc 8b7d 08bd
00000220: 4202 97bd 4eba a2bd b897 f83c 119f 37bd
00000230: 7a00 57bd 30c0 d0bb 16be debc 0865 d8bc
00000240: 00ef 2b3b 60e0 8dbc 384d e6bc 6321 20bd
00000250: 4616 88bd c436 8c3d f51f 74bc 8a99 683d
00000260: bf5a b13c 4558 753d 697c 083e 9159 363d
00000270: 5c78 69bd 3b4f 523d 77e9 d33d 18b4 413d
00000280: b573 4a3d 92ff 9d3d 9130 56bc 8606 ac3c
00000290: a935 65bd 6ace 98bc 2cab 713d 1781 3d3d
000002a0: 37d5 3ebd 5047 a7bd d5c6 6fbd e63f a3bd
000002b0: 9170 6bbd b092 66bc c0ca 013d 94a2 9dbc
000002c0: 34ee ecbd 258f cabd 9c39 9f3d b2cd 41bd
000002d0: 92b4 1cbd 37f0 80bc e2b7 a9bd 698f d1bc
000002e0: 40bc 1bbd 0c19 9e3b ffa4 23bd a250 8fbd
000002f0: c7d3 08bd 5fad 1fbe 7c65 bd3d 6782 2abd
00000300: a03f 55bd bdec 5b3d 7b47 28bd d6a9 7e3c
00000310: 4122 653c 9d7d b73c 63a9 2ebd 2036 223c
00000320: 9af7 6cbe 670b 8abe 0973 d3be b38f 67be
00000330: c60c e3be fe6c e1be fd94 ecbe a312 d0be
00000340: 2fd8 69be 901b c4be df04 a9be 23fe d6be
00000350: fb82 d2be bd51 81be a6ed 7ebe be4d 9dbe
00000360: c4e2 bebe 20ec dbbe a1f0 cabe 1695 bbbe
00000370: 6410 bdbe 2185 c2be dcb1 c2be bc00 d2be
00000380: 1fb1 bcbe 49b4 813d ab4c 9e3e e7d7 333e
00000390: 31a7 823c da45 983d dc14 bcbc 7087 5ebd
000003a0: ee18 d73d 5768 f03c f2c2 b03c bcf8 cfbd
000003b0: 4e4e 02bd d653 683d 89c2 8c3d fbca 433d
000003c0: 67ad 35bd 1e52 9dbc 69fc e73a b1d9 15be
000003d0: 916a 88be 92f8 583d 4a2a 8bbd da95 95bc
000003e0: 1581 45be 8abd 9bbe 5a3f 65be 1c76 04be
000003f0: e6f9 b7bd ebb3 cdbc 0879 09be 3c0c 94bd

conv2.bias f4 [16]
0.03057468 0.050729867 0.068793125 -0.0027058711 -0.107105196 0.13123061 0.01936562 0.0004323626
-0.00384083 -0.01777923 0.018674469 0.053470198 0.02078504 -0.005796802 -0.07654452 0.15934938
00000000: c077 fa3c 1fca 4f3d 69e3 8c3d fc54 31bb
00000010: f859 dbbd 5161 063e a6a4 9e3c baae e239
00000020: 6fb6 7bbb bfa5 91bc 33fb 983c 9103 5b3d
00000030: 6345 aa3c 1af3 bdbb 60c3 9cbd 7c2c 233e

fc1.weight f4 [120, 400]
0.023978785 0.07290145 0.06191919 -0.036006205 0.0070422264 -0.012799639 -0.023682697 -0.041866563
-0.024969498 -0.053837933 0.066601716 0.021283258 -0.019736802 -0.0022280056 0.056032375 0.023086512
0.12168965 0.05383828 0.056521233 0.13076372 0.06472927 0.05094751 0.055411886 0.06990606
0.095739886 0.0062620295 0.029176353 -0.0066258935 -0.022263533 0.05311248 -0.032449607 0.010765943
-0.023080168 0.033277523 -0.053910013 -0.036624312 0.024579007 0.00027538132 0.07830095 0.061984908
-0.021312298 0.02629002 0.04563531 0.05248214 0.12744282 -0.032827064 0.04414244 -0.03584974
0.039208602 0.015081844 -0.031954907 0.057393078 0.02592052 0.047784355 -0.048612036 0.07405756
0.1018021 -0.045017928 -0.004569701 -0.005848967 0.067599595 0.14407088 0.022662688 -0.016385064
0.052694976 0.061099343 0.047275785 0.07777592 0.03494249 0.13196948 0.10307459 0.08004919
0.01481781 0.085899845 0.10743167 0.0122112455 0.032800026 -0.0399125 -0.061634563 0.0063857585
-0.024259947 -0.10089493 -0.09661722 -0.100014605 -0.040235527 -0.10974692 -0.10101296 -0.110147156
-0.121725775 -0.12826674 -0.14501704 -0.14979881 -0.117403425 -0.17890061 -0.21949297 -0.05470142
-0.14059085 -0.17064121 -0.17427526 -0.13911039 -0.114195466 -0.07107277 -0.0808083 -0.024139097
-0.00015591126 -0.081859626 0.038030062 -0.030970478 0.104858845 0.051678684 -0.022846267 0.03315241
0.009452329 0.17351945 0.09643726 0.0025433812 -0.01071854 0.07859084 0.17494218 0.22208986
0.013696931 0.02402438 0.109904915 0.12734799 0.19617842 0.024439514 0.05105712 0.06106201
0.13022909 0.07309807 0.038047317 0.12702326 0.06707041 0.08696298 0.08543365 0.07720999
0.13817318 0.06825022 0.11557566 0.055872895 0.127211 0.17534587 0.15317571 0.15156591
0.20132488 0.14958385 0.14005241 0.12823446 0.14718041 0.2209966 0.09739325 0.002658048
0.14169016 0.07809134 -0.05989313 -0.043127418 -0.021191536 -0.1291657 -0.06770699 -0.01898898
-0.19949478 0.13941956 0.10223854 -0.043846015 -0.01379609 -0.17001687 -0.13743757 -0.079513796
0.011935894 -0.080442876 -0.07761386 -0.086149804 -0.073779255 -0.05528088 -0.1672588 0.05134963
-0.021928089 0.05803854 0.04044783 0.056814305 0.0430557 -0.0045832205 -0.038274076 0.0112774605
0.06783313 -0.030228592 0.01759018 -0.0460386 0.009909279 0.095875986 -0.1289114 0.028033882
-0.039387923 -0.05940871 -0.013916826 -0.054784395 -0.10700978 -0.055944327 -0.049179237 0.058686342
-0.079941206 -0.035049573 0.044475123 0.027403258 -0.05814633 0.018542513 -0.023760293 -0.026259644
0.044599727 0.00285744 -0.0012745978 -0.0034079715 -0.0029818155 0.04395133 0.035976373 -0.03985516
0.036652043 0.030030085 0.03090203 0.07194348 -0.102053314 -0.07569297 0.050684687 0.09803075
0.17209622 0.079022914 0.088865995 0.067419186 0.052196313 0.02043305 0.07088476 -0.010967182
-0.0059437137 -0.072184704 -0.0071710064 -0.0101873875 0.07097918 0.019640496 -0.021452803 -0.07375355
-0.0023471792 -0.0035516862 -0.03126704 -0.039215162 0.025251996 0.028222388 -0.014764416 0.026892737
0.0017419262 -0.033741094 0.087279804 0.11910064 0.07432894 0.04852902 0.0070792655 0.0848958
00000000: 286f c43c 5b4d 953d fa9e 7d3d 3e7b 13bd
00000010: 7ac2 e63b 94b5 51bc 3702 c2bc 467c 2bbd
00000020: d58c ccbc 2a85 5cbd 7b66 883d 3a5a ae3c
00000030: 13af a1bc bb03 12bb 3482 653d ed1f bd3c
00000040: 6c38 f93d 8785 5c3d cf82 673d ede6 053e
00000050: c890 843d 56ae 503d 93f7 623d e92a 8f3d
00000060: 4613 c43d b631 cd3b 3f03 ef3c 061e d9bb
00000070: 0362 b6bc 798c 593d e1e9 04bd a363 303c
00000080: 9f12 bdbc 034e 083d bfd0 5cbd 6003 16bd
00000090: ea59 c93c 0e61 9039 405c a03d e3e3 7d3d
000000a0: 2197 aebc 2b5e d73c 17ec 3a3d 83f7 563d
000000b0: 5f80 023e ac75 06bd b4ce 343d 2dd7 12bd
000000c0: 3399 203d d719 773c 26e3 02bd 0115 6b3d
000000d0: 4557 d43c 87b9 433d 6a1d 47bd 7dab 973d
000000e0: 9f7d d03d b864 38bd 6ebd 95bb b1a8 bfbb
000000f0: a871 8a3d 5187 133e 1aa7 b93c f839 86bc
00000100: b0d6 573d 4e43 7a3d 41a4 413d fb48 9f3d
00000110: db1f 0f3d 0223 073e c518 d33d d4f0 a33d
00000120: 66c6 723c 42ec af3d 2305 dc3d ad11 483c
00000130: 5259 063d 4a7b 23bd 8674 7cbd a03f d13b
00000140: ccbc c6bc 00a2 cebd 40df c5bd 75d4 ccbd
00000150: 02ce 24bd fec2 e0bd e2df cebd d594 e1bd
00000160: 5d4b f9bd 5b58 03be 597f 14be dc64 19be
00000170: 3571 f0bd b931 37be c4c2 60be 990e 60bd
00000180: 0cf7 0fbe 92bc 2ebe 3775 32be f472 0ebe
00000190: 50df e9bd 9a8e 91bd d27e a5bd 5bbf c5bc
000001a0: 1c7c 23b9 05a6 a7bd 69c5 1b3d cdb5 fdbc
000001b0: 3cc0 d63d 07ad 533d 1828 bbbc d2ca 073d
000001c0: f1dd 1a3c 15af 313e e680 c53d dbae 263b
000001d0: d19c 2fbc 3cf4 a03d 0b24 333e 866b 633e
000001e0: 1869 603c c7ce c43c d415 e13d 8367 023e
000001f0: ffe2 483e 6035 c83c 4521 513d 281c 7a3d
00000200: c65a 053e 71b4 953d 81d7 1b3d 6312 023e
00000210: 365c 893d a619 b23d d6f7 ae3d 4520 9e3d
00000220: 457d 0d3e c5c6 8b3d eeb2 ec3d fada 643d
00000230: 9a43 023e de8d 333e 18da 1c3e 1834 1b3e
00000240: 1c28 4e3e 822c 193e e669 0f3e e54f 033e
00000250: 76b6 163e ef4c 623e 1d76 c73d a532 2e3b
00000260: 3a17 113e 5aee 9f3d 8052 75bd 60a6 30bd
00000270: df99 adbc 0344 04be f6a9 8abd c78e 9bbc
00000280: 5c48 4cbe 00c4 0e3e 7162 d13d e197 33bd
00000290: ff08 62bc e718 2ebe 6fbc 0cbe 21d8 a2bd
000002a0: c58e 433c 3cbf a4bd 04f4 9ebd 4f6f b0bd
000002b0: 9419 97bd 346e 62bd e445 2bbe fd53 523d
000002c0: 89a2 b3bc d2b9 6d3d a0ac 253d 1eb6 683d
000002d0: 2c5b 303d d72e 96bb 47c5 1cbd 19c5 383c
000002e0: 19ec 8a3d f4a1 f7bc 4819 903c f992 3cbd
000002f0: 875a 223c a15a c43d 5a01 04be 50a7 e53c
00000300: 3b55 21bd 8c56 73bd 6603 64bc 9a65 60bd
00000310: f227 dbbd e125 65bd 2b70 49bd 1761 703d
00000320: 37b8 a3bd 2490 0fbd 8c2b 363d cc7c e03c
00000330: d92a 6ebd 78e6 973c f2a4 c2bc 771e d7bc
00000340: 34ae 363d e343 3b3b 6810 a7ba 4658 5fbb
00000350: 906a 43bb 4f06 343d f65b 133d 2a3f 23bd
00000360: 7420 163d a701 f63c 4126 fd3c 1a57 933d
00000370: 5401 d1bd ea04 9bbd bf9a 4f3d 59c4 c83d
00000380: fe39 303e c4d6 a13d 60ff b53d 1213 8a3d
00000390: cdcb 553d 3663 a73c 072c 913d b2af 33bc
000003a0: 7cc3 c2bb 93d5 93bd c3fa eabb 00e9 26bc
000003b0: 885d 913d 1be5 a03c cabd afbc 1a0c 97bd
000003c0: 22d3 19bb 68c3 68bb de11 00bd 14a0 20bd
000003d0: 46dd ce3c a332 e73c 73e6 71bc 284e dc3c
000003e0: 5851 e43a 1a34 0abd c1bf b23d 09eb f33d
000003f0: c539 983d 5ec6 463d 2ff9 e73b d9dd ad3d

fc1.bias f4 [120]
0.022878595 0.088364504 -0.023894679 0.060216468 0.006903945 0.025799522 0.058910612 0.056277264
-0.014680551 -0.02497674 0.051936895 -0.019179814 -0.008317114 0.036135357 -0.03167483 0.085958585
0.05900994 -0.04381318 0.062189594 -0.02678784 -0.066465735 0.032127682 -0.009071692 -0.05085875
0.030845644 0.076139726 -0.0059835785 0.06408201 0.06395779 0.06849949 0.009269536 0.028334076
-0.01025654 -0.038176935 0.0031683745 0.031245222 0.017550314 0.08838643 0.09634499 -0.028523017
0.0031378574 0.083379105 0.00907767 0.08922491 0.032786813 -0.046178993 0.050318185 -0.027144292
-0.009457483 0.08867847 0.090682596 0.099007346 0.009068757 0.07924702 0.002690475 0.00989701
-0.0010579082 0.022453856 -0.004957227 0.035463877 0.06743896 0.010267078 -0.0059945653 0.09791619
-0.019762006 -0.051366262 0.031936288 -0.020699088 0.12365977 0.08181757 -0.003455986 0.07138415
-0.03386638 -0.01605251 -0.023787664 0.080373 -0.042591933 -0.024722004 0.04833168 0.07413733
-0.061329514 0.026803086 0.064066455 0.015011679 -0.015027761 0.014204831 -0.02675109 0.09246997
0.047786284 0.028251406 0.08316637 -0.0004743215 -0.051994964 0.01576138 0.052519813 0.025432812
0.034085374 -0.024034197 0.028693907 0.04718063 0.07840234 0.011659631 0.09114274 0.09120841
-0.037030946 0.04769862 0.06333167 0.04004057 -0.06345794 0.046713084 0.03745643 0.03344932
-0.024736566 0.030519804 0.0048243473 0.06652125 -0.018293107 -0.019865863 -0.06927274 -0.07149753
00000000: e46b bb3c 73f8 b43d c6be c3bc 8ba5 763d
00000010: 7d3a e23b 8559 d33c 414c 713d fd82 663d
00000020: b286 70bc 059c ccbc c8bb 543d fc1e 9dbc
00000030: 8144 08bc ab02 143d 77bd 01bd 0e0b b03d
00000040: 68b4 713d 7375 33bd 84ba 7e3d 2c72 dbbc
00000050: 301f 88bd 5198 033d 6fa1 14bc 4451 50bd
00000060: 01b0 fc3c 25ef 9b3d e511 c4bb 6e3d 833d
00000070: 4dfc 823d 7649 8c3d 40df 173c dd1c e83c
00000080: 0c0b 28bc 6b5f 1cbd 81a4 4f3b fbf5 ff3c
00000090: adc5 8f3c f203 b53d 8650 c53d 1aa9 e9bc
000000a0: 83a4 4d3b aac2 aa3d 82ba 143c 8dbb b63d
000000b0: 774b 063d 2f26 3dbd 711a 4e3d b55d debc
000000c0: 8ff3 1abc 0f9d b53d ccb7 b93d 5dc4 ca3d
000000d0: 2095 143c 434c a23d ae52 303b 1227 223c
000000e0: 82a9 8aba 26f1 b73c 3c70 a2bb 9242 113d
000000f0: 701d 8a3d 3f37 283c 0f6e c4bb 4988 c83d
00000100: eee3 a1bc 6e65 52bd a0cf 023d 2291 a9bc
00000110: 5541 fd3d f88f a73d d37d 62bb da31 923d
00000120: 79b7 0abd 8e80 83bc 59de c2bc 999a a43d
00000130: e174 2ebd cd85 cabc 71f7 453d 50d5 973d
00000140: a834 7bbd 2592 db3c 4635 833d 8cf3 753c
00000150: 0037 76bc 61bb 683c 1a25 dbbc e560 bd3d
00000160: 8dbb 433d 7e6f e73c 2153 aa3d 5bae f8b9
00000170: acf8 54bd 021e 813c 041f 573d 7958 d03c
00000180: 1b9d 0b3d 5de3 c4bc 7c0f eb3c 7a40 413d
00000190: 6891 a03d 0908 3f3c 0ba9 ba3d 7acb ba3d
000001a0: c3ad 17bd a15f 433d 09b4 813d 9501 243d
000001b0: 3df6 81bd 3856 3f3d ea6b 193d 2702 093d
000001c0: 57a4 cabc ab04 fa3c 8f15 9e3b 4b3c 883d
000001d0: 6ddb 95bc bcbd a2bc dede 8dbd 4c6d 92bd

fc2.weight f4 [84, 120]
0.26411578 -0.14753745 -0.0018812661 0.16445987 0.042585038 -0.05931278 -0.29781142 -0.13802505
0.06625044 -0.08423018 0.19098447 -0.033990648 0.04681788 -0.03195457 0.099908315 0.11790924
0.3429405 -0.09625618 0.12982625 0.0878509 0.35256663 -0.016705813 0.23256685 -0.09034978
0.041612204 0.1082212 0.021509066 -0.03962421 0.18354341 0.1862614 0.009106304 0.0077891
0.2972143 0.14036588 0.24661788 -0.30184656 0.23115464 0.3161382 0.04009573 0.01757046
-0.053209487 0.131352 -0.11163315 0.20668368 -0.26299888 0.050631456 -0.23073958 -0.17993847
0.038936123 0.02082925 -0.1213781 0.18939221 -0.0618719 0.23775418 0.040379465 -0.29702538
-0.04553456 0.22840202 -0.006782101 0.13238442 0.05518918 -0.033898886 -0.015495996 0.2810278
0.026251722 -0.01979637 -0.018239906 0.030075602 0.114655346 -0.0044817803 -0.14852601 0.07538978
0.040550563 0.34837255 0.00902091 0.0013503903 0.16834573 -0.058775038 0.22015804 0.0718731
0.045440294 0.016551916 0.06993362 0.08433813 0.011282467 -0.06454845 -0.015874123 0.18743297
0.3882988 0.05160763 0.003219211 -0.055361107 0.07235742 -0.09350349 0.09751641 0.17486133
0.056307916 -0.009366141 -0.09564026 -0.08850802 0.054353658 -0.0026453412 -0.0032448128 0.2869751
0.014680163 0.07093614 0.25421506 0.03627585 0.009771611 -0.17809059 -0.09025933 0.0066791484
0.06496437 0.21245639 -0.060813207 0.119054295 -0.07754774 -0.08918848 0.067359015 -0.06372335
0.06879067 -0.07571468 -0.04380465 -0.0044303485 -0.042588267 -0.0812531 -0.0070721563 -0.21656165
0.21391569 0.006886382 -0.1582613 -0.021019809 -0.057975728 -0.012996806 0.026195977 0.09965065
-0.0015296113 -0.079449035 0.17604975 0.033545326 -0.04831242 0.016166005 0.24639922 0.009891215
-0.032301012 -0.0047917045 0.19912927 0.042624824 0.20372878 -0.13403644 0.06099235 0.031284597
0.00059410045 -0.15433946 0.11352728 0.011094978 -0.030746983 0.14276189 0.028220672 -0.07118904
-0.0420823 0.06303985 0.06717275 -0.11469225 -0.045754123 0.018861394 0.0396394 0.12374545
0.17496552 0.111365944 0.064846724 0.1597747 0.095921 -0.09933217 -0.0028357226 0.08823971
0.052522596 0.0049872915 0.0025739747 -0.18286572 0.00096916733 0.021324651 -0.0031720153 -0.04045208
0.052997135 0.0007856488 0.07043619 -0.04672493 -0.004791764 0.19588487 0.002910186 0.0140445335
0.06111102 -0.20974876 0.077346236 -0.09168479 0.6812989 0.000962103 0.14459783 -0.18360104
-0.019853162 0.2388259 0.0043281047 0.08295004 -0.004242381 -0.09832197 -0.037345387 0.005328173
0.08648797 -0.10566695 0.16591462 -0.01657382 0.048039854 0.120120384 0.027633853 -0.17078309
0.025186993 -0.02402852 -0.15025708 0.05882754 -0.08879333 -0.006242665 -0.053114407 0.14888512
0.05601265 0.10506992 0.13806488 -0.20370984 0.042920142 0.122240715 0.039967846 0.12906423
0.08409771 0.12615514 -0.04004752 0.20520128 0.016869508 -0.009078318 -0.009907434 0.0066582058
-0.04870002 0.057220627 -0.069355555 0.042040505 -0.084449805 0.042870954 -0.3611235 0.44340262
0.12436475 0.021877907 -0.055386644 0.03517625 0.014253402 0.063022785 0.057305317 0.06841919
00000000: 2f3a 873e 0f14 17be d194 f6ba 2b68 283e
00000010: a66d 2e3d f5f1 72bd bd7a 98be 7056 0dbe
00000020: 50ae 873d df80 acbd 6f91 433e c739 0bbd
00000030: 1bc4 3f3d cce2 02bd bb9c cc3d 667a f13d
00000040: e695 af3e f621 c5bd 2cf1 043e 2ceb b33d
00000050: 9d83 b43e a1da 88bc 0126 6e3e 4e09 b9bd
00000060: 8f71 2a3d 14a3 dd3d c833 b03c ff4c 22bd
00000070: cef2 3b3e 4fbb 3e3e 9b32 153c b53b ff3b
00000080: 792c 983e 13bc 0f3e 6689 7c3e a28b 9abe
00000090: cdb3 6c3e dedc a13e 6c3b 243d edef 8f3c
000000a0: 31f2 59bd 2481 063e ec9f e4bd e3a4 533e
000000b0: caa7 86be ee62 4f3d ff46 6cbe ca41 38be
000000c0: 7c7b 1f3d 1aa2 aa3c 1595 f8bd 08f0 413e
000000d0: 646d 7dbd d575 733e f064 253d b613 98be
000000e0: 7282 3abd 38e2 693e 633c debb c88f 073e
000000f0: 0d0e 623d 8fd9 0abd ebe2 7dbc e0e2 8f3e
00000100: da0d d73c ff2b a2bc db6b 95bc 1c61 f63c
00000110: 6cd0 ea3d e6db 92bb 3417 18be f565 9a3d
00000120: 5918 263d e35d b23e 70cc 133c 94ff b03a
00000130: d362 2c3e 18be 70bd 1c71 613e 3432 933d
00000140: 9a1f 3a3d e297 873c 5c39 8f3d 78b9 ac3d
00000150: 19da 383c fa31 84bd 730a 82bc 6eee 3f3e
00000160: 1acf c63e 8662 533d 66f9 523b 54c2 62bd
00000170: 2130 943d c27e bfbd afb6 c73d d90e 333e
00000180: 21a3 663d 7174 19bc 0adf c3bd b143 b5bd
00000190: f1a1 5e3d 765d 2dbb eda6 54bb 66ee 923e
000001a0: 1185 703c f846 913d 7a28 823e fc95 143d
000001b0: 1b19 203c 615d 36be e2d9 b8bd c2dc da3b
000001c0: 0a0c 853d 2b8e 593e 4517 79bd bdd2 f33d
000001d0: 59d1 9ebd 73a8 b6bd 86f3 893d 6381 82bd
000001e0: 1fe2 8c3d 4c10 9bbd 816c 33bd 752c 91bb
000001f0: 0971 2ebd 0668 a6bd 8cbd e7bb 56c2 5dbe
00000200: b70c 5b3e 29a7 e13b 400f 22be bc31 acbc
00000210: f577 6dbd 8ef0 54bc f298 d63c a415 cc3d
00000220: 3d7d c8ba 2db6 a2bd 6346 343e d366 093d
00000230: 3ee3 45bd 926e 843c 1450 7c3e c30e 223c
00000240: 114e 04bd bb03 9dbb 8be8 4b3e 5e97 2e3d
00000250: 479e 503e d940 09be 1dd3 793d 4724 003d
00000260: 68bd 1b3a 2a0b 1ebe fe80 e83d b6c7 353c
00000270: 19e1 fbbc 2c30 123e 0a2f e73c 8fcb 91bd
00000280: 7d5e 2cbd 091b 813d de91 893d c5e3 eabd
00000290: ad68 3bbd 3683 9a3c ec5c 223d 416e fd3d
000002a0: 292a 333e d413 e43d 5cce 843d fb9b 233e
000002b0: 3b72 c43d aa6e cbbd 88d7 39bb 05b7 b43d
000002c0: ef21 573d 6f6c a33b 21b0 283b 2741 3bbe
000002d0: b80f 7e3a 09b1 ae3c 96e1 4fbb 15b1 25bd
000002e0: 8613 593d 00f4 4d3a d940 903d a462 3fbd
000002f0: 3b04 9dbb 0b96 483e d2b8 3e3b 0b1b 663c
00000300: 8d4f 7a3d 61c8 56be b467 9e3d 3cc5 bbbd
00000310: 9b69 2e3f a435 7c3a 7411 143e e901 3cbe
00000320: 19a3 a2bc c78e 743e c6d2 8d3b b6e1 a93d
00000330: ac03 8bbb 075d c9bd 7af7 18bd f497 ae3b
00000340: 9b20 b13d ea67 d8bd 86e5 293e d2c5 87bc
00000350: 70c5 443d ad01 f63d 6460 e23c c3e1 2ebe
00000360: f454 ce3c 75d7 c4bc fedc 19be 26f5 703d
00000370: 47d9 b5bd 458f ccbb 7e8e 59bd 5775 183e
00000380: 856d 653d e62e d73d e160 0d3e 5099 50be
00000390: 08cd 2f3d 5759 fa3d 53b5 233d 6a29 043e
000003a0: 6c3b ac3d d02e 013e de08 24bd 4920 523e
000003b0: ec31 8a3c 3abd 14bc ca52 22bc 142d da3b
000003c0: ac79 47bd 2d60 6a3d 490a 8ebd aa32 2c3d
000003d0: 05f4 acbd 7499 2f3d 2ee5 b8be ab05 e33e
000003e0: f2b2 fe3d 4c39 b33c 1bdd 62bd f914 103d
000003f0: 1a87 693c 1712 813d fbb8 6a3d 5c1f 8c3d

fc2.bias f4 [84]
-0.055010203 0.10796475 0.1168371 0.06516415 0.0016882631 0.06788784 0.11894958 0.083403625
0.13025124 -0.045201614 0.07880812 0.035793696 0.07843834 -0.04077904 0.099140584 0.067774735
-0.060877983 0.053083207 0.0856768 0.16587795 0.11371835 -0.027379187 0.13481306 0.11971439
0.13834882 0.027763084 0.002759358 -0.034632783 -0.096413895 -0.022913044 -0.09810192 0.01918812
0.13598035 -0.05801403 0.085130036 0.057576116 0.075878635 -0.019449897 0.023736713 -0.00014353365
0.08766521 0.029713051 -0.081790246 -0.10461317 0.10944754 0.033674493 -0.032882713 0.07793196
0.0025543799 0.114628114 -0.07062569 -0.04996868 0.09365301 0.13856554 0.046852406 -0.04954245
0.049896806 0.021148458 -0.02235901 -0.060647003 0.062346052 -0.020365493 0.13842195 0.10602362
0.046916444 0.12972951 -0.077868685 0.102786586 -0.029519781 -0.055719387 0.10208095 0.05127685
0.05238388 0.066524014 0.04020993 0.06813522 -0.017221022 -0.090841 -0.10269553 -0.041544393
0.066849776 0.019247755 0.08367159 0.0389536
00000000: 6152 61bd 9f1c dd3d 4a48 ef3d c874 853d
00000010: b648 dd3a c808 8b3d d69b f33d 85cf aa3d
00000020: 9560 053e 5425 39bd 2766 a13d 699c 123d
00000030: 48a4 a03d ec07 27bd 380a cb3d 7bcd 8a3d
00000040: 315b 79bd c76d 593d 5177 af3d e9db 293e
00000050: 2be5 e83d 514a e0bc 6f0c 0a3e d12c f53d
00000060: 50ab 0d3e 686f e33c 58d6 343b 1bdb 0dbd
00000070: a674 c5bd 23b4 bbbc a9e9 c8bd 6730 9d3c
00000080: 6f3e 0b3e 1fa0 6dbd a858 ae3d efd4 6b3d
00000090: 4266 9b3d 6455 9fbc 7f73 c23c 8581 16b9
000000a0: d189 b33d c968 f33c a581 a7bd 6e3f d6bd
000000b0: 0826 e03d 44ee 093d 06b0 06bd cb9a 9f3d
000000c0: 6267 273b 25c2 ea3d 34a4 90bd f5ab 4cbd
000000d0: 26cd bf3d 20e4 0d3e 4fe8 3f3d 06ed 4abd
000000e0: 9860 4c3d 883f ad3c 3e2a b7bc fe68 78bd
000000f0: 935e 7f3d 89d5 a6bc 7cbe 0d3e e922 d93d
00000100: 752b 403d d0d7 043e 9e79 9fbd c681 d23d
00000110: 78d3 f1bc 033a 64bd d10f d13d ad07 523d
00000120: 7b90 563d be3d 883d 2bb3 243d 7a8a 8b3d
00000130: 1a13 8dbc d90a babd 0952 d2bd 742a 2abd
00000140: 89e8 883d 78ad 9d3c 035c ab3d cf8d 1f3d

fc3.weight f4 [5, 84]
-0.22551467 0.0008631006 -0.11123689 -0.3713952 0.0304377 -0.23243804 0.2906745 -0.18544862
0.28304002 -0.4934916 -0.13775946 0.025547795 -0.23121269 -0.08161777 -0.1512832 -0.45473608
-0.2065469 -0.1725935 0.1624254 0.32181978 -0.43980914 -0.09220504 0.23904079 -0.46375048
-0.10303049 -0.013805144 0.19885683 0.23295756 0.02619094 -0.46586335 -0.016411847 -0.012647534
0.26196352 -0.0923149 -0.13136718 -0.021752376 0.20085971 -0.069940485 0.068954 -0.05125022
-0.12891953 0.077607624 -0.38385326 0.023387969 0.2770471 0.37637952 0.03197547 -0.68539536
0.12440144 0.026928015 -0.05551686 -0.5236089 0.09839117 -0.117041506 0.17615978 0.025424197
-0.2142406 0.10794149 -0.37685007 0.0023985126 0.21496949 -0.3460006 -0.16166319 0.059852503
0.017365336 0.09357598 0.06579587 -0.084796235 -0.2149967 -0.30362552 -0.07698312 0.19505815
-0.05919914 0.04149251 -0.26296535 -0.33041954 0.07158573 0.0020033212 -0.09436438 -0.18725483
-0.07344036 0.08470334 -0.50228256 0.19522867 0.17616588 -0.120564915 0.16585343 0.20403336
0.083689645 -0.121027015 0.053741407 0.06241872 -0.36798236 -0.33398014 0.013838902 0.06447955
0.33314744 0.09424088 -0.08074994 -0.16418408 0.32012826 -0.027016852 0.16277777 -0.1961803
-0.048227467 0.06393457 -0.06930061 -0.24448028 -0.012949925 -0.0024618425 -0.28673813 0.28242987
0.092896216 0.19211867 -0.025229758 -0.07573085 -7.957933e-06 0.03669617 -0.104044735 -0.14919463
-0.12752017 -0.031750344 -0.04271127 -0.06485565 -0.031271346 0.06600347 0.09635626 -0.0063949223
-0.37302077 -0.37254456 0.07534435 0.7067639 0.1970698 0.30249062 -0.045506775 -0.38020286
0.13619891 -0.42781466 -0.11628687 0.018339451 -0.06805168 0.09142753 -0.023334393 0.044333287
-0.36617348 0.08983003 0.0124935685 -0.48110956 -0.12673235 -0.32298318 -0.08780103 -0.1612377
0.0601514 -0.26035628 -0.23634723 0.10472024 -0.061706427 0.11653686 0.2941904 0.15479085
0.04958945 -0.017043434 0.04880685 0.43052226 0.09227403 0.27601928 -0.25977856 -0.2607006
-0.3725921 -0.25792062 0.17082384 -0.13396284 -0.17319858 0.06967886 -0.04414067 0.2779
0.23234902 0.15260929 -0.109171025 -0.17280588 0.19137385 0.019606285 -0.11382835 0.32514825
0.3772093 0.025933353 -0.09643563 0.18755606 0.14626177 0.08559483 0.009909276 0.08401754
0.011124123 -0.09544288 0.24002469 -0.30952522 -0.04022527 -0.0065548513 -0.029641092 -0.09345004
-0.04691909 -0.0116737215 0.1564069 -0.027890567 -0.04396027 0.14296912 -0.06065381 0.08327635
0.08004675 0.06608039 0.16757585 -0.004000178 0.14010711 -0.23321079 -0.07775993 0.0810887
-0.30276784 0.22946997 0.05866527 0.081039496 -0.08353024 -0.26919124 -0.11393202 0.09456126
-0.045128137 -0.33379683 0.06284273 -0.019987198 0.098296724 0.28941515 -0.19261509 -0.10177029
-0.19197305 0.37477306 0.044100173 -0.061461918 0.17079717 0.35389045 -0.1223574 -0.1004021
-0.010258612 -0.2556201 -0.1495419 -0.0029880647 -0.02764381 -0.02009542 -0.004528678 -0.20474115
-0.27215546 -0.1859539 0.19387947 0.3756306 0.3043848 -0.10273715 -0.32666007 0.1628401
00000000: 51ed 66be b341 623a 2bd0 e3bd 8327 bebe
00000010: 7c58 f93c 3d04 6ebe 4ad3 943e 3ee6 3dbe
00000020: 9fea 903e eeaa fcbe d110 0dbe 9c49 d13c
00000030: 05c3 6cbe 3827 a7bd fce9 1abe 2bd3 e8be
00000040: 0881 53be 5abc 30be d852 263e 90c5 a43e
00000050: aa2e e1be ffd5 bcbd 1cc7 743e b470 edbe
00000060: a601 d3bd f82e 62bc 20a1 4b3e 6d8c 6e3e
00000070: 628e d63c a485 eebe 2372 86bc 9a37 4fbc
00000080: 1520 863e 980f bdbd 1e85 06be 0a32 b2bc
00000090: 2bae 4d3e f53c 8fbd c137 8d3d c0eb 51bd
000000a0: 7b03 04be bff0 9e3d 6a88 c4be 2098 bf3c
000000b0: 1ed9 8d3e d1b4 c03e b6f8 023d 1276 2fbf
000000c0: 2fc6 fe3d 2498 dc3c a665 63bd 3c0b 06bf
000000d0: 4f81 c93d 75b3 efbd 3b63 343e 6846 d03c
000000e0: e361 5bbe 6e10 dd3d 7ef2 c0be 5d30 1d3b
000000f0: f620 5c3e fe26 b1be 098b 25be e627 753d
00000100: c041 8e3c c3a4 bf3d fcbf 863d a6a9 adbd
00000110: 1828 5cbe ce74 9bbe 53a9 9dbd 53bd 473e
00000120: cc7a 72bd 0df4 293d 65a3 86be c02c a9be
00000130: 8a9b 923d 274a 033b 1d42 c1bd bbbf 3fbe
00000140: e667 96bd f278 ad3d 9795 00bf 06ea 473e
00000150: d464 343e bdea f6bd 7bd5 293e 1fee 503e
00000160: 7a65 ab3d 03dd f7bd f31f 5c3d c6aa 7f3d
00000170: 2f68 bcbe 72ff aabe 90bc 623c db0d 843d
00000180: 4d92 aa3e 5d01 c13d 3960 a5bd df1f 28be
00000190: dae7 a33e 7252 ddbc 37af 263e 7de3 48be
000001a0: 2a8a 45bd 21f0 823d 7aed 8dbd 0a59 7abe
000001b0: ec2b 54bc dd56 21bb 57cf 92be a69a 903e
000001c0: 5f40 be3d c2ba 443e a3ae cebc c718 9bbd
000001d0: 1083 05b7 b94e 163d 6815 d5bd 7ac6 18be
000001e0: a694 02be a60c 02bd 03f2 2ebd 0ad3 84bd
000001f0: 6216 00bd d42c 873d 6e56 c53d 7f8c d1bb
00000200: 94fc bebe 29be bebe 234e 9a3d 7bee 343f
00000210: aacc 493e 0de0 9a3e 5065 3abd f3a9 c2be
00000220: ba77 0b3e 860a dbbe cf27 eebd 9e3c 963c
00000230: ae5e 8bbd 5b3e bb3d c527 bfbc d296 353d
00000240: 177b bbbe cff8 b73d d3b1 4c3c fe53 f6be
00000250: 20c6 01be 0d5e a5be 07d1 b3bd 7f1b 25be
00000260: 5061 763d 6b4d 85be 0205 72be 9177 d63d
00000270: e1bf 7cbd e1aa ee3d 20a0 963e 7e81 1e3e
00000280: 4f1e 4b3d ac9e 8bbc b1e9 473d 6a6d dc3e
00000290: 2bfa bc3d 6652 8d3e b201 85be 8d7a 85be
000002a0: 64c4 bebe 2c0e 84be 72ec 2e3e 8e2d 09be
000002b0: f85a 31be cab3 8e3d d9cc 34bd e948 8e3e
000002c0: e7ec 6d3e 9c45 1c3e 0f95 dfbd 06f4 30be
000002d0: 82f7 433e 5c9d a03c d71e e9bd d579 a63e
000002e0: 9421 c13e 2f72 d43c 0b80 c5bd b20e 403e
000002f0: a5c5 153e 584c af3d 845a 223c 6311 ac3d
00000300: f441 363c 8f77 c3bd 08c9 753e 177a 9ebe
00000310: 41c3 24bd 14ca d6bb e0d1 f2bc bc62 bfbd
00000320: 3b2e 40bd 2343 3fbc 2129 203e c27a e4bc
00000330: af0f 34bd 7f66 123e 2170 78bd ca8c aa3d
00000340: 8def a33d 2855 873d 0199 2b3e ed13 83bb
00000350: 3d78 0f3e cfce 6ebe 9940 9fbd d511 a63d
00000360: 6304 9bbe 2dfa 6a3e ff4a 703d 09f8 a53d
00000370: e711 abbd 6fd3 89be 3155 e9bd 55a9 c13d
00000380: 48d8 38bd 6be7 aabe b0b3 803d 31bc a3bc
00000390: cb4f c93d 392e 943e e43c 45be f16c d0bd
000003a0: 9594 44be 41e2 bf3e 62a2 343d 7ebf 7bbd
000003b0: 74e5 2e3e 2131 b53e 8496 fabd 9e9f cdbd
000003c0: bd13 28bc a3e0 82be 8321 19be 68d3 43bb
000003d0: 4575 e2bc 269f a4bc 4e65 94bb aaa7 51be
000003e0: f657 8bbe b36a 3ebe 5788 463e a752 c03e
000003f0: 53d8 9b3e db67 d2bd fd3f a7be 8ebf 263e

fc3.bias f4 [5]
0.13885881 0.066427715 -0.06292818 -0.08308805 0.04620941
00000000: 0131 0e3e 410b 883d 7de0 80bd 112a aabd
00000010: 1446 3d3d
