output_visualizations/base_tsk[x]_agm[crop]_spl[S2]_mdl[lenet]_ls[BCE]_tu[none]/model.pt (torch, 246727 bytes, 9 tensors)

conv1.weight f4 [6, 1, 5, 5]
00000000: 90eb 803e 1462 813e 240e 30bd 6fab aa3d
00000010: 057e 6dbe 7cd4 f43d 5f33 1b3c 8f21 253e
00000020: 12d5 d93d 32d8 a4be e90f 513e 4ac9 fb3d
00000030: 5ff2 4f3e d0d5 88bc ac19 6dbd e2a2 7cbd
00000040: b634 413e ff7e 8f3d f72f f1bd bc41 8dbd
00000050: 9c45 3cbe 9dd1 59bd f5da a0bd 66ab e03d
00000060: 1962 7dbe fbf6 a2bd 8b97 4fbd 8685 0bbe
00000070: 4838 afbc 12f8 86be cd3e 513e 56b0 0dbe
00000080: eafe 283e f3c3 cd3b 2481 08be a728 1a3e
00000090: 56ed a53d 5bda 4a3e 292c 5a3c e58b 02be
000000a0: 5633 9b3d 8a72 a73a ac4d 0a3e 4c78 3e3e
000000b0: 1a9a 803d d016 9ebd ccfd 253e c1b4 ad3d
000000c0: 669b ed3d 19db 25be 175a 49be b9a3 8dbd
000000d0: 84a7 0cbe 2ca0 3b3e 3f83 953d dbbc b73d
000000e0: 6216 993d 5dec 2a3c 1f52 2c3e cfd5 0bbe
000000f0: 11ce f73c 711d f1bd 3854 9c3d 4e27 7fbd
00000100: f25e 743d 8aca 55bc ad4d 453e b86c d0bd
00000110: 82f1 ecbd 7476 00be 3ba2 583e 948a c03d
00000120: 6b8f 533e 4efc 29be 89bf 56be cac7 20be
00000130: 31ea 0cbe e480 9e3d 83fa 8c3d 7083 283e
00000140: 80c3 dcbd 4dd5 10be 8862 cf3d 26f7 acbd
00000150: 5433 f53d 1e6a 56bd f833 df3d 7a99 24be
00000160: 5b91 d7bd 4747 723d f936 183d f359 67bd
00000170: d0d9 e83d 8d46 063e 4986 16be 2c60 e5bd
00000180: 3af3 353e d660 95bd ccb7 9bbd ea0d 49be
00000190: 482d 52be efd3 26bd eabc fbbd 3db1 7cbe
000001a0: 2bad c4bd b1db 63be b35e 81be 1c0d 48be
000001b0: 2cf4 86be 5713 62be e625 e63d fccd 2cbd
000001c0: 43f7 98bc e70a 8abe eca7 60be 1b26 19be
000001d0: 4e30 48bd 9246 84be 03cd 31be 48fa 58be
000001e0: 530e a6bd 1ccc 1fbe f889 d0bd 08e1 6abe
000001f0: afbe 6dbe 1df6 eebd 7c34 8cbd 0da5 21be
00000200: f9b7 2b3e ec94 22bd 9135 303e 843f 7f3d
00000210: 8d6c 2dbe 93ba 0d3e 0c66 61bd a702 9dbd
00000220: 9aff 29be a79a 4bbe c461 6a3d 00f3 32bd
00000230: 7e77 9f3d 6612 28be ab0c 183e 8e55 16be
00000240: 3874 0dbd 281b 2b3d ee74 d33d 5156 253e
00000250: 8190 3a3e f563 22be
0.2517972 0.2527014 -0.042982236 0.083334796 -0.23192604 0.11954591 0.009472697 0.16126083
0.10636343 -0.32196194 0.20416225 0.12294252 0.20307301 -0.016703516 -0.05788581 -0.061678775
0.18867764 0.070066445 -0.11776727 -0.068973035 -0.18385929 -0.05317842 -0.07854263 0.10970192
-0.24744453 -0.07957264 -0.050681632 -0.13625154 -0.021389142 -0.26361138 0.20434113 -0.13836798
0.16503492 0.0062794625 -0.13330513 0.1505457 0.08101909 0.19809859 0.013316193 -0.12748678
0.07578151 0.0012775224 0.13506192 0.18600577 0.062793925 -0.07719195 0.16210097 0.08481742
0.116019055 -0.1619686 -0.19663273 -0.06915993 -0.13735777 0.1832282 0.07300424 0.08971568
0.07474972 0.01043233 0.16828202 -0.1365578 0.030249627 -0.11773194 0.07633251 -0.062293343
0.05966086 -0.013048777 0.19267912 -0.101769865 -0.115695015 -0.12545186 0.21155636 0.09401432
0.20660178 -0.16600153 -0.20971502 -0.15701213 -0.13761212 0.07739428 0.06883719 0.1645639
-0.10779476 -0.14143868 0.10126215 -0.08445577 0.11972681 -0.052347295 0.10898584 -0.16074172
-0.10525771 0.059150007 0.0371618 -0.056482267 0.113696694 0.1311285 -0.14699663 -0.11199984
0.17768565 -0.072938606 -0.07603416 -0.19634214 -0.20525086 -0.04072946 -0.12291892 -0.24676986
-0.09603342 -0.22251774 -0.25267562 -0.19536251 -0.26358163 -0.2207769 0.11237697 -0.04218863
-0.018672591 -0.26961443 -0.21939057 -0.14955942 -0.048874192 -0.2583509 -0.17363362 -0.21189225
-0.08108201 -0.15605205 -0.101825655 -0.22937405 -0.23217271 -0.11668036 -0.06845948 -0.15785618
0.16769399 -0.039692804 0.17207934 0.062316433 -0.1693594 0.13840704 -0.05502896 -0.076665215
-0.1660141 -0.19883214 0.057222143 -0.043688774 0.07786463 -0.16413268 0.14848582 -0.14681074
-0.034534663 0.041773945 0.10325037 0.16146208 0.18219186 -0.15858443

conv1.bias f4 [6]
00000000: cd89 d8bd ac05 22be aee3 86bc ad1c 1cbe
00000010: eefd 283e 2550 16be
-0.105731584 -0.15822476 -0.016465988 -0.15245314 0.16503116 -0.1467901

conv2.weight f4 [16, 6, 5, 5]
00000000: eb7c 143d 1b8b 653c ba83 1d3c 747d 76bd
00000010: bc0a 653d 1f17 e13c 0340 773c 39dc a4bd
00000020: d7ab 9a3c cbc3 0cbd 1ea1 8cbc 924c bf3d
00000030: d823 b73c 3ae3 79bd 70a9 8ebd 2ef5 6f3c
00000040: 0b20 9a3d 0ca4 b5bb 52ad 7cbd 9f8f 77bd
00000050: 4eec 55bd ddcb 5c3d 9d56 a63d e581 acbd
00000060: 5bbd 03bc 2389 833d df7e 843c 5420 51bd
00000070: 1f0b 303c 8216 f83b ebb1 983d 3c02 c23c
00000080: 0202 b1bc ca17 c0bc 0600 72bd 63fb 643c
00000090: 252b cf3d 4451 b73d c673 21bd 8609 98bd
000000a0: 2c4f 7e3c db5f 183d 445b 4e3d 5bf2 3f3c
000000b0: adef f3bd fc58 32bd b0dc b53d 13d2 723d
000000c0: dc44 903b c484 8ebd 4de0 d33d b368 b63d
000000d0: 6c05 0b3e 1aa6 353e 057d 213e 7165 363e
000000e0: 29f9 dd3d bcee e53d 5a09 013e 19b3 393e
000000f0: f5db 0f3e dc66 333e e23d 913e fb65 053e
00000100: 557f 863d 73de 363e 9ae3 c23d 864f 3c3e
00000110: c585 223d 8699 0b3e 4499 743e fa0b 203e
00000120: 6213 a53d bc4c 9f3d ab38 953d c863 793d
00000130: ac90 203d 12b7 8c3d 9433 2f3d 6c49 a93c
00000140: 009a 51ba 6457 7ebd a644 8fbd 5868 9cbd
00000150: e2e7 083d a732 24bd d49c 86bc 6378 40bd
00000160: e8c4 73bc 7063 6bbd b218 43bd 6cdf dd3c
00000170: 421c 98bc 6076 4e3d a694 d6bc 788c 5dbd
00000180: aa6c 0fbc 8e7e 0abd eaa2 ccbc f830 9fbd
00000190: 665f 093d c111 74bd 7622 283d 7658 363d
000001a0: 325f a13d a9cd f0bd a741 bd3c 7f7b 47bd
000001b0: 6a86 363d 26a5 d83d 6764 cabd 2f8c 84bd
000001c0: da22 1cbd 00ef 5ebd decc 873d 8c15 2bbe
000001d0: 76d1 bebc 881d e03c b8db a13d c42e a8bb
000001e0: caf8 f1bd b6f9 1cbd 1086 35ba 613d d8bd
000001f0: 75b6 d5bc e87a 48bd 4002 eabb 4a9d 24bd
00000200: feb4 08bd 0a57 d4bc 8ee8 9ebd 3c34 893d
00000210: 3c2f 8c3d f0d9 51bc 7058 18bc 8b7d 08bd
00000220: 4202 97bd 4eba a2bd b897 f83c 119f 37bd
00000230: 7a00 57bd 30c0 d0bb 16be debc 0865 d8bc
00000240: 00ef 2b3b 60e0 8dbc 384d e6bc 6321 20bd
00000250: 4616 88bd c436 8c3d e116 d63c db74 a73d
00000260: 4a88 e03c b9b1 583d 0eee f13d 63e8 c83d
00000270: 24c8 5fbc 7ab3 b03d 8f26 f43d 9aad 5b3d
00000280: 7989 e13d 9e3b 013e 7915 013d 206b 4b3d
00000290: 5170 23bd 4c7a 0b3d d0e8 c93d ae5b 993d
000002a0: 3628 d2bc acff 6fbd 421d c2ba 61e9 1fbd
000002b0: 243e 08bd 0c64 e13a 735b 6d3d 4c2d a53d
000002c0: 503f 2b3b 7151 9ebc f230 7b3d 6a96 78bd
000002d0: 742d 373d 7601 a83d e3eb 82ba aae8 e7bb
000002e0: 3a6d e8bc 6790 da3c d798 8ebc 41e0 68bd
000002f0: 7feb 96bd d0eb a0bd 600f 0d3e 2d6b b3bb
00000300: 9eda 19bd aef3 8f3c 1d7b 2dbc e256 da3d
00000310: 67a2 c63d 6666 683d 5e77 b4bd c05c f7bc
00000320: 7d8f ca3d 14ca 523c e0d7 e3bd 82c9 9c3d
00000330: 8e65 74bc 303a 2d3d ebaa 69bd 0531 cfbc
00000340: 90c3 433d 0214 763b f2e3 c83d d376 8ebd
00000350: c650 c8bd f098 acbc f7e9 b33c 4f59 e93d
00000360: cf2e 3dbd ec51 33bd eb1f 3cbe 116b 02be
00000370: f3c9 db3d 7c8d be3d 03cf b53d af64 15be
00000380: ec76 28bc 34e0 6bbd b078 fa3c 0482 8d3d
00000390: 0048 963a 0c23 983d 917a 8ebd 8a7b ffbc
000003a0: b40f 433d e4b9 91bc 2ceb 88bc fc63 0bbd
000003b0: 8c87 663d dc0a 243d 3857 d63c 03f1 3bbd
000003c0: 53bd 87bd c9ae 6b3c 8b3a ef3c de69 1abd
000003d0: 3e26 bbbc 34de 613d 9e7c 483c 20fe 163c
000003e0: af5c a4bc 6d6e 97bd d097 88bd 60aa 3abd
000003f0: 1223 82bd e357 2bbc a6f1 89bd 1601 1fbd
0.036251944 0.014010216 0.009613926 -0.060178235 0.05591844 0.027476845 0.015090945 -0.08049817
0.018880768 -0.03436641 -0.01716667 0.093407765 0.022355959 -0.061007716 -0.069659114 0.014645858
0.07525643 -0.0055432376 -0.06168873 -0.060439702 -0.05222731 0.053905357 0.08121989 -0.08423213
-0.008040751 0.06422641 0.016173778 -0.05105622 0.010744839 0.0075710425 0.0745581 0.023682706
-0.021607403 -0.023448844 -0.059082054 0.013975951 0.10115651 0.08951047 -0.03941705 -0.074236915
0.015521806 0.03720079 0.050380006 0.011715497 -0.11910949 -0.043541893 0.088799834 0.059282374
0.00440274 -0.06958917 0.10345516 0.089066885 0.13576287 0.17739144 0.15770347 0.17812134
0.10838539 0.112271756 0.12601224 0.18134727 0.1404875 0.17519706 0.28367525 0.13027184
0.065672554 0.17858295 0.09516068 0.18389711 0.039678354 0.13632783 0.23886591 0.15629569
0.080603376 0.07778308 0.07286199 0.060886174 0.03920047 0.068708554 0.042773798 0.020664893
-0.0007995665 -0.06209506 -0.069955155 -0.076370895 0.033424266 -0.04008737 -0.016432203 -0.04698981
-0.014878489 -0.057467878 -0.047630973 0.027084075 -0.018568162 0.05040586 -0.026193928 -0.05408904
-0.008753935 -0.0338121 -0.024980027 -0.07773012 0.033538245 -0.059587244 0.04104849 0.044517957
0.07879485 -0.117579766 0.023102595 -0.04870176 0.04456178 0.105783746 -0.098824315 -0.064720504
-0.038119175 -0.054427147 0.06630872 -0.16707438 -0.023293238 0.027357832 0.07903236 -0.005132528
-0.11815031 -0.03832408 -0.0006924579 -0.10558582 -0.026087979 -0.048945338 -0.0071413815 -0.040189065
-0.033375733 -0.02592041 -0.077592 0.06699416 0.06844947 -0.012808308 -0.009298429 -0.033322852
-0.073734775 -0.07945691 0.030345783 -0.044829432 -0.05249069 -0.006370567 -0.02719025 -0.026415363
0.0026234984 -0.017318904 -0.028112993 -0.03909434 -0.06644873 0.06846383 0.026133956 0.08176585
0.027408738 0.052903865 0.118129835 0.09809949 -0.013658557 0.086279824 0.11921417 0.053632356
0.11012549 0.12620398 0.03151462 0.04966271 -0.039902035 0.03405218 0.098588586 0.0748819
-0.02565394 -0.058593437 -0.0014809745 -0.039040927 -0.033262387 0.0017195954 0.05794854 0.0806528
0.0026130266 -0.019325944 0.061325975 -0.06069032 0.04472108 0.08203404 -0.0009988513 -0.0070772963
-0.028372396 0.026680185 -0.017406864 -0.05685449 -0.07369136 -0.07857478 0.13775396 -0.005475423
-0.037562005 0.01757225 -0.0105884345 0.10661103 0.096989445 0.05673828 -0.0881183 -0.030195594
0.098906495 0.012865562 -0.11125159 0.07655622 -0.014916791 0.04229182 -0.057047766 -0.025291929
0.047793925 0.0037548547 0.09809102 -0.06956258 -0.09781031 -0.02106902 0.02196215 0.113939874
-0.04618722 -0.0437793 -0.1837155 -0.12736155 0.10731878 0.0930433 0.08877375 -0.14589189
-0.010282259 -0.057586864 0.030575126 0.06909564 0.001146555 0.0742856 -0.069569714 -0.031186838
0.047622398 -0.017788835 -0.016713701 -0.0340309 0.05628161 0.04004942 0.026164636 -0.045884144
-0.066279076 0.014384934 0.02920272 -0.03769862 -0.022845384 0.05514355 0.012236742 0.009215862
-0.020063726 -0.07394109 -0.06669581 -0.04557264 -0.063543454 -0.010457966 -0.06735544 -0.038819395

conv2.bias f4 [16]
00000000: feb7 e2bc 63b2 ea3d 5537 b8ba da1c 91b9
00000010: 3d50 03bd ee35 983c 41be 873c 201c 763d
00000020: c20a 51bd 1073 ad3d b7b7 6abc 27cf a93d
00000030: b0ad 4c3d bca7 473c fa7b be3d 91a4 513d
-0.027675625 0.11459806 -0.0014054576 -0.0002767805 -0.032058943 0.018580403 0.016570212 0.060085416
-0.05103565 0.08469212 -0.014326028 0.08291464 0.04997033 0.012185987 0.093009904 0.051182333

fc1.weight f4 [120, 400]
00000000: 3389 9e3d 9b0d 353e c5d1 2e3e 552c 9b3d
00000010: eeed 1e3e 52dc a03c a3d2 db3d 0d16 173e
00000020: 47c1 9d3d ff95 fa3d caea ce3d 0c02 fe3d
00000030: d718 113e a441 8d3d 9759 843d ca62 353d
00000040: 77cf 3f3e 79cb 263e bd49 d93d f5d0 983d
00000050: 8d98 da3b a00e 5d3e 1bf2 5d3e c15a 063e
00000060: b919 f63d 675b ccbc 58aa 07bc 777a 1dbd
00000070: 8466 8abd 440b 26bd 0179 08bd 656a fb39
00000080: b429 fabc 7fb8 283d f6e4 093c c6a0 08bd
00000090: 112f 80bc 68c5 20ba 6fd2 963d 41eb 863c
000000a0: 02a6 e73a 2639 2bbd 1623 13bb 440e 283d
000000b0: f559 5a3d a3e7 29bc 438f 9c3c 5eb0 aabc
000000c0: 6e95 9f3c 26ca 14bd 5ad4 a6bc cdfc a83c
000000d0: b668 b7bc 8c1d 5c3d 8d22 babd 9f8f 87ba
000000e0: 28ed bd3d 1a96 2ebc b004 0a3d 41b2 bcbc
000000f0: 2c9a 8d3d 87d1 fd3d bbb2 303c 81f4 34bd
00000100: 3c13 f63c a8a4 2a3d d234 2a3d c726 a53d
00000110: 9409 b5bd 9e72 88bd e7a2 c13d 13ab ac3d
00000120: 1f4a 39bd f6fc 94bd d697 09be 8d9b 643e
00000130: a518 193e f1e9 8f3d 45ec fb3d d0ee 423d
00000140: ee06 683e 29b5 223e 63fd ee3c 22f9 a83b
00000150: 48fa 59bd 819a e53d 0df5 763e b89e 7a3d
00000160: 3636 41bd 83e8 a93d 0f9b 5f3e 04d5 513e
00000170: eefb 4a3e 9f89 65bd 31e6 293e 5040 e63e
00000180: 2655 513e 9572 7f3e dc6a 2a3d 5f90 503e
00000190: b19d 6fbd 92ed eebc 9cf2 00bd 2903 813b
000001a0: f1b3 d6bb dd52 51bd 9618 993a 771a 80bd
000001b0: dfe1 7b3c 4734 b9bd 98ba 39bb f3c0 b2bc
000001c0: 2060 9fbd a2fa 17bc eb43 0dbe 88de 9b3c
000001d0: 8142 94bd f061 60bd f5d8 fbbc f154 43bd
000001e0: 37f7 023d 9767 79bd 6a10 edbc 08bf 8bbd
000001f0: 4e71 cbbc 5239 363d 6625 df3d 49f7 1a3d
00000200: 325f f53d adff 693d 4556 bf3d dfde 533e
00000210: 9533 de3c 99c2 ce3d 9a4d 293e 9b6e a53d
00000220: a17f 7c3d 175f ca3d 1f3c 54bd ea82 c43d
00000230: 573f 2e3e 95da ed3d 9691 4c3e 7cef b23c
00000240: b184 543d 804d 683e a2e4 bd3d 31cc 523d
00000250: 93db 453d b6ee d53c b0a8 683d b151 8937
00000260: 21a9 a93c 1371 e5bb 99e2 083d da10 02bd
00000270: e247 183d 6acf f83b e659 083d 85ba 3c3c
00000280: 0f6d f9bb d98b 0e3d d2f9 ce3c 3b01 3fbd
00000290: 93eb 203d 4eea 823d b856 0b3d 5e0d 58bc
000002a0: e68d 353c 2008 23bd ae8a 943b d5de c93c
000002b0: f34d 7e3c 6682 aa3c 4e33 57bd 9e21 573a
000002c0: 1f6c 58bd 14de 933c 6f61 a83c 8a3e af3b
000002d0: f33d 723c 8cc9 693c 1fa7 023d 3c37 51bc
000002e0: 47a4 2a3d c1e2 0abc 13d0 083d 5d13 4e3c
000002f0: be9d 8e3d 0bb1 5a3d fa2d 5cbd 56f3 633d
00000300: b85a a03b 92ec 203c 29b0 e6bc c5ca 12bc
00000310: 2b3e b0bc c1b6 ca3c 5128 ed3b a00a 5f3c
00000320: 3e23 023d 9b71 673d 3f3e e23d 72df ae3d
00000330: 00b8 bfba fb8e 2a3e 5ab1 213e 0c0a f73d
00000340: aef9 383e 623e 0d3e c562 5d3e b0bc 183e
00000350: ebb7 083e 28f0 2f3e 22e3 083e da57 5b3e
00000360: 61d0 093e de52 d43d 56dd 933d b6fb e23d
00000370: bcfd 253e ac55 b83d 0105 073e 954f 893d
00000380: 5704 ff3d 7bb4 f33a 52c3 e53c 763a c739
00000390: b6bd 4c3c d6e4 033d 8700 393c 447e 2ebd
000003a0: 62f6 0d39 6a56 2bbd 41f0 283b 2230 27bd
000003b0: b9d7 3a3d fb65 f53c 59c9 af3c 22a8 f6bc
000003c0: 2c1d 7dbd 1332 333c e677 87bb 2488 b03a
000003d0: 60ab 1c3d 7fc3 66bd 97c1 aebc bd46 603d
000003e0: 2ebf 063d ee74 0fbd cfa8 12bc a0a5 e43d
000003f0: 6575 953c 87fb bf3d 2281 bf3d f48c c53c
0.077410124 0.17680971 0.17072208 0.07576815 0.1552045 0.019636307 0.10733535 0.14754505
0.0770288 0.12235641 0.10103376 0.12402734 0.14169632 0.068972856 0.064624004 0.044283666
0.18731485 0.16288556 0.106097676 0.074617304 0.0066710175 0.2158761 0.21674387 0.13120557
0.12016625 -0.024945928 -0.008280359 -0.03844687 -0.067578346 -0.040538087 -0.033318523 0.0004795372
-0.030537464 0.041191574 0.008416405 -0.03335645 -0.015647443 -0.00061329314 0.07364356 0.0164696
0.0017673376 -0.041802548 -0.0022451333 0.04102923 0.053308446 -0.010370168 0.019111281 -0.020836052
0.019480433 -0.036325596 -0.020364929 0.020628357 -0.022388797 0.053739116 -0.09088621 -0.0010342485
0.092737496 -0.010655904 0.033695877 -0.023034217 0.069141716 0.1239348 0.0107848 -0.04417849
0.030038469 0.041660935 0.04155428 0.08064037 -0.088397175 -0.066624865 0.09454899 0.08431067
-0.045236703 -0.07274811 -0.13436827 0.22324963 0.14950807 0.07027043 0.12300924 0.04759103
0.22658893 0.1588942 0.029173559 0.005156652 -0.053217202 0.1121111 0.24116917 0.061186522
-0.04717084 0.08296301 0.21836494 0.20491415 0.19822666 -0.05603945 0.16591717 0.44970942
0.20442638 0.24946053 0.041605815 0.20367573 -0.058499996 -0.029166017 -0.03148137 0.0039371443
-0.0065522124 -0.051104415 0.0011680301 -0.06255048 0.015373676 -0.09043174 -0.0028339978 -0.021820521
-0.07782006 -0.009276064 -0.1379544 0.01902701 -0.07239247 -0.0547809 -0.030743102 -0.04768843
0.031974044 -0.060889807 -0.02893849 -0.06823546 -0.024834301 0.04448826 0.10895805 0.037833486
0.11981048 0.057128597 0.093426265 0.20690487 0.027124206 0.1009571 0.16533509 0.08077737
0.061645154 0.09881418 -0.05181515 0.095952824 0.1701635 0.11613957 0.19977412 0.02184271
0.051884357 0.22685814 0.09272124 0.051464263 0.048305105 0.026114803 0.056801498 1.6369713e-05
0.02071053 -0.007002005 0.033419225 -0.031754352 0.037177928 0.007593085 0.03328886 0.011519079
-0.0076118778 0.034801338 0.025265608 -0.046632033 0.03928716 0.06392346 0.03401825 -0.013186781
0.0110811945 -0.03980267 0.0045331335 0.024642387 0.015521514 0.020814132 -0.052539162 0.00082066085
-0.052837487 0.018050231 0.020554272 0.0053480314 0.014785278 0.014269244 0.03189766 -0.012769517
0.041660573 -0.008476914 0.03340156 0.012577859 0.06963681 0.053391498 -0.053754784 0.055651985
0.004893627 0.009822028 -0.028160172 -0.008959477 -0.021514019 0.024745347 0.007237472 0.013613373
0.03177189 0.056504827 0.11047029 0.085387126 -0.001462698 0.16656105 0.1579031 0.12062463
0.18063995 0.13793328 0.21619709 0.14915729 0.13351409 0.17181456 0.13367894 0.21420231
0.13458396 0.10367368 0.07219951 0.11083166 0.16210073 0.090007156 0.13185503 0.06704632
0.12452 0.0018593216 0.028047238 0.00037999795 0.0124964025 0.032200657 0.01129163 -0.042600885
0.00013538593 -0.041830458 0.0025777968 -0.040817387 0.045615885 0.029955855 0.021458315 -0.030109469
-0.0617954 0.010937232 -0.004134166 0.0013468307 0.038249373 -0.056338783 -0.021332545 0.05475496
0.032897167 -0.035023622 -0.00895138 0.11164403 0.018244455 0.09374147 0.09350802 0.024115063

fc1.bias f4 [120]
00000000: e18a a6bd 931a 3bbd 8daa 5abc ddaa 473e
00000010: 547c e53c c587 103e 0fc9 e0bb 198f 02bd
00000020: 4fac 113a 9d05 38bc 36e0 1b3e fb11 eabc
00000030: 244d 16bc acbf 163d e88d b1bd 0ed9 b8bc
00000040: 2b2b 133e b387 1bbd 36cb 3b3e 851e 88bd
00000050: d00e 3abd 8707 ca3d 69e3 dd3b 1e78 46bd
00000060: ff7b 5dbd 6382 253e 351b b5bd bf25 3e3c
00000070: a786 453b 1efd 7dbc 36ef 293e b7c0 7fbd
00000080: 8b54 b9bc 9f01 61bd baf5 a5bd 9a06 773c
00000090: 7045 3abd 37bf 1c3d a1a2 1bbd 5b93 5fbd
000000a0: 382e 8d3b ed3b d4bc 23e6 023d 97b8 123d
000000b0: 5aac 08bd ff62 f9bc c685 62bc 8ae1 35bc
000000c0: e071 ac3b 606f 073e 9b5e cabc e822 97bc
000000d0: f738 2d3e 6e73 853d 984d 81bd cbfd 4abd
000000e0: 3f2f 7b3c 881e 3abd e043 30bd 5434 07bc
000000f0: 99a4 4f3b 176f b6bd efcf a2bc 99e8 843c
00000100: 1a14 84bc 45ab 40bd 6038 81bd 904d 8cbd
00000110: a04c 2c3d 029d 8b3c 023e c8bc fc00 03bc
00000120: 8cc0 3fbd 41ad aabd 9ba6 bbbc 48c4 133e
00000130: 2948 133e ac31 cabc 3fee 51bd 82d8 fb3b
00000140: 9b67 b9bd 28c0 8cbb de13 a03e f83f 62bc
00000150: e011 bc3c ba4a ccbc bde3 ccbc b915 653c
00000160: 52f7 30bd 1a35 5dbc f034 57bc c346 9e3c
00000170: 75bc 28bd ebdc 0b3b 637e 8abd 350e 83bd
00000180: f27e 733c d2b6 5cbd 68be 10bd fc4b d23c
00000190: 3475 13bd bbcb a4bd a891 cdbb f79d 25bd
000001a0: 7938 ba3b b42c 6fbd eb60 e8ba ed97 19bc
000001b0: cc4b 94bd b47f 583d 0b88 413d a934 b13c
000001c0: 23ed 8dbd f841 cc3d 2b80 3fbd b82e 183e
000001d0: f734 59bc da02 8bba f8f1 4fbd 3e11 30bd
-0.08131958 -0.04567964 -0.013346327 0.19498773 0.028013386 0.14114292 -0.0068599056 -0.03187475
0.0005556987 -0.011231807 0.15222248 -0.028573027 -0.009173665 0.036803886 -0.086696446 -0.022564437
0.14371936 -0.03797121 0.18339238 -0.06646446 -0.045424283 0.09864717 0.006771494 -0.048454396
-0.05407333 0.1616302 -0.0884308 0.011605679 0.0030140074 -0.015502242 0.16595158 -0.062439647
-0.022623321 -0.054933187 -0.08103509 0.0150772575 -0.045476377 0.038268294 -0.037996892 -0.05458389
0.004308488 -0.025907481 0.031957757 0.03582057 -0.033367492 -0.030442713 -0.013825839 -0.011101136
0.0052625984 0.1322608 -0.024703315 -0.018449262 0.16916262 0.06516157 -0.06313628 -0.049558442
0.015331089 -0.045439273 -0.04303348 -0.008252222 0.0031683801 -0.089079075 -0.019874541 0.016224192
-0.016122866 -0.047038335 -0.06309581 -0.068507314 0.042065263 0.01704264 -0.02444363 -0.00799584
-0.046814486 -0.08333827 -0.022906592 0.14430344 0.14382996 -0.024681889 -0.0512526 0.007685722
-0.09052964 -0.0042953677 0.31265157 -0.013809197 0.022957742 -0.024937976 -0.025010938 0.01398223
-0.043204613 -0.01350143 -0.01313518 0.019320851 -0.04119535 0.0021341394 -0.067623876 -0.06399194
0.014861809 -0.05388529 -0.035337836 0.025670998 -0.036000445 -0.08046671 -0.006273467 -0.04043385
0.0056830016 -0.05839224 -0.0017729079 -0.009374601 -0.072410196 0.052856162 0.04724888 0.021631556
-0.06929996 0.0997352 -0.04675309 0.14861572 -0.013257257 -0.0010605708 -0.05076787 -0.042985193

fc2.weight f4 [84, 120]
00000000: 7b1e c33d 47b0 ea3d 58cb 07bc 414a a03d
00000010: f231 d7bc 7af5 cabd 7683 d1bd ac4c b13c
00000020: 70a8 643d c7e5 08be 5a40 903c 4d93 99bc
00000030: ac93 0d3d acc2 42bd 1288 613e ffcc 623e
00000040: c8ad b8bd 10ea b7bd aa95 af3b 6c08 6e3e
00000050: 1009 243d 2c60 85bd 5339 ba3c 4e09 b9bd
00000060: 12fb 233e 563e 4dbd 0646 e83d 0046 2ab9
00000070: fcbc cebc f53f de3d 903a efba 4714 303e
00000080: a04f 2d3c 9486 b73d a571 053e 7816 fabd
00000090: aa7f ab3d ffb6 b63c d7b4 933d 6b2f 493e
000000a0: 31f2 59bd 224c 343b baef 6b3c f7c0 ab3b
000000b0: a45a a8bd acb3 753d 094a babd 9ca2 96bc
000000c0: 92a0 ca3b b917 bebd 8544 003d 041c bc3c
000000d0: 34c1 a5bd 047b 24bd f8da 663d a0c5 223c
000000e0: 2ecc d2bd b35c 363e 74a3 ce3d 4020 593d
000000f0: c7f5 ad3b 8a23 843d e35a 73bc 565d babd
00000100: 35e6 b73c b0f3 a2bc 94a8 293e 1d06 373e
00000110: 6221 be3c 5023 15bc e895 b4bd f424 063e
00000120: ecb6 7c3d c5da 203e 70cc 133c d6fb 81bd
00000130: 5d9d 2c3d 8096 9abd 1b60 373e 6be8 403d
00000140: b888 2c3e ea79 00be 3ee0 a23d ea2e 113e
00000150: 5ce8 54bd f2f8 b0bd f072 8dbb 00ef 00ba
00000160: a1b0 31bc a050 b9bb 948d ba3d eab6 06be
00000170: a8e2 723d f500 d8bc b460 a23d 9373 5a3e
00000180: 5008 f5bc 8e58 8e3d 4579 643d f475 9abd
00000190: 05d0 9f3d 4596 353e 2e59 35bd 2184 563e
000001a0: fcf2 2ebd 9b27 183e a97e 333d 2d66 20bd
000001b0: 538e 333d 1ff5 d0bd 3575 01be 50ac aa3c
000001c0: f574 463e e9fb 563c 90f3 a73d c1ed 093d
000001d0: 11b8 aabd c630 08bd 2223 aa3d d19d 2bbd
000001e0: 5b3a dfbd 7aab e5bd 816c 33bd fd2c cb3d
000001f0: a3b9 203d e1da e23c ba16 233d fa9e 033c
00000200: 44cd 413c c4f7 a73d 1463 f73b 8ba0 6ebc
00000210: 911f 6cbd 3d93 48bc 3e2c 30be 5a75 11be
00000220: 42fe b93d 36c3 9ebd eec2 123e 4129 b1bd
00000230: 2b72 973c 6ac1 ec3d 98c3 a23d f7e4 4a3c
00000240: 7e96 2fbe a81d 243e 5a77 19bd 6be5 e4bc
00000250: 77d2 a13d eadb 0abe 9445 1a3e 0afc 3fbe
00000260: 9a5e 69bd 9b21 2cbd 04f3 73bd 057e 733d
00000270: d03f 23be 9726 be3d df19 3dbe 8b79 4abe
00000280: 022b 2fbd 5f6f e2bd d21f 57bd bd0c 043e
00000290: 3b05 dfbc f0e6 b33c 0191 aa3d 50bd f33c
000002a0: 303a c53d b5b9 363e 8244 78bd 5f6e 683b
000002b0: 0b74 333e b0bc 003c 4452 0fbe 7d24 1e3d
000002c0: e2ec 053e 4f78 c1bd 31b5 f6bd 890e 3fbd
000002d0: 1984 e83d 854f e1bd 80c3 733b cb05 ba3d
000002e0: 1db1 393d 00f4 4d3a 38b1 23be 5592 3fbe
000002f0: 459e f93d 5889 a63d 0da7 1b3d 5f5f 9abd
00000300: 6d39 6f3c a310 67be 3952 a03d ab48 eb3d
00000310: 8034 1c3e 6643 7c3a 9b56 bcbd ed2f afbd
00000320: 6fba ffbd 1bcb 1d3e ea35 813c 0cbe 3b3d
00000330: 91c3 8d3d af34 56bd f4e2 00bd bd35 8abd
00000340: 5773 95bc 4dda 62bd 5f09 acbd c468 643d
00000350: 70c5 443d 239b 143e d218 23be 4c25 35be
00000360: d8c6 053e 39dd 89bd 536a 9cbd 3999 79bd
00000370: 3e97 28be 9c25 5dbe f28f 3c3c 7a63 bebd
00000380: f9a9 b83d 7a05 b6bd 562c 923d b40a 76bd
00000390: 5600 d23b f260 143e 35fc e23d 0fad a73d
000003a0: be35 0bbd d2ea e93d 99af 48be 179c 3b3e
000003b0: 5add 8f3b ad24 86bb 9517 89bc cd43 f43b
000003c0: 9597 703d b7e3 333e 490a 8ebd 410d 5c3b
000003d0: f352 31be f828 cebc 0b81 c0bd e4f6 93bb
000003e0: a168 843d b434 68bd 1566 d9bc b06c 123d
000003f0: ee8a 4e3c 54e7 493d d167 323e 5078 6e3e
0.09527298 0.114594035 -0.008288227 0.07826663 -0.026268933 -0.09910102 -0.10230152 0.021643005
0.055824697 -0.13368903 0.01760881 -0.018746996 0.03456466 -0.047548935 0.22024563 0.22148512
-0.09017521 -0.08980191 0.0053584175 0.232454 0.040047705 -0.06512484 0.022732412 -0.09034978
0.16013744 -0.050108276 0.11341481 -0.0001623854 -0.0252366 0.108520426 -0.0018251706 0.17195235
0.010578066 0.089612156 0.13031633 -0.12211317 0.08373959 0.022304056 0.07212227 0.19646995
-0.053209487 0.00275112 0.014400417 0.005241509 -0.08220413 0.0599858 -0.09096152 -0.018388085
0.0061836923 -0.092818685 0.031315345 0.022962578 -0.08093491 -0.04015638 0.05636117 0.009934813
-0.102928504 0.178088 0.1008977 0.05300927 0.00530884 0.06452091 -0.014853212 -0.09099834
0.022448638 -0.01989159 0.16568214 0.17873426 0.023209278 -0.009102657 -0.08817655 0.13100034
0.061697885 0.15708454 0.00902091 -0.06346862 0.04214226 -0.07548237 0.17907755 0.04709665
0.16849029 -0.12546507 0.07952927 0.14178053 -0.051979408 -0.086412326 -0.00431668 -0.0004918426
-0.010845334 -0.005655363 0.09109035 -0.13155714 0.059298187 -0.026367644 0.07928601 0.2133315
-0.02991119 0.06950484 0.055779714 -0.07542029 0.078033485 0.17733105 -0.0442745 0.2094884
-0.042712197 0.14858858 0.043821964 -0.039159942 0.043836903 -0.10203003 -0.12642367 0.020834118
0.19380553 0.0131215835 0.08200753 0.033674005 -0.08335889 -0.03324964 0.08307482 -0.041898552
-0.10899802 -0.11214347 -0.04380465 0.0992069 0.039239537 0.02769226 0.039816596 0.008033508
0.011828724 0.082015544 0.007549653 -0.014564644 -0.05764729 -0.012242136 -0.17204377 -0.14204922
0.09081699 -0.07752077 0.14332172 -0.08650447 0.018487057 0.11560328 0.07947463 0.012383691
-0.17147252 0.16026938 -0.03746734 -0.027941426 0.07901471 -0.13560453 0.15065604 -0.18748489
-0.056974985 -0.042024236 -0.05955793 0.059446353 -0.15942311 0.09284704 -0.184669 -0.19772927
-0.042765625 -0.110563986 -0.05252058 0.12895484 -0.027224174 0.021960706 0.083284386 0.029753357
0.09630239 0.17844279 -0.06061221 0.0035466177 0.17524736 0.007857487 -0.13996226 0.038609017
0.13078645 -0.09446775 -0.12046278 -0.04664472 0.11353321 -0.11001495 0.0037195385 0.09083136
0.045334924 0.0007856488 -0.15985572 -0.18708165 0.12188391 0.08131665 0.03800111 -0.07537722
0.014601094 -0.2256494 0.07828183 0.1148847 0.15254402 0.000962308 -0.09196206 -0.08554063
-0.12486731 0.1540951 0.015772779 0.04583554 0.06922067 -0.052296337 -0.03146644 -0.06748531
-0.018243475 -0.05538397 -0.08400225 0.055763975 0.048039854 0.14512305 -0.15927437 -0.17690009
0.13064134 -0.06731648 -0.07637467 -0.06093714 -0.16463944 -0.21596378 0.011508929 -0.092963174
0.09016795 -0.08887763 0.07137363 -0.0600688 0.0064087315 0.14490107 0.11083261 0.08187305
-0.0339868 0.114217415 -0.19598235 0.18321262 0.004390401 -0.0040937276 -0.016734878 0.0074543715
0.05873831 0.17567335 -0.069355555 0.0033577236 -0.17316799 -0.02516602 -0.09399613 -0.0045155156
0.06465269 -0.056690887 -0.026537934 0.035748184 0.012606366 0.049292877 0.17422415 0.23288083

fc2.bias f4 [84]
00000000: 26e2 fcbd 7a30 4b3e 38fd 013d d7f6 3d39
00000010: c8d8 2a3c 9252 3ebd 53fd 163e ffe5 eb3c
00000020: df22 433e 503d 43bd 6d66 30bc 439f de3d
00000030: 5ae9 d13c a29a 21bd d6e0 2e3d 4e32 9f3c
00000040: 8647 123e 2f16 f8bc 5daf 423e cf36 603e
00000050: 6e0e 0e3d 8fab c8bc 5e32 5a3e 7cd0 ad3c
00000060: 2341 5d3e bb79 423e 397a d8bd 93e4 bfbd
00000070: f3c9 bcbd 37c1 95bd 12ce a53d b1d2 293e
00000080: a991 583e fc9a 4bbd 57b1 373e 7171 323e
00000090: 6d53 253e 390f 1abc 8905 233e 36f0 38bc
000000a0: f8b5 283b b584 283e 097f b3bd e842 3c3d
000000b0: 4130 833c 0da1 b5bd 587b b03c cc8b 173c
000000c0: 53b5 b4bd ab14 0e3b f7d5 94bd 1969 83bd
000000d0: 15f6 4e3e 5c38 583e bc63 f53d f8b7 d6bc
000000e0: 9458 0ebd 5481 69bd 7795 afbd 91d5 d03d
000000f0: df0a e73d cbf4 24bd a741 633d d912 5e3e
00000100: c107 173e 19c4 e53c 4344 43bd 7a93 493e
00000110: facf 9dbd 4d94 c9bd e19b 2f3e 1619 163e
00000120: dcf6 0e3e 97a3 383e 95dc 863c b75d b63b
00000130: 0082 fb39 17ed 7f3d 7c3c c7bd 24d1 e8bc
00000140: 4416 ddbc 2105 c0bd ff0d 9d3b 7a20 86bd
-0.12347822 0.19842711 0.03173563 0.000181164 0.010427661 -0.046465464 0.14745073 0.028796194
0.19056271 -0.047665894 -0.010766608 0.108702205 0.025623966 -0.03945411 0.04269489 0.019433167
0.14285097 -0.030284015 0.19012208 0.21895908 0.03468173 -0.024495868 0.21308276 0.021217577
0.21606879 0.18991749 -0.10570187 -0.09369769 -0.09218206 -0.073122434 0.080959454 0.16584279
0.21149315 -0.04970835 0.17938744 0.17426087 0.16145106 -0.009403043 0.1592008 -0.0112877395
0.0025743227 0.16456874 -0.087644644 0.045962244 0.01601422 -0.088686086 0.02154319 0.009249639
-0.08823647 0.00216798 -0.07267373 -0.0641653 0.2021106 0.2111525 0.119819134 -0.02621077
-0.034752443 -0.057008103 -0.0857343 0.101969846 0.1128137 -0.040272515 0.055482533 0.21686877
0.14749052 0.028047608 -0.04767252 0.19685164 -0.07705684 -0.09842739 0.17149307 0.14658007
0.13961357 0.18031155 0.016462604 0.005565371 0.00047971308 0.062481966 -0.09728333 -0.028420039
-0.026988156 -0.09375978 0.004792928 -0.06549163

fc3.weight f4 [1, 84]
00000000: a8dc 37be e141 643e ec0f 40be 12f8 51be
00000010: 049c 923c 43a5 61be 39a3 893e 0577 71be
00000020: 2726 623e 0823 50bc 80fa 2ebe 218b 833e
00000030: ca67 6cbe 9119 7ebe b5b3 8ebe 9059 82bd
00000040: 0116 9a3e 4599 45be 6ef2 873e e00e 403e
00000050: 1fe0 3cbe 54a7 53bd c30f 9b3e a137 46be
00000060: 11ed 803e 9bce 4c3e 4cd0 72bc e964 b93d
00000070: 635a d03d 81d8 95be c860 843e 106d 513e
00000080: 4ddd 7c3e 7ee5 6fbe a246 843e cd1d 773e
00000090: 404c 8a3e dc30 56be 88c2 833e 68ba 46be
000000a0: 7898 4dbe ac66 873e 31e3 56bd 78c9 5f3e
000000b0: 0ced 69be 9625 483d 176b df3d 564f 80be
000000c0: 7b03 8d3d 7549 18be ddec 3ebd a691 2ebd
000000d0: 5cf2 783e 1f28 3f3e e6bd 8b3e 26e6 593d
000000e0: 55f5 54be 43d2 593d 9320 c3bd a5b1 713e
000000f0: eeb7 7a3e 682e f8bc c1f6 6ebe 4d48 8e3e
00000100: 8f98 863e 7da9 58be 6267 203d ec47 673e
00000110: c9dc 6cbe d5de a83d 7d4e 753e b648 6a3e
00000120: 9958 4f3e 52ec 533e 04d9 72be 632a 85be
00000130: 194e 953d 212e 6f3e 9e94 aa3c 9a5c 73be
00000140: 5fdc 21be cb95 37be e94b 84be c095 283d
-0.17955267 0.22290756 -0.18756074 -0.20504788 0.01789666 -0.22035699 0.26882342 -0.23580559
0.22084866 -0.012703665 -0.17087746 0.25692084 -0.23086467 -0.2481444 -0.2787148 -0.06364739
0.30094913 -0.19296749 0.26552147 0.18755674 -0.1844487 -0.05167325 0.30285463 -0.19357158
0.25180867 0.20000689 -0.01482017 0.0905245 0.1017349 -0.29266742 0.25855088 0.2045176
0.24693795 -0.23427388 0.2583514 0.24132462 0.270113 -0.20917076 0.25734353 -0.19407046
-0.20077693 0.2644552 -0.05246276 0.21854198 -0.22844332 0.04886397 0.10909098 -0.2506053
0.068854295 -0.14871772 -0.04661261 -0.04261937 0.24311203 0.18667649 0.2729332 0.053198002
-0.20796712 0.053179037 -0.095276974 0.23602922 0.24484226 -0.030295566 -0.23336317 0.27789536
0.26288268 -0.21158405 0.039161094 0.2258603 -0.23131098 0.08245627 0.23955722 0.228793
0.20248641 0.20695618 -0.23715597 -0.260089 0.072902866 0.2335744 0.02082282 -0.23765793
-0.15806721 -0.17928235 -0.25839165 0.041158438
