output_visualizations/base_tsk[x]_agm[crop_plus]_spl[S3]_mdl[lenet]_ls[BCE]_tu[none]/model.pt (torch, 246727 bytes, 9 tensors)

conv1.weight f4 [6, 1, 5, 5]
0	0x3df59a6f	0.119923465
1	0x3e332bd2	0.17497185
2	0xbd44c33b	-0.04803775
3	0x3e4326ba	0.19057742
4	0xbd9b979d	-0.07597277
5	0xbc739e6c	-0.014869314
6	0xbdc61e12	-0.09673704
7	0x3e0a5ab2	0.1351116
8	0x3e48be07	0.1960374
9	0xbe359993	-0.17734365
10	0x3de5f09b	0.112275325
11	0x3bda78a7	0.006667215
12	0x3e13bc5a	0.14427319
13	0x3d312b7c	0.04325436
14	0x3ddf944b	0.109169565
15	0xbd565666	-0.05232849
16	0x3e092232	0.1339195
17	0x3c32cb8c	0.010912787
18	0xbd861b41	-0.06548167
19	0x3dc4d892	0.0961162
20	0xbdc51e8e	-0.096249685
21	0xbd7b4b38	-0.06135103
22	0xbe014b71	-0.12626435
23	0x3e1457f1	0.14486672
24	0xbe0f5d1e	-0.14000365
25	0xbda59c10	-0.08086407
26	0xbddb4369	-0.10706217
27	0xbe28b0cc	-0.16473693
28	0x3c277cfc	0.01022267
29	0xbe3745f1	-0.17897774
30	0x3e84130c	0.25795782
31	0xbe18335e	-0.14863345
32	0x3e2eb37a	0.17060652
33	0x3d4f3e56	0.050596558
34	0xbce0910b	-0.027412912
35	0x3e4ba4d5	0.19887097
36	0x3dc3ac73	0.095543765
37	0x3e5ec40b	0.21754472
38	0x3d603b9b	0.054744344
39	0xbcd5c468	-0.02609463
40	0x3dbb8b01	0.09157372
41	0x3c67c045	0.014144962
42	0x3e314040	0.17309666
43	0x3e855d07	0.26047537
44	0x3e3cc67f	0.18435095
45	0xbdde097a	-0.10841651
46	0x3e1210e8	0.14264262
47	0x3dc2d599	0.09513397
48	0x3e3e388d	0.1857626
49	0xbd4144c0	-0.047184706
50	0xbe86612f	-0.2624602
51	0xbdf27c3c	-0.11840102
52	0xbe112a26	-0.14176235
53	0x3e4dd3d9	0.20100345
54	0x3df9a003	0.12188723
55	0x3d1fd6a3	0.039023053
56	0x3d01ec09	0.03171924
57	0x3a55991b	0.00081481197
58	0x3e3585ba	0.17726794
59	0xbdd0d5a6	-0.10197
60	0x3d006b27	0.03135219
61	0xbdf78aea	-0.12087043
62	0x3da4f72c	0.08054957
63	0xbd4c0a5f	-0.04981458
64	0x3d8cf4f2	0.06882657
65	0x3c82ad8c	0.015951894
66	0x3e4b5ceb	0.19859664
67	0xbdbf6315	-0.0934507
68	0xbde5d197	-0.11221617
69	0xbe0b9ca3	-0.13633971
70	0x3e741580	0.23836327
71	0x3dc2dffb	0.09515377
72	0x3e418268	0.18897402
73	0xbe4c045f	-0.19923542
74	0xbe87f734	-0.2655579
75	0xbe48f7f2	-0.19625834
76	0xbe198d02	-0.14995196
77	0x3db31c63	0.08745649
78	0x3de5456d	0.111948825
79	0x3e653150	0.22382092
80	0xbdeb3aab	-0.114857994
81	0xbe00857b	-0.12550919
82	0x3e05ac7a	0.13054076
83	0xbcf1e0f8	-0.029526219
84	0x3e2ce8a5	0.16885622
85	0xbcde88b5	-0.027164796
86	0x3e10bc41	0.14134313
87	0xbde1b9a4	-0.11021736
88	0xbd4138d6	-0.047173344
89	0x3dc27a0e	0.09495936
90	0x3dbe1e36	0.09283106
91	0xbc57002c	-0.0131226
92	0x3e19da8f	0.1502478
93	0x3e20bee2	0.15697816
94	0xbe124a42	-0.1428614
95	0xbca3adde	-0.019980367
96	0x3e6b6773	0.22988681
97	0xbd06ddcb	-0.032926362
98	0xbd77584e	-0.06038695
99	0xbe5e9378	-0.21735942
100	0xbe02b93a	-0.12765971
101	0x3d6efb0b	0.058344882
102	0xbd6fd7ad	-0.058555294
103	0xbe5b3441	-0.21406652
104	0xbd4cb664	-0.04997863
105	0xbe3a102b	-0.1817023
106	0xbe52f00b	-0.20599382
107	0xbe39dff2	-0.18151835
108	0xbe90b1a4	-0.2826053
109	0xbe56ac57	-0.2096418
110	0x3e6cfb5f	0.23142765
111	0x3dcce3da	0.10004397
112	0x3dcdd013	0.10049453
113	0xbe57aac2	-0.21061233
114	0xbe1f46ba	-0.15554324
115	0xbdacf6d4	-0.08445516
116	0x3d65065b	0.055914264
117	0xbe38640a	-0.18006912
118	0xbe09ee7e	-0.13469884
119	0xbe2bb6d0	-0.16768956
120	0xbbcbb8a9	-0.0062170816
121	0xbd12cf34	-0.035842136
122	0x3cc2113c	0.023689859
123	0xbe1a77ca	-0.15084758
124	0xbe294522	-0.16530278
125	0xbd7f98ad	-0.062401462
126	0xbbcd4eb2	-0.0062654847
127	0xbdaf3d21	-0.08556581
128	0x3e86ce84	0.26329434
129	0xbda5689e	-0.08076595
130	0x3e68452c	0.22682637
131	0x3df7df53	0.121031426
132	0xbdcc5269	-0.09976656
133	0x3e6d5024	0.23175102
134	0xbde31462	-0.11087872
135	0xbe197881	-0.14987375
136	0xbe76006d	-0.240236
137	0xbe4af012	-0.19818142
138	0x3ddcb6a0	0.107770205
139	0xbe06dcf4	-0.13170224
140	0x3bedb150	0.0072538033
141	0xbe7dc807	-0.24783336
142	0x3e1d61db	0.1536936
143	0xbdd22cc5	-0.10262445
144	0xbdb4823e	-0.08813904
145	0xbc007b11	-0.007841841
146	0x3d54d3d1	0.051959816
147	0x3e37e96c	0.17960137
148	0x3e819129	0.2530606
149	0xbe266514	-0.16249496

conv1.bias f4 [6]
0	0xbcaffd01	-0.021482946
1	0xbd7887ec	-0.0606765
2	0xbc15f6b6	-0.009153059
3	0xbde2aba3	-0.11067893
4	0x3e1a931d	0.15095182
5	0xbc133e21	-0.008986981

conv2.weight f4 [16, 6, 5, 5]
0	0x3d7bb9b3	0.061456393
1	0x3d2c5b9b	0.04207955
2	0x3d1bab9f	0.038005468
3	0xbd15eb82	-0.03660155
4	0x3d503fd3	0.050842118
5	0x3d2c8ab8	0.04212448
6	0x3ca0bc25	0.019620964
7	0xbda1c454	-0.07898775
8	0x3b4ac4fe	0.003094017
9	0xbdaa7498	-0.0832302
10	0xbb7956eb	-0.0038046192
11	0x3da7a6e1	0.081861265
12	0x3b584870	0.003300216
13	0xbdcc3a30	-0.09972036
14	0xbe10d5a7	-0.14144002
15	0x3d218da1	0.03944171
16	0x3d8f1052	0.06985535
17	0xbc9c522e	-0.019082155
18	0xbdbf4f2c	-0.09341273
19	0xbe0832a9	-0.13300575
20	0xbd0051e8	-0.031328112
21	0x3d6b472f	0.057440933
22	0x3dafd6e6	0.085859105
23	0xbda0f0f9	-0.07858462
24	0xbd0a1405	-0.0337105
25	0x3d76e501	0.06027699
26	0x39c4f1c4	0.00037564163
27	0xbda6ca86	-0.08144097
28	0xbd55a7b4	-0.052161887
29	0xbdc17c9d	-0.09447596
30	0x3d8ff03b	0.07028242
31	0xbc562a08	-0.0130715445
32	0xbd807afd	-0.06273458
33	0xbdd76ed7	-0.10519188
34	0xbe438fc2	-0.19097808
35	0x3cf3fda4	0.029784031
36	0x3d8d383e	0.06895493
37	0x3d342544	0.04398085
38	0xbdf15f53	-0.1178576
39	0xbe5fd2a9	-0.21857704
40	0x3d5c96c2	0.05385471
41	0x3d2abb44	0.041682497
42	0x3d5e5679	0.054281686
43	0x3c498a5b	0.012301053
44	0xbe2e8c99	-0.17045821
45	0xbd6615d1	-0.05617315
46	0x3d8ef489	0.06980235
47	0x3d850ce6	0.06496601
48	0x3d38eaea	0.045145907
49	0xbcee9057	-0.029121561
50	0x3d407d1a	0.046994306
51	0xbd972cc3	-0.073815845
52	0xbdbf6665	-0.09345702
53	0xbe2977fd	-0.16549678
54	0xbe61283d	-0.21988006
55	0x3e1ea1b7	0.15491377
56	0xbd8bd6d4	-0.068280846
57	0xbe37d2f1	-0.17951562
58	0xbe73af9d	-0.2379746
59	0xbe87303f	-0.26403996
60	0x3e0904a5	0.13380678
61	0xbc4cccca	-0.012499997
62	0xbc8cabfe	-0.017171856
63	0xbddfa061	-0.10919262
64	0xbe6f9a4d	-0.23398705
65	0x3dedd396	0.116126224
66	0xbd970b9c	-0.07375261
67	0xbb26eb54	-0.0025469856
68	0xbd182f27	-0.037154343
69	0x3dda97aa	0.10673459
70	0x3ca782ed	0.020448172
71	0xbd6e2ff3	-0.058151197
72	0xbd8cabf1	-0.06868733
73	0xbd7f59fa	-0.062341668
74	0x3d73000f	0.059326228
75	0x3e3b363c	0.18282408
76	0x3e5aa5ba	0.21352282
77	0x3e56ccc6	0.20976552
78	0x3d7c7c0d	0.06164174
79	0xbd615246	-0.055010103
80	0x3da4544b	0.0802389
81	0x3d065737	0.03279802
82	0xbdabff23	-0.08398273
83	0xbe12b5d2	-0.14327171
84	0xbdd68e84	-0.104764014
85	0xbcc0212c	-0.023453318
86	0xbd340086	-0.04394581
87	0xbe36e22b	-0.17859714
88	0xbe2489f0	-0.16068244
89	0xbe98cbf7	-0.29843113
90	0xbe0aab5a	-0.13541928
91	0xbdc1dddf	-0.09466147
92	0xbe5938e6	-0.21213111
93	0xbe6edea5	-0.2332712
94	0xbec16d70	-0.37778807
95	0xbe50011d	-0.20312925
96	0xbe30a3c6	-0.17249975
97	0xbe9aaff8	-0.30212379
98	0xbea5f2a9	-0.32411698
99	0xbe7211f0	-0.23639655
100	0xbc89cf19	-0.016822385
101	0xbde1796b	-0.11009487
102	0xbb54cd4d	-0.0032471002
103	0x3c690057	0.014221272
104	0x3d8d6fb4	0.06906071
105	0xbe24d6de	-0.1609759
106	0x3c810a55	0.015751997
107	0xbd5c4ba1	-0.053783063
108	0x3d0f18df	0.03493583
109	0x3de43df4	0.11144629
110	0xbe08f98b	-0.13376443
111	0xbd82e5cd	-0.06391487
112	0xbda2cb1d	-0.07948897
113	0xbdd2f533	-0.10300674
114	0x3d5a99b5	0.053369243
115	0xbe14a281	-0.14515115
116	0x3d5cb6ec	0.053885385
117	0x3cb5f941	0.02221358
118	0x3d497044	0.04917933
119	0xbb968b1a	-0.004594219
120	0xbd55733c	-0.05211185
121	0x3da99c6a	0.08281787
122	0x3d4f1390	0.050555766
123	0xbdad2350	-0.08454001
124	0x3c15c9d4	0.009142358
125	0xbe0f185a	-0.13974133
126	0xbe3c8d93	-0.18413381
127	0xbe8d8454	-0.2764002
128	0xbea73ec7	-0.32665083
129	0xbe9fe522	-0.31229502
130	0xbe171d72	-0.14757326
131	0xbe1a28a4	-0.15054566
132	0xbe892734	-0.26787722
133	0xbec323ec	-0.38113344
134	0xbef44b3e	-0.47713655
135	0xbdcfe763	-0.101515554
136	0xbe4eaa80	-0.20182228
137	0xbeb2d621	-0.34928992
138	0xbea20116	-0.31641454
139	0xbefb78f1	-0.49115708
140	0xbe6145a5	-0.21999224
141	0xbe86ea29	-0.26350525
142	0xbeb0eb8d	-0.3455471
143	0xbe6ad921	-0.2293439
144	0xbe8864f1	-0.26639512
145	0xbe57e02c	-0.21081609
146	0xbe8bbbd1	-0.2729173
147	0xbe98c3e7	-0.29836962
148	0xbe3b92be	-0.18317696
149	0xbc64ce72	-0.013965236
150	0xbe0f118d	-0.13971539
151	0xbd372d2b	-0.04472081
152	0xbcdc7324	-0.026910372
153	0x3d276219	0.040865038
154	0x3dfb6c57	0.122765236
155	0xbcd026f1	-0.025409194
156	0xbdd5dac5	-0.104421176
157	0x3d09d0f8	0.033646554
158	0x3dbff489	0.09372813
159	0x3d3d1c99	0.04616985
160	0x3d1ac4ed	0.03778546
161	0x3d976a18	0.07393283
162	0xbb255c57	-0.002523204
163	0x3cbb68df	0.022877155
164	0xbd6689e3	-0.056283843
165	0x3bc2fba7	0.0059504095
166	0x3d94a343	0.07257702
167	0x3d685a08	0.056726485
168	0xbd826c5d	-0.06368325
169	0xbdf0b988	-0.11754137
170	0xbcc97eee	-0.024596658
171	0xbd8f1d04	-0.06987956
172	0xbda1c0ad	-0.07898078
173	0xbda26e3e	-0.07931183
174	0xbd4f7c9e	-0.050655954
175	0xbd8915fc	-0.06693646
176	0xbde63163	-0.112398885
177	0xbd96bd6e	-0.073603496
178	0x3d7d9070	0.061905324
179	0xbca4c3f2	-0.020112965
180	0xbd2351e3	-0.039873015
181	0x3c9f7cba	0.019468654
182	0xbd248f1b	-0.04017554
183	0xbcc19685	-0.023631344
184	0xbc270f13	-0.010196465
185	0x3be57181	0.007002056
186	0xbcfe36dc	-0.031032018
187	0xbd841806	-0.064498946
188	0xbdee16b5	-0.11625425
189	0xbe19244b	-0.14955251
190	0x3df29e6b	0.11846622
191	0xbd04cabb	-0.0324199
192	0xbdd53680	-0.10410786
193	0xbddf465a	-0.1090209
194	0xbe3a2c19	-0.18180884
195	0x3db3f088	0.08786112
196	0x3d8af08f	0.06784164
197	0xbd208a43	-0.039194357
198	0xbe87ae6f	-0.2650027
199	0xbe4c1a40	-0.19931889
200	0xbd58118d	-0.052751113
201	0xbda1d612	-0.07902159
202	0x3c87b902	0.01656771
203	0x3e12faa8	0.1435343
204	0xbdb5105c	-0.08841011
205	0xbcc201c0	-0.023682475
206	0xbda48695	-0.08033482
207	0x3ce61f72	0.028091166
208	0x3db9f6da	0.09080286
209	0x3c4467a2	0.011987599
210	0x3d872494	0.065987736
211	0xbd664272	-0.05621571
212	0xbda191b8	-0.07889122
213	0xbc0cecd8	-0.00860139
214	0x3d93442c	0.07190737
215	0x3e05a707	0.13051997
216	0x3cb9302e	0.022605982
217	0xbb50a8af	-0.0031838825
218	0xbe4a6657	-0.19765602
219	0xbe87f9da	-0.2655781
220	0x3e0abe9b	0.13549273
221	0x3e3f789a	0.1869835
222	0x3e28c6a0	0.1648202
223	0xbe180c02	-0.1484833
224	0xbe2ebc3e	-0.17063996
225	0xbe1548a3	-0.1457849
226	0x3df0efb3	0.11764469
227	0x3e5cdfb5	0.21569712
228	0x3d9e5243	0.07730534
229	0x3d41ea6d	0.047342706
230	0xbd0fd1f2	-0.03511233
231	0x3d9634a1	0.07334257
232	0x3dea9a9b	0.1145527
233	0x3c1d44df	0.00959894
234	0xbcd91171	-0.026497575
235	0x3d54f075	0.05198713
236	0x3e10a989	0.14127173
237	0x3dab2993	0.08357539
238	0x3cccf887	0.02502085
239	0xbbfaabd7	-0.0076498794
240	0x3bc9846f	0.0061498205
241	0x3dc345c7	0.09534793
242	0x3d60600b	0.054779094
243	0xbdb980f7	-0.09057801
244	0xbd0d8cd4	-0.034558132
245	0x3dd255af	0.10270249
246	0x3db12d1e	0.086511835
247	0xbc63f8f4	-0.0139143355
248	0xbe80d840	-0.25164986
249	0xbe693cd7	-0.22777115
250	0x3dc17c59	0.094475456
251	0x3cb36362	0.021897975
252	0xbd941d18	-0.07232112
253	0xbd86a383	-0.06574156
254	0xbdc400a2	-0.09570433
255	0x3d83f9e4	0.06444147

conv2.bias f4 [16]
0	0xbcb93478	-0.022608027
1	0x3c1ad143	0.009449306
2	0xbb3922ab	-0.0028249423
3	0xbbc16b63	-0.005902694
4	0xbd2acdda	-0.04170022
5	0x3bea9728	0.0071591325
6	0x3dd236c3	0.10264351
7	0x3d75d7a9	0.060020123
8	0xbc53a4c0	-0.012917697
9	0x3d9cca9f	0.076558344
10	0xbcce6ca0	-0.02519828
11	0x3d1bf66b	0.0380768
12	0x3bd1aff5	0.0063991495
13	0x3bd75061	0.006570861
14	0x3d70f83c	0.058830485
15	0x3d0d9dd6	0.034574352

fc1.weight f4 [120, 400]
0	0x3e048978	0.12943065
1	0x3e4ae631	0.19814374
2	0x3e5d250f	0.21596168
3	0x3da0f246	0.0785871
4	0x3dcc45d0	0.09974253
5	0x3d316127	0.043305542
6	0x3d02639c	0.031833276
7	0x3dbc6e98	0.092007816
8	0x3d825f9d	0.06365893
9	0x3cca44fc	0.024691097
10	0x3d8d3ee4	0.06896761
11	0x3cf1d7c4	0.02952183
12	0x3d8653a2	0.065589204
13	0x3ce1d10d	0.027565503
14	0xbc990a43	-0.018681651
15	0x3b70028e	0.0036622616
16	0x3dea8e4d	0.11452923
17	0x3d9dd7af	0.07707154
18	0xbca119b7	-0.019665582
19	0xbd28e371	-0.04123253
20	0x3dc2efeb	0.09518417
21	0x3d93b954	0.07213083
22	0x3e1e7550	0.15474439
23	0x3dae51eb	0.08511718
24	0x3d312a15	0.043253023
25	0x3e2b9407	0.16755687
26	0x3e13df1d	0.1444058
27	0x3d8d17cf	0.06889307
28	0x3c64f076	0.013973346
29	0x3db23c44	0.08702901
30	0x3dfc4ef3	0.12319746
31	0x3df30478	0.11866087
32	0x3d367654	0.04454644
33	0x3dd41613	0.10355773
34	0x3dcc8be2	0.09987618
35	0x3df97907	0.12181287
36	0x3dd6bf21	0.10485674
37	0x3da211d1	0.079135545
38	0x3df2c193	0.118533276
39	0x3dd5f90a	0.10447891
40	0x3e0f7b86	0.14011964
41	0x3d4b2462	0.049595244
42	0x3dbbded9	0.09173364
43	0x3e245eb5	0.16051753
44	0x3e377b89	0.17918219
45	0x3e01dddb	0.12682287
46	0x3de4b341	0.111670025
47	0x3dbabb90	0.09117806
48	0x3e30108e	0.17193815
49	0x3e068f90	0.13140702
50	0xbc42c02a	-0.011886636
51	0x3c852586	0.016253244
52	0xbcdf91f9	-0.027291285
53	0x3d808bee	0.062766895
54	0xbdb636a4	-0.088971406
55	0x3d349d35	0.044095237
56	0x3d34b02e	0.04411333
57	0xbd321cc9	-0.043484483
58	0x3d443074	0.04789777
59	0xbcd6d87f	-0.02622628
60	0x3cf0351c	0.0293222
61	0x3d5b4d6b	0.05354063
62	0xbc631c63	-0.013861748
63	0xba9de6b4	-0.0012046904
64	0x3d86f50a	0.06589706
65	0x3c835b80	0.016034842
66	0xb83ff755	-4.5768295e-05
67	0x3d44de30	0.048063457
68	0x3b61798b	0.003440472
69	0x3d0b1118	0.03395185
70	0x3d576994	0.05259092
71	0x3d26b2d6	0.040697895
72	0xbc8bfc2a	-0.017088015
73	0x3ca3dcf0	0.020002812
74	0x3b1b53a4	0.0023700977
75	0x3d8f7a78	0.07005781
76	0x3debe0ab	0.115174614
77	0x3d251c22	0.040310033
78	0x3d27498e	0.04084163
79	0x3cbbf224	0.02294261
80	0x3d82a838	0.063797414
81	0x3ba394ec	0.004992118
82	0xbbe5880c	-0.0070047434
83	0x3c3186f4	0.010835398
84	0x3d8006a0	0.062512636
85	0xbc65e5bd	-0.014031825
86	0x3cf433ae	0.029809799
87	0xbc590c65	-0.013247584
88	0xbbeb9a61	-0.0071900343
89	0x3d4151b5	0.047197063
90	0xbd20ecd2	-0.03928835
91	0xbd6d9171	-0.05800003
92	0xbd4f3e18	-0.050596327
93	0xbd0ccff8	-0.034378022
94	0xbd74916e	-0.059709005
95	0x3daad336	0.083410665
96	0x3d0cc742	0.034369715
97	0xbd198c09	-0.037487064
98	0x3c644cba	0.013934309
99	0x3d6a3830	0.05718249
100	0x3c8806a3	0.016604727
101	0x3cac741b	0.021051457
102	0x3dba36c1	0.09092475
103	0x3da904fe	0.08252905
104	0x3d830e73	0.0639924
105	0xbc7cce2d	-0.0154300155
106	0xbc817a4c	-0.015805386
107	0xbd6b57b9	-0.057456706
108	0x3d257c17	0.040401544
109	0x3c86906a	0.016426284
110	0xbd32c478	-0.0436444
111	0xbda83d9b	-0.08214875
112	0xbe076219	-0.13221015
113	0xbcc95b85	-0.024579773
114	0xbdb3290a	-0.08748062
115	0xbc8b16c4	-0.016978629
116	0xbe08d5d7	-0.13362823
117	0xbdc2815e	-0.09497331
118	0xbd1e0b24	-0.038584843
119	0xbc593971	-0.013258324
120	0x3cf285f1	0.029604884
121	0xbd86b85c	-0.065781325
122	0xbc57ef69	-0.013179638
123	0xbce1c248	-0.02755846
124	0xbc9ab3b3	-0.018884515
125	0x3db2c68c	0.08729276
126	0x3d24da03	0.040246975
127	0x3bedbb7e	0.007255017
128	0x3e00878c	0.12551707
129	0x3e575ebc	0.21032232
130	0x3dbcca2c	0.09218249
131	0x3cd23cd0	0.025663763
132	0xbb1def07	-0.002409877
133	0x3da302ec	0.07959542
134	0x3e8d07e7	0.27545092
135	0x3de09a87	0.10966974
136	0x3d892889	0.066971846
137	0x3d1893ae	0.037250213
138	0x3dfb7250	0.12277663
139	0x3e08eee6	0.13372383
140	0x3e32ff40	0.17480183
141	0x3e401b3e	0.18760392
142	0x3de824e1	0.11335159
143	0x3e1f9df8	0.15587604
144	0x3e6c09b4	0.23050576
145	0x3e2b9a0c	0.16757983
146	0x3dfac809	0.12245185
147	0x3de140b0	0.10998666
148	0x3e0412ea	0.1289784
149	0x3e7b3196	0.24530634
150	0x3d48ef76	0.049056493
151	0xbc003c30	-0.00782685
152	0x3c2fdc75	0.010733713
153	0xbc9a4ca7	-0.018835379
154	0xbc0f77c6	-0.008756584
155	0xbd4f350a	-0.05058769
156	0x3d14b2e5	0.03630342
157	0x3a195c7d	0.00058502686
158	0x3d049fb5	0.03237887
159	0xbc0cdc27	-0.00859741
160	0xbd1fd93d	-0.039025534
161	0x3d21560f	0.039388712
162	0x3d0d8f8a	0.034560718
163	0xbce8b7d8	-0.028407976
164	0x3d0e4d7b	0.03474186
165	0x3d0c4739	0.03424761
166	0x3d1709d5	0.03687461
167	0x3c02f0eb	0.00799201
168	0x3ccbf8f6	0.024898987
169	0xbd0a2e7c	-0.033735737
170	0xbc9f2cd6	-0.01943056
171	0x3ceff00e	0.029289272
172	0x3d00ec66	0.031475447
173	0x3cc80719	0.024417447
174	0xbd6855a9	-0.056722317
175	0x3ccd9c29	0.025098877
176	0xbcceeef5	-0.025260428
177	0x3ca8c987	0.020603908
178	0x3cd53bed	0.026029551
179	0xbd403285	-0.04692318
180	0x3d14624e	0.036226563
181	0x3c30948e	0.010777606
182	0x3ca67dfa	0.020323742
183	0xbc8988b0	-0.01678881
184	0x3d133e2d	0.035947967
185	0x3c90ff6d	0.017699922
186	0x3c205e59	0.009788119
187	0xbcca878c	-0.024722837
188	0x3d160111	0.03662211
189	0x3d8184a2	0.06324126
190	0xbd52f679	-0.051504586
191	0x3d37ac89	0.044842277
192	0xbd30a400	-0.043125153
193	0xbcc92d82	-0.024557833
194	0xbc88bc36	-0.016691308
195	0x3cd2b685	0.025721798
196	0xbc65a495	-0.01401629
197	0x3b949237	0.0045340317
198	0x3cabedc3	0.020987397
199	0x3d955dc9	0.07293279
200	0x3cc28033	0.02374277
201	0x3de5d39a	0.112220004
202	0x3e0fd24e	0.14045069
203	0x3e103488	0.14082539
204	0x3dee11bf	0.116244785
205	0x3c8c461c	0.017123275
206	0x3bc186e4	0.005905973
207	0x3bad2488	0.005283896
208	0x3d8e3ebb	0.06945559
209	0x3dc26e64	0.094937116
210	0x3cc82ccd	0.024435425
211	0xbc4e5ad7	-0.0125949
212	0x3d1864e4	0.03720559
213	0x3c98da06	0.01865865
214	0x3d4467af	0.047950443
215	0x3d52ef2d	0.051497627
216	0xbda70573	-0.08155336
217	0xbd053649	-0.032522473
218	0xbd5e2eb8	-0.054243773
219	0x3c96d0c4	0.018410094
220	0x3d6cb311	0.05778796
221	0xbce97fb8	-0.028503284
222	0xbcf36e82	-0.02971578
223	0xbcedbf9d	-0.029022032
224	0x3dac285e	0.08406137
225	0x3c9e971e	0.019359168
226	0x3d09e994	0.033670023
227	0x3c16fbaf	0.0092152795
228	0x3cb16389	0.021653907
229	0x3d1b097f	0.037850853
230	0x3d126505	0.03574087
231	0xbd227740	-0.039664507
232	0x3913a3d0	0.00014080037
233	0xbd0bf0c1	-0.034165148
234	0x3bb1ff3e	0.0054320386
235	0xbccc981b	-0.024974873
236	0x3d59bfb4	0.053161338
237	0x3cb3505b	0.021888902
238	0x3caf402a	0.0213929
239	0xbc965665	-0.018351743
240	0xbd42dced	-0.047573972
241	0x3c1181cb	0.008881043
242	0xb9b5a51a	-0.0003464602
243	0xbc0c6ce7	-0.008570886
244	0x3d2e45d7	0.042547073
245	0xbd5ce279	-0.05392692
246	0xbd3ce0a5	-0.046112675
247	0x3d221e9a	0.039579965
248	0x3cead476	0.028665762
249	0xbd2767a4	-0.040870324
250	0x3e0cc303	0.13746266
251	0x3dc400ad	0.095704414
252	0x3ce928ad	0.028461779
253	0x3d948179	0.072512574
254	0x3db092a4	0.086217195
255	0x3d55fc1a	0.052242376

fc1.bias f4 [120]
0	0xbdd2e008	-0.10296637
1	0xbd733aea	-0.059382357
2	0xbdac60df	-0.08416914
3	0x3e4c5643	0.19954781
4	0xbc487072	-0.01223384
5	0x3e1d6d60	0.15373755
6	0x3dd2e4a2	0.102975145
7	0x3ddebd3b	0.108759366
8	0xbda3c4b6	-0.07996504
9	0x3ddffad2	0.10936512
10	0xbbb15698	-0.005411934
11	0xbda87eab	-0.08227285
12	0xbd8f69c5	-0.07002596
13	0x3ce0bccd	0.027433777
14	0xbdcdde43	-0.10052159
15	0xbc3f2b5e	-0.011668054
16	0x3e1f313e	0.15546128
17	0xbde99b6e	-0.11406599
18	0x3c20b6ef	0.00980924
19	0xbdbf822c	-0.09351
20	0xbd3bec21	-0.045879487
21	0xbd3f1bbb	-0.046657305
22	0x3df956ac	0.121747345
23	0xbdbe9b81	-0.09307004
24	0xbd87d76e	-0.06632887
25	0x3e291cde	0.16514918
26	0xbddfdd67	-0.10930901
27	0xbd58b192	-0.05290372
28	0x3e2a4780	0.16628838
29	0x3e4b5be1	0.19859268
30	0x3e3115f0	0.17293525
31	0xbda40b19	-0.08009929
32	0xbd446273	-0.04794545
33	0xbd5f973f	-0.0545876
34	0xbdcfa8a5	-0.10139588
35	0x3e01ed95	0.12688287
36	0xbd6d466f	-0.0579285
37	0x3e2e6af2	0.17032984
38	0xbce6642c	-0.028123938
39	0xbd4528f9	-0.048134778
40	0xbc8bb1a7	-0.017052485
41	0xbd4cfdc3	-0.050046694
42	0xbcc89f98	-0.024490163
43	0x3d85ccdc	0.065332144
44	0xbd153c54	-0.036434487
45	0xbd2b9703	-0.041892063
46	0xbd9c84a3	-0.07642486
47	0xbc5824b5	-0.013192345
48	0xbdf1aae4	-0.11800173
49	0x3e1fd21f	0.15607499
50	0xbcffc2bc	-0.031220786
51	0xbd004e9b	-0.031324964
52	0x3e2372c4	0.15961748
53	0x3e4abfdc	0.19799751
54	0xbda5074a	-0.08058031
55	0x3b0452dc	0.002019099
56	0x3e0a123b	0.13483517
57	0x3b579aaa	0.0032898583
58	0xbd72490b	-0.05915169
59	0xbd98c934	-0.074602515
60	0x3df2c371	0.11853684
61	0x3dbd9476	0.09256832
62	0xbb86552a	-0.004099508
63	0x3c6cdb79	0.014456623
64	0x3def1bcd	0.116752245
65	0xbd8fd192	-0.07022394
66	0xbdb2a229	-0.08722336
67	0xbdae9ab5	-0.08525602
68	0x3e0a685b	0.13516371
69	0x3cb36a59	0.021901296
70	0x3dd4c22e	0.10388599
71	0xbd502c00	-0.05082321
72	0xbd413c26	-0.047176503
73	0xbd9c47c9	-0.076308794
74	0xbd76a645	-0.06021716
75	0x3e15d0df	0.14630459
76	0xbc5294ee	-0.01285289
77	0xbcdaabde	-0.02669328
78	0xbd637722	-0.055533536
79	0xbc386826	-0.0112553
80	0xbde321ee	-0.11090456
81	0x3dd65b53	0.104666375
82	0x3bcd9fba	0.0062751444
83	0xbd4b3ad5	-0.049616653
84	0x3e0d301b	0.13787882
85	0xbda0a1ca	-0.07843359
86	0x3e037462	0.12837365
87	0x3e2a82a3	0.16651396
88	0xbd58f98c	-0.05297236
89	0xbcaa6570	-0.020800322
90	0x3d57d9ea	0.052698053
91	0x3e0b505a	0.1360487
92	0xbd868ac9	-0.0656944
93	0x3de1ec2a	0.11031373
94	0xbd9fefed	-0.07809434
95	0xbd51cb03	-0.051218998
96	0x3e270098	0.1630882
97	0xbdab3eeb	-0.0836161
98	0xbd804bc0	-0.06264448
99	0x3c687b83	0.014189604
100	0xbd3f5102	-0.046708114
101	0xbdd414e5	-0.10355548
102	0xbc4c6bf8	-0.012476914
103	0xbd845868	-0.06462175
104	0x3e069026	0.13140926
105	0xbda02ecf	-0.07821428
106	0x3de0037b	0.10938164
107	0x3df86c6c	0.12130055
108	0xbdcea2d4	-0.10089651
109	0x3e2b8d8d	0.16753216
110	0x3e2d220b	0.16907518
111	0xbd75b9a3	-0.05999149
112	0xbdad54dc	-0.08463451
113	0x3dad7d4a	0.084711626
114	0xbd99ede9	-0.07516081
115	0x3e1dd762	0.15414193
116	0x3e02812f	0.12744592
117	0x3ddbab2c	0.10726008
118	0xbd99b5c8	-0.07505375
119	0xbd3369c3	-0.043802034

fc2.weight f4 [84, 120]
0	0xbaa22fc5	-0.0012373856
1	0xbc3a837a	-0.0113838855
2	0x3d861975	0.06547824
3	0x3d89fc7b	0.0673761
4	0x3dae2c28	0.08504516
5	0xbdabda54	-0.08391252
6	0xbcdf92cc	-0.027291678
7	0x3d25a3b8	0.040439337
8	0x3bf2c4b4	0.0074087027
9	0xbd38671d	-0.04502021
10	0x3e0570b6	0.13031277
11	0xbdccd7cb	-0.10002097
12	0x3d97f217	0.07419222
13	0xbd37c07e	-0.04486131
14	0x3da02c79	0.078209825
15	0x3e5b94a2	0.21443418
16	0xbd6058f9	-0.05477235
17	0xbcf70024	-0.030151434
18	0x3d5d5fa5	0.05404629
19	0x3dcda4cb	0.100411974
20	0x3d241456	0.040058456
21	0xbd061f8b	-0.032744925
22	0x3de087cc	0.10963401
23	0xbd9865ee	-0.074413165
24	0x3dabec2c	0.083946556
25	0xbd1afedb	-0.037840705
26	0x3be749fa	0.0070583792
27	0xbd604610	-0.054754317
28	0xbdaacaa8	-0.08339435
29	0xbdecf388	-0.115698874
30	0x3d5be5c0	0.053685904
31	0x3cddb3f8	0.027063355
32	0x3a75edb3	0.0009381428
33	0x3dc6474a	0.09681566
34	0x3c406664	0.011743162
35	0xbb87b795	-0.0041417577
36	0xbd9816b4	-0.07426205
37	0x3d0bc5c4	0.03412415
38	0x3d6f0cc3	0.05836178
39	0x3e5c1128	0.2149092
40	0xbd4fb792	-0.050712176
41	0xbd8ab658	-0.067730606
42	0x3d514118	0.05108747
43	0x3e0e3a6c	0.13889474
44	0xbda62e5c	-0.08114311
45	0x3e270f94	0.16314536
46	0xbdb88f30	-0.09011686
47	0xbbe66154	-0.0070306454
48	0xbd1f52fe	-0.038897507
49	0xbc9b4409	-0.01895334
50	0xbd4bb37d	-0.04973172
51	0xbd3dd161	-0.046342257
52	0xbdb650c7	-0.08902126
53	0xbcefdf76	-0.02928136
54	0xbd721778	-0.059104413
55	0xbd375c45	-0.04476573
56	0xbaac7161	-0.0013156348
57	0x3cdbeaf0	0.026845425
58	0x3d9f29a6	0.07771616
59	0x3da5ebac	0.081015915
60	0x3df0f5de	0.117656454
61	0xbc0c7938	-0.008573823
62	0xbc49ccf9	-0.012316936
63	0xbd92ad3f	-0.0716195
64	0x3dca84ab	0.09888586
65	0xbca18c88	-0.01972033
66	0xbcb24569	-0.021761613
67	0x3cea8bed	0.028631175
68	0x3e1cfeb8	0.15331542
69	0xbc152350	-0.009102657
70	0xbd01895e	-0.031625144
71	0x3dbf32c9	0.093358584
72	0x3e3c9c72	0.18419054
73	0x3e0b9705	0.13631828
74	0x3cccf066	0.025016975
75	0xbd627b5d	-0.05529343
76	0x3e9cc053	0.30615482
77	0xbd9a9680	-0.07548237
78	0x3d3b4912	0.045723982
79	0x3d368e63	0.044569384
80	0x3d8f5c7f	0.07000064
81	0xbd9c749e	-0.076394305
82	0x3e3c55a8	0.1839205
83	0x3dc43f8b	0.09582432
84	0x3d8860b0	0.06659067
85	0xbd9acd92	-0.07558741
86	0xbddecf3f	-0.10879373
87	0xbdc22835	-0.09480325
88	0xbd772449	-0.06033734
89	0xbbb8c88c	-0.0056391414
90	0xbcfdd7fc	-0.030986778
91	0xbd8412eb	-0.06448921
92	0x3ea7e355	0.32790628
93	0x3d300d36	0.04298135
94	0xbccc8409	-0.024965303
95	0x3e709f8a	0.2349836
96	0x3cf474d4	0.029840864
97	0x3b924439	0.004463699
98	0x3e392a36	0.18082508
99	0xbd890938	-0.066912115
100	0xbcc7e385	-0.024400482
101	0xbb28d0a0	-0.0025759116
102	0xbd0a40dc	-0.03375326
103	0x3cc6e268	0.02427788
104	0xbc72ee94	-0.014827389
105	0xbccafe22	-0.024779383
106	0x3db2b23f	0.08725404
107	0xba974ed9	-0.0011543884
108	0x3c93efee	0.018058743
109	0xbd3a374c	-0.04546289
110	0xbdb3e536	-0.08783953
111	0xbd7a1600	-0.061056137
112	0x3dad7896	0.084702656
113	0x3d91a354	0.071112305
114	0xbd813bc0	-0.063102245
115	0x3d2b4b95	0.041820128
116	0xbe339652	-0.17537811
117	0xbd5d6c6e	-0.054058485
118	0x3daa2322	0.08307482
119	0xbd2b9e24	-0.04189886
120	0xbcc33756	-0.023830097
121	0xbcc8b1ac	-0.024498783
122	0xbddf7e1f	-0.109127276
123	0x3dadb183	0.08481123
124	0xbd0b4937	-0.03400537
125	0x3c1afea3	0.009460124
126	0x3d49cb96	0.04926642
127	0x3e1be956	0.1522573
128	0xbdbfa733	-0.093580626
129	0x3dd533b9	0.10410256
130	0xbd35d15c	-0.044389114
131	0xbe09ee76	-0.13469872
132	0xbd4e28e7	-0.050331976
133	0xbbd78f99	-0.0065783975
134	0xbd3e689b	-0.04648648
135	0xbd9d8525	-0.07691411
136	0x3d97b1f4	0.07406989
137	0xbe1211c4	-0.1426459
138	0xbd74c382	-0.059756763
139	0x3d039b84	0.032130733
140	0x3c923499	0.017847346
141	0x3ce94820	0.028476775
142	0x3dd83507	0.10556989
143	0xbbe8c778	-0.0071038567
144	0xbdf0c99b	-0.11757203
145	0x3e0e5ad4	0.13901836
146	0x3dd443f3	0.10364523
147	0xbd3c14bb	-0.045918208
148	0x3e851adc	0.25997055
149	0x3e2f1366	0.17097244
150	0x3e127321	0.1430173
151	0xbd4eb736	-0.050467692
152	0xbc92ba55	-0.017911116
153	0xbd34fe0d	-0.044187594
154	0x3d7588a1	0.059944753
155	0x3de67ae1	0.11253906
156	0xbdaa442b	-0.08313783
157	0x3ddda803	0.10823061
158	0xbe3bd99f	-0.18344735
159	0xbe57ff05	-0.21093376
160	0xbd8f0267	-0.0698288
161	0xbd464892	-0.048409052
162	0xbdc9437d	-0.098273255
163	0x3dc19165	0.0945156
164	0xbcee1ad7	-0.029065533
165	0x3cb68e39	0.022284614
166	0x3d9da6ff	0.076978676
167	0x3d006e86	0.031355403
168	0x3d9b656e	0.075877056
169	0x3e61f718	0.22066915
170	0x3cfa71aa	0.030571777
171	0x3d5e0344	0.054202333
172	0x3e27caed	0.16386004
173	0x3bea7e80	0.0071561933
174	0xbd35f7f5	-0.044425923
175	0x3dcb97fb	0.09941097
176	0x3e1af289	0.15131582
177	0x3d1b2895	0.0378805
178	0x3d36d99e	0.04464113
179	0xbdbdc645	-0.092663325
180	0x3e0af7b7	0.13571058
181	0x3d950088	0.07275492
182	0xbb579f97	-0.003290152
183	0x3dbe1047	0.092804484
184	0x3e4215cd	0.18953629
185	0x3a4df400	0.0007856488
186	0xbe63fc46	-0.22264203
187	0xbd2f5a11	-0.042810503
188	0x3e08a3ff	0.1334381
189	0x3da306b1	0.07960261
190	0x3cca54ed	0.024698699
191	0xbd4e7285	-0.050402183
192	0xbda05f27	-0.07830649
193	0xbe4e6b40	-0.201581
194	0x3dda8096	0.10669057
195	0x3da37b93	0.07982554
196	0x3e030554	0.12795001
197	0xb797d910	-1.810168e-05
198	0x3d1d9f4f	0.038482007
199	0xbdaf2fed	-0.08554063
200	0xbc604936	-0.01368933
201	0x3e280780	0.16409111
202	0x3ba2c19e	0.0049669286
203	0x3d7cc9b9	0.061715815
204	0x3df1214f	0.11773931
205	0xbcfb13e4	-0.030649133
206	0x3e1591cd	0.146064
207	0x3df25e8d	0.118344404
208	0x3ca0daea	0.019635636
209	0xbd8311dd	-0.063998915
210	0x3d9b76da	0.075910285
211	0x3d7df923	0.062005173
212	0x3d98f64b	0.07468852
213	0x3e363ddc	0.17797035
214	0xbd750525	-0.05981936
215	0xbe3b7966	-0.18308029
216	0x3e0f9320	0.14020967
217	0xbd35620f	-0.04428297
218	0xbe4ca572	-0.19984987
219	0xbd80940c	-0.06278238
220	0xbd9a0d46	-0.07522063
221	0xbd8040f6	-0.0626239
222	0x3c36adda	0.011149848
223	0x3d887e9c	0.06664774
224	0x3dd22009	0.102600165
225	0xbd1337a1	-0.035941724
226	0x3d8cf31a	0.068823054
227	0x3d831e6f	0.06402289
228	0x3d1ac666	0.037786864
229	0x3e1a2bd6	0.15055785
230	0x3e000e59	0.12505473
231	0xbd84b006	-0.06478886
232	0x3dc674a4	0.09690216
233	0x3e082ace	0.13297579
234	0xbd1e3264	-0.038622275
235	0x3e18004a	0.1484386
236	0x3e5d8043	0.21630959
237	0x3d8cccc3	0.06874993
238	0xbd1e8b1c	-0.038706884
239	0x3bce2e7e	0.0062921634
240	0xbbcbc142	-0.0062181065
241	0x3dbfb54e	0.09360753
242	0x3d756e8a	0.05991987
243	0x3cb6419f	0.022248087
244	0xbdc8bbc3	-0.09801438
245	0xbc5554a0	-0.013020664
246	0xbcfee2bb	-0.031113973
247	0xbd6873d9	-0.056751106
248	0x3e497baa	0.1967608
249	0xbcc68cfa	-0.024237145
250	0xbd179a49	-0.037012372
251	0x3e31574e	0.1731846
252	0x3c8a2903	0.016865259
253	0x3d2f310e	0.04277139
254	0x3d39ca68	0.045359045
255	0x3e226e98	0.158625

fc2.bias f4 [84]
0	0xbe007dca	-0.12547985
1	0x3e6a46a6	0.22878513
2	0x3c21f85f	0.009885876
3	0x3c2eb882	0.010664107
4	0x3e46a83c	0.19400114
5	0xbcf284d2	-0.02960435
6	0x3e2febfe	0.17179868
7	0x3c9116e4	0.01771111
8	0x3e64fccd	0.22362061
9	0xbdd6e3f2	-0.10492696
10	0xbc7c6956	-0.015405973
11	0x3e0eff19	0.139645
12	0x3c2df57d	0.010617611
13	0xbd84366e	-0.06455694
14	0x3ce4e4d6	0.027941149
15	0xbc2aff4d	-0.010436845
16	0x3dc8716f	0.09787261
17	0xbd187e42	-0.037229784
18	0x3e29259f	0.16518258
19	0x3e85c1d0	0.2612443
20	0x3d1e000a	0.038574256
21	0xbd51fa33	-0.051264
22	0x3e581a6d	0.2110383
23	0x3d381aec	0.04494755
24	0x3e7ca883	0.24673657
25	0x3e2f6dc6	0.17131719
26	0xbdff26bc	-0.1245856
27	0x3ae331eb	0.0017333602
28	0xbdb6a1ee	-0.089176044
29	0xbdd85e85	-0.10564903
30	0xbd7dccb5	-0.061962802
31	0xbd01f3cc	-0.031726643
32	0x3e7da1fb	0.24768822
33	0xbdb1408a	-0.08654888
34	0x3e53a998	0.20670164
35	0x3c857ca1	0.01629478
36	0x3e0474d6	0.12935194
37	0xbd6ea285	-0.05826046
38	0x3e4ee116	0.20203051
39	0xbcdae340	-0.02671969
40	0xbc8a3968	-0.016873077
41	0x3e5425dc	0.20717567
42	0xbe054aef	-0.13016866
43	0x3c9a4cce	0.018835451
44	0xbcb51080	-0.022102594
45	0xbdb5a10d	-0.088686086
46	0xbc1fff3f	-0.009765445
47	0xbbccbd90	-0.0062481835
48	0xbdbc2f5a	-0.09188719
49	0x3b961d8d	0.0045811594
50	0xbd8fef9e	-0.07028125
51	0xbdfc3de0	-0.12316489
52	0x3e4b163e	0.19832703
53	0x3e3f8e46	0.18706617
54	0xbc7d10e1	-0.015445919
55	0xbd838c20	-0.06423211
56	0xbd2a1d2b	-0.041531723
57	0xbd5abcd6	-0.053402744
58	0xbdbd2d10	-0.092371106
59	0x3d79c865	0.060982127
60	0x3e0dd74f	0.13851665
61	0xbd24f4cb	-0.040272515
62	0x3ce98e95	0.028510371
63	0xbcd25fdd	-0.025680477
64	0x3dde0a96	0.10841863
65	0x3c1a1705	0.009404902
66	0xbd434443	-0.04767252
67	0x3e1c823d	0.15284057
68	0xbdc2d651	-0.09513534
69	0xbdadf7bc	-0.08494517
70	0x3e342564	0.17592388
71	0x3e2f5670	0.17122817
72	0x3db8ba49	0.09019906
73	0x3e174adf	0.14774655
74	0xbcc9f356	-0.024652164
75	0xbc4d7d0c	-0.0125420205
76	0x3deb6142	0.1149316
77	0xbdb46966	-0.08809166
78	0xbdf45d90	-0.11931908
79	0xbd965c13	-0.073417805
80	0xbd8c3cca	-0.06847532
81	0xbdd7d3f1	-0.105384715
82	0x3b8adde7	0.0042378786
83	0xbd594eb7	-0.053053584

fc3.weight f4 [1, 84]
0	0xbdbe922e	-0.09305225
1	0x3e3a7b02	0.18210986
2	0xbdba8716	-0.09107797
3	0xbe2638c4	-0.16232592
4	0x3e26666e	0.16250011
5	0xbe482848	-0.19546616
6	0x3e5e0c3a	0.21684352
7	0xbe1a56a7	-0.15072118
8	0x3e3d6094	0.18493873
9	0xbd2b706e	-0.04185527
10	0xbdd78f1f	-0.10525345
11	0x3e4f61db	0.20252173
12	0xbe1d45e5	-0.15358694
13	0xbe24f511	-0.1610911
14	0xbe345d74	-0.17613775
15	0xbd06faea	-0.032954134
16	0x3e83120b	0.25599703
17	0xbe054e37	-0.13018118
18	0x3e4bdddf	0.19908856
19	0x3e13185c	0.14364761
20	0xbe0645e1	-0.13112594
21	0xbe19082f	-0.14944528
22	0x3e8318dd	0.25604907
23	0xbe303332	-0.1720703
24	0x3e2fe340	0.17176533
25	0x3e49ac9a	0.19694749
26	0xbdd71815	-0.1050264
27	0x3e945491	0.2897077
28	0x3cf24a7c	0.029576533
29	0xbe3c57f2	-0.18392923
30	0xbd57b97a	-0.05266712
31	0xbdc38e1e	-0.09548591
32	0x3e65d9ab	0.22446315
33	0xbe151488	-0.14558613
34	0x3e37a05c	0.17932266
35	0xbc12bca5	-0.008956109
36	0x3e728bcb	0.2368614
37	0xbd9f1b52	-0.07768883
38	0x3e56633d	0.20936294
39	0xbdf031da	-0.117282584
40	0xbddbdf0d	-0.10735903
41	0x3e6c0240	0.23047733
42	0xbde87df1	-0.113521464
43	0x3e24d455	0.16096623
44	0xbe09a31e	-0.1344113
45	0x3d482596	0.04886397
46	0x3dafbdaa	0.085810974
47	0xbd9e2959	-0.0772273
48	0x3d8412a1	0.06448866
49	0xbddd552a	-0.108072594
50	0xbd4a698b	-0.04941706
51	0xbdb26819	-0.08711261
52	0x3e251c1b	0.16124003
53	0x3e32c97f	0.17459677
54	0x3d42e560	0.04758203
55	0x3bf3378a	0.0074223923
56	0xbe17dcb9	-0.14830293
57	0x3d629c01	0.05532456
58	0xbdd4f9ea	-0.1039923
59	0x3e36044a	0.17775074
60	0x3e3eea89	0.18644156
61	0xbcf82e68	-0.030295566
62	0xbe0c9e18	-0.13732183
63	0xbdb0eb65	-0.08638648
64	0x3e652d5e	0.22380587
65	0xbe05c9b1	-0.1306522
66	0x3d206762	0.039161094
67	0x3e43f338	0.1913575
68	0xbe1d5668	-0.15364993
69	0xba96a823	-0.00114942
70	0x3e2cab83	0.16862302
71	0x3e512b68	0.20426714
72	0x3e233547	0.15938292
73	0x3e57d11b	0.21075861
74	0xbe18901a	-0.1489872
75	0xbe370325	-0.17872293
76	0x3e621195	0.2207702
77	0x3ba86d31	0.0051399698
78	0x3c32b9c7	0.010908551
79	0xbe196c71	-0.14982773
80	0xbda373e2	-0.07981087
81	0xbda40417	-0.080085926
82	0xbe38ac05	-0.1803437
83	0xbbbcf610	-0.0057666376
