output_visualizations/base_tsk[x]_agm[geo]_spl[S1]_mdl[lenet]_ls[BCE]_tu[none]/model.pt (torch, 246727 bytes, 9 tensors)

conv1.weight f4 [6, 1, 5, 5]
0.15713073 0.19182327 -0.05787278 0.13174447 -0.1807763 0.07718795 -0.012061833 0.16212109
0.13942234 -0.28576964 0.19309573 0.11465942 0.17555843 -0.03713517 -0.0516783 -0.034373812
0.20348024 0.03230965 -0.1673286 -0.10042084 -0.1485245 -0.04748904 -0.120175764 0.047587823
-0.3298455 -0.117830314 -0.091954514 -0.13776024 -0.0032637056 -0.24038403 0.17199588 -0.18558185
0.15923601 0.026108146 -0.09830025 0.10962756 0.023225477 0.17697619 0.020151336 -0.10096085
0.030786034 -0.06499296 0.10013764 0.18153973 0.078042306 -0.118629545 0.09547447 0.04020981
0.09728769 -0.16272786 -0.25219575 -0.12046628 -0.14806436 0.20475487 0.102978386 0.021411814
0.017504795 -0.01176594 0.16104731 -0.14391597 0.003377759 -0.12800321 0.076196596 -0.07125183
0.046601355 -0.0030339104 0.21710698 -0.09112547 -0.13480423 -0.1401069 0.205014 0.10633557
0.19341552 -0.20970896 -0.24499987 -0.1698039 -0.1479586 0.09437988 0.12203721 0.22409846
-0.10657259 -0.1345603 0.13246511 -0.02576711 0.17661847 -0.028544243 0.13702099 -0.12085155
-0.06160021 0.08969549 0.0745889 -0.01081381 0.14980546 0.14796525 -0.14946817 -0.04124551
0.25296226 -0.023009673 -0.0569312 -0.19412906 -0.33591288 -0.16624768 -0.23194683 -0.35738078
-0.25627047 -0.3475664 -0.38852108 -0.33556125 -0.4210752 -0.39995965 0.033793114 -0.14529282
-0.15366378 -0.41484457 -0.38339588 -0.24784409 -0.1764622 -0.41701722 -0.33856875 -0.37637487
-0.16562198 -0.27535656 -0.2353693 -0.3601275 -0.37371284 -0.20162585 -0.12348537 -0.15405181
0.1699914 -0.18173017 0.13859944 0.0750873 -0.12543052 0.1758125 -0.13691196 -0.14783533
-0.18737613 -0.19055311 0.07453008 -0.13397068 0.050974425 -0.1768392 0.16891272 -0.090559915
-0.0630123 0.13763349 0.17441334 0.2537634 0.33535424 -0.06499519
00000000: e1e6 203e 526d 443e 020c 6dbd 06e8 063e
00000010: 6c1d 39be b714 9e3d ff9e 45bc 1203 263e
00000020: bbc4 0e3e 6650 92be e3ba 453e 8fd2 ea3d
00000030: 97c5 333e 0c1b 18bd a0ac 53bd 8ecb 0cbd
00000040: 205d 503e 2057 043d 3058 2bbe 71a9 cdbd
00000050: ce16 18be de83 42bd b61e f6bd 73eb 423d
00000060: 82e1 a8be 0551 f1bd a652 bcbd 0511 0dbe
00000070: e5e3 55bb 3b27 76be b01f 303e 2b09 3ebe
00000080: c40e 233e c0e0 d53c a451 c9bd 6a84 e03d
00000090: 5b43 be3c 3f39 353e 6a14 a53c 90c4 cebd
000000a0: fe32 fc3c 071b 85bd f714 cd3d 8de5 393e
000000b0: a5d4 9f3d 0cf4 f2bd 1e88 c33d 0bb3 243d
000000c0: c53e c73d 22a2 26be cd1f 81be 06b7 f6bd
000000d0: 2f9e 17be 43ab 513e 55e6 d23d d467 af3c
000000e0: 3766 8f3c eec5 40bc 96e9 243e b55e 13be
000000f0: 645d 5d3b 4613 03be f60c 9c3d 7bec 91bd
00000100: 10e1 3e3d 92d4 46bb 4b51 5e3e fe9f babd
00000110: 1f0a 0abe 2f78 0fbe 31ef 513e 77c6 d93d
00000120: b80e 463e f2bd 56be 3fe1 7abe 13e1 2dbe
00000130: 7682 17be 3d4a c13d a5ee f93d 117a 653e
00000140: bb42 dabd 2dca 09be efa4 073e 8c15 d3bc
00000150: 79db 343e 9ed5 e9bc 3b4f 0c3e 0481 f7bd
00000160: 8050 7cbd 45b2 b73d 11c2 983d 682c 31bc
00000170: 9a66 193e 3484 173e 2f0e 19be 0df1 28bd
00000180: 4584 813e c87e bcbc b130 69bd c5c9 46be
00000190: c6fc abbe d53c 2abe 7883 6dbe 9dfa b6be
000001a0: e235 83be 39f4 b1be 3cec c6be afce abbe
000001b0: 2b97 d7be 83c7 ccbe a66a 0a3d a4c7 14be
000001c0: 0a5a 1dbe 8266 d4be 774c c4be d7ca 7dbe
000001d0: 82b2 34be 4883 d5be e258 adbe 35b4 c0be
000001e0: cf98 29be 89fb 8cbe a604 71be a262 b8be
000001f0: 4a57 bfbe 0277 4ebe e6e5 fcbd c2bf 1dbe
00000200: 3a12 2e3e 7917 3abe 03ed 0d3e 5fc7 993d
00000210: dc70 00be 3108 343e a632 0cbe 2562 17be
00000220: 87df 3fbe 5b20 43be 3aa3 983d 9c2f 09be
00000230: 8fca 503d 5615 35be 75f7 2c3e 7a77 b9bd
00000240: 980c 81bd cbef 0c3e 6999 323e 47ed 813e
00000250: 8db3 ab3e 331c 85bd

conv1.bias f4 [6]
0.0012667356 -0.021685287 -0.01510195 -0.11018412 0.13358718 -0.08788806
00000000: 9808 a63a 58a5 b1bc 2b6e 77bc 36a8 e1bd
00000010: 14cb 083e a8fe b3bd

conv2.weight f4 [16, 6, 5, 5]
0.03339643 -0.0054061543 -0.024759376 -0.060676146 0.09066131 0.018562386 -0.005646535 -0.08941013
0.04055182 -0.0037814782 -0.03418295 0.10933872 0.060902316 -0.031658918 -0.062210742 -0.017798932
0.0935216 0.023211673 -0.06545918 -0.09860722 -0.074003845 0.062564306 0.09581717 -0.10791986
-0.04865481 0.018519005 -0.0186358 -0.074700855 -0.01129883 -0.0038474326 0.051215712 0.016834807
-0.018380217 -0.029000178 -0.055488143 -0.016704954 0.09533537 0.092356764 -0.053141575 -0.07560463
0.001018692 0.03723118 0.056114998 0.0031354576 -0.11214895 -0.032854542 0.09204923 0.06150673
0.00030851297 -0.056786854 0.09449269 0.06028856 0.1268739 0.13134117 0.12175226 0.25548238
0.2335715 0.3453563 0.31136486 0.18495214 0.26489836 0.3022719 0.52507645 0.33248478
0.07361316 0.29995278 0.24106681 0.3723728 0.15325369 0.15761976 0.20313627 0.26213533
0.19194074 0.027575467 0.076321825 -0.009375756 -0.12793976 0.09743251 0.12548463 -0.09766961
0.02473845 -0.020303164 0.13027334 -0.0004877579 -0.177289 0.14616312 0.18436459 0.14471811
-0.058169745 -0.3136274 0.2541413 0.26475397 0.003978 -0.15791582 -0.28760275 0.27568394
0.20930363 -0.0832486 -0.27825582 -0.24217936 -0.06191701 -0.09650096 0.042203475 0.050918795
0.07165403 -0.17715025 0.0413821 -0.02074573 0.07639862 0.11549999 -0.14982502 -0.030951416
-0.011127885 -0.035258736 0.06934634 -0.2872752 -0.019202448 0.03652161 0.06610746 -0.034074668
-0.30792755 -0.08316337 -0.01167234 -0.1445793 -0.099033065 -0.41627762 -0.34077883 -0.4824816
-0.49153394 -0.34681284 -0.45560938 -0.26684895 -0.3471085 -0.495285 -0.37707353 -0.1855632
-0.1853812 -0.21258225 -0.20688407 -0.239837 -0.20347741 -0.06629481 -0.15173063 -0.16789182
-0.031120598 -0.123435654 -0.045599435 -0.13553403 -0.24013902 0.014720011 -0.05259915 -0.026879057
-0.080120005 0.004043457 0.087626055 0.018640045 -0.12912181 0.010119778 0.09706669 0.029947864
0.03954877 0.07299697 0.011132207 0.030484268 -0.08260746 -0.02361074 0.09849695 0.07907148
-0.064812414 -0.12043247 -0.03872064 -0.026355427 -0.03898373 -0.055949204 0.01577614 -0.010449009
-0.09589064 -0.06979554 0.06123199 -0.050475407 0.00033323237 0.04569947 -0.03039425 0.0005267109
-0.0035225758 0.008661916 -0.014767537 -0.058373235 -0.07890688 -0.052238494 0.110595085 -0.009953727
-0.04457668 0.010511163 0.018896904 0.066992 0.09216782 0.05383381 -0.09194928 0.0033210546
0.11100029 -0.011078972 0.006610259 0.2200356 0.021725154 0.10146613 0.086689755 0.29064444
0.30148214 0.05070141 0.17956716 0.21731573 0.2713096 0.20082901 0.0811731 0.2056242
0.24090974 0.30631614 0.011818119 0.015552357 0.12711993 0.24627501 0.2728286 -0.029243527
0.18268786 -0.21578021 -0.14546278 0.049833547 0.09860172 0.056782372 -0.2039237 -0.12344478
0.21679665 0.13523272 -0.17852385 -0.07761846 0.1299186 0.21871501 0.069616176 -0.230631
0.014001715 0.14488953 0.10577324 -0.17538917 -0.06008742 0.21812055 0.03945133 -0.07014149
-0.14414933 -0.03537565 -0.108049355 0.00548896 -0.060716193 -0.03307661 -0.12070416 -0.052236278
00000000: b2ca 083d 1c26 b1bb 2dd4 cabc 8d87 78bd
00000010: a3ac b93d 2510 983c 9206 b9bb a91c b7bd
00000020: aa19 263d add2 77bb 6c03 0cbd fbec df3d
00000030: b574 793d c8ac 01bd b1d0 7ebd 11cf 91bc
00000040: 4188 bf3d 6826 be3c 760f 86bd 95f2 c9bd
00000050: 548f 97bd b721 803d cb3b c43d 1605 ddbd
00000060: 444a 47bd 2bb5 973c 1baa 98bc c3fc 98bd
00000070: ba1e 39bc 3525 7cbb 91c7 513d 26e9 893c
00000080: 1c92 96bc c891 edbc 8947 63bd d4d8 88bc
00000090: 313f c33d 8b25 bd3d fbaa 59bd 9ad6 9abd
000000a0: a285 853a b97f 183d d7d8 653d 407c 4d3b
000000b0: 59ae e5bd 7c92 06bd 4f84 bc3d 7bee 7b3d
000000c0: e9bf a139 5599 68bd 6285 c13d 23f1 763d
000000d0: 3beb 013e 4d7e 063e 4059 f93d 96ce 823e
000000e0: 5e2d 6f3e 8ad2 b03e 376b 9f3e 1864 3d3e
000000f0: c2a0 873e 62c3 9a3e 696b 063f 723b aa3e
00000100: 7fc2 963d 6993 993e 38da 763e a6a7 be3e
00000110: 89ee 1c3e 1367 213e f402 503e 9a36 863e
00000120: 1d8c 443e f2e5 e13c 9e4e 9c3d c59c 19bc
00000130: a402 03be b28a c73d 0b7f 003e 0107 c8bd
00000140: 4aa8 ca3c d252 a6bc 6066 053e c2b9 ffb9
00000150: 3f8b 35be c9ab 153e 12ca 3c3e fc30 143e
00000160: 6643 6ebd c593 a0be cf1e 823e d58d 873e
00000170: e259 823b afb4 21be ab40 93be 7226 8d3e
00000180: b153 563e 3e7e aabd 8c77 8ebe defd 77be
00000190: b19c 7dbd 4ca2 c5bd 8ddd 2c3d 3a90 503d
000001a0: 59bf 923d e066 35be 4780 293d f3f2 a9bc
000001b0: e176 9c3d 428b ec3d bb6b 19be d38d fdbc
000001c0: bc51 36bc 776b 10bd 7405 8e3d bc15 93be
000001d0: 744e 9dbc af97 153d 5963 873d e191 0bbd
000001e0: aea8 9dbe 8f51 aabd 583d 3fbc 990c 14be
000001f0: d9d1 cabd 5722 d5be 907a aebe d407 f7be
00000200: 56aa fbbe 7491 b1be a245 e9be 6da0 88be
00000210: 35b8 b1be ff95 fdbe c80f c1be 4804 3ebe
00000220: 92d4 3dbe 29af 59be 6bd9 53be d597 75be
00000230: 625c 50be 93c5 87bd 465f 1bbe d5eb 2bbe
00000240: a0f0 febc d5cb fcbd 79c6 3abd 6fc9 0abe
00000250: 01e7 75be 332c 713c 3572 57bd 7831 dcbc
00000260: f515 a4bd fa7e 843b 4a75 b33d 02b3 983c
00000270: 8238 04be 6dcd 253c e7ca c63d 3955 f53c
00000280: e4fd 213d 6f7f 953d dc63 363c 25ba f93c
00000290: 1a2e a9bd 506b c1bc c5b8 c93d 3af0 a13d
000002a0: 5fbc 84bd 4da5 f6bd 8999 1ebd 56e7 d7bc
000002b0: 67ad 1fbd fe2a 65bd f73c 813c 5232 2bbc
000002c0: 5062 c4bd f7f0 8ebd 65ce 7a3d 4dbf 4ebd
000002d0: b1b5 ae39 5e2f 3b3d 5dfd f8bc f812 0a3a
000002e0: 04db 66bb b5ea 0d3c 8af3 71bc c618 6fbd
000002f0: ee99 a1bd 08f8 55bd ad7f e23d f514 23bc
00000300: 0996 36bd 0337 2c3c aecd 9a3c 1a33 893d
00000310: 7bc2 bc3d d780 5c3d e74f bcbd 0da6 593b
00000320: 1f54 e33d 9484 35bc df9a d83b 0351 613e
00000330: f3f8 b13c 79cd cf3d 668a b13d 59cf 943e
00000340: de5b 9a3e 48ac 4f3d 74e0 373e 0488 5e3e
00000350: 18e9 8a3e 1fa6 4d3e 153e a63d 268f 523e
00000360: 0bb1 763e 78d5 9c3e c9a0 413c 50cf 7e3c
00000370: ba2b 023e 842f 7c3e 31b0 8b3e 1f90 efbc
00000380: 8712 3b3e 7df5 5cbe 32f4 14be 431e 4c3d
00000390: b3ef c93d a294 683d 60d1 50be 9ed0 fcbd
000003a0: f1ff 5d3e 727a 0a3e f5ce 36be 6df6 9ebd
000003b0: 6209 053e d4f6 5f3e ed92 8e3d 882a 6cbe
000003c0: 7367 653c ec5d 143e a49f d83d 3899 33be
000003d0: 3a1e 76bd fe5a 5f3e b897 213d 57a6 8fbd
000003e0: e29b 13be 0fe6 10bd fb48 ddbd bcdc b33b
000003f0: 8bb1 78bd 577b 07bd be33 f7bd b5f5 55bd

conv2.bias f4 [16]
-0.0023724216 -0.0010160905 -0.0003641225 -0.04470648 -0.075590655 -0.0030015358 0.003617957 -0.027775567
-0.02194318 0.042350497 -0.014557591 0.0004307588 -0.02456429 -0.043158457 -0.005629898 -0.02893784
00000000: a17a 1bbb 572e 85ba b2e7 beb9 241e 37bd
00000010: 46cf 9abd 6ab5 44bb 3f1b 6d3b 9689 e3bc
00000020: 2fc2 b3bc b777 2d3d f682 6ebc 78d7 e139
00000030: 0d3b c9bc ecc6 30bd 027b b8bb 0d0f edbc

fc1.weight f4 [120, 400]
0.023448566 0.116932556 0.123768985 0.0940729 0.00869222 0.0140871005 0.03712303 0.081230566
0.060443446 0.017600264 0.07690488 0.062570386 0.13054341 0.107190624 0.022517292 0.021622991
0.15776591 0.17850651 0.10385407 0.051206812 0.037592366 0.08337398 0.1966621 0.15871784
0.091425955 0.1574828 0.21274911 0.14626397 0.08270538 0.059802707 0.13871391 0.14687046
0.022333419 0.077383064 0.08987298 0.13248964 0.105105884 0.07266142 0.12594287 0.11493417
0.16083261 0.1705986 0.18443355 0.13961428 0.20433094 0.07375011 0.11670893 0.097518474
0.12518096 0.1144955 -0.0048895567 0.067440696 -0.027763199 -0.0023498207 -0.06310548 0.079107285
0.09269113 -0.029767858 0.041399788 0.0071061314 0.12360894 0.20481634 0.19412479 0.06835066
0.12522337 0.06958602 0.122788176 0.17817152 0.022099422 0.051934548 0.051702186 -0.005278422
-0.055708837 0.011703444 -0.026173081 -0.044303555 0.030315435 -0.03859844 -0.033206753 0.025846504
0.021752145 0.010431166 -0.0041360194 -0.040020227 0.019803721 -0.026315408 0.043946363 0.011012939
-0.016509773 -0.006290641 -0.0067596654 0.024269426 0.044808436 -0.018417424 -0.026551083 0.064008094
0.05482753 0.015696349 0.0019553164 0.06098544 -0.07930771 -0.049790822 -0.08562831 -0.028495727
-0.007702938 -0.10174784 0.045143727 -0.052326478 0.019627355 -0.095136315 -0.060046487 0.06082663
0.03987509 0.062240887 -0.09720954 -0.07354808 -0.060893055 0.0063646794 -0.008937515 -0.012303435
0.0031598476 -0.023503834 0.022208162 -0.06981837 0.001166764 0.11484738 0.22400805 0.25092945
0.2620805 0.12842122 0.10463356 0.2265253 0.13963345 0.10701327 0.12945305 0.13333781
0.20733681 0.12392891 0.117373794 0.06351192 0.10874289 0.17110312 0.18251124 0.11740625
0.12019457 0.08390066 0.09182806 0.07432252 0.07104302 0.059095126 0.014170258 -0.029434033
0.040122412 0.024288818 0.050536502 -0.013391735 0.075059794 0.05078054 0.09031534 0.02958793
0.022015242 0.08842141 0.084600285 0.002589656 0.04489642 0.067399174 0.086080976 0.045930024
0.054320667 -0.028965171 0.0033472623 0.07467749 0.05349029 0.030213239 -0.08101371 0.034907136
-0.0693827 -0.07313561 -0.06259901 -0.031813707 0.08242061 0.046828993 -0.054012675 -0.06298581
0.03918224 0.06241533 0.09244986 -0.010358542 0.05691887 0.081386924 -0.0012061293 0.10580221
0.014628733 -0.010799791 -0.007088082 0.025987938 -0.013286291 -0.058834262 -0.08094681 0.00010097179
-0.07660114 -0.035670526 0.0044128946 -0.055349592 -0.050461795 0.057737596 0.07094319 0.008753528
0.01762754 -0.013419589 0.11268332 0.12231916 0.14842618 0.108693995 0.010281643 0.056879595
0.038576134 0.043282986 -0.0399861 -0.027451659 -0.028428953 -0.022027664 0.04920058 -0.020480476
0.04808728 0.052094214 0.059387013 0.026246723 0.029916842 0.03865732 0.05673707 -0.01882306
0.0076139667 -0.033123635 0.0075407443 -0.000402565 0.070902556 0.040575918 0.03571987 -0.013601221
-0.030742912 0.027992276 0.003037997 0.010772251 0.05641089 -0.013402419 -0.008332838 0.057036843
0.04367206 -0.011495425 0.014844069 0.08776759 0.049697004 0.112366036 0.010926545 0.036181998
00000000: 3517 c03c 567a ef3d 987a fd3d 4ba9 c03d
00000010: d069 0e3c 95cd 663c 510e 183d 365c a63d
00000020: 8c93 773d 6e2e 903c 4e80 9d3d e724 803d
00000030: 2cad 053e c286 db3d 2f76 b83c b322 b13c
00000040: 638d 213e 69ca 363e 71b1 d43d 3cbe 513d
00000050: 74fa 193d fabf aa3d ca61 493e ee86 223e
00000060: 883d bb3d 2c43 213e e7da 593e 39c6 153e
00000070: 7061 a93d aff3 743d 050b 0e3e 3665 163e
00000080: 93f4 b63c 037b 9e3d 530f b83d 5dab 073e
00000090: c141 d73d 83cf 943d 2bf7 003e 9b62 eb3d
000000a0: 4eb1 243e 66b1 2e3e 26dc 3c3e 0cf7 0e3e
000000b0: 213c 513e 4c0a 973d 1705 ef3d c4b7 c73d
000000c0: 702f 003e 9e7c ea3d 9338 a0bb 591e 8a3d
000000d0: a66f e3bc 73ff 19bb 723d 81bd 0003 a23d
000000e0: d9d4 bd3d b9db f3bc d392 293d 8dda e83b
000000f0: af26 fd3d 60bb 513e a6c8 463e 6efb 8b3d
00000100: 8e3a 003e 1e83 8e3d 5e78 fb3d 9872 363e
00000110: d909 b53c 52b9 543d acc5 533d 9df6 acbb
00000120: f32e 64bd cdbf 3f3c ee68 d6bc a577 35bd
00000130: 1358 f83c 6619 1ebd ce03 08bd 0cbc d33c
00000140: 8e31 b23c 7be7 2a3c 7287 87bb 40ec 23bd
00000150: 6a3b a23c 6993 d7bc 1a01 343d 9d6f 343c
00000160: 813f 87bc b921 cebb 2f80 ddbb add0 c63c
00000170: 0d89 373d 23e0 96bc a881 d9bc ad16 833d
00000180: d592 603d a195 803c c424 003b decb 793d
00000190: 156c a2bd 76f1 4bbd e55d afbd df6f e9bc
000001a0: ed68 fcbb 2c61 d0bd a1e8 383d 4a54 56bd
000001b0: 8cc9 a03c d4d6 c2bd 4ef3 75bd 5825 793d
000001c0: 1054 233d 4df0 7e3d cc15 c7bd 60a0 96bd
000001d0: ff6a 79bd cd8e d03b a86e 12bc 5994 49bc
000001e0: 7215 4f3b 1d8b c0bc e4ed b53c effc 8ebd
000001f0: 1aee 983a 1a35 eb3d 5e62 653e d379 803e
00000200: 6a2f 863e da80 033e 1f4a d63d 40f6 673e
00000210: 12fc 0e3e c629 db3d 578f 043e b589 083e
00000220: 1a50 543e 71ce fd3d ac61 f03d 8a12 823d
00000230: 98b4 de3d a835 2f3e 3ae4 3a3e b072 f03d
00000240: 9228 f63d 1cd4 ab3d 5a10 bc3d 6836 983d
00000250: 017f 913d bb0d 723d 5f2a 683c a41f f1bc
00000260: 6657 243d 58f9 c63c 5dff 4e3d 0269 5bbc
00000270: f3b8 993d 41ff 4f3d 40f7 b83d 6362 f23c
00000280: 4f59 b43c 4916 b53d ea42 ad3d 38b7 293b
00000290: 4fe5 373d 9408 8a3d 394b b03d 1f21 3c3d
000002a0: 597f 5e3d 5e48 edbc be5d 5b3b 83f0 983d
000002b0: a218 5b3d c181 f73c 84ea a5bd c9fa 0e3d
000002c0: 8418 8ebd 1fc8 95bd e933 80bd 174f 02bd
000002d0: 23cc a83d c2cf 3f3d 653c 5dbd b4fe 80bd
000002e0: 8e7d 203d 38a7 7f3d 5a56 bd3d e0b6 29bc
000002f0: c323 693d 30ae a63d fc16 9eba d4ae d83d
00000300: 5aad 6f3c 9bf1 30bc 2443 e8bb a8e4 d43c
00000310: beae 59bc 32fc 70bd 71c7 a5bd d1c0 d338
00000320: 0fe1 9cbd 421b 12bd 0b9a 903b 41b6 62bd
00000330: 07b1 4ebd 427e 6c3d aa4a 913d f56a 0f3c
00000340: a167 903c d6dd 5bbc 83c6 e63d 7882 fa3d
00000350: 08fd 173e f59a de3d 5674 283c 94fa 683d
00000360: 0202 1e3d 8049 313d 77c8 23bd 4de2 e0bc
00000370: d6e3 e8bc 5c73 b4bc 8c86 493d acc6 a7bc
00000380: 2bf7 443d be60 553d cc3f 733d 5e03 d73c
00000390: 2a14 f53c 2357 1e3d 2165 683d d132 9abc
000003a0: 957e f93b a6ac 07bd 5918 f73b 5c0f d3b9
000003b0: 5c35 913d ef32 263d 004f 123d a8d7 5ebc
000003c0: 8fd8 fbbc 0f50 e53c 2219 473b 187e 303c
000003d0: 1b0f 673d d295 5bbc 7586 08bc 779f 693d
000003e0: 79e1 323d 4f57 3cbc 8a34 733c 7fbf b33d
000003f0: 168f 4b3d 2a20 e63d 4005 333c 9333 143d

fc1.bias f4 [120]
-0.026782602 0.15103832 -0.027923616 0.12953785 0.011809145 0.08304244 0.010614496 -0.031504784
0.0002832575 0.032554936 0.07109825 -0.021125128 -0.007991926 0.06836163 -0.02835821 0.011436522
0.28565767 -0.026123494 0.18337321 -0.021776106 -0.045426257 -0.018562883 0.18630306 -0.048485562
0.00286339 0.1354638 -0.04902579 0.013433587 0.08084999 0.035107702 0.13130619 -0.0055341725
0.07574188 -0.05526316 -0.031077622 0.1175942 0.010112203 0.16064444 -0.0113140745 -0.0128581235
0.004306372 0.19227982 -0.02767899 0.07539886 0.12262208 -0.028441977 -0.045041148 -0.036295593
-0.061633248 0.038549136 0.20421648 0.04830949 0.111646235 0.13879764 -0.017518148 0.0062646386
0.06429547 -0.0077542225 0.010527558 -0.013696939 -0.006823522 0.061283544 -0.049143825 0.0047021713
0.035422068 -0.07586091 -0.026975745 -0.020209854 0.07591762 0.013544273 -0.020462085 0.01916206
0.01746788 -0.039461486 0.0630543 0.11720444 0.03318064 -0.047833927 0.020427413 0.009327388
-0.036712516 0.036261868 -0.016258983 0.02395871 0.102011554 -0.009205026 -0.02700393 -0.018901767
0.0064830147 0.011201942 0.030409101 0.15070575 -0.05914653 0.083687834 -0.004454167 -0.025053738
0.16604552 0.046073366 -0.02995421 -0.01495731 0.028041093 -0.037554614 -0.020147614 0.021614224
0.1461821 0.0015870513 0.074475065 0.11021509 -0.065317936 0.11151794 0.12880227 -0.005946709
0.002995169 0.016574206 0.009194781 0.061588496 0.039274666 0.035120815 0.04917085 -0.03349696
00000000: 3067 dbbc caa9 1a3e 11c0 e4bc 92a5 043e
00000010: 257b 413c 2812 aa3d 6ce8 2d3c 290b 01bd
00000020: 2e82 9439 5358 053d f69b 913d 9b0e adbc
00000030: 91f0 02bc 2f01 8c3d 7a4f e8bc 4060 3b3c
00000040: b941 923e f000 d6bc 30c6 3b3e ce63 b2bc
00000050: e210 3abd 3011 98bc 3bc6 3e3e cc98 46bd
00000060: b6a7 3b3b 06b7 0a3e 44cf 48bd 8c18 5c3c
00000070: ae94 a53d 18cd 0f3d 2175 063e 0158 b5bb
00000080: 8f1e 9b3d a05b 62bd 7f96 febc 3ad5 f03d
00000090: a7ad 253c fa7f 243e ab5e 39bc e1aa 52bc
000000a0: 771c 8d3b 00e5 443e 0dbf e2bc b86a 9a3d
000000b0: 4921 fb3d 26ff e8bc 117d 38bd b0aa 14bd
000000c0: 2573 7cbd b3e5 1d3d 201e 513e 2ce0 453d
000000d0: c8a6 e43d f820 0e3e 3882 8fbc 9947 cd3b
000000e0: 58ad 833d 2217 febb c77b 2c3c 2069 60bc
000000f0: da97 dfbb 7404 7b3d 094b 49bd ac14 9a3b
00000100: bb16 113d f75c 9bbd 3dfc dcbc 238f a5bc
00000110: b27a 9b3d cce8 5d3c 1aa0 a7bc c1f9 9c3c
00000120: cd18 8f3c 5ea2 21bd 9d22 813d e208 f03d
00000130: 6ce8 073d 82ed 43bd 6457 a73c e7d1 183c
00000140: dd5f 16bd 5387 143d 8f31 85bc 0e45 c43c
00000150: 6feb d03d add0 16bc 5937 ddbc e1d7 9abc
00000160: 786f d43b 5a88 373c 821c f93c 9c52 1a3e
00000170: a243 72bd 8764 ab3d 43f4 91bb 7f3d cdbc
00000180: d607 2a3e 6db7 3c3d 8862 f5bc 810f 75bc
00000190: 6fb6 e53c ded2 19bd 9c0c a5bc 5010 b13c
000001a0: c3b0 153e 9b04 d03a 6286 983d 73b8 e13d
000001b0: 69c5 85bd 8563 e43d bee4 033e 9cdc c2bb
000001c0: 994a 443b a1c6 873c b5a5 163c 3844 7c3d
000001d0: 79de 203d d8da 0f3d 6067 493d 1c34 09bd

fc2.weight f4 [84, 120]
-0.0035332784 -0.015285105 -0.008288227 0.067336395 0.029845648 -0.06837829 -0.06441568 0.033089966
0.055824697 -0.08423018 0.021110421 -0.040741008 0.03456466 -0.047548935 0.0668037 0.08540209
-0.076183185 -0.090789214 0.026353829 0.07283716 0.040047705 -0.04450512 0.06450958 -0.09034978
0.0849096 -0.032888535 -0.006312184 -0.0001623854 -0.038007315 -0.022830132 0.02248685 0.017616086
-0.002934315 0.089612156 -0.020132745 -0.056518327 -0.08963741 0.06920312 -0.0660537 0.046057314
-0.053209487 -0.060946334 0.014400408 0.06936586 -0.08220413 0.0599858 -0.090838864 -0.018388085
-0.025879234 -0.06476152 -0.07073686 -0.026466737 -0.07307359 0.0009313822 -0.072005704 -0.053164095
-0.04553456 0.026845425 -0.03577333 0.05300927 0.055635765 -0.067136094 -0.0154966265 -0.09099907
0.03099599 -0.01989159 0.023516975 0.019248182 0.080932006 -0.0013641206 -0.03838753 0.08614443
-0.0071848035 0.005559749 -0.0036694815 -0.060987666 0.052631915 -0.07548237 0.035169657 0.04445429
0.048871506 -0.07728498 0.0640959 0.08433813 -0.001518622 -0.086412326 -0.00431668 -0.0004918426
-0.09166191 -0.005655363 -0.041579496 -0.08275717 0.059298187 0.024028651 -0.04748641 0.07239177
-0.007976595 -0.0075913663 0.011239275 -0.07542029 -0.030524189 0.012305073 -0.03375326 0.04749854
0.0024243444 0.0133682955 0.08836621 -0.039159942 -0.012296811 -0.053534508 -0.0798837 0.020834118
0.052700747 0.030898035 -0.081967555 0.05909735 -0.08335889 -0.07690012 0.07016922 -0.033867918
-0.111274354 0.21868885 -0.04377916 0.08545562 -0.04033527 0.087869 0.07456854 -0.038471892
0.01252531 0.10083978 -0.0860344 -0.022327296 -0.057442237 -0.011152772 -0.10816903 0.010072457
0.015955005 -0.15439372 0.26325044 0.03444321 0.01835702 0.02990029 0.041976366 0.01259654
-0.16573535 0.2532062 0.078252256 -0.028218636 0.16548754 -0.08975078 0.20023149 -0.12870944
0.04256092 -0.05267399 -0.010973425 0.16800348 -0.12450852 0.20820183 -0.059196375 -0.057406932
-0.043083586 0.15101252 -0.08575865 0.106010035 0.17148387 0.021960706 0.11024374 0.051298846
0.040265977 0.35836267 0.26983476 -0.013065046 0.23661733 0.105637304 -0.12946899 0.04107479
0.19316114 0.041253835 -0.060277604 -0.057687253 0.18376695 0.20558651 0.24964528 0.07168065
0.12256307 0.0007856488 0.0032981758 -0.13657644 0.26571423 0.0056277695 -0.07416598 -0.14273375
0.025047367 -0.14777292 0.15946 0.07598463 0.0747581 0.046019897 -0.025960257 -0.09224506
-0.083640054 0.16300109 -0.0452762 0.0915799 0.1366027 -0.044783376 -0.03564654 -0.033452388
-0.027489865 0.10723501 -0.015874706 0.20394365 0.048039854 0.29299766 -0.15181686 -0.1295441
0.095315605 -0.016271194 -0.070420355 -0.06843362 -0.16588639 -0.051138863 0.012461809 0.04857796
0.2319125 -0.07287511 0.11221458 0.113122664 0.06793405 0.23827809 0.17651838 0.10053386
0.073101334 0.19647244 -0.11297531 0.21480471 0.14431348 -0.0034084115 0.06677632 -0.0708398
0.01890393 -0.10244 -0.06886139 0.024392975 -0.08030282 -0.13535316 -0.17322673 0.051133744
0.06402573 -0.08520497 0.068882234 0.039556034 0.012394859 0.08261963 0.065987505 0.052019335
00000000: 938e 67bb 616e 7abc 58cb 07bc aae7 893d
00000010: dc7e f43c eb09 8cbd 5eec 83bd 5889 073d
00000020: 70a8 643d df80 acbd c3ef ac3c 0be0 26bd
00000030: ac93 0d3d acc2 42bd 61d0 883d 4ae7 ae3d
00000040: ee05 9cbd b2ef b9bd fce3 d73c a62b 953d
00000050: 1009 243d 004b 36bd 991d 843d 4e09 b9bd
00000060: 16e5 ad3d 21b6 06bd 70d6 cebb 0046 2ab9
00000070: 8fad 1bbd 4206 bbbc 5836 b83c 9c4f 903c
00000080: a34d 40bb 9486 b73d 6ded a4bc c37f 67bd
00000090: d293 b7bd 5eba 8d3d 2a47 87bd 98a6 3c3d
000000a0: 31f2 59bd dda2 79bd b0ef 6b3c b00f 8e3d
000000b0: a45a a8bd acb3 753d ba09 babd 9ca2 96bc
000000c0: b000 d4bc b0a1 84bd 7dde 90bd c5d0 d8bc
000000d0: 9ba7 95bd 0028 743a ba77 93bd 98c2 59bd
000000e0: 7282 3abd f0ea db3c 0e87 12bd 4020 593d
000000f0: 54e2 633d a67e 89bd 90e5 7dbc b85d babd
00000100: 4deb fd3c b0f3 a2bc aca6 c03c 5dae 9d3c
00000110: aebf a53d 4bcc b2ba 3e3c 1dbd 7e6c b03d
00000120: 806e ebbb 8e2e b63b af7b 70bb 34ce 79bd
00000130: 9094 573d 8096 9abd 0f0e 103d b415 363d
00000140: 7d2d 483d 9647 9ebd b644 833d 78b9 ac3d
00000150: 800c c7ba f2f8 b0bd f072 8dbb 00ef 00ba
00000160: 3db9 bbbd a050 b9bb 434f 2abd 977c a9bd
00000170: a8e2 723d bcd7 c43c 1c81 42bd 2342 943d
00000180: 44b0 02bc ffc0 f8bb f024 383c f475 9abd
00000190: dd0d fabc 389b 493c dc40 0abd d48d 423d
000001a0: c0e1 1e3b b206 5b3c 58f9 b43d 2d66 20bd
000001b0: 9078 49bc 0047 5bbd 119a a3bd 50ac aa3c
000001c0: bddc 573d e01d fd3c 9bde a7bd 1010 723d
000001d0: 11b8 aabd cf7d 9dbd e1b4 8f3d 16b9 0abd
000001e0: cfe3 e3bd f8ef 5f3e c751 33bd 5b03 af3d
000001f0: 9936 25bd aaf4 b33d 64b7 983d b494 1dbd
00000200: f536 4d3c 1685 ce3d ce32 b0bd bce7 b6bc
00000210: 8d48 6bbd 1eba 36bc b987 ddbd f206 253c
00000220: 12b4 823c 6319 1ebe c3c8 863e 5314 0d3d
00000230: 7661 963c 74f1 f43c 69ef 2b3d b861 4e3c
00000240: 87b6 29be 3ea4 813e b842 a03d c52a e7bc
00000250: 9175 293e 42cf b7bd 7c09 4d3e 68cc 03be
00000260: 5c54 2e3d afc0 57bd e1c9 33bc 1b09 2c3e
00000270: 53fe febd dc32 553e e677 72bd 8823 6bbd
00000280: 6a78 30bd 07a3 1a3e 3ba2 afbd ca1b d93d
00000290: 7899 2f3e f0e6 b33c 78c7 e13d bd1e 523d
000002a0: f0ed 243d 507b b73e c827 8a3e c60e 56bc
000002b0: d04b 723e 5f58 d83d 8593 04be 0a3e 283d
000002c0: 09cc 453e c8f9 283d a6e5 76bd 7849 6cbd
000002d0: 672d 3c3e 4585 523e 03a3 7f3e 4ecd 923d
000002e0: 5902 fb3d 00f4 4d3a 3526 583b b2da 0bbe
000002f0: b20b 883e 2769 b83b 55e4 97bd cc28 12be
00000300: 2330 cd3c c951 17be 7b49 233e d49d 9b3d
00000310: c61a 993d 5c7f 3c3d 9baa d4bc faea bcbd
00000320: 7a4b abbd c2e9 263e 8973 39bd 3e8e bb3d
00000330: 94e1 0b3e c66e 37bd 1b02 12bd 5f05 09bd
00000340: 6d32 e1bc 079e db3d ac0b 82bc 9bd6 503e
00000350: 70c5 443d ca03 963e e175 1bbe 35a7 04be
00000360: d434 c33d 2b4b 85bc 8c38 90bd ed26 8cbd
00000370: 1fde 29be fc76 51bd 9e2c 4c3c aff9 463d
00000380: 787a 6d3e 8c3f 95bd c2d0 e53d dbac e73d
00000390: 0221 8b3d 2cff 733e 3cc1 343e b2e4 cd3d
000003a0: 27b6 953d 1230 493e 995f e7bd c4f5 5b3e
000003b0: eac6 133e a85f 5fbb 06c2 883d 7514 91bd
000003c0: 6adc 9a3c 10cc d1bd 3307 8dbd c7d3 c73c
000003d0: ce75 a4bd 059a 0abe 5962 31be 9e71 513d
000003e0: ec1f 833d f17f aebd 2112 8d3d 8205 223d
000003f0: cf13 4b3c 7b34 a93d 7524 873d 3a12 553d

fc2.bias f4 [84]
-0.10289332 0.15068302 0.092092745 0.030602088 0.010427661 0.049229264 0.08614777 0.112627745
0.14401537 -0.062295716 0.087292545 0.056799255 0.10240451 -0.04221506 0.035307404 0.011172997
0.091519676 -0.007914974 0.12495873 0.15933047 0.1286882 -0.032874852 0.17225094 0.11828599
0.14590836 0.111985356 -0.10602213 -0.04161078 -0.09695723 -0.0045958357 0.017160196 0.053376287
0.17119238 -0.066053025 0.13198626 0.028583078 0.11039192 0.045760915 0.11477255 0.06167952
0.079647265 0.15471442 -0.096635036 0.004713088 0.07803452 -0.07756059 0.011306002 0.025057962
-0.08686223 0.109770775 -0.064522326 -0.06990235 0.11706888 0.1547527 0.06532575 -0.086218275
0.053810224 0.03869499 -0.027542792 0.04181515 0.06900562 0.027554952 0.1324924 0.17350452
0.0790312 0.049479492 -0.012322511 0.13035806 0.0065552057 -0.10026675 0.11959933 0.097087264
0.08656292 0.12191298 0.06724568 0.075269535 -0.02467143 -0.11780026 -0.093509786 0.026984528
0.037765414 -0.0073774904 0.06524986 0.017935626
00000000: bcb9 d2bd a64c 1a3e 1f9b bc3d 3bb1 fa3c
00000010: c8d8 2a3c a0a4 493d 3e6e b03d 60a9 e63d
00000020: c478 133e cb29 7fbd 6fc6 b23d 56a6 683d
00000030: 75b9 d13d b3e9 2cbd 7f9e 103d f20e 373c
00000040: ab6e bb3d cfad 01bc 5dea ff3d 8727 233e
00000050: d7c6 033e c8a7 06bd 8d62 303e ed3f f23d
00000060: 0069 153e 9458 e53d 2122 d9bd 1170 2abd
00000070: 8391 c6bd aa98 96bb 8a93 8c3c 18a1 5a3d
00000080: 0e4d 2f3e cf46 87bd 6827 073e 0f27 ea3c
00000090: 2915 e23d cc6f 3b3d df0d eb3d aaa3 7c3d
000000a0: 1b1e a33d 756d 1e3e 97e8 c5bd 3f70 9a3b
000000b0: 90d0 9f3d 16d8 9ebd cf3c 393c 5b46 cd3c
000000c0: d3e4 b1bd 80cf e03d 4824 84bd f728 8fbd
000000d0: cfc1 ef3d 7e77 1e3e 82c9 853d 3593 b0bd
000000e0: 1c68 5c3d a37e 1e3d 6ca1 e1bc 5d46 2b3d
000000f0: d252 8d3d ecba e13c 16ac 073e 2bab 313e
00000100: 1cdb a13d 02ab 4a3d 5be4 49bc 957c 053e
00000110: 0dcd d63b a758 cdbd 7ef0 f43d b0d5 c63d
00000120: e647 b13d 83ad f93d 1ab8 893d ea26 9a3d
00000130: bd1b cabc 4341 f1bd 0f82 bfbd a80e dd3c
00000140: e8af 1a3d e0be f1bb b8a1 853d bced 923c

fc3.weight f4 [1, 84]
-0.008534953 0.23360598 -0.11649713 -0.075566664 0.01789666 -0.22501592 0.288889 -0.19349906
0.2512758 0.0029364084 -0.13988717 0.2742977 -0.19743048 -0.077039294 -0.08840617 -0.054609794
0.29468754 -0.013616158 0.25860506 0.22122827 -0.17727435 -0.045732886 0.29543322 -0.20349672
0.23063973 0.20513077 -0.0018139108 0.23022701 0.13504507 -0.23109211 0.21248238 -0.13348407
0.26220426 -0.059397183 0.24614678 0.008855902 0.26681638 -0.14094889 0.2830682 -0.17165104
-0.15522732 0.31104028 -0.052732266 0.23636363 -0.17343171 0.118241556 0.17675819 -0.08014494
0.06839855 -0.15091442 -0.055439297 -0.04187444 0.19881178 0.19021167 0.21904773 0.031821743
-0.19675826 0.25318453 -0.23999651 0.22540121 0.2638321 -0.18073761 -0.20579006 0.25807828
0.23348446 -0.039619725 0.08391846 0.21943858 -0.1983291 0.0051662135 0.21229379 0.25161693
0.20873515 0.20477635 -0.17559801 -0.23724969 0.050970744 -0.024997495 0.026878318 -0.19897605
-0.1464356 -0.14760216 -0.22439688 -0.13233027
00000000: 30d6 0bbc 6836 6f3e 0c96 eebd b2c2 9abd
00000010: 049c 923c 936a 66be 42e9 933e 9e24 46be
00000020: 39a7 803e c270 403b 953e 0fbe c070 8c3e
00000030: 372b 4abe c7c6 9dbd 4b0e b5bd 85ae 5fbd
00000040: 49e1 963e 4e16 5fbc e267 843e aa89 623e
00000050: 6887 35be 6852 3bbd 0643 973e 7261 50be
00000060: d22c 6c3e cd0d 523e bfc0 edba a1c0 6b3e
00000070: 4149 0a3e 69a3 6cbe fb94 593e 0cb0 08be
00000080: a33f 863e 764a 73bd e70d 7c3e 5818 113c
00000090: 289c 883e e854 10be 51ee 903e 4ac5 2fbe
000000a0: e9f3 1ebe ac40 9f3e cafd 57bd 4f09 723e
000000b0: 1598 31be a128 f23d 1900 353e 0823 a4bd
000000c0: 8a14 8c3d 4f89 1abe 5114 63bd 8884 2bbd
000000d0: 5195 4b3e d9c6 423e 0c4e 603e 8457 023d
000000e0: ff7a 49be 67a1 813e a5c1 75be 93cf 663e
000000f0: 0015 873e 4813 39be a1ba 52be d622 843e
00000100: 8d16 6f3e 4b48 22bd 71dd ab3d 82b4 603e
00000110: c916 4bbe 5749 a93b 8b63 593e efd3 803e
00000120: abbe 553e e4b0 513e f7cf 33be 95f1 72be
00000130: b3c6 503d 8cc7 ccbc eb2f dc3c 61c0 4bbe
00000140: 37f3 15be 0525 17be 4cc8 65be 9681 07be
