output_visualizations/base_tsk[^]_agm[crop_plus]_spl[S3]_mdl[lenet]_ls[SM]_tu[none]/model.pt (torch, 248071 bytes, 10 tensors)

conv1.weight f4 [6, 1, 5, 5]
00000000: 68db b43e a586 bb3e 8c6e a33d b6c7 663e
00000010: bdf8 1bbc 806e 273e e7ae 4c3d ad2c 6f3e
00000020: b510 773e 715d a6bd 6792 373e b199 a13d
00000030: ede5 5d3e 4ca5 e23d 3b1f 5f3e efc4 09be
00000040: cd58 b53d eeb3 4b3d 5e0b cb3c 4f97 883e
00000050: 40ef 8bbe 8927 2ebe 9ff2 d7bd f524 883e
00000060: 6b8e 003e a325 413d d922 9b3d 6e64 5abd
00000070: 765e 813c b05e 64be 003d 9c3e e2a4 41bd
00000080: 301d 5e3e 6944 b53c cb7d cbbd 6032 513e
00000090: ebd9 0b3e a6ba 6f3e 1d49 423d 01df 49bd
000000a0: 9830 ef3d 2e2a 863d e351 5c3e 25c7 a73e
000000b0: 1de0 943e 6b4a 92bd 5d74 563e 3cae 373e
000000c0: e8a5 a73e 478c 373e f691 19be 1d3a 06bd
000000d0: 1c9d bfbd 6702 453e e8e1 f03c 1b7c 053e
000000e0: e2d9 d73d d475 1e3d 18ce 253e 6a42 48be
000000f0: 2278 d13d 41be 5dbd c215 ee3d 1f03 82bd
00000100: 5ae0 13bc e6e8 833d 0b45 813e 74ec 8dbd
00000110: cb97 03be 6f45 50be 8d27 8b3e d9e4 083e
00000120: c1d2 453e b3d5 78be 307d b3be 2a4b 86be
00000130: cbeb 56be e22e ab3d 35e1 0b3e 8d0d 883e
00000140: c9d3 0cbe 1dca 09be 0aa1 2e3e 487d a03c
00000150: 985f 5f3e 0e88 24bd 3d72 203e e5c2 40bd
00000160: 1a04 803c f464 183e 6803 9a3d 3931 98bb
00000170: 99d5 4c3e 0a3d 4b3e ac13 ebbd 12be f03b
00000180: 5ee7 863e 6145 8f3c 9578 13bd 22f2 58be
00000190: b012 b0be bbf5 163e b37e ffbc 210e 8cbe
000001a0: d2cc 05be f4c6 a1be 17a1 92bd 874f c1bd
000001b0: 0737 8fbe bb46 88be 6567 4a3e 7b73 803e
000001c0: c4ca 773e 325e 79bd c370 c5bc 1998 07be
000001d0: 120e 3f3e 1ed7 8dbd ddfa 3cbd 1b37 e1bd
000001e0: 974c d6bc e4bd f33d 5d5f f93d 7ad4 d9bd
000001f0: 3ffa 21be f1dd a5be dfac 73be 5e32 a1be
00000200: aa86 2f3b 9ddd 9cbd 8863 dc3c f97b 23bd
00000210: bbd1 82be c7a3 283d 5017 2ebd a5fc b8bd
00000220: 7bd3 11be 5b71 35be 5441 783d 242c 233d
00000230: 20e5 1c3e 6fe7 72bd e99f 763e fd3c 8cbd
00000240: bc84 c03d b2e8 453e 94ed 8a3e c19f 9f3e
00000250: 317c a33e 1c96 c93a
0.35323644 0.36626163 0.079800695 0.22537121 -0.009519753 0.16350746 0.049971487 0.23356886
0.24127467 -0.08123291 0.17926942 0.078906424 0.21669741 0.11066684 0.21789257 -0.1345403
0.08854828 0.04973214 0.024785694 0.2667794 -0.2733097 -0.17007269 -0.10544323 0.26590696
0.12554328 0.047155034 0.07575006 -0.053318433 0.015792113 -0.22301745 0.3051529 -0.047276385
0.21690822 0.022127347 -0.099361025 0.20429373 0.13657348 0.23411044 0.047433008 -0.04928494
0.116791904 0.06551014 0.21515612 0.32769123 0.29077235 -0.071431 0.20942827 0.17937559
0.32743764 0.17924605 -0.14997086 -0.032770265 -0.09356138 0.19239198 0.029404595 0.13035624
0.10539605 0.03868659 0.161919 -0.19556585 0.10227992 -0.05413652 0.11625244 -0.063482516
-0.009025658 0.06440906 0.25247988 -0.069298655 -0.12850873 -0.20338987 0.27178612 0.13368548
0.19318677 -0.2430027 -0.35056448 -0.2622922 -0.20988385 0.083585516 0.13660128 0.26572838
-0.13752665 -0.13456006 0.17053619 0.019590989 0.2181381 -0.040168814 0.15668578 -0.047060866
0.015626956 0.1488226 0.07520181 -0.0046445397 0.20003356 0.19847503 -0.114783615 0.007346877
0.26348394 0.017489137 -0.036003668 -0.21186116 -0.34389257 0.14742176 -0.031188345 -0.2735453
-0.13066414 -0.31597102 -0.07159632 -0.09438997 -0.2797167 -0.26616463 0.19766004 0.25088105
0.24198443 -0.060880847 -0.02410162 -0.13241614 0.18657711 -0.06925796 -0.04613768 -0.10996839
-0.026159568 0.11901453 0.12176392 -0.1063623 -0.15818118 -0.3239589 -0.23796414 -0.3148374
0.0026783147 -0.07659457 0.026902929 -0.03991315 -0.25550637 0.041171815 -0.0425027 -0.09032563
-0.1424083 -0.17719023 0.060609177 0.039837018 0.15321779 -0.059302744 0.24084438 -0.0684757
0.09400317 0.19327047 0.27134383 0.3117657 0.31930688 0.0015379819

conv1.bias f4 [6]
00000000: bd89 babd 2f98 84bd 5630 43bc 79f5 4cbe
00000010: d0cb 5e3e 8dc2 a8bc
-0.09108303 -0.06474339 -0.01191338 -0.20015515 0.21757436 -0.020600582

conv2.weight f4 [16, 6, 5, 5]
00000000: 5df1 b83d bec6 713d 9cd0 efbb 609d a8bd
00000010: 5af7 2e3e bfd3 023d b52d 3c3d d44b b3bd
00000020: 89ff f3bc b3ae 133d cc09 dfbc ff22 fb3d
00000030: f3ac 0f3d 55b6 b0bd 4963 7fbc 5730 05bc
00000040: 7669 d63d 3e71 023d 2bc6 40bd 7329 41bc
00000050: da34 b1bd 7daa bb3d 6615 1c3e 2aed 0bbd
00000060: c521 e23c 0cf9 8d3d 32ab 463d 88ef 7bbd
00000070: 9eb3 ebbc dfbe ec3d e074 353d 66a8 133d
00000080: d62b a8bc c177 5dbd 9742 df3c 6b92 97bc
00000090: 9091 eb3d 0358 de3d 417a b2bc 64f8 603c
000000a0: 0459 78bc d37f 783d efa5 ce3d 0d1e 723d
000000b0: f4da 7cbd b537 83bd 3011 103e d094 1e3e
000000c0: d019 9e3d 6dad 4ebd d587 8abe 0706 68bd
000000d0: 1e1c edba 8357 21bb 02b1 6dbd 7df9 3abe
000000e0: e9f0 9fbd 460d c0bb 88e2 e039 c861 d5bc
000000f0: ec06 50be d9a5 3fbd d51b 9b3d 6ecc 33bc
00000100: d6f2 fbbd 87c6 2fbe ce5a 2fbe 702a f5bc
00000110: 19d7 09bd d03e fa3c f690 04be 198c 63be
00000120: c79d e8bd aeac 833c f9e0 19bd b121 07be
00000130: fea9 58be eb14 04be 8263 66bc 238c 073e
00000140: 814f cabd 4eaf 50be 978b 7fbe 4a66 42be
00000150: f7b8 eb3d 9c4a 8ebd a96c 9bbd f20e 5abe
00000160: ee04 59be 3847 c63c 7f10 bfbd 2c5b 1dbd
00000170: d631 3ebe 86c6 2bbe 253b 523d d8d0 0cbe
00000180: 210e d4bd 326a 46be ffe2 6dbe e332 1fbe
00000190: 96e0 113d 72ed 4dbd 9c31 063d ef30 173c
000001a0: c42d bbbd b089 45bd 63a6 873d 1127 de39
000001b0: f98e c93d 606c b4bc b1fd 71bc 53ab acbc
000001c0: 5a74 183b 7074 2bb9 ce7f 95bc 57b5 b4bd
000001d0: 9401 b4bb 4ff9 7f3d d6e5 083e b40b 17bd
000001e0: d4fb 4fbd 8590 85bd fda0 703b 24e2 bdbc
000001f0: 4a70 30b9 8384 99be 4513 ccbd 1c6a 7fbd
00000200: a4e9 0fbe 4d7d 11be bbf4 9dbe d558 38bd
00000210: f56f 503c 7e06 0bbe 7996 10be e92a 82be
00000220: 0a74 49be 9653 0cbe 43e3 a2bd 2433 15be
00000230: 4055 b0be eb35 3fbe 4cad b2bd 63ab 56bd
00000240: 2b78 9ebd ff01 b7be c948 95be aee0 e5bd
00000250: 900a bbbd dbc3 a8bd 64f8 a53c 22c1 fd3d
00000260: 4f4c a83d 2998 c93d 6581 0a3e b387 cd3d
00000270: 308a ddba 4d30 c33d b070 e23d 9cc8 06bb
00000280: 8f5d 043e a159 fa3d 976a c93b eeca 7cbc
00000290: e064 18be a90b 1c3d 19a9 583d 7c86 8a3c
000002a0: 4172 d0bd b18a 0abe fef0 9fbd 945c 21be
000002b0: 37f1 f5bd cd31 c5bc 5d59 b53d 46ee af3d
000002c0: 27bf f83c e90a cb3c e4f4 c03d c739 61bd
000002d0: 67a4 903d 777e c73d b595 e8bb 3e3f 0fbd
000002e0: d521 c0bd 4f3f 183d 1678 41bd c43d cebd
000002f0: fc1a 11be f0c5 18be 9a9c 7c3d f4f3 fcbd
00000300: e5f6 0cbe b88d fdbc e253 183a 1958 a3bd
00000310: b555 b5bd 0542 12bd 6cf7 3cbd 3ce3 053e
00000320: b4da 5d3e 5ea1 ee3d 4913 cd3d f8b0 5c3e
00000330: c07d 153e 37f5 503e 6a40 183d 6c2a c83d
00000340: 6d0a 9f3d 3ee9 50bc 10c1 6f3e 786b abbc
00000350: 2d59 f6bd a2bc 0bbe 0410 9bbd bc8f ff3d
00000360: 10f1 34be 2871 28be fc63 7fbe afec 34be
00000370: ce9e dfbd 46cc 5abe d4b5 06be c38b 64be
00000380: 7f0b 9fbb 1dbf 6c3e cde7 883e 2fc8 853e
00000390: 4291 7f3e 4f50 823e 2b7c 2e3e 026c 323e
000003a0: fead 593e 1ffb 6f3d 95f9 43be 007a e73d
000003b0: 9082 153e 916d c93c 5c35 1fbe 08bf bcbe
000003c0: 3f93 a7bd bcaf e0bd ca36 32be b4d7 9bbe
000003d0: 4beb b5be 4c31 2bbe ca95 84be 3d2d 9bbe
000003e0: a7a2 5fbe bc49 3fbe 2203 9bbe cba4 8fbe
000003f0: 9b25 66be 67ce 09be dd98 c2bd 3abd 4abe
0.090304114 0.059027426 -0.0073185693 -0.08233142 0.17086545 0.031940218 0.045942027 -0.087546974
-0.029784935 0.036055278 -0.027226351 0.12262534 0.035077047 -0.08628527 -0.015587636 -0.008129201
0.10469334 0.031846277 -0.047063988 -0.011789667 -0.08652659 0.091633774 0.15242538 -0.034161724
0.027603993 0.069322675 0.04850311 -0.06150773 -0.028772172 0.11559843 0.044300914 0.03604927
-0.020528715 -0.054069284 0.027253432 -0.018502435 0.11502373 0.10856631 -0.02178681 0.013731096
-0.015157942 0.060668778 0.10090243 0.05911069 -0.061732247 -0.0640711 0.14069057 0.15486455
0.07719767 -0.05045836 -0.27056757 -0.056646373 -0.0018090045 -0.0024618811 -0.058030136 -0.18259235
-0.07809622 -0.0058609573 0.00042893388 -0.026047602 -0.2031514 -0.046789024 0.07573668 -0.010974033
-0.12302177 -0.17165576 -0.17124483 -0.029927462 -0.0336524 0.03054753 -0.12945923 -0.22221412
-0.11358219 0.016073551 -0.037568066 -0.13196446 -0.21158597 -0.12898605 -0.01406181 0.13237052
-0.098784454 -0.20379373 -0.24955593 -0.18984333 0.115098886 -0.06947824 -0.07589085 -0.21294764
-0.21193287 0.024203882 -0.09329318 -0.038417026 -0.18573698 -0.1677495 0.051325936 -0.13751543
-0.103542574 -0.19376448 -0.23231123 -0.15546755 0.035614572 -0.050275274 0.032762155 0.009227975
-0.091395885 -0.048227012 0.066235326 0.00042372246 0.09841723 -0.022024333 -0.014769957 -0.021077788
0.002326271 -0.00016351207 -0.018249419 -0.0882365 -0.005493352 0.06249362 0.13368925 -0.036876395
-0.05077727 -0.065217055 0.003671705 -0.023179121 -0.00016826499 -0.2998391 -0.09964613 -0.062357053
-0.1405397 -0.14207955 -0.30850777 -0.04500659 0.012722005 -0.13576695 -0.14119901 -0.25423363
-0.19673172 -0.1370376 -0.07953503 -0.1457029 -0.3444004 -0.18672912 -0.0872446 -0.05240954
-0.07737764 -0.3574371 -0.29157093 -0.11224495 -0.09132874 -0.082404815 0.020260043 0.12390353
0.0821768 0.09843475 0.13525923 0.10035648 -0.0016902145 0.09530697 0.1105665 -0.002056635
0.12926315 0.122241266 0.0061467397 -0.015429242 -0.14882231 0.038097057 0.05289564 0.01690983
-0.10178042 -0.13529469 -0.078096375 -0.15757972 -0.12008899 -0.024071598 0.08854935 0.08590369
0.030364586 0.024785476 0.09421709 -0.05498674 0.07062607 0.09740918 -0.0070979246 -0.03497242
-0.09381453 0.03716975 -0.047233663 -0.100703746 -0.1417045 -0.14919257 0.061672784 -0.12351218
-0.13766058 -0.030951366 0.00058108394 -0.07975788 -0.08854238 -0.035707492 -0.046134397 0.13074964
0.2166546 0.11651872 0.10013444 0.21551883 0.14598751 0.20406042 0.037170805 0.09773716
0.077656604 -0.012750922 0.23413491 -0.020925269 -0.12028728 -0.13646176 -0.07571414 0.12478587
-0.17670083 -0.16449416 -0.24940485 -0.17668413 -0.109189615 -0.21366987 -0.131553 -0.2231894
-0.0048536654 0.23119779 0.2673935 0.2612929 0.24957755 0.25451896 0.17039554 0.17424014
0.21257779 0.058589097 -0.19138177 0.113025665 0.14600587 0.024588378 -0.15547699 -0.36864495
-0.08182382 -0.10971019 -0.17403713 -0.30438006 -0.35531077 -0.16718024 -0.2589553 -0.30307952
-0.2183939 -0.18680471 -0.30275828 -0.28055415 -0.22475283 -0.13457642 -0.095018126 -0.19798747

conv2.bias f4 [16]
00000000: c3cc da3c fc29 763d 36c9 98bd d55d b43c
00000010: 3563 1d3d 0d67 cfbc 44a5 943d 3e16 da3c
00000020: a968 5abd 3643 d43b d844 fdba 7bc5 b73d
00000030: 0db3 c0bc 1f9b 553d c51d 3abc 5928 993b
0.026708966 0.060098633 -0.07460253 0.022017399 0.03842469 -0.025317693 0.072580844 0.026621934
-0.053322468 0.0064777387 -0.0019322885 0.08973213 -0.023522878 0.052149888 -0.011359637 0.0046739993

fc1.weight f4 [120, 400]
00000000: 0bf4 dcbd bcfb 613d 751a b93d f694 2f3d
00000010: 91f2 693e ad66 37be e521 65bc 3dbb 813d
00000020: 1ddd 883d 7bf5 023e 5186 35bd f0a3 32bc
00000030: bedd 893c f857 013d 6382 733d 879e 5dbd
00000040: a623 9d3d 82d1 883c b1fb 04bb e4e9 953d
00000050: aa18 493d adf4 e23d 1126 063e ad90 883d
00000060: fe3b e63d e3ff f83e a05f 293e 60c1 5b3c
00000070: d3c5 99bc 220f eabc 652a a23e 4c6e 043d
00000080: e3fe d8bc a163 9f3d 6423 0f3c d744 d93d
00000090: 0e8f 9cbd dc61 97bd 887e 243d 8064 3abc
000000a0: bb0e ea3c 65b0 f2bd 07b5 b2bd bbd4 1ebd
000000b0: 125e 92bd 025f 6e3a 7c1a 8dbd a9ea 04be
000000c0: 722d e1bd beec 59be 6f77 823d bc14 a43d
000000d0: 1471 6e3d 0291 133e 2d28 223d 33fc 703d
000000e0: e6b8 b93d d383 073d c462 e13d 4317 e53c
000000f0: 404d 463d a8d6 933d f1ee 42bb 0b7b b53b
00000100: 5766 f5bc f3eb b1bc c9c7 81bb 0930 2f3d
00000110: d5e9 cabb 66b0 ccbd a82e 64ba 738a aebc
00000120: d257 adbd 670f 44bd 371b 6dbe de1d b53d
00000130: 1fc8 103e 1fae e13c 0b8c 2dbc 5d38 abbd
00000140: a463 033e f603 923d 2110 e83c 1788 a4bc
00000150: 0ab1 99bd 6e5d 863d 9f9d 2b3d 7891 31bd
00000160: 0927 b1bd 4560 66be 1b22 debc b6ac c2bd
00000170: 872a 16be d7ec 5dbe 7002 babe 7894 b0bd
00000180: 307f 3cbe 597c 89be 4268 81be 3a39 f0be
00000190: d744 82be e93d 79be 64a1 76be 1151 75be
000001a0: b9e9 babd 19ee 4ebe 8d12 3bbe 8e9e 4fbe
000001b0: 08db f4bd a43e a7bc e328 11be a6e0 4ebd
000001c0: 3a6b 97bc d469 303d 8924 ff3d 0511 94bd
000001d0: 8cba 623d df09 e53d bf74 123e 414e 743e
000001e0: 8fca 873d a9a4 163e d3f1 813e a4e7 123e
000001f0: 94b3 793e 7b29 0fbe 7d60 69bd 6116 b9bd
00000200: d094 9ebb 1e84 0a3d a5f8 85bd 0daf ca3c
00000210: 3865 003b 9e08 c13b 633b 093d 33fd 3fbd
00000220: 2dc0 173d 6643 f23b 3443 a0bb 7824 1cbd
00000230: e9a2 21bd 67b4 f33d 8363 ea3d 2eff 553d
00000240: 3e7c 973d 57e4 603e 39fc 643e ffcc 733e
00000250: a69d 093e 0a82 0f3e ea1f c5bd 037d 9bbd
00000260: dc37 b3bb bd69 05bc 4356 a33d 5744 bfbd
00000270: 55d3 81ba 9169 6fbc f3fd c93c 3057 313d
00000280: dd80 34bd ac89 213d 6924 033d ed40 e2bc
00000290: c216 853d 1c07 9b3c b97f ed3c 7ba2 cf39
000002a0: 4c2f a13c 3d9d b6bc 8a2f a33c 23f2 6f3d
000002b0: f897 3e3d 0188 553d 8dfc 27bc 028b c73d
000002c0: c5a7 1b3d 2926 ad3d 3b56 053e 4bf1 163e
000002d0: a996 d33d 6c31 c23d 1468 9d3d a286 a73d
000002e0: c818 063e 4984 143d a3d1 583d 5ee6 50bc
000002f0: 647c 893d c2a1 533c 7e84 f63b d9af 893d
00000300: 45fa 6ebd 53a3 41bd 367d 04be 57e2 693d
00000310: 96c0 5fbc 154f 64bd 556a 94bd f53f 05be
00000320: 664b 85bd 9a56 893d a209 c73d 403b 973d
00000330: fc67 0d3e 39d5 d639 ac8a 803d 5186 813c
00000340: 2c35 ae3c 050d e23d 1a56 cf3b dd99 7b3c
00000350: 6594 0ebb 253d fe3b c1b0 dbbc 2bf7 593d
00000360: 81ab 623d 7d84 bbbc db05 f9bc b7c6 8cbd
00000370: b4ab 8ebb 5487 523d a1d5 1f3b 4fc6 62bc
00000380: a5f6 24bd 4096 893c 06cf 853d 34c8 b23d
00000390: 90d7 d73d 77d7 213e dbd6 8dbb ea9c b3bc
000003a0: 2c7f 043d cdb2 8bbb c72e 913d 4ae9 a0bd
000003b0: 14e2 7b3d 2c02 073d a344 aa3c 15a0 a6bc
000003c0: c68c d0bd 2be5 e23c c761 473b 7dfb 7dbc
000003d0: d236 063d cf1f 5abd e14c 893c 033a 9a3d
000003e0: 3b20 093d d73b 05bd 8aea 8f3e 7101 c73d
000003f0: 5143 133c 72fc ee3c e875 f6bb 6ccb aaba
-0.10788735 0.055171713 0.090382494 0.04286667 0.22846438 -0.17910261 -0.013985132 0.06334541
0.06682799 0.12788956 -0.044317547 -0.010903344 0.016829368 0.031578034 0.05945052 -0.05410626
0.07672815 0.016701464 -0.0020291621 0.07320002 0.049095787 0.110818245 0.13100459 0.0666822
0.11241911 0.48632726 0.16540384 0.013412803 -0.018771088 -0.028571669 0.3167297 0.03233175
-0.026488727 0.077826746 0.008736465 0.10608833 -0.07644473 -0.07391712 0.040159732 -0.0113765
0.028571477 -0.11850051 -0.087259345 -0.038777094 -0.07146849 0.0009093137 -0.06889817 -0.12980141
-0.10994996 -0.21281716 0.063704364 0.08011767 0.05821331 0.14410785 0.039589096 0.058834266
0.0906847 0.0330847 0.11005166 0.027965194 0.048413515 0.07218677 -0.002974447 0.0055383495
-0.029956026 -0.021718955 -0.003960584 0.04277042 -0.0061924257 -0.09994583 -0.0008704462 -0.021306252
-0.08464016 -0.04786625 -0.23154913 0.08843587 0.1413884 0.027548848 -0.010592471 -0.0836036
0.12830979 0.07129662 0.028328003 -0.020084424 -0.07504471 0.06560789 0.041898366 -0.04335162
-0.086500235 -0.22497661 -0.027115872 -0.09505598 -0.1466466 -0.21672378 -0.36329985 -0.08622068
-0.18407893 -0.26852682 -0.25274855 -0.4691866 -0.25443146 -0.24340023 -0.24085003 -0.23956706
-0.0912661 -0.20208015 -0.18268795 -0.20275328 -0.119558394 -0.020415612 -0.14175753 -0.05050721
-0.018483747 0.043069676 0.124581404 -0.07229809 0.055353686 0.111835234 0.14302348 0.23857976
0.06630432 0.1471125 0.2537981 0.14346176 0.2438491 -0.13980667 -0.056976784 -0.090374716
-0.004839517 0.033817403 -0.06541566 0.024741674 0.001959158 0.00589092 0.0335039 -0.04687233
0.037048507 0.0073932884 -0.0048908237 -0.038120717 -0.039462004 0.118996434 0.114447616 0.05224531
0.07396744 0.21962105 0.2236184 0.23808669 0.13439044 0.1401445 -0.09625228 -0.075922035
-0.0054693054 -0.008142886 0.079754375 -0.09339207 -0.0009904901 -0.014612571 0.024657225 0.04329604
-0.044068206 0.039437935 0.032017145 -0.02761885 0.06498481 0.018924288 0.028991567 0.00039603174
0.019675873 -0.022291774 0.01992013 0.05858053 0.046531647 0.052131657 -0.010253084 0.097433105
0.038001794 0.08454544 0.13021176 0.14740483 0.103314705 0.09482083 0.07685867 0.08179976
0.13095391 0.03625897 0.0529343 -0.012750236 0.06713179 0.012916984 0.0075231185 0.067229934
-0.058344144 -0.0472749 -0.12938389 0.05710062 -0.013656756 -0.05573948 -0.07246844 -0.13012679
-0.06508522 0.06705971 0.09718634 0.07384348 0.13809198 0.00040976124 0.062764496 0.015811117
0.021265589 0.110376395 0.006327403 0.015356508 -0.002175593 0.007758754 -0.026817681 0.053214233
0.05533934 -0.022890324 -0.0303983 -0.06873839 -0.0043539647 0.05139859 0.0024388807 -0.013841226
-0.04027428 0.016795278 0.06533627 0.08729592 0.10539162 0.1580485 -0.0043285913 -0.021925408
0.032347843 -0.004263258 0.07089 -0.07856996 0.0614949 0.032961056 0.020784682 -0.020340005
-0.101831004 0.027697166 0.003042327 -0.015501854 0.032767124 -0.05325299 0.016760292 0.07530596
0.033478003 -0.03252777 0.28108627 0.09717072 0.008988217 0.02917311 -0.0075213797 -0.0013030595

fc1.bias f4 [120]
00000000: 3fe5 84bc d7bc 0bbb 87a1 47be e736 8f3d
00000010: 4330 433b 387b b33c b745 88bc 2512 35bd
00000020: d09e 8b3d d0cd 82bd 635e 95bd 3b55 84bd
00000030: c977 16bc 58d6 ff3c b8f3 793d b1a9 4f3e
00000040: 48a4 57bd 8019 9abd 0d07 5b3e fa0a 91bc
00000050: 9276 91bc ddc8 f5bc 6581 053e df5a 7cbd
00000060: 9a8c 7cbc 4e59 efbb cf9c 143e 8bf8 b13d
00000070: 39bf b73c aeb5 ed3d f2da fb3c b050 a63c
00000080: 08e8 b2bd 9036 8bbd dd5a cd3d 4827 86bc
00000090: db10 f3bb 15e2 083d 7a51 c83d 123b 6dbc
000000a0: f423 0d3e 70d6 b73d 0621 fd3c 2776 aa3d
000000b0: b7f5 94bd a02c fcbc 1a62 7abc 14f6 3f3d
000000c0: 18b6 ff3d 9663 ad3c 6ac2 e73d ab5c 9b3d
000000d0: aa00 e73d ff7a a33c ea83 7ebc ff18 26bc
000000e0: b9bd c5ba 89a0 dcbc ad24 1dbc 27cf 22be
000000f0: f023 5d3d f7b7 003d afa9 10bd 2896 e9bc
00000100: 9234 a63c 09f6 ffbd af37 97bd 0d1e df3d
00000110: df80 123c 9f97 6c3c 11f9 443d da9e ab3d
00000120: 08e3 843d afdf 8cbd bac5 ad3c 2baf 84bd
00000130: fc07 763d ce11 21be 5177 673c 8498 abbc
00000140: 4938 013d 49c5 b73d 0c55 a53d 68be 3abd
00000150: cb86 01bc da77 07be 2194 debc 1e44 33bc
00000160: 1e96 a13c 387b b5bd abec 463e 5168 febb
00000170: ce6c 6bbd c37e 883d 37d9 a03d 8f2a 193b
00000180: 454e 84bd bde2 edbc 64cf 76bd c156 2d3d
00000190: 6958 003d 4a10 86bd dc0e 54bd 6a5d 293e
000001a0: 3911 93bd 04a7 c53c 8065 323d 7dc0 4cbc
000001b0: a5d1 bcbd f411 d63d 8085 143d 5411 f43d
000001c0: b9c7 e43d 4232 183c 9f7b e0bc 058f 443e
000001d0: 55e3 e2bc 54c9 6dbc 0b51 30be 4c12 3bbd
-0.016222594 -0.0021322274 -0.19495212 0.06992894 0.0029783405 0.021909341 -0.016634805 -0.044206757
0.068174005 -0.06386912 -0.072933935 -0.06461569 -0.009183832 0.031230137 0.061023444 0.20279576
-0.052646905 -0.07524395 0.21389408 -0.01770543 -0.017756734 -0.030003006 0.13037641 -0.0616101
-0.015414381 -0.007304347 0.14512943 0.08689984 0.02243005 0.11606918 0.03074405 0.020302147
-0.08735663 -0.06797516 0.100270964 -0.016376153 -0.007417781 0.033418734 0.097811654 -0.0144794155
0.13783246 0.089764476 0.030899536 0.08323317 -0.07273429 -0.030782998 -0.015282178 0.046865538
0.124859035 0.02116565 0.113163784 0.075860344 0.112794235 0.01995611 -0.01553438 -0.0101377955
-0.0015086449 -0.026932018 -0.009591264 -0.15899335 0.05398935 0.031425443 -0.035318073 -0.028513983
0.02028874 -0.12498099 -0.07383668 0.108944036 0.008941858 0.014440446 0.04808909 0.08379908
0.06488615 -0.06878602 0.021212447 -0.06478723 0.06006621 -0.15729448 0.014127568 -0.020946749
0.03154782 0.08973176 0.08072862 -0.04559174 -0.007905672 -0.13229313 -0.027170243 -0.010941533
0.019724902 -0.08861393 0.19426219 -0.0077639003 -0.05747681 0.06664803 0.078539304 0.0023371314
-0.06460241 -0.029038781 -0.060256377 0.042319063 0.031334314 -0.06546076 -0.051771984 0.16539541
-0.07181019 0.02412749 0.04355383 -0.012497065 -0.09219674 0.10452643 0.036260128 0.119173676
0.111709066 0.009289326 -0.027402697 0.19195183 -0.027696291 -0.014513332 -0.17218415 -0.045671746

fc2.weight f4 [84, 120]
00000000: a8fc 02bd d01d 94bc 198f 89be fd52 283e
00000010: 6d3e 313c f428 5dbd 13cf b1bd 24bb a13d
00000020: a94a 273e c417 4cbd 2142 b23d e79f dfbd
00000030: 4793 883d 0dd1 97bc 8604 e23d e5a9 673e
00000040: 8b18 c0bd 52e9 82bd ca61 103e bea5 4d3d
00000050: 2916 823c 004b 36bd 29cf ac3e 21c6 75bd
00000060: 47c8 2e3e 1ca5 cfbc ef6a 023e 7fa8 c9bc
00000070: 16f7 1fbc bf3a bb3d 3ce2 5a3d 2294 963c
00000080: bb96 cdbd 9486 b73d ff53 cd3d ec32 4d3c
00000090: 7e0f 09be 3b54 903d 8a74 fabd 98a6 3c3d
000000a0: c1dd 27be 7da6 65be 21e6 f43c 9f27 2d3e
000000b0: 51b3 8fbd acb3 753d c2b4 fdbd 4f02 6cbd
000000c0: 0225 bb3b c2f9 03be 0de2 0cbd 8da8 58be
000000d0: 1cd1 8cbd cbde f23c fe4b 51bd e7b6 91be
000000e0: 07d9 06bd ab6f f6bd 466f 4c3d f68b 40bb
000000f0: 9714 823e 62ef f5bd 3340 3cbd 576b d2bd
00000100: a2f4 a53e 16ad bebd a6f8 30be 3357 a93d
00000110: bfa5 fc3d ff1b 833c 9f52 85bd 146d 0abc
00000120: e577 9a3d d798 c63c 3d5a 75bd 1e23 0f3c
00000130: 83aa a2bd 1c9d ffbc 6ab5 d2bc 1ba0 b13c
00000140: fead 0d3e 6ec2 31be 0391 733d 9121 1c3d
00000150: d43f b4ba 35ae 4fbd f7d2 cabc acd2 263a
00000160: 54a9 91bd 2a81 d6bb 743f 82bd d7f6 abbd
00000170: a8e2 723d aa2b 79bd f8f6 adbd 8c91 033e
00000180: c312 c33d 8037 a53b 4c1b 993d 2189 01be
00000190: 0757 933c b20e 323d 0364 8fbd 2db4 183c
000001a0: 512f d83b 7b3b 2b3d e720 c73d 2d66 20bd
000001b0: d6f1 3d3c 7b09 3ebd 119a a3bd a325 6dbc
000001c0: 61ee cf3d 3dde de3d 4116 fbbd fd4c ee3d
000001d0: c32d a6bd 9cc2 e1bc a4d7 ca3d 7992 aebc
000001e0: 93ba 54bd 1100 54bd 6609 73be 5c9b 0a3e
000001f0: b673 85bd 0164 bcbd 753c f5bc 0043 f03c
00000200: dcb8 9cbd ff16 f93c 9ca6 a9bd e74a 7fbd
00000210: 20f8 70bd f781 87bb dea0 67bd 2aa4 013e
00000220: 52c3 80bc 1cb6 77bb 8a00 183e f16d ed3c
00000230: e4e5 9e3d 1b7d 303c a15f 383e 3dc4 ac3d
00000240: 2a00 b3bd d444 333b a559 223e 5268 3fbd
00000250: 4988 573e 1280 a4bd 4daf 933d 85e3 4bbe
00000260: 84b8 48bd 3fd2 d3bc d8a5 543d 7ec4 ba3d
00000270: 2f28 0ebe 1bbe 353c 5b75 06be 8823 6bbd
00000280: 0d44 0bbd e6da 6cbd 46b5 54bd d30f c53d
00000290: 4759 033d 4a57 953b f0fb 0a3d b2b4 6cbc
000002a0: 5993 8f3e 0de0 2e3e 20f6 963d 6e5d 803d
000002b0: a894 393e 685f 47bd f043 e9bc 6843 ba3d
000002c0: 4fa0 693d 24de 973d acc7 b0bd 5209 6cbe
000002d0: a52f 273e 3d58 be3d 9d87 e5b9 1043 113e
000002e0: a654 293e c9de 8abd ab34 a4be 491a 7ebc
000002f0: 34e0 293c 1924 953d f46b 08be a944 c7bd
00000300: e100 14be cddb aabd e65d 6d3e d603 cd3c
00000310: a7f2 013e c430 e03c d567 9d3d f50e a2bd
00000320: 9946 b53c b880 e63d 96ec aabd 2f8b 0ebb
00000330: 9401 a2bc d6c3 57bd bd1a 19bd 2f57 82bc
00000340: 9bf9 bf3d 5fd1 94bd da93 043e 38ee d7bc
00000350: ae61 833d f67a 113e 9b2f 84bc 8741 a7bc
00000360: b9a4 ae3d fbaa dbbc 53d4 f1bc 636a 9bbd
00000370: bca1 d0bd b67a 75bd 4324 443d 8551 0e3e
00000380: 9d3f 923d 76e4 8bbc 3e82 f73d bbf3 48bd
00000390: 8031 aa3c 0688 863d 6f54 203d b3a0 ca3d
000003a0: 70d1 fa3d 0059 e2bd f38e cebb 1b35 463e
000003b0: fe4b 69bc 7e7c 4cbd 7d70 463c 3619 3e3c
000003c0: 2eaa bdbd c1e0 283d 84a0 693d 80fc 05bd
000003d0: 26e1 7abd c4ea d93c ba2e 3abd 7a3e 24bd
000003e0: 52b2 8c3e 27fe 0a3b d4fc 3b3d 87e2 0e3e
000003f0: 97b3 b639 21f2 3a3d fbdb 343d 0497 793d
-0.031979233 -0.018080622 -0.26866987 0.16437908 0.010818106 -0.053994134 -0.086820744 0.07897022
0.16337074 -0.049827352 0.08704019 -0.10919171 0.06668716 -0.0185323 0.11036019 0.22623403
-0.09379681 -0.063921586 0.14099804 0.050206892 0.015879707 -0.04450512 0.337518 -0.060003404
0.17068587 -0.025347285 0.12736104 -0.024616478 -0.0097635 0.09142064 0.05343841 0.018381182
-0.10038515 0.089612156 0.100257866 0.012524348 -0.13384816 0.07047316 -0.12229259 0.046057314
-0.16393186 -0.22426791 0.02989489 0.16909645 -0.07016624 0.0599858 -0.123879924 -0.05761939
0.005711199 -0.12888244 -0.034395266 -0.21158047 -0.06875822 0.029647252 -0.051097862 -0.28459856
-0.032921817 -0.12033018 0.049910806 -0.0029380298 0.25406334 -0.12008549 -0.045959663 -0.1027438
0.32413203 -0.09310357 -0.17282352 0.08268585 0.12336301 0.01600456 -0.06509899 -0.008448858
0.07542399 0.024242802 -0.05990051 0.0087364 -0.07942679 -0.031202845 -0.02572127 0.02168279
0.13835904 -0.17359325 0.059464466 0.03811795 -0.0013751932 -0.050703246 -0.024758799 0.000636379
-0.07112375 -0.0065461593 -0.06359759 -0.0839669 0.059298187 -0.060832657 -0.08494371 0.1284849
0.09525063 0.0050420165 0.074759096 -0.12649967 0.017985834 0.043471046 -0.070014976 0.009320301
0.0065974374 0.041804772 0.097230725 -0.039159942 0.011593303 -0.04639576 -0.0798837 -0.014474305
0.10152889 0.10882232 -0.12260104 0.11635778 -0.08114197 -0.027558617 0.099044114 -0.021310078
-0.051935744 -0.051757876 -0.23734054 0.13535827 -0.06516211 -0.09198762 -0.029936055 0.029328823
-0.07652447 0.030406473 -0.08283731 -0.06232729 -0.05883038 -0.004135366 -0.0565499 0.1266028
-0.015718136 -0.0037797755 0.14843956 0.028983088 0.07758692 0.010772015 0.1800523 0.08435867
-0.08740266 0.0027354257 0.15854509 -0.046730347 0.21048082 -0.0803224 0.0721117 -0.1991101
-0.049004093 -0.02585709 0.051915973 0.09119509 -0.13882516 0.011092688 -0.13130705 -0.057406932
-0.034000445 -0.057825945 -0.05193069 0.09622159 0.032067563 0.004557525 0.033931673 -0.014447378
0.28042105 0.17077656 0.07371163 0.0626782 0.18123114 -0.04867497 -0.028474778 0.09094888
0.057037648 0.07415417 -0.086318344 -0.2305043 0.16326769 0.09294174 -0.00043779323 0.14185739
0.16536197 -0.06780774 -0.32071432 -0.015509197 0.010368396 0.07282276 -0.13322431 -0.09729893
-0.1445346 -0.08342705 0.2318035 0.025026243 0.12690221 0.027367003 0.0768582 -0.07913009
0.02212839 0.1125502 -0.083459064 -0.002175044 -0.019776143 -0.052676998 -0.037379015 -0.015910713
0.0937378 -0.07266497 0.12947026 -0.026358709 0.06415115 0.14207062 -0.016135981 -0.020416988
0.08527512 -0.026814928 -0.02952019 -0.07588651 -0.101870984 -0.05993148 0.047886144 0.13898285
0.071410395 -0.017076712 0.120853886 -0.049060564 0.020775557 0.06568913 0.039143022 0.09893932
0.12246978 -0.11052132 -0.006303662 0.19356196 -0.014239309 -0.049923413 0.01211178 0.01160269
-0.09260975 0.041229967 0.057037845 -0.032711506 -0.061249875 0.026601203 -0.04545472 -0.040098645
0.27479798 0.0021208616 0.045895413 0.13953601 0.0003484755 0.04564107 0.044155102 0.060935035

fc2.bias f4 [84]
00000000: 5e7c 383d d661 663e 48f5 6f3d 58d6 9c3d
00000010: ffd1 55bd 5ed3 7f3d ca3e d93d a9a7 343d
00000020: 779e bdbb 92b5 bbbd 1741 733e 1df9 93bd
00000030: 4a36 2bbc 8687 153e 13ee 7d3e a922 363e
00000040: 76e6 c73c 0ff4 2e3e 2f0f 37bd eea0 4cbd
00000050: 5437 813d ac45 82bd 283f 803c 1023 fe3d
00000060: 6d2e 4a3e abe9 803c 2fef abbd 3614 ae3b
00000070: 3af4 bdbd 479c 27bd 89f1 73bd 66bf 3c3d
00000080: 77e6 933d 24f2 11be 9399 f03d 7518 1d3e
00000090: 5fd6 1f3c f80f c0bc 9b83 b43c 3944 d63c
000000a0: eeef 133e c7e7 d53c 17e5 dbbd 439f 29be
000000b0: ba6d bcbb 3cab 9dbd ff73 2ebb 9acf a73d
000000c0: 64d7 a33b d2a1 053d 7d13 9dbd 782f b6bd
000000d0: 5d97 c2bc 1804 283e 5eaa 92bc 2a59 fdbc
000000e0: 45a1 f83d 94d3 14bd f80f 74bd cf20 c7bd
000000f0: 8ed2 1fbe 9548 a5bd aa62 613e 609f ab3d
00000100: 7aae 213e 1e25 2a3d 3454 0d3e 30a7 613e
00000110: 60ba 14be 186c 803d 75aa 3a3e 000d 073a
00000120: ecfc 323e 99d3 e73d 5eaf 25bd 370b 083d
00000130: df53 3bbc b61a 8f3d 24b9 18be 0dee 1bbd
00000140: 0a3c b93d c0e6 d4bd 366a 853d 6fb0 a43c
0.04504048 0.22498259 0.058583528 0.0765807 -0.05220222 0.062457435 0.10607679 0.044105206
-0.0057867127 -0.09165491 0.23755299 -0.07225249 -0.010449955 0.1460248 0.2479785 0.1778666
0.024401885 0.17085288 -0.044692215 -0.049958162 0.06309381 -0.06360945 0.015655115 0.124090314
0.19744273 0.015736422 -0.0839523 0.005312468 -0.09275098 -0.040920522 -0.059556518 0.04608097
0.07221692 -0.14252526 0.11748042 0.15341361 0.0097557 -0.023445114 0.02203541 0.026155578
0.14446995 0.026111497 -0.10737055 -0.1656466 -0.005750385 -0.07698676 -0.0026619432 0.08193894
0.005000042 0.032625027 -0.07669733 -0.08895773 -0.023753816 0.16407812 -0.017903503 -0.030926306
0.12140135 -0.03633459 -0.05958554 -0.097230546 -0.15607664 -0.080704845 0.22010294 0.08380008
0.15789214 0.041539304 0.13801652 0.22036433 -0.14524221 0.06270617 0.18229087 0.00051517785
0.17479295 0.11319656 -0.040450446 0.03321382 -0.011433571 0.069875166 -0.14914376 -0.03806882
0.09044655 -0.103955746 0.06514399 0.020103661

fc3.weight f4 [5, 84]
00000000: 4c34 95bc a10a 073e 49ac 3cbd bf31 89be
00000010: a12d c2bd 3c62 30be 710c 313e 4d20 32be
00000020: ade2 b83d 3c2b 7bbd e93f dcbd 8cf1 7f3d
00000030: e74b 11be c708 f3bd 22a9 65be 4375 6fbe
00000040: 0725 3e3e 8e57 17be 84d8 ab3d 72ba f3bd
00000050: 7c0a 51be e71e bfbd c8d9 1c3e e437 40be
00000060: 76d1 8a3d 692c edbc e2f9 f43d c22a bd3d
00000070: 4148 e33d b7e6 92be 737e b13e 035a 1d3d
00000080: dc65 2b3e 28d9 d03c 206d 9e3d cf85 01bd
00000090: 4a28 fc3d 8c1a 8dbd a977 6b3d d91e 52be
000000a0: 9115 61be 363d c03d 670d 11bd 8f37 e23d
000000b0: cdb9 67bd 9873 a83d 2c18 2e3e ad54 15be
000000c0: c78a 4e3e 163a b63c 5984 87bd 1f1a 41bd
000000d0: b557 213d f6ef d4bc 728e c73d 4678 b13e
000000e0: 7f12 34be 9e89 003e 8203 96be 9711 56be
000000f0: 4dfc 313d 1f8c 55bd 4527 05be 9be1 283d
00000100: 8b75 243e 9532 8cbd d57a 3cbd d291 c53d
00000110: 8274 4dbd 7e1b 38bd a476 563d 6852 133e
00000120: 7598 1ebd 014b 26bd 0b50 f6bd ca1d 5ebe
00000130: 6cc5 713d 85fa 6fbe e05c 543b d8f2 8ebd
00000140: b1fd 84bd 77f1 2e3d a9c5 61be a66c 8b3c
00000150: 6204 783e 00b1 12be 4993 9c3d d7fe 3b3e
00000160: add4 063e 7d90 00be 27d2 863d 248f 883c
00000170: 4f1a cbbd ae1d 4bbd 4525 273d 675c 173e
00000180: 32b6 583e 7a58 aa3d 5594 a8bd 0833 a8be
00000190: fba9 293e 7489 013d 5650 a53e 26fd 7dbd
000001a0: f8b3 173d 8ce3 913d 37e0 97bd e94a 4dbe
000001b0: 66b4 203d dc44 e5bc 0d32 46be 33ac 123e
000001c0: 0082 0f3e e297 013e 346b d1bc 7fa7 87be
000001d0: 7eb4 443d c39e b7bd cf2e 08be 6d6f a8be
000001e0: 3fad 8cbd 8b7b 44bc 988e 1fbd 05b6 30be
000001f0: 51fb bc3c 4702 3e3d c40b 9cbd 2931 98bc
00000200: 1de4 d93d 59cb ccbd d645 ee3c c03f 2f3e
00000210: ec0b 143e cb78 863d 1aac 5cbd 8ea0 7cbd
00000220: 59a3 693d 4efd 90be 2da7 a5bd ab83 3ebe
00000230: be6e c33d a143 26bd 292f 90bd b466 87bd
00000240: 7a52 95be 2d08 153e 6c79 353e f7e4 77be
00000250: c36b 30be 02df bbbd 3adc 56be 00af 57be
00000260: c416 043c a147 243d 461d 34be 3a5d 9a3d
00000270: 7a41 9ebd 0836 973d cc55 283e fecf 973d
00000280: 5439 333d a1ce 953e 2605 b63d 599f 8b3d
00000290: fbf5 763d ae93 da3d 0992 5ebe 93a1 093e
000002a0: 99f3 a7be e435 a0be e151 503e b734 1ebe
000002b0: a885 cc3b a215 dd3d 5b50 413d 5ca9 303e
000002c0: 9904 d63d 1b1a 7cbd 7dea 3bbe a0f3 c63c
000002d0: 2b8e 313d e02a 63bd 33d3 9dbb a3c5 093e
000002e0: 62fe 1f3e 0c66 943b e6b1 e3bd 226a 843e
000002f0: cf29 373e d821 4f3d 8e03 c83d 0b7d e53d
00000300: be15 0d3d 681d 7fbd bd15 173e be8c 2cbe
00000310: f9ad f4bb dc6e 343d a8c5 44be 8567 c2bc
00000320: 5aea 37bd c375 483e c7ce 0c3e f8d1 4d3c
00000330: fbfa f63b c20d d93c 5df7 a8bd 0d33 803e
00000340: 4f97 f13d ff47 413d f100 0cbd c986 a13d
00000350: 7065 9e3c 99de c4bd 9a91 eebc b839 03be
00000360: c4ce 56be 5334 8e3d 8573 9a3c 8ebd 30bc
00000370: 36bb e53b a95b 0fbe 8e3b 6dbd 2317 833d
00000380: aa7d afbd a73c b3bd 9f05 ca3d bc13 603e
00000390: 807d 833e a310 213e 6d6b 59be 4e5e 183c
000003a0: 2340 6cbe 6e32 9d3d 35c1 063e 1ba8 4abe
000003b0: e4fc d23d 8b00 f13c a531 60be 34c0 01bc
000003c0: 295d d33a bef1 6ebe 0f59 9a3c 3191 783d
000003d0: 7948 67bd 779a 5bbe 42d1 26be 212a 99bc
000003e0: bbe6 58be b8e2 8dba 3ee9 713e 1551 bf3b
000003f0: f29f 44bd 1897 37bd 6a13 58be 4514 523e
-0.018213414 0.13187648 -0.04606274 -0.26795766 -0.09481359 -0.17224973 0.17289902 -0.17395134
0.0902761 -0.06132053 -0.107543774 0.062486216 -0.1418911 -0.118669085 -0.224278 -0.23384576
0.18568812 -0.14779493 0.083909065 -0.11900796 -0.20414156 -0.09332066 0.15317452 -0.1877132
0.06778233 -0.02895184 0.11961724 0.09236671 0.11097766 -0.28691646 0.34666786 0.03841592
0.16738075 0.025494173 0.07735658 -0.03162175 0.12312372 -0.06889829 0.057487164 -0.2051958
-0.21980883 0.09386675 -0.035413172 0.11045753 -0.056573678 0.08225173 0.17001408 -0.14583082
0.20170127 0.022244494 -0.0661704 -0.04714405 0.039390285 -0.025993329 0.09743966 0.34662074
-0.1758518 0.12552497 -0.2929955 -0.20905147 0.043453503 -0.052135583 -0.13003261 0.04123078
0.16060464 -0.06845585 -0.04601558 0.09646954 -0.05015994 -0.044948094 0.05235924 0.14386904
-0.038719613 -0.040598873 -0.12026986 -0.21691051 0.059026167 -0.2343541 0.003240399 -0.069799125
-0.064937 0.042710748 -0.22048058 0.017019581 0.24220422 -0.14325333 0.0764528 0.18358932
0.13167067 -0.12555118 0.06583052 0.016669817 -0.09917127 -0.04958885 0.040807027 0.14781342
0.21163252 0.08317657 -0.08231417 -0.32851434 0.16568749 0.031625226 0.32287854 -0.062009
0.037036866 0.07123479 -0.074158125 -0.20048107 0.03923454 -0.027986936 -0.1935503 0.14323501
0.14014435 0.12655595 -0.025563814 -0.26494977 0.048023693 -0.08965828 -0.13299106 -0.3289751
-0.068689816 -0.011992346 -0.038954347 -0.17256935 0.023069056 0.04638889 -0.076194316 -0.018578129
0.10639212 -0.09999723 0.029086035 0.17114162 0.14457673 0.06566008 -0.053875066 -0.061676554
0.057040546 -0.28318256 -0.08088527 -0.18604915 0.09542607 -0.04059184 -0.07040245 -0.06611386
-0.29164487 0.145539 0.177221 -0.24208437 -0.17228608 -0.09173395 -0.20982447 -0.21062851
0.008062068 0.040107373 -0.17589292 0.07537313 -0.077273324 0.073833525 0.16438979 0.07412718
0.043755844 0.29259208 0.08887701 0.068175025 0.06029318 0.10672699 -0.21735395 0.13440542
-0.32803038 -0.31291115 0.20343734 -0.15449797 0.006241519 0.10795142 0.047195774 0.17252105
0.10450096 -0.061548334 -0.18351169 0.024286091 0.043348473 -0.05546081 -0.0048164367 0.13454299
0.15624383 0.0045287665 -0.11117916 0.25862223 0.17887042 0.050569385 0.09766303 0.11205491
0.034444563 -0.062283903 0.14754386 -0.16850564 -0.007467028 0.044051036 -0.19216025 -0.023731003
-0.04490123 0.19576173 0.13750754 0.0125622675 0.0075372434 0.026495818 -0.08250306 0.2503895
0.11796438 0.0471878 -0.034180585 0.07887036 0.019335479 -0.0961277 -0.029122163 -0.12814987
-0.20977312 0.06943574 0.018853912 -0.010787381 0.0070108427 -0.1399981 -0.057918124 0.06400897
-0.085688904 -0.08751803 0.098643534 0.21882528 0.25681686 0.15729003 -0.21232386 0.009299828
-0.23071341 0.07675634 0.1315964 -0.1979069 0.10302141 0.029419204 -0.21893938 -0.00791936
0.0016125786 -0.23334405 0.018841295 0.06068534 -0.0564656 -0.21445642 -0.16290763 -0.018696846
-0.21181767 -0.0010825014 0.23624131 0.005838523 -0.0480041 -0.04482183 -0.21101156 0.20515545

fc3.bias f4 [5]
00000000: c0a2 a83d 72d0 693d 431a abbd b8f0 3ebd
00000010: 9075 1d3e
0.08234167 0.057083555 -0.083546184 -0.046616286 0.15376878
