output_visualizations/base_tsk[+1]_agm[ac]_spl[S2]_mdl[lenet]_ls[SM]_tu[none]/model.pt (torch, 249415 bytes, 10 tensors)

conv1.weight f4 [6, 1, 5, 5]
00000000: 2deb eb3e a086 eb3e 54de 693e 5ed4 e53e
00000010: 0f8d 313e 1ab6 033f f3c2 d33e 56fa 1b3f
00000020: 0990 1c3f 17d4 063e 1064 1b3f ba41 113f
00000030: c48a 2a3f 86d5 dc3e 1c53 b53e 4735 3a3e
00000040: c913 f13e 6670 af3e 5306 073e 5983 5c3e
00000050: 181d 12bc 02d3 123e 0711 a33d c084 703e
00000060: c0dd 8d3a 40b5 f8bd a270 d83c c979 be3d
00000070: b53d 743d 2ba3 d9be 583f 683e 28f6 aeb9
00000080: 8b6d e93e 8d6a 2d3e 518a 4abe 6734 973e
00000090: 0db1 a23e 58fa 0e3f 1105 803e 9a34 6cbd
000000a0: 8e24 343e 226b 583e 1c5b eb3e d6b9 dc3e
000000b0: c6fc 3c3e bb7c f73c 657e ab3e c11e b73e
000000c0: d578 b63e 5c13 a138 9178 03bf f6a8 81bd
000000d0: a7cc 3c3e ba94 fa3e 77a7 8e3d 55c3 6dbe
000000e0: 24a7 803e b7f3 f23e 4e58 d63e 008e 8bbe
000000f0: ed37 92bd c07f af3e eeb6 1f3f ceee 513d
00000100: 9ec1 11be 5773 263e deaa 423f 14a9 9b3e
00000110: 5ba6 66be c7c7 c9be 95b5 f33e 7b5b 093f
00000120: d8a1 a63e 5fa7 e4be d6c2 0dbf ea1d 04bf
00000130: 5f4e b4be cc63 a93e 3930 0c3f 8c2a dc3e
00000140: 4d7c eebe 9ac9 52be a27b 0a3f 067a e73e
00000150: 760e b53e 6e6b 4dbe b042 aa3e 23f1 d33e
00000160: e91a c03e 181b 4d3e cb86 6f3d 13f3 943e
00000170: cff4 0c3f e24a c83e 4419 1cbe a370 ef3d
00000180: 0e67 043f f3e0 5a3e 4818 ce3d 351d 3cbe
00000190: b3c1 43bd 3589 e13d 559e cdbc b051 0fbe
000001a0: 13f7 02be bc7c 7f3a 8497 8cbd e7ad ddbd
000001b0: 2e12 39be 9b7b 8ebe bd8b cb3e da0d 303e
000001c0: 749a 903d 52c0 16be 571c 20be 8dc0 c33d
000001d0: af1b c93d 2706 7dbe e8bd c8bd 665e 18be
000001e0: 18d0 1c3e 905f 73bd 34a7 07be f6e9 1dbe
000001f0: 3672 05be a821 9fbe fb42 90be 3e9f d3be
00000200: 07a5 ae3d de9c ca3d b3ca e4bd a86f 5dbe
00000210: 30c8 b9be 43b1 163e 2ff6 ab3d 4c0d 88be
00000220: 98ac 73be 016f 0cbe 039e 303e e437 153d
00000230: c3b9 2a3e 6b81 9d3d 3c16 d63e 761f d23a
00000240: ba99 85bc 9709 983e c15a f63e e24b f13e
00000250: ba23 9a3e 8695 31be
0.46077862 0.46001148 0.22838718 0.44888586 0.17338966 0.5144974 0.41359672 0.6092886
0.6115728 0.13166843 0.6069956 0.56740916 0.6661799 0.43131655 0.3541497 0.18184386
0.47085407 0.3426544 0.13186006 0.2153448 -0.008918069 0.14338306 0.07962232 0.2348814
0.0010823533 -0.12143946 0.026420895 0.093005724 0.05962916 -0.425073 0.22680414 -0.00033371267
0.45591387 0.16935177 -0.19779326 0.29532167 0.31775704 0.55850744 0.25003865 -0.057667352
0.1759207 0.21134618 0.45967948 0.43110532 0.184558 0.030210843 0.3349487 0.3576565
0.35639063 7.680684e-05 -0.51355845 -0.06331055 0.18437444 0.48941594 0.06965535 -0.23219045
0.25127518 0.47451565 0.41864246 -0.27256775 -0.07139573 0.34277153 0.62388504 0.051253133
-0.14234015 0.16254936 0.7604197 0.30402434 -0.22524397 -0.3941023 0.47599474 0.53655213
0.32545352 -0.44658944 -0.5537542 -0.51608145 -0.35216042 0.3308395 0.5476108 0.4300121
-0.4657921 -0.20584717 0.540949 0.45210284 0.35362595 -0.20060512 0.33254004 0.4139491
0.3752053 0.20029867 0.058478158 0.290917 0.5506105 0.3911963 -0.15244013 0.116914056
0.5171975 0.21374874 0.10063225 -0.18370517 -0.047792148 0.11012498 -0.025099913 -0.13996005
-0.12789564 0.0009746065 -0.06864837 -0.10824185 -0.18073341 -0.27828678 0.3975505 0.17192784
0.070607096 -0.14721802 -0.15635811 0.095582105 0.09819733 -0.24709378 -0.09801847 -0.1487976
0.15313756 -0.059417307 -0.13247377 -0.1542128 -0.1303185 -0.31080365 -0.28176102 -0.4133243
0.0852757 0.09893201 -0.11171474 -0.21624625 -0.36285543 0.14716057 0.08396565 -0.26572645
-0.23796308 -0.1371422 0.17247777 0.036430255 0.16672425 0.076907 0.41813838 0.0016031105
-0.016308654 0.29694816 0.48116115 0.47128206 0.30105382 -0.17342195

conv1.bias f4 [6]
00000000: 63b1 b0bd acd0 aabd e4a7 adbc c08f c4bd
00000010: c5ae a13e 2682 58bd
-0.08627584 -0.08340582 -0.02119822 -0.09597731 0.3157865 -0.052858494

conv2.weight f4 [16, 6, 5, 5]
00000000: f36f 93bb 9ad3 353d d9f7 d2bd c1a1 01be
00000010: 8dfc e73d f3ec 023d 88bf d43d f766 eabd
00000020: 197a d3bc f6f4 263c d86b bf3c 1660 553e
00000030: abb9 e23c 3d6e 0cbe 09a9 a2bd fe5b 873d
00000040: 38c7 453e b7b7 583c 9d7d fcbd d100 a1bd
00000050: 041c a6bc 72a1 193e c86b c63d a724 3ebe
00000060: 3a48 cebd a334 053e c04d 063e f019 25be
00000070: 795e 0a3d b5f1 e23d c95c 393e e91a 313e
00000080: a305 c4bd 7b96 82bd cdd5 0fbd a615 013e
00000090: 586e 903e 2673 9d3d 2de4 41bd 5652 81bd
000000a0: 75db bb3d a25c 4a3e 96a7 c73b 0039 5ebd
000000b0: 1ced 2abe f88d 003d 3d17 8e3e aa38 503d
000000c0: 13eb a9bd e8d3 39be 9528 01bd 4769 dd3d
000000d0: df9d d9bd 1690 743d 21e7 be3d f748 0f3d
000000e0: 5e0e c33d 057d d2bd 6d74 9b3c ef20 b03d
000000f0: 175c a83d 0015 0c3e 0ad3 cdbc 3a88 bfbb
00000100: ff7f 9d3c bb0e 0d3d 2004 123e a213 fa3c
00000110: 35f1 5bbd a7f2 eb3d 87bf 053d 34da 573e
00000120: 3095 f03c fa27 29bd b310 abbd eb45 573e
00000130: 1894 0d3d 6ada c7bd 6421 063e c512 723d
00000140: 58eb 3e3e 3e4b 0ebd 988e 51be bf3a 86bc
00000150: a0f7 783d 1c9a 453e 58b7 233d 8a9e 94be
00000160: a4cf 213c 9673 6ebc 99f1 dc3d 388b e83d
00000170: 0966 45be 607b ed3c f588 16bd 07a9 d63d
00000180: 780a df3d 7973 9dbd 89a0 4ebd 50a0 3fbe
00000190: 6a64 dabd 9c2c a3bc cc01 4e3d 8e8e 0cbd
000001a0: 8a6f 943c ab63 a6be 50e5 7a3d a633 15bc
000001b0: b565 d4bc eb03 f23b 8617 88be ae37 6bbc
000001c0: 8511 cd3b ceba 83bd fa7b c8bb 1405 84be
000001d0: c275 2eba d7ca b33d 8f20 bc3d 832f 68bb
000001e0: ef7f 63be d524 20bc 31e1 df3d 2f71 05bd
000001f0: 4a26 293d 4faa 28be d5ba a8be 34e7 bcbe
00000200: 43bc 0a3e e856 1bbd 7ae2 51be 86dd afbe
00000210: 12f9 c9be 3cc2 583d 2232 b2bd 3cdf babe
00000220: 9bad 3fbf 6ed0 25bf 5bb5 e03d 21f9 693d
00000230: a175 e4be 9dae e2be ee20 eabe 72b8 433c
00000240: 859c b2bd 48a4 58be e14d 09be e50a 5dbe
00000250: c408 e73c 87d7 183e 882b 883c 05eb 3d3e
00000260: 9c9e 0b3e 498d 293e 7bba 383e 809a ca3d
00000270: a7de c73d b540 693e bc7c 8f3e d4ed 0d3e
00000280: c02b b23d c0fe 353e d38b d73d cd2c de3d
00000290: 89a4 73bc f118 92bd 01e5 e13b fb30 cfbd
000002a0: 3075 86be 1cd1 36be cffb 1cbe 25ae 37be
000002b0: 6f5a a1be d989 72be 512c 143c 5dbd b93d
000002c0: ccc9 213e 2f20 1b3e 07de 863e efa1 903d
000002d0: ce6d 7e3d cdd2 543e 72d0 103e 77c8 413e
000002e0: 8ac0 a13d 3481 90bd fbbc 06be be1f 7ebe
000002f0: 6e3c 80be 0e0d 47be 8d45 e5bb 5cdc 52be
00000300: afc0 c1be d387 8cbe 50a1 e2bd 80fa 65ba
00000310: b129 6fbd 26ff 4abe f244 9dbe 70f4 bdbb
00000320: 44d2 9f3d 0cf3 c33d fda8 7c3d 5140 2a3e
00000330: 2bac e23d c596 de3c 9916 733d 6fcb de3d
00000340: 5181 2d3e 243f bc3d 941b 973d 5ac1 373a
00000350: 17e6 d2bd 346e 1cbe c9b0 0bbe 88ae 243d
00000360: 9582 efbd c01c a9be 0123 01bf 3a34 aabe
00000370: 9808 8bbd 3799 10bd 9957 5ebe 4dc2 c1be
00000380: 1c10 57bd 5ff4 de3d 2a82 573e 092c 773e
00000390: 9735 ec3d e4b6 2a3e 8d1c 003e 52fb f43d
000003a0: 2226 5e3e 3d3d c13d aae6 ddbb 5c06 a23d
000003b0: 5f63 f53d 9306 0c3d 5800 c3bd 06d3 5ebe
000003c0: 4377 ddbd 111b 29be cc14 bcbe 7700 bebe
000003d0: 3533 c6bd 2f59 11bd 77ac 5fbe a9ae 9dbe
000003e0: 243c 40be 9d08 c33a afc5 a5be cc74 76be
000003f0: 43ba 28be 3042 66bd 0c92 febc 8a89 35be
-0.0044994294 0.044391252 -0.103011794 -0.1265936 0.11327467 0.031964254 0.10388094 -0.1144542
-0.025815057 0.010190239 0.023366854 0.20837435 0.027676424 -0.13713928 -0.07942397 0.06609343
0.19314277 0.013227395 -0.12328646 -0.07861484 -0.02027703 0.15002993 0.096885264 -0.1856867
-0.1007237 0.1300836 0.13115597 -0.16123176 0.033781502 0.11081258 0.18101801 0.17295422
-0.095713876 -0.06376358 -0.035116006 0.12605914 0.28209186 0.076879784 -0.047336746 -0.063145325
0.091727175 0.19761899 0.006092976 -0.05425358 -0.16692013 0.031385392 0.27752104 0.05083529
-0.0829679 -0.18147242 -0.031532843 0.10811096 -0.10625815 0.059707724 0.09321428 0.034981694
0.09524225 -0.10277752 0.018976415 0.086000316 0.0822069 0.13679886 -0.025125045 -0.005845097
0.019226072 0.034437876 0.14259386 0.03052694 -0.05369683 0.11520892 0.032653358 0.21079332
0.029368013 -0.04129789 -0.083527945 0.21022765 0.03456506 -0.09758456 0.13098675 0.05909993
0.18644464 -0.034739725 -0.20464551 -0.016385434 0.06078303 0.1929707 0.039969772 -0.29027206
0.009876166 -0.014553925 0.107882686 0.11354679 -0.19277205 0.028989494 -0.036751706 0.10481458
0.10890669 -0.0768804 -0.050446067 -0.18713498 -0.10663684 -0.019918732 0.050294682 -0.03431564
0.018119592 -0.32497916 0.061253846 -0.009106552 -0.025927404 0.007385721 -0.26580447 -0.014356537
0.006258192 -0.064321145 -0.006118295 -0.25785124 -0.00066551205 0.08778923 0.091858976 -0.003542871
-0.22216772 -0.009774406 0.10931624 -0.032578643 0.04129628 -0.16471218 -0.32955042 -0.36895144
0.13548379 -0.037924677 -0.2049655 -0.34348696 -0.39447838 0.05291961 -0.08700968 -0.3649844
-0.74874276 -0.64771163 0.10972091 0.057122353 -0.44620994 -0.44273844 -0.45728248 0.011945831
-0.0872126 -0.21156418 -0.13408615 -0.21586187 0.028202422 0.14925967 0.01662232 0.18546684
0.13634723 0.16557802 0.18039887 0.0989275 0.097592644 0.2277859 0.28024852 0.13860255
0.08699751 0.1777296 0.10524716 0.10848389 -0.014870771 -0.071336634 0.0068937545 -0.10116764
-0.26261282 -0.17853206 -0.15330432 -0.17937525 -0.31514308 -0.23685397 0.009043769 0.09069321
0.15799636 0.15148996 0.26341268 0.070621364 0.062116437 0.20783539 0.14142016 0.18924128
0.07898052 -0.070558935 -0.13158028 -0.24816796 -0.25046104 -0.19438574 -0.0069968165 -0.20591873
-0.37842318 -0.27447376 -0.11065924 -0.0008772984 -0.05838937 -0.19823894 -0.30716664 -0.0057969615
0.07803777 0.09567842 0.061684597 0.16626097 0.11067995 0.027171502 0.059347723 0.10878646
0.16943862 0.091917306 0.07378307 0.00070097076 -0.102977924 -0.15276414 -0.13641657 0.04020551
-0.116948284 -0.33029747 -0.50444037 -0.3324297 -0.067887485 -0.035302367 -0.21713103 -0.37843552
-0.052505597 0.10886454 0.21045747 0.24137892 0.11533659 0.1667133 0.12510891 0.11961998
0.21694234 0.094355084 -0.006771882 0.07911369 0.11981844 0.034185957 -0.0952155 -0.21760187
-0.10813763 -0.16514231 -0.36734617 -0.3710973 -0.09677736 -0.035485443 -0.21843134 -0.30797318
-0.18772942 0.0014879886 -0.32377383 -0.24067992 -0.16477303 -0.056215465 -0.0310755 -0.17728248

conv2.bias f4 [16]
00000000: b576 3cbd 1aa5 a23c ae8d 143d 00d4 b73c
00000010: a0a5 77bb fa75 2a3d 8891 733e 4bb8 0abe
00000020: 3868 e3bc 5461 59bd 5275 26bd 54c8 4f3c
00000030: b01c cf3d f3b2 79bd e1f9 e83c df6d 713d
-0.046011645 0.019854117 0.03626793 0.022439957 -0.003778793 0.041616417 0.23785985 -0.13546865
-0.027759656 -0.053071335 -0.04063923 0.012682039 0.101128936 -0.060961675 0.028439464 0.058942672

fc1.weight f4 [120, 400]
00000000: 95d8 01be cad4 e63d 9839 033e 099f 33bc
00000010: 8fe8 15bc 505a b8bd de97 04bd ece1 153d
00000020: 3b8d 513b 4062 c4bc facc 833d 1561 eb3b
00000030: a793 94bd 0417 95bc fd86 cf3b d017 0cbb
00000040: c2fd d03d 8acd 403c cd61 a03c 46b2 1a3d
00000050: 8f9f a9b9 251b dcbc 75d3 213d 54d2 163c
00000060: ab57 b03c 4a5d 4bbd a045 6abd 533f 0c3d
00000070: 8e34 10bd 8f23 79bd 36ff 283e b39b 503e
00000080: 74f0 483e 93d0 1e3e b4fe a43d 08e1 e83c
00000090: 57bb 593e f1dd a73d cccd d93d db05 c13d
000000a0: 600c 6c3e 7793 343e de47 593d d678 143b
000000b0: 291d c93d c9a4 bd3d 28a2 4abd d28f dcbd
000000c0: 4a74 b0bd b0d1 8bbd bf30 ab3c 4907 6e3c
000000d0: 02d5 18bd 6bad a03d f0d1 a93c 99cd 3a3c
000000e0: 3a1f 00bd 9a2d d6bd 73a2 beb8 9f21 9c3c
000000f0: 1095 673d e6b4 733d d37b d2bd 4e26 2cbd
00000100: 7177 813d 1e76 be3c e284 9aba 6487 433d
00000110: 45c9 173c 4376 8e3d 79bd 34bc 6fdd 6cbd
00000120: d226 c93c 125b be3d b235 733d 412e 24be
00000130: 8471 96bb a149 423d 9baf 2e3b 6c5b 0dbe
00000140: 47f8 df3d 3d85 493e 3890 973d 52a8 c23d
00000150: eafa 753d e102 403e b8c3 f33c 90d5 33bd
00000160: b298 76bd 3b0e 1c3e 09e5 a53e 8a81 4a3e
00000170: 674f 0d3e a398 74bd 841c 33bd 79a2 3f3e
00000180: a31f 8d3d 021d 1d3d d6c3 93bc ef7b 74bd
00000190: a49e ab3d 0b6b 193c 783c 2dbe 339a eebd
000001a0: 8e10 083c 4b16 c53c 8969 fcbb f32d 80bd
000001b0: f2d7 183e 2726 3cbd afb8 ccbd e052 ca3d
000001c0: f64c d33c 99bf 9cbc ff2f adbc 647a 00be
000001d0: ee32 dfbc c772 d23d ea49 b33d 54b1 203e
000001e0: c3e6 7cbb 2568 383d 0294 d33e 3896 2b3e
000001f0: c1c9 6d3e 0db8 bd3d 7152 12bc 5918 1ebe
00000200: 2c84 a43d 4fee a03c 1d37 9a3c 02c4 9cbb
00000210: 0135 cdbd 6f45 463d 152f 763d cd15 c93d
00000220: d55d 07bc d410 08be d823 b13c 6e31 e93c
00000230: aa99 e23d 7be5 773d 2f40 103d 749e eb3d
00000240: d542 9f3d ed09 183e cd9a b5bb f1c9 963d
00000250: 5c9c c23d cefd 953d 37df 88bd 3174 0abe
00000260: 2e50 80bd f960 01be 92b1 80bd 1ccc 34bd
00000270: 9e31 f1b9 815f c53c b626 bc3c 097c 9ebd
00000280: e4b0 0cbd 15db 3c3d 9630 f43d 3520 cfbd
00000290: a3d7 b3bd 8d4e 623d 4ad5 e13d b3b9 f73d
000002a0: 8c30 4a3d 2119 3fbe e9b4 9ebc 7a23 35bd
000002b0: 6305 b9bc f109 39bc 82a3 2ebe 9e04 a8bc
000002c0: 2bcc 5ebd 9995 ca3d 5c11 e7bc 6d3e bb3c
000002d0: 8a5b 953d 62f2 503d 7562 aa3c d449 34bc
000002e0: 6ae7 833d c187 753d 8e4f 253d 889f d9bd
000002f0: f200 bcbc 97c2 c03d 1573 2f3d 114b d83d
00000300: 6ec9 9dbc f1f9 6d3c 07dc edba 2d74 5c3d
00000310: e603 c8bc 5660 d0ba 6eb5 67ba 881b f13d
00000320: 3ff7 a03d 121e 62b9 65e8 37bd 327b eebc
00000330: b3e1 38bd f901 d0bc 706d 37be fd5e 23be
00000340: b290 b3bd ace0 70bd 25f3 f73d c046 0fbb
00000350: 941d b6bc 0f2f 993c 210d 41bd 3997 f83d
00000360: 6c17 ecbd d7f5 713d 538c 1b3d b1a2 003e
00000370: cca4 ca3b 4277 25be 5f25 2d3d 7a7b 1f3e
00000380: c260 363e 6502 bd3b 88e8 973d 1707 323d
00000390: 16f9 9f3d cd14 af3d 32cb 493d c2fc 81bd
000003a0: ad1a 44bd 918f a6bd 6f96 ce3c 2281 e7bc
000003b0: c545 9d3d 7272 973c 9743 12bd 3424 48bd
000003c0: 559e 3ebb 70d4 e23d e27f 50bc 1287 5a3c
000003d0: 6414 8b3d 0483 e53b b272 4abd 438f 3c3c
000003e0: 1a1e b43d 5218 8f3d 72d8 00bc 193f a13d
000003f0: 052c 443d 41e8 c5ba 8f0e c13d 68fe 57bd
-0.12680276 0.11271055 0.12814939 -0.01096321 -0.009149685 -0.09001601 -0.032371394 0.03659241
0.003197505 -0.02397263 0.064355806 0.007183204 -0.07254725 -0.018199451 0.0063332305 -0.0021376498
0.102046505 0.011767754 0.019577885 0.03776767 -0.00032353072 -0.026868412 0.0395083 0.00920542
0.021526178 -0.049649514 -0.057195306 0.03424008 -0.03520637 -0.060824927 0.16503605 0.20371895
0.19622976 0.15509252 0.08056393 0.028427616 0.2126287 0.08196629 0.10634956 0.09424945
0.23051596 0.17634378 0.053047054 0.0022655032 0.09820015 0.09259946 -0.04947105 -0.10769619
-0.086159304 -0.06827104 0.020897267 0.014528104 -0.037312515 0.07845577 0.020729989 0.011401557
-0.03127978 -0.104579166 -9.0901645e-05 0.019059 0.05653864 0.05949869 -0.10277524 -0.042028718
0.0632161 0.023249682 -0.001178887 0.04773654 0.009264295 0.069561504 -0.011031502 -0.057828363
0.024554644 0.09294714 0.05937738 -0.1603327 -0.004591169 0.0474335 0.0026654962 -0.13804406
0.10936027 0.19679733 0.074005544 0.09504761 0.060053743 0.18751098 0.029756412 -0.04390484
-0.060204215 0.15239803 0.32401302 0.19775978 0.13799821 -0.05971588 -0.043728366 0.18714322
0.068908 0.038357742 -0.018037718 -0.059688505 0.08379868 0.0093639 -0.16917598 -0.11650505
0.008304728 0.024058482 -0.0077030105 -0.06258764 0.14926127 -0.045934822 -0.09996163 0.098790884
0.025793534 -0.01913433 -0.02114105 -0.12546688 -0.027245965 0.10275798 0.08754332 0.15692645
-0.0038589693 0.045021195 0.41323858 0.16756523 0.23221494 0.092636205 -0.008930788 -0.15438975
0.08033022 0.019644884 0.018825108 -0.004784108 -0.10019875 0.04840606 0.060103495 0.09818611
-0.008262117 -0.1328767 0.021623537 0.028465953 0.11064465 0.060521584 0.03521746 0.11504832
0.07776419 0.14847536 -0.0055421353 0.07362736 0.095024794 0.073238 -0.066832 -0.13520886
-0.06265293 -0.12634648 -0.06283869 -0.044139966 -0.0004600407 0.024093391 0.022967678 -0.077385016
-0.034348384 0.04610737 0.119233295 -0.10113565 -0.08781364 0.055250693 0.1102701 0.12095966
0.049362704 -0.1866193 -0.019373374 -0.044223286 -0.022585576 -0.011293874 -0.17054561 -0.020510014
-0.05439393 0.09891815 -0.02820652 0.022856915 0.0729285 0.051012404 0.020798901 -0.01100393
0.06440623 0.05994392 0.040359072 -0.10626131 -0.02294967 0.09412115 0.04283436 0.10561193
-0.019261088 0.014524923 -0.0018147238 0.05382173 -0.024415921 -0.0015897851 -0.0008838986 0.11772829
0.078596584 -0.00021564242 -0.044899363 -0.029111478 -0.04513712 -0.025391566 -0.17912841 -0.15954204
-0.08767833 -0.058808014 0.12106923 -0.0021862239 -0.0222309 0.018699197 -0.04713166 0.121382184
-0.11527905 0.05907234 0.03797562 0.12562062 0.006184196 -0.16158774 0.042271968 0.15574446
0.17810348 0.0057681077 0.07417399 0.043463793 0.07811181 0.08548889 0.049266048 -0.06347038
-0.047877003 -0.08132852 0.025218217 -0.028259818 0.07679323 0.018487189 -0.03570899 -0.04886265
-0.0029086072 0.110756755 -0.012725802 0.013337867 0.067909986 0.0070041437 -0.04942579 0.011508766
0.08794804 0.069870606 -0.007864105 0.07873363 0.047893543 -0.0015099124 0.09426605 -0.052732855

fc1.bias f4 [120]
00000000: 52ff f5bd 6896 063c 659f abbc 6766 0f3e
00000010: c632 52bc 76b8 cc3b 1d58 c33c 9a8d 2b3d
00000020: e665 7abb de6d fb3d 02aa 8dbd fc04 1dbd
00000030: b8f2 2dbd f186 123d fc7c 353d 73bf f03c
00000040: 534e 493d 0d73 093d f2e5 213e 8d0b b2bc
00000050: 5a0e 3dbd 15d1 403e e014 89bd 6f4f 93bd
00000060: b235 05bc cbf7 773d 9c8a 46bd 2613 8d3c
00000070: 0b92 f5bc 3d68 b13d ee66 6d3d 526b bebb
00000080: 456b d6bc 3622 a5bd 2ea2 123c ff31 c13d
00000090: 224e 30bd 6de6 a53d e538 48bc 2c17 89bc
000000a0: ceae d63b 2324 863d 6ae6 023d 4d5a d63d
000000b0: ea82 61bd 7881 abbd 8383 9ebd e358 75bd
000000c0: 8f65 94bd 3e84 d63d dbe0 8a3c 4dd1 11bd
000000d0: 785a 203e e198 2f3d ba10 bc3b 94f0 a0bd
000000e0: 7d57 90b9 e68c 7e3d 3578 05bd 65fc 583d
000000f0: cb56 8c3c 5109 b1bd d4b4 37bc 13e3 913c
00000100: 2de9 fd3d d32c 71bd 8839 26be 9f52 cbbc
00000110: c1a4 833e 09ae c83c 61e9 1dbd 6e31 2e3c
00000120: 18b7 c9bc 5ee4 023e 791d 7f3d 91b4 67bd
00000130: 99ca c13b 96f1 e0bc e10f e9bd e5e5 58bb
00000140: 6783 babd 41bc 7a3d 9bb3 f23b 740b f8bc
00000150: 8cfc 3dbc 5e83 fc3c 2b46 ca39 807c 8dbc
00000160: 625c af3c 02ea 71bc ebc4 3c3d ccb5 aebc
00000170: 68d7 113e 2690 b1bb 5ac3 803c b120 8fbc
00000180: 21d6 abbd 7509 913c 219e 7abd a8d9 da3c
00000190: 8c04 4d3d 5e10 c0bc 440e d9bb 55cd 66bd
000001a0: 877b 41bc d034 94bc d579 073e fac5 b53d
000001b0: 88be 5abd 6442 153e 315b 2c3e fbaf 3f3d
000001c0: 6aa1 73bd 5b7d febc 6feb 963b 77b1 553d
000001d0: cf21 c1bc 2369 77bd 757c 1cbd b277 22bd
-0.12011589 0.008214571 -0.020950029 0.14003907 -0.012829488 0.0062475754 0.023845727 0.04188309
-0.003820771 0.12276815 -0.06917192 -0.03833483 -0.042467803 0.03577322 0.044308648 0.029388165
0.04914696 0.033556987 0.15810373 -0.021734023 -0.046156265 0.18829758 -0.06693435 -0.07192885
-0.008130478 0.06053905 -0.048472032 0.017221045 -0.029976865 0.0866246 0.05795949 -0.0058111334
-0.026174197 -0.08063166 0.008949799 0.09433364 -0.043043263 0.08100591 -0.012220596 -0.016734682
0.0065516 0.06549861 0.03195802 0.10466442 -0.05505649 -0.083743036 -0.077399276 -0.059899222
-0.07245933 0.10474442 0.016952923 -0.035599995 0.15659511 0.042870406 0.0057392986 -0.07858387
-0.00027531004 0.06214609 -0.03258534 0.052975077 0.01713123 -0.08644355 -0.011212546 0.017808473
0.123979904 -0.05888064 -0.16232884 -0.02481967 0.25711635 0.024497049 -0.038552646 0.010631902
-0.024623439 0.12782428 0.062283967 -0.056568686 0.005914044 -0.027458947 -0.11379982 -0.0033096012
-0.09107094 0.06121469 0.0074066645 -0.030278899 -0.011595856 0.03082436 0.00038580722 -0.01727128
0.021406356 -0.0147652645 0.046086233 -0.021326922 0.14242327 -0.005418795 0.01571815 -0.017471643
-0.08390451 0.017704705 -0.06118596 0.026715115 0.050053164 -0.023445304 -0.006624015 -0.056348164
-0.011809236 -0.01809159 0.13230069 0.08875652 -0.05340436 0.14576107 0.16831662 0.046798687
-0.05948011 -0.031065634 0.0046057026 0.052171197 -0.023575692 -0.060403 -0.03820463 -0.03966493

fc2.weight f4 [84, 120]
00000000: d68c f0bc 60d6 84bb 58cb 07bc 5d72 3c3d
00000010: dc7e f43c eb09 8cbd c3b0 54bd 7c80 32bc
00000020: 70a8 643d 9e74 e0bd 6cdb 043c 0be0 26bd
00000030: ac93 0d3d acc2 42bd 6857 483d 2de7 753d
00000040: a841 b6bd d659 a5bd fce3 d73c a62b 953d
00000050: 1009 243d 4c15 96bd a2b6 923d 4e09 b9bd
00000060: 7af0 9b3d be0a 85bd 70d6 cebb 0046 2ab9
00000070: 8b22 663b 5c1e 4abd 5836 b83c 9c4f 903c
00000080: a04f 2d3c 4df9 693d 4592 afbc c37f 67bd
00000090: b839 e8bd 81df 0f3d 2a47 87bd 98a6 3c3d
000000a0: 31f2 59bd e083 96bd b0ef 6b3c 091c 0b3d
000000b0: a45a a8bd 6066 3b3d 50a9 d3bd 7009 66bd
000000c0: 3613 02bd b0a1 84bd 0d50 d8bd ad0f 90bd
000000d0: af87 c8bd 0028 743a 06d1 96bd fded 90bd
000000e0: 7282 3abd 9fe2 6f3c f043 75bd 1934 bb3c
000000f0: 42f7 113d 5d88 2dbd 90e5 7dbc a536 d4bd
00000100: c887 fe3c b0f3 a2bc 8837 9a3b 1c61 f63c
00000110: 055c 433d 5023 15bc 3c38 ddbc 7e6c b03d
00000120: 9fa6 2bbd cc91 5cbc 3d5f ff3c 28ac 72bd
00000130: 9094 573d 8096 9abd a2e8 b23c b415 363d
00000140: 0c29 743d 0305 acbd b644 833d 9a42 763d
00000150: aa3c dcbc 5ab2 cabd 2c71 863c 00ef 00ba
00000160: d6d6 bcbd a050 b9bb 3874 6bbd 6b4e dcbd
00000170: a8e2 723d d96b 2539 dd88 5abd 6902 903d
00000180: dc17 eebc 415e 38bc f024 383c f475 9abd
00000190: f175 76bd 8f2f 29bc dc40 0abd 9b96 e93c
000001a0: c0e1 1e3b 10ad 2bbc c577 bb3d 7ed6 9bbd
000001b0: 9078 49bc ec5e 94bd 892b c8bd 50ac aa3c
000001c0: bf96 563d e01d fd3c 1af1 92bd 1010 723d
000001d0: 11b8 aabd d9bd 9cbd f415 913d d19d 2bbd
000001e0: 58f3 a2bd 9536 05bd 816c 33bd e45a de3d
000001f0: 0d4f 6dbc 8374 8cbd c394 14be f86a 69bd
00000200: 462d b43c c369 c5bd 949f afbe f935 67bd
00000210: f6d5 00bd 6d12 65bc eb9c 63bd c038 17be
00000220: 24ce d9bd ac8f f4bd dc3f a33e df39 0d3d
00000230: 51f5 c03c 65bc be3d 7383 1f3d f521 1a3d
00000240: 4e90 a8bd 3a5d 163e c823 a13d ff66 f2bc
00000250: 7042 0d3e 81bf f1ba 344e d53e d986 0fbd
00000260: abbb 51bd dcf2 15be 37ad b93c a033 b4bd
00000270: 00d7 ecbc 577c 073e 6292 aabc 589e 8cbd
00000280: 9356 34bd bf35 163e 891d 57bd 54cd c03e
00000290: 5550 90bb 18f4 82bc a23d 03bc 7049 0cbd
000002a0: fb3f 643e 2108 ab3d c3f6 443d 5869 d13d
000002b0: 5129 193e fc4e 6ebd dd0f 1dbe 7b02 b33d
000002c0: 075c 783e aa9b 3bbd d55f 273d a5b1 88bd
000002d0: 8093 733e b9c6 87bd 80c3 733b 36ce 623e
000002e0: 1821 633e 00f4 4d3a 4771 b03d 78d5 70bd
000002f0: c739 b53c ef82 df3d 1dcd 0dbd d8d7 45bd
00000300: 6e5a 8d3d 5fdb d0bd e46e 243e eedb 863d
00000310: b600 7e3d b0d3 1937 335c 813d 8923 ccbd
00000320: 8d80 943c f0e6 813c 22c8 edbc 952c fd3d
00000330: ffb2 c73c 804a 193c 5d87 01bb 575e 75bd
00000340: e01e af3c b934 68bd 7b74 d13d 9945 b7bc
00000350: 9cb2 95bd 8071 613e 2b26 08be cb25 5e3d
00000360: 7c78 d83d 002f dfbd 7170 56bd 13dc 31bd
00000370: fb24 f2bd 2702 e1bd 00c0 b736 f3d1 793e
00000380: 6968 bf3c eae3 2c3c 699a 803e e3a8 6c3d
00000390: b8c8 653d a88d 733d 5854 1c3e 6266 053e
000003a0: 416e 593d 239c 193d a7a8 29bd 1755 f93d
000003b0: 9fdb 813c d659 e3bd 1bde 20be 5abc ae3c
000003c0: e7d0 a3bd f210 5d3d 490a 8ebd c01e 49bb
000003d0: 6ca8 bfbd 89e6 e33c 0f09 7ebd 0d9b a5bc
000003e0: c81d 843d 44da c3bc 8181 76bb 0852 153d
000003f0: 7b29 53ba 13ef 803d 126f 01bd 1754 fb3c
-0.02936403 -0.004053876 -0.008288227 0.046007503 0.029845648 -0.06837829 -0.051926386 -0.010894891
0.055824697 -0.10959743 0.008108955 -0.040741008 0.03456466 -0.047548935 0.048911482 0.06003492
-0.08899242 -0.080737755 0.026353829 0.07283716 0.040047705 -0.07328281 0.07163741 -0.09034978
0.07614227 -0.064961895 -0.006312184 -0.0001623854 0.0035115804 -0.04934536 0.02248685 0.017616086
0.010578066 0.057122517 -0.021432051 -0.056518327 -0.11339134 0.03512526 -0.0660537 0.046057314
-0.053209487 -0.07349372 0.014400408 0.033962283 -0.08220413 0.04575193 -0.10335028 -0.056161344
-0.031756602 -0.06476152 -0.105621435 -0.0703424 -0.097915046 0.0009313822 -0.07364087 -0.07076643
-0.04553456 0.014641433 -0.059879243 0.02285199 0.035636194 -0.042366374 -0.0154966265 -0.10361985
0.031070605 -0.01989159 0.004706327 0.030075602 0.04769518 -0.009102657 -0.027004354 0.08614443
-0.04190695 -0.013462495 0.031173343 -0.059246212 0.052631915 -0.07548237 0.021839444 0.04445429
0.059609458 -0.083993934 0.0640959 0.06012211 -0.026884396 -0.09897299 0.016411386 -0.0004918426
-0.09220664 -0.005655363 -0.05748388 -0.107571445 0.059298187 0.00015775803 -0.05335318 0.0703171
-0.029064111 -0.011252941 0.011239275 -0.07542029 -0.06017107 -0.01032628 -0.03375326 0.028514197
0.0024243444 -0.010478273 0.091537036 -0.076092705 -0.012296811 -0.072446674 -0.09773929 0.020834118
0.052389856 0.030898035 -0.07174893 0.05909735 -0.08335889 -0.07653398 0.07084265 -0.041898552
-0.079565704 -0.032522757 -0.04380465 0.1085718 -0.014484179 -0.0685816 -0.14509873 -0.05698678
0.021994244 -0.09639313 -0.34301436 -0.056447957 -0.03145405 -0.013981444 -0.05556957 -0.14767742
-0.10635021 -0.11941466 0.31884658 0.03447902 0.023554476 0.09313277 0.03894372 0.03763004
-0.08230649 0.14684 0.07868153 -0.029590128 0.13794875 -0.0018443913 0.41661227 -0.03504071
-0.051204365 -0.14643425 0.022665603 -0.08798909 -0.028911114 0.13231026 -0.020821754 -0.06866139
-0.044027876 0.1466894 -0.0525184 0.37656653 -0.0044041076 -0.015985534 -0.0080103 -0.034249723
0.22290032 0.0835116 0.048086893 0.10225171 0.14957167 -0.058180794 -0.15338083 0.087407075
0.24253856 -0.04580275 0.040862877 -0.06674508 0.23786736 -0.066297 0.0037195385 0.22148976
0.22180593 0.0007856488 0.08615356 -0.05879733 0.022122277 0.109136455 -0.03461944 -0.048301548
0.06902014 -0.10198092 0.16057926 0.06584917 0.062012397 9.168798e-06 0.06316414 -0.09967715
0.018127704 0.01585719 -0.029026095 0.12362019 0.024377344 0.009356141 -0.001976452 -0.059904423
0.021377027 -0.056690905 0.10227295 -0.022372054 -0.07309458 0.22015953 -0.1329581 0.05423526
0.105698556 -0.108976364 -0.052353326 -0.04342277 -0.1182346 -0.10986739 5.4761767e-06 0.24396496
0.023365216 0.010552386 0.25117806 0.05777825 0.056099623 0.059461266 0.1526655 0.13027337
0.053083662 0.03750242 -0.041420605 0.12174433 0.015851794 -0.11101119 -0.15709727 0.021330047
-0.07998829 0.05397124 -0.069355555 -0.0030688494 -0.09358296 0.027819889 -0.062020358 -0.020215536
0.06450993 -0.023907788 -0.0037613811 0.036455184 -0.00080551923 0.062956 -0.031600066 0.030679746

fc2.bias f4 [84]
00000000: e267 febd 8d14 993d 8be1 653d 4004 e83c
00000010: 0a89 7bbc 9ecf c53c 69fd 783d 9014 8e3c
00000020: b2b4 2c3e 9713 a5bd 6551 a33d 1583 4c3d
00000030: 2181 c7bd dc3d 95bd 49cb 6f3d fc1b 4e3c
00000040: 24ac 1f3e 656c af3d d1de 053e 9bea 1f3e
00000050: cbbc 3d3e 656f 113d d1f6 303e efa9 593e
00000060: 8528 a13d ecd6 8fbd 49fe efbd a294 a7bc
00000070: cfa3 3fbd d728 053d 5e42 853c c3c5 01bc
00000080: 7004 363e 6dcb 8dbd da14 6a3d 5191 423d
00000090: 9570 053d b8ec a93d f50d bfbc 1029 00bb
000000a0: dbf0 f83d 4236 193d 3820 babd 2f4a 0cbe
000000b0: de24 cfbc ba29 d9bd 86ba 033e 1d92 83bc
000000c0: ff58 4c3d 2996 2c3e 0001 92bd 6a1d aabd
000000d0: c8c2 c23d a61e 043e 50fd 0f3e 8ae9 c93d
000000e0: 1079 fe3d 972e 073d 2758 9b3d d751 90bd
000000f0: 1e10 0f3e 71da a53b e32e b43d 9545 64bd
00000100: ff29 a7bd b0ad 473c c531 bfbc 8e44 723e
00000110: f752 c7bd 4707 9bbd 844b 9bbc 3d6c 233e
00000120: 1257 403d 9267 823e 4096 653c 7daa bcbc
00000130: 078a bb3d 04a4 c5bd f839 82bc 7f16 6f3d
00000140: dd74 6f3d edde e6bd d34d 083e e590 bfbd
-0.12422158 0.07474623 0.056123298 0.028322339 -0.015352497 0.024146851 0.060788546 0.01734379
0.16865805 -0.08060377 0.07974509 0.049929697 -0.09741426 -0.07287189 0.058543477 0.012579914
0.1559301 0.085655965 0.13073279 0.15616839 0.1852905 0.035506625 0.17281653 0.21256231
0.078690566 -0.07023415 -0.11718423 -0.020456616 -0.04678708 0.03250965 0.016266998 -0.007920685
0.1777513 -0.06923566 0.05714879 0.047501866 0.03257807 0.08297104 -0.023322085 -0.0019555725
0.121553145 0.03740526 -0.090881765 -0.13700174 -0.025286134 -0.10603662 0.12864122 -0.016060883
0.04988956 0.16854157 -0.07129097 -0.083063915 0.09509808 0.12902316 0.14061475 0.09858997
0.124254346 0.033003416 0.07585173 -0.0704686 0.13970992 0.0050614406 0.087980054 -0.05573042
-0.08162307 0.012187406 -0.023339162 0.23658964 -0.09732621 -0.075697474 -0.018956907 0.15959258
0.046958037 0.25469643 0.014012873 -0.023030514 0.09157186 -0.09650424 -0.015896782 0.058371063
0.05846106 -0.112729885 0.13310938 -0.09353808

fc3.weight f4 [9, 84]
00000000: 9b7d 85bd fe7d 12bb 7aea c7bc 903e a2bd
00000010: 748c 10bb 73ce 93be a22e ef3d cc5d 47be
00000020: a76e a03e 7f4b 69bc a5e1 14be ffd1 ac3e
00000030: 165d 74be 7a28 1b3d 1304 1c3d 42d6 67bd
00000040: 4fbb 613e 1a67 a3bd 70bb 093e d895 06bd
00000050: 1084 ccbd e80d c2bd 5d3a 8b3e fd96 a3be
00000060: 2b5c 45bd cb97 1cbc 5aa2 a63d 0bf8 babd
00000070: 0259 4d3d c7f9 80be 937c 803e 5df7 ad3d
00000080: a526 1d3e bc55 99bd b6b1 983d 5e71 31bc
00000090: 9a26 093e 2637 0cbe 79fc 16bc cb4a 64bd
000000a0: cdc3 263d 3c0d 873e 9faa 3bbd 2a19 913d
000000b0: b153 24be a752 873d faa2 c43e 0996 86be
000000c0: 0e21 16be 9273 f53d 7521 3abd bf10 20bd
000000d0: 2d10 283d d192 513c 98e7 a33d d8f1 913d
000000e0: 2f7f 9fbe ff17 1d3e dbcf fdbd acac f4ba
000000f0: c781 723e 3f3c e03d 4ec9 0bbe e725 243d
00000100: 6f72 29bc 9b0c 1ebd 346e 113e 2e6c 593d
00000110: 8e98 1abe 47e4 9f3c 4275 29bd 5343 f63d
00000120: cad5 c03e 0658 233e 862d a0be c1ae b7be
00000130: 17d0 d83e 3636 71bb 6458 963d 2383 9ebe
00000140: ba61 fcbd a3e5 58be c53d 55be b32f debd
00000150: 9b82 60bc 99e7 93bd 1747 ad3d 7148 cb3d
00000160: bf59 503d 06e8 2ebe aa94 a83d 3f98 7cbd
00000170: 78a5 8fbe 541f bdbd 71d0 14be 7679 b33e
00000180: 6dbc 1d3e 6a43 453d 6712 0bbe 803a 90bd
00000190: a68a 353e 681e 20bd eec6 7d3e e3e6 5ebd
000001a0: 7c21 073b aea5 803c c507 40be 2035 84be
000001b0: ee4d 8ebd 2a88 ae3c a0a7 813e 89e6 233c
000001c0: dcc2 853e 7c12 ed3d 7c06 61bd 4529 9dbe
000001d0: 143d b03d 0597 4f3d 6d43 adbe fdab b8bd
000001e0: 8751 5dbe e782 3ebe d021 06bd 6b15 cabd
000001f0: b8e5 4abd ac1e e6bb ed56 8a3e 9ba8 703d
00000200: 4429 c63d 8080 e5bd c2b6 023d db9b a63d
00000210: cc2d 4d3d 5581 463e 169f 57bd c01f bdbd
00000220: 2c40 cd3d a52b 55be 0f31 2ebe 6db2 83bd
00000230: b037 a5bd 2d27 d4bd f22f a8bd 18c2 f7bb
00000240: d4d7 12bf b5cc 803e 9cbd fa3c 6e87 69be
00000250: 37ea febd c62d 8fbe f49a b6be 64c8 58bd
00000260: a1ce ef3c 1024 443e d80e 8bbe 4ee3 c03d
00000270: 0ca4 983c 77f1 16bd aa8d 263e 2c7e e63d
00000280: 4ebc d93d 128c 24bc ad82 8f3e a5e8 1c3e
00000290: b458 183d 7b0d 6b3e 12f0 75be 9af9 ed3d
000002a0: 6c2d aebc 787e 87be 5962 ba3d eff6 3bbd
000002b0: e06a 3bbd 2807 e23d 6ab3 08bd 46e1 633e
000002c0: e1e5 3f3e a92a 90bc 0844 71bd 1a4a 713d
000002d0: 5a1f 1c3d e5d4 dc3d a665 cd3b 2031 7b3d
000002e0: 8486 cdbd 0d6c 733d 789e 6ebe 75f0 5b3e
000002f0: f232 3d3e 27f4 0a3e 08ec c0bd 268d c53d
00000300: 8b1d e83d f8f4 82be 6a19 ac3d 2b98 8abe
00000310: ebd2 11be facc b53c cc56 fabe 443c 2b3d
00000320: 028e 86be 28dc 84bc aef4 763e 0cb1 f7bc
00000330: 32d3 d5bc e213 0e3e 1255 4cbe b3d3 713d
00000340: 223b 613e b5a2 72be 3d7f 42be 51ce c8bd
00000350: 15d2 b83d 2d28 9dbd b8da 14be 3457 12be
00000360: 32b8 22be cecd 4c3e 54f6 623d 81c3 2f3c
00000370: fe14 eb3c a204 62be 1bfb a43c 90da 02bf
00000380: 6735 2abe 2713 13bd 1f20 83bd ea90 063e
00000390: ad0c 4cbc dd90 cf3d 60a4 adbe 8682 cabc
000003a0: 9fe9 4dbe 52f6 963e 907e d43e 0395 a2bd
000003b0: 18bc 8b3d 77ef 2dbe 290a 073d 7aac 363d
000003c0: 52ed cdbe 5cfb 99be 6cc2 f2bc f122 543d
000003d0: 7380 983e 83b8 a7bd 2d21 17be dec8 5dbd
000003e0: e345 86be 6430 edbd 077f 253e 2e9c 823d
000003f0: a1c6 273d 75d4 42be dd28 b0bd c0de a33d
-0.06518098 -0.002235293 -0.0244038 -0.07922089 -0.0022056373 -0.28868446 0.116788164 -0.19469374
0.3133442 -0.014239191 -0.14539202 0.33753964 -0.23863634 0.0378804 0.038089823 -0.056600817
0.22044109 -0.079786494 0.13450408 -0.032857746 -0.099861264 -0.09475309 0.27192965 -0.31951132
-0.0481836 -0.009557675 0.08136435 -0.09129342 0.050133713 -0.25190565 0.25095043 0.084944464
0.15346773 -0.07487056 0.07455771 -0.0108302515 0.13393632 -0.13692912 -0.009215468 -0.05573539
0.040714074 0.26377285 -0.045817014 0.07084878 -0.1604755 0.066075616 0.3840559 -0.26286343
-0.14661047 0.11984934 -0.045442063 -0.03907847 0.04103105 0.012791351 0.080031574 0.07126206
-0.3115172 0.15341185 -0.12393161 -0.0018667183 0.23682319 0.10948991 -0.1365101 0.04007521
-0.0103422245 -0.03858624 0.14202195 0.053081684 -0.15097257 0.01951803 -0.04137159 0.1202456
0.37663108 0.15951547 -0.31284732 -0.35875514 0.4234626 -0.0036805994 0.07341078 -0.30959424
-0.12323327 -0.2118135 -0.20824344 -0.10848942 -0.013703014 -0.07221908 0.08460825 0.099259265
0.05086684 -0.17080697 0.082314804 -0.06166863 -0.2805593 -0.09234491 -0.14532639 0.35053605
0.1540391 0.048159994 -0.13581239 -0.07042408 0.17728671 -0.039091498 0.24782917 -0.05441941
0.0020619323 0.015704002 -0.18752964 -0.2582178 -0.06948458 0.021305162 0.253232 0.010003694
0.26125228 0.11575791 -0.054937825 -0.3069555 0.086054 0.050681133 -0.33840504 -0.09017179
-0.21613131 -0.18604623 -0.03274709 -0.098673664 -0.049535483 -0.0070226993 0.27019444 0.058754545
0.096758395 -0.1120615 0.031912573 0.08135196 0.050092503 0.19385274 -0.05264195 -0.092345715
0.100220054 -0.2081743 -0.17010902 -0.064305164 -0.08067262 -0.10359035 -0.0821227 -0.0075609796
-0.5736058 0.2515618 0.03060799 -0.22805569 -0.12447017 -0.2796461 -0.35665095 -0.052925482
0.029273333 0.19154382 -0.27159762 0.09418355 0.018632911 -0.036851373 0.16264978 0.11254534
0.106316194 -0.010043161 0.28029385 0.15323122 0.03719397 0.22954361 -0.24017361 0.11619873
-0.021261893 -0.26463675 0.091007896 -0.04588979 -0.04575622 0.11036521 -0.033374228 0.22253904
0.18740036 -0.017598467 -0.05890277 0.05890856 0.038115837 0.10782794 0.006268221 0.061326146
-0.100354224 0.059429217 -0.23302639 0.21478446 0.18476465 0.13569699 -0.094200194 0.096460626
0.1133376 -0.2557752 0.08403285 -0.2706922 -0.14240615 0.022192467 -0.48894346 0.04180552
-0.26280218 -0.01621826 0.24116775 -0.03023579 -0.026101682 0.13874772 -0.19954327 0.059039783
0.21995214 -0.2369488 -0.1899385 -0.09804977 0.09024445 -0.076736785 -0.1453656 -0.14291078
-0.15890577 0.20000383 0.055410698 0.010727764 0.028696533 -0.2207208 0.020139268 -0.5111475
-0.16621934 -0.035906937 -0.06402611 0.13141218 -0.012454194 0.10135052 -0.3391447 -0.024720442
-0.2010865 0.29484802 0.4150281 -0.07938578 0.068229854 -0.1698588 0.032968674 0.04459808
-0.40220124 -0.30074584 -0.029633723 0.051791135 0.297855 -0.0818949 -0.1475875 -0.05414664
-0.26225194 -0.115814954 0.16161738 0.06377445 0.04096091 -0.19026358 -0.08601544 0.080014706

fc3.bias f4 [9]
00000000: d4ff 313e 28cf 4bbd e6c3 13be dc01 fc3d
00000010: 696c 58bd b72a a23d 50df fbbc e5d6 3fbe
00000020: 0a61 0fbe
0.17382747 -0.049758106 -0.14430198 0.12305042 -0.052837763 0.079183035 -0.030746132 -0.1873432
-0.14001861
